model_drawn_sunset_42.pth (torch, 154361 bytes, 83 tensors)

input_conv.conv.weight f4 [8, 2, 3, 3]
0.055175707 -0.23894787 -0.18474829 -0.082059085 0.10070204 0.04213316 -0.04833696 -0.047318466
0.080653675 -0.018280083 0.04981057 -0.08151722 -0.037698355 0.14032163 0.29136145 0.05591714
0.07902032 0.024592163 -0.12160197 0.18228628 0.15798493 0.12807892 0.009315156 0.14256407
-0.036423568 0.099119656 -0.038521774 0.15068042 0.017458526 0.19058897 0.13437417 -0.13821931
0.2880924 -0.11493823 0.1365803 -0.03484023 0.1453518 0.11078302 0.16988273 0.24942574
-0.09213817 0.14265704 0.0540629 0.04769572 0.061113738 -0.03365037 0.05489783 -0.011337295
0.110327 0.16867597 -0.008580738 0.22487172 -0.07416247 0.025530748 -0.09204175 0.02215242
0.039871965 -0.03583134 -0.0888075 -0.032304633 -0.08247484 0.09397243 -0.10262375 -0.041409288
-0.026281547 0.034232613 -0.07889361 -0.0730748 0.19180596 0.03083265 -0.121217065 -0.098572396
0.09170216 -0.028120935 -0.029496688 0.0926584 0.017606907 0.24855317 -0.07428899 0.0374719
-0.015210878 -0.11166116 -0.05470886 0.19289374 -0.08648706 -0.008694689 0.12365526 0.06399849
-0.035742555 0.1730926 -0.08217031 0.2236448 0.03613803 -0.05632591 0.043873798 0.018655466
0.009414175 -0.08589395 -0.119246885 0.16238466 0.08601691 -0.011968769 -0.106523834 0.23652059
0.14654885 0.13261524 0.03599999 0.12089567 -0.11740831 0.17808805 0.17513064 -0.08415151
-0.114051595 0.065995954 0.14647119 -0.03943543 0.21064298 -0.09134947 0.0077323127 0.28688848
0.04148168 0.022242585 -0.084577836 -0.0811859 0.019731108 -0.02115973 -0.038600035 0.01985395
-0.0053854315 -0.022165474 0.0053604594 0.23899037 -0.2731525 0.051387303 -0.069841295 0.16176955
-0.041830756 0.11409952 0.0484585 0.14359736 -0.047001548 -0.016290434 0.029949693 0.20289433
00000000: ecff 613d c0ae 74be a82e 3dbe 980e a8bd
00000010: df3c ce3d d293 2c3d fafc 45bd 02d1 41bd
00000020: c12d a53d 1dc0 95bc 2b06 4c3d 80f2 a6bd
00000030: 9769 1abd 79b0 0f3e 542d 953e 5f09 653d
00000040: 68d5 a13d 8175 c93c 740a f9bd 41a9 3a3e
00000050: cdc6 213e 1f27 033e 999e 183c 51fc 113e
00000060: e130 15bd 3fff ca3d 02c9 1dbd f84b 1a3e
00000070: 2f05 8f3c c129 433e 6299 093e 5d89 0dbe
00000080: d980 933e bc64 ebbd b5db 0b3e a1b4 0ebd
00000090: 1ad7 143e 35e2 e23d bdf5 2d3e 7669 7f3e
000000a0: f0b2 bcbd b014 123e 0f71 5d3d 965c 433d
000000b0: 6652 7a3d f8d4 09bd 8cdc 603d 10c0 39bc
000000c0: 1ff3 e13d 65b9 2c3e 3996 0cbc c644 663e
000000d0: 7ee2 97bd dc25 d13c 6380 bcbd fe78 b53c
000000e0: c950 233d e2c3 12bd b5e0 b5bd dd51 04bd
000000f0: 92e8 a8bd 9e74 c03d 672c d2bd c99c 29bd
00000100: 664c d7bc 7f37 0c3d f992 a1bd 3ea8 95bd
00000110: c868 443e c194 fc3c a740 f8bd 53e0 c9bd
00000120: 58ce bb3d e05d e6bc 0aa3 f1bc b0c3 bd3d
00000130: 5c3c 903c b984 7e3e d324 98bd 237c 193d
00000140: 0c37 79bc 9bae e4bd 6616 60bd f085 453e
00000150: 2120 b1bd 2b74 0ebc f83e fd3d a411 833d
00000160: c966 12bd 303f 313e e848 a8bd 2403 653e
00000170: 7905 143d ffb5 66bd 03b5 333d 59d3 983c
00000180: e93d 1a3c 2be9 afbd b637 f4bd 2a48 263e
00000190: a229 b03d a818 44bc 2b29 dabd 7432 723e
000001a0: e710 163e 4acc 073e ba74 133d 2698 f73d
000001b0: c573 f0bd b75c 363e 7255 333e a057 acbd
000001c0: e293 e9bd e328 873d 8bfc 153e 0c87 21bd
000001d0: cbb2 573e 6e15 bbbd 575f fd3b 0ce3 923e
000001e0: b2e8 293d 1536 b63c 2537 adbd cb44 a6bd
000001f0: 22a3 a13c 2c57 adbc 121b 1ebd c0a4 a23c
00000200: 4678 b0bb 5e94 b5bc cba6 af3b e4b9 743e
00000210: a5da 8bbe 7e7b 523d f408 8fbd eba6 253e
00000220: ba56 2bbd 02ad e93d 6c7c 463d 300b 133e
00000230: b284 40bd 8473 85bc 0f59 f53c 88c3 4f3e

input_conv.conv.bias f4 [8]
0.00078650855 -0.021206252 -0.0021576984 -0.0010957456 0.009820689 0.010115382 -0.01855945 0.020585248
00000000: b22d 4e3a bcb8 adbc 2c68 0dbb 1f9f 8fba
00000010: f5e6 203c fdba 253c fd09 98bc 65a2 a83c

input_conv.bn.weight f4 [8]
0.67812556 0.7556203 0.7056245 0.66693753 0.74957675 0.71137947 0.8075263 0.7297241
00000000: a399 2d3f 5570 413f cfa3 343f 6bbc 2a3f
00000010: 43e4 3f3f f71c 363f 0bba 4e3f 33cf 3a3f

input_conv.bn.bias f4 [8]
0.108937256 0.09032475 -0.0032760752 0.004440132 0.020644821 0.057683952 0.026869105 0.0075397706
00000000: 7f1a df3d 2ffc b83d 6cb3 56bb 877e 913b
00000010: 541f a93c 0246 6c3d 991c dc3c 2e10 f73b

input_conv.bn.running_mean f4 [8]
0.042294685 0.11006458 0.14048627 -0.06429862 0.047024973 0.06317756 0.020524552 0.05854938
00000000: 313d 2d3d 8a69 e13d a2db 0f3e ffae 83bd
00000010: 429d 403d 3d63 813d 1b23 a83c 7ad1 6f3d

input_conv.bn.running_var f4 [8]
0.01898852 0.043114476 0.051201988 0.018443728 0.025785513 0.023631422 0.027265305 0.03231822
00000000: d08d 9b3c ce98 303d 2db9 513d 4d17 973c
00000010: 243c d33c af96 c13c 7d5b df3c 1c60 043d

residual_tower.blocks.0.conv1.weight f4 [8, 8, 3, 3]
-0.068784356 0.047875624 -0.046975616 -0.0037793894 0.0264523 -0.09624709 0.026949514 -0.012170245
0.018490579 0.037438277 -0.04282728 0.053298593 -0.09161759 0.019605974 -0.020602709 -0.01958829
-0.0736664 -0.11021708 -0.09630457 -0.0054190108 -0.007817721 -0.06504233 -0.105798975 -0.030116007
-0.06679252 0.037493058 0.062450305 0.021569034 0.04833103 0.08531152 0.10714371 0.022695707
0.023084154 -0.051206574 -0.16181716 -0.090745255 -0.09231415 -0.038979065 -0.09916823 0.13071197
0.027384056 0.007921527 0.15151331 -0.057681993 -0.084496796 -0.101436354 -0.032620873 -0.03964423
0.10860284 0.005863088 -0.04293685 0.050445482 0.10189513 -0.056341756 -0.07247417 0.015354169
-0.017312044 0.07824455 0.10185417 0.0012937209 0.050475776 0.052352834 -0.019991582 0.012312102
0.06266864 0.0296738 0.14352348 -0.0055140303 -0.07278304 0.14995876 -0.0669678 -0.08145095
-0.101286426 0.16451903 -0.0035691147 0.06446002 -0.16572613 0.01568683 0.030435108 0.01735491
0.038267564 0.03609059 0.02663463 0.023151765 0.008795379 0.10754077 0.0012084615 0.05094915
0.025833564 -0.042494714 0.080854714 -0.07559578 0.030594412 -0.032086536 -0.020611718 0.0018143671
-0.08512104 0.05645315 0.0054773833 0.037795182 -0.02165763 0.018301686 -0.02348838 -0.018232053
0.044060197 -0.07446656 -0.023117112 0.03475169 0.12471195 -0.06178065 0.015390341 -0.08977381
0.05457252 0.115203 0.1113057 0.01924698 -0.010555462 0.0036581426 0.026388327 0.14553833
-0.06743227 0.11711281 -0.05289989 0.14913064 0.0048203478 -0.03940841 0.060100492 -0.10205575
-0.1037702 0.08825852 -0.04375808 0.014173929 0.01026786 0.092401534 0.038865212 0.10186968
-0.071478635 -0.012649973 -0.015242987 0.016752498 0.10358611 0.13863988 -0.05070843 -0.05197933
-0.019040568 0.005993166 -0.029834343 -0.022966705 0.015333729 0.15126982 -0.04904445 0.01644143
0.015932359 0.12751085 0.020679386 0.07907905 0.055300143 0.037710957 0.06377094 -0.009477241
-0.104130276 0.0025333154 0.04906571 0.12185751 0.030150954 0.091854155 0.081323184 0.11117771
0.048922084 -0.00309811 0.017449316 0.0054859123 -0.10957829 -0.089558125 0.057361986 -0.014041907
-0.05414379 0.042851415 1.3681671e-05 0.030320369 -0.03467251 -0.12945077 -0.1565344 -0.0021647674
0.05312528 0.10378301 -0.038421318 0.012179999 0.08831574 -0.10418292 0.031119209 0.07047295
0.11236935 0.009189924 -0.034742627 -0.003283596 0.014423827 -0.10943678 -0.06937657 -0.09602331
0.07654752 0.026544409 -0.031091845 -0.09202712 0.02678901 -0.09497226 0.048329357 -0.01173709
-0.117109716 -0.016225157 0.12770227 0.0020675468 0.11603386 0.0010929299 -0.08841823 0.062377315
0.022265622 0.047607638 -0.002382137 -0.10154575 -0.055393733 -0.035533752 0.010583678 -0.08375059
0.10130751 -0.005363066 0.06331301 -0.057476327 -0.00090759096 0.041269775 -0.06994467 0.13513674
-0.09054327 0.06431496 0.0106795505 0.12172572 -0.026406435 -0.059029683 0.057787888 -0.003051887
-0.041393276 0.08625699 0.03312696 -0.07109935 0.028643342 -0.06823303 -0.07234921 0.0020795972
0.012380418 0.04209487 0.051713455 0.034654252 -0.12500414 0.060399268 -0.16952085 -0.00077517866
00000000: d0de 8cbd 3b19 443d 8169 40bd a2af 77bb
00000010: 7eb2 d83c 321d c5bd 3ac5 dc3c b565 47bc
00000020: 8e79 973c e158 193d a86b 2fbd a04f 5a3d
00000030: 01a2 bbbd b59c a03c 03c7 a8bc 9f77 a0bc
00000040: 69de 96bd 7eb9 e1bd 553b c5bd f591 b1bb
00000050: e615 00bc ea34 85bd 22ad d8bd d8b5 f6bc
00000060: 84ca 88bd 5292 193d e4cb 7f3d 8bb1 b03c
00000070: c2f6 453d ceb7 ae3d 296e db3d 59ec b93c
00000080: fb1a bd3c fcbd 51bd 66b3 25be a6d8 b9bd
00000090: 330f bdbd 83a8 1fbd b718 cbbd 5cd9 053e
000000a0: 8754 e03c 4bc9 013c 4e26 1b3e f443 6cbd
000000b0: a80c adbd ddbd cfbd 779d 05bd fd61 22bd
000000c0: 2a6b de3d 261f c03b 8dde 2fbd ec9f 4e3d
000000d0: 65ae d03d 9dc6 66bd 566d 94bd 0d90 7b3c
000000e0: fdd1 8dbc ae3e a03d eb98 d03d 1292 a93a
000000f0: b0bf 4e3d ed6f 563d 63c5 a3bc b3b8 493c
00000100: 6a58 803d 7816 f33c d2f7 123e 0aaf b4bb
00000110: 460f 95bd ca8e 193e 6a26 89bd c1cf a6bd
00000120: 426f cfbd ad77 283e cfe7 69bb 9d03 843d
00000130: 1cb4 29be ab81 803c 0c53 f93c e22b 8e3c
00000140: 73be 1c3d bad3 133d de30 da3c c5a8 bd3c
00000150: 7e1a 103c 563e dc3d 3d65 9e3a 0eb0 503d
00000160: e9a0 d33c f00e 2ebd 2897 a53d f6d1 9abd
00000170: 22a1 fa3c 2c6d 03bd e8d9 a8bc 0fd0 ed3a
00000180: f153 aebd 6b3b 673d 9f7b b33b 1fcf 1a3d
00000190: 586b b1bc 6bed 953c b46a c0bc 635b 95bc
000001a0: 7778 343d ec81 98bd 1960 bdbc ca57 0e3d
000001b0: fb68 ff3d b50d 7dbd c527 7c3c 55db b7bd
000001c0: 6f87 5f3d 8def eb3d 3ef4 e33d d8ab 9d3c
000001d0: d1f0 2cbc 73bd 6f3b 552c d83c 0008 153e
000001e0: ee19 8abd d7d8 ef3d 8ead 58bd b4b5 183e
000001f0: 02f4 9d3b b76a 21bd ef2b 763d 9b02 d1bd
00000200: 7885 d4bd e2c0 b43d ac3b 33bd c439 683c
00000210: 873a 283c 043d bd3d 2131 1f3d 0da1 d03d
00000220: 6463 92bd d541 4fbc b9bd 79bc 893c 893c
00000230: f424 d43d 9df7 0d3e a5b3 4fbd 47e8 54bd
00000240: f7fa 9bbc 5262 c43b 2767 f4bc ac24 bcbc
00000250: 523a 7b3c 7ae6 1a3e d5e2 48bd 2eb0 863c
00000260: 9484 823c 3492 023e d167 a93c 32f4 a13d
00000270: 6782 623d ce76 1a3d 579a 823d 6e46 1bbc
00000280: 4142 d5bd fb05 263b 20f9 483d 6e90 f93d
00000290: 22ff f63c 081e bc3d c58c a63d 24b1 e33d
000002a0: 8662 483d a909 4bbb def1 8e3c 2bc3 b33b
000002b0: 956a e0bd 406a b7bd 67f4 6a3d 0710 66bc
000002c0: e1c5 5dbd f784 2f3d 548a 6537 6c62 f83c
000002d0: c304 0ebd be8e 04be 8e4a 20be c5de 0dbb
000002e0: e599 593d 308c d43d ac5f 1dbd 9e8e 473c
000002f0: e2de b43d db5d d5bd b6ed fe3c 1f54 903d
00000300: e721 e63d 5691 163c 494e 0ebd 9931 57bb
00000310: ea51 6c3c 6420 e0bd 4e15 8ebd dfa7 c4bd
00000320: f2c4 9c3d a973 d93c 53b4 febc b778 bcbd
00000330: a074 db3c d180 c2bd 01f5 453d ec4c 40bc
00000340: 38d7 efbd 9fea 84bc 62c4 023e ae7f 073b
00000350: 29a3 ed3d a440 8f3a 9e14 b5bd 5b7f 7f3d
00000360: 6566 b63c 3a00 433d a11d 1cbb 38f7 cfbd
00000370: 8ae4 62bd d78b 11bd 2a67 2d3c 6e85 abbd
00000380: 507a cf3d a9bc afbb 40aa 813d 4c6c 6bbd
00000390: 66eb 6dba 7f0a 293d 273f 8fbd 4961 0a3e
000003a0: c06e b9bd 90b7 833d 48f9 2e3c 564b f93d
000003b0: 4f52 d8bc 1cc9 71bd feb2 6c3d 2b02 48bb
000003c0: ff8b 29bd 81a7 b03d 23b0 073d 899c 91bd
000003d0: 71a5 ea3c c2bd 8bbd d32b 94bd da49 083b
000003e0: 3dd7 4a3c ac6b 2c3d 7dd1 533d 9ef1 0d3d
000003f0: 1601 00be 3965 773d e096 2dbe 5c35 4bba

residual_tower.blocks.0.conv1.bias f4 [8]
0.010142409 0.00040468216 0.0068995245 -0.00022314643 0.0024434733 0.0033053712 0.0005724467 0.003929227
00000000: 592c 263c 852b d439 6815 e23b 6afc 69b9
00000010: ae22 203b ed9e 583b 3f10 163a bfc0 803b

residual_tower.blocks.0.bn1.weight f4 [8]
0.7119958 0.66554713 0.75879645 0.6749684 0.6836521 0.6615687 0.618554 0.7081295
00000000: 5b45 363f 4c61 2a3f 7c40 423f bbca 2c3f
00000010: d303 2f3f 915c 293f 8e59 1e3f fa47 353f

residual_tower.blocks.0.bn1.bias f4 [8]
0.046077766 -0.023922615 -0.031038146 0.069233924 -0.04576865 -0.019340161 -0.01999782 -0.0018841653
00000000: 0abc 3c3d 5cf9 c3bc b643 febc 84ca 8d3d
00000010: e877 3bbd 426f 9ebc 78d2 a3bc 19f6 f6ba

residual_tower.blocks.0.bn1.running_mean f4 [8]
-0.066639096 0.21278386 0.1632348 -0.0755419 -0.03745845 0.20472342 0.2410363 -0.39345917
00000000: 147a 88bd 03e4 593e 0627 273e b6b5 9abd
00000010: 086e 19bd 04a3 513e 38d2 763e 7b73 c9be

residual_tower.blocks.0.bn1.running_var f4 [8]
0.11388671 0.24389109 0.16523497 0.11974639 0.08846429 0.1726136 0.19671312 0.31971923
00000000: 6f3d e93d 96be 793e 5b33 293e 983d f53d
00000010: c42c b53d 9fc1 303e 2a6f 493e 3db2 a33e

residual_tower.blocks.0.conv2.weight f4 [8, 8, 3, 3]
0.07241449 0.050955966 0.009913181 -0.0338014 -0.09091089 0.14385833 -0.05889882 -0.028839277
0.0072392905 0.066530466 0.019459173 0.0041881544 -0.02067741 -0.07166465 -0.040832687 0.018887702
-0.07595351 0.0602324 -0.004386514 -0.026713407 -0.06572738 -0.07738918 -0.0026470846 -0.08661614
-0.060190044 -0.047002327 -0.021001631 -0.1490739 -0.050923217 -0.05939734 -0.13695371 0.05731678
-0.007851955 -0.085737355 0.033024527 -0.07641632 0.037828043 -0.13221633 -0.033735327 0.17526907
0.09671622 0.027260074 -0.10902341 -0.0028152508 0.037234887 0.047114164 0.031272825 -0.04178015
0.021067921 0.0673202 -0.04652158 0.10139917 -0.06871961 -0.041405164 -0.025288684 0.019026592
-0.05663514 0.046330463 -0.018803295 -0.053979117 0.05064867 -0.0066611874 -0.06506787 0.046533767
-0.007084495 -0.06835687 -0.008618066 -0.14146388 0.024117446 -0.059933297 -0.06573276 -0.03980403
0.052499626 -0.12297377 0.15085772 0.06723822 -0.07598764 -0.085338004 0.037967633 -0.0869172
0.00021113595 -0.013774853 0.09030834 0.045339897 -0.019494526 0.056526486 0.08357832 0.111956865
-0.015112484 -0.032290585 -0.05109312 -0.085782915 -0.024557246 0.01701851 0.029129252 0.14115119
-0.029903788 0.11643991 0.00047785963 -0.042013686 0.1427625 0.0063907304 -0.056040853 0.031379037
-0.13312808 -0.09674323 0.08137755 0.063784644 0.0488957 0.0032089297 0.111355 0.12806742
-0.013977778 0.12771001 0.06320198 -0.020016868 -0.0045317183 -0.035995502 0.13250579 0.02326411
0.03176267 0.03241955 -0.065111205 0.006764575 -0.098222464 0.06976917 -0.040156726 0.04917333
-0.074457966 -0.05123632 0.14514853 0.02999673 -0.11385427 0.045158565 0.09227819 -0.030161517
0.0011340356 -0.11088648 -0.1281477 -0.0744836 -0.08102368 -0.05631713 -0.085149094 -0.09012224
0.13934079 -0.052847493 -0.10294153 -0.07694824 0.060636662 0.036192708 0.20035723 -0.0071938504
-0.036818422 0.0067339824 0.08623735 -0.07850761 -0.052193806 0.08021352 0.0777076 0.07007359
-0.017380174 0.077414416 0.13419569 0.051111717 0.06087438 0.013980172 -0.03418691 0.08511424
-0.031190213 0.054827977 0.0018362035 -0.020173753 0.026242452 -0.0101676155 0.0054518287 0.090168595
-0.1520596 -0.01938615 0.07645047 0.009504697 -0.022997454 0.009394383 -0.018284438 0.02610843
0.0043138885 -0.02118343 -0.05119697 0.040148377 -0.07102863 0.11963322 0.03544485 0.024289282
0.0051947725 -0.04451859 0.01995391 -0.06700922 -0.02418724 0.13527559 0.0018797358 -0.10522609
-0.053568706 0.048807546 0.038568955 -0.029165568 0.067416996 0.04366797 -0.11893125 0.008765707
-0.07595124 -0.018177878 -0.0119197145 0.032378875 -0.047219705 0.08291642 -0.030080864 -0.058885537
0.043134242 0.06974975 0.037529893 0.048135478 0.10206574 -0.042710412 -0.07908094 0.005272443
-0.0028568448 0.014221855 0.05200729 0.048404034 0.0671396 -0.015114325 -0.11613266 -0.0897949
-0.08963748 -0.01634708 0.10515945 -0.050394293 -0.12532528 0.052030303 -0.07469499 -0.044179067
0.006204684 0.05280462 0.0077602156 -0.023418788 -0.032371845 0.13252038 0.08959373 -0.10139293
0.04664624 -0.059787653 -0.050776783 -0.015593541 0.021131946 -0.07630549 0.006032085 0.015158041
00000000: 0c4e 943d 34b7 503d e56a 223c 5673 0abd
00000010: 7d2f babd 994f 133e e43f 71bd 5940 ecbc
00000020: 9237 ed3b 2041 883d d868 9f3c c93c 893b
00000030: ac63 a9bc ebc4 92bd 2d40 27bd 62ba 9a3c
00000040: 848d 9bbd 40b6 763d bfbc 8fbb 13d6 dabc
00000050: 149c 86bd 387e 9ebd b67a 2dbb ce63 b1bd
00000060: d689 76bd 8385 40bd 9d0b acbc d4a6 18be
00000070: dd94 50bd a04a 73bd 983d 0cbe 00c5 6a3d
00000080: 7ca5 00bc 1197 afbd ba44 073d 2980 9cbd
00000090: 94f1 1a3d b863 07be 0e2e 0abd bc79 333e
000000a0: 2713 c63d 8550 df3c aa47 dfbd 1280 38bb
000000b0: 9c83 183d c8fa 403d ef17 003d aa21 2bbd
000000c0: a296 ac3c 2cdf 893d 6a8d 3ebd 5eaa cf3d
000000d0: debc 8cbd 7698 29bd 372a cfbc a8dd 9b3c
000000e0: 40fa 67bd 03c5 3d3d 5e09 9abc 3519 5dbd
000000f0: fb74 4f3d 1746 dabb 4e42 85bd 319a 3e3d
00000100: 0d25 e8bb b0fe 8bbd ca32 0dbc e8db 10be
00000110: f391 c53c 9e7c 75bd e69e 86bd 8d09 23bd
00000120: d909 573d acd9 fbbd 727a 1a3e 31b4 893d
00000130: 689f 9bbd b1c5 aebd f383 1b3d a501 b2bd
00000140: 6064 5d39 ecaf 61bc 94f3 b83d 54b6 393d
00000150: fcb2 9fbc 5188 673d 1c2b ab3d a449 e53d
00000160: 5a9a 77bc 2243 04bd 0547 51bd f4ae afbd
00000170: 472c c9bc 676a 8b3c 78a0 ee3c f089 103e
00000180: caf8 f4bc 0c78 ee3d 3c89 fa39 8b16 2cbd
00000190: 5530 123e 5569 d13b 188b 65bd 4e87 003d
000001a0: ba52 08be 5121 c6bd 46a9 a63d 86a1 823d
000001b0: dc46 483d e84c 523b 170e e43d 1b24 033e
000001c0: 0d03 65bc 6ac6 023e 0a70 813d 6afa a3bc
000001d0: cf7e 94bb 0570 13bd 99af 073e 6094 be3c
000001e0: 9319 023d 5dca 043d 0659 85bd 5ea9 dd3b
000001f0: dc28 c9bd 23e3 8e3d 617b 24bd f969 493d
00000200: 6b7d 98bd 2ddd 51bd d1a1 143e b4bb f53c
00000210: 6d2c e9bd 30f8 383d 59fc bc3d 4915 f7bc
00000220: eca3 943a 7318 e3bd 2739 03be dc8a 98bd
00000230: beef a5bd caac 66bd a662 aebd 0292 b8bd
00000240: 5aaf 0e3e 9d76 58bd 02d3 d2bd 0a97 9dbd
00000250: 265e 783d ce3e 143d 722a 4d3e 64ba ebbb
00000260: eace 16bd bda8 dc3b 359d b03d 99c8 a0bd
00000270: 2cc9 55bd fc46 a43d 2a25 9f3d be82 8f3d
00000280: de60 8ebc 738b 9e3d 986a 093e 855a 513d
00000290: 6a57 793d 170d 653c 9307 0cbd 6050 ae3d
000002a0: 9e82 ffbc 4d93 603d c4ac f03a 6d43 a5bc
000002b0: 69fa d63c 1296 26bc 41a5 b23b 50aa b83d
000002c0: 83b5 1bbe b4cf 9ebc 1092 9c3d 97b9 1b3c
000002d0: 2865 bcbc e6ea 193c 3fc9 95bc 59e1 d53c
000002e0: 855b 8d3b df88 adbc eab3 51bd a072 243d
000002f0: 7577 91bd 4302 f53d 9e2e 113d 51fa c63c
00000300: e938 aa3b 2059 36bd 6276 a33c 213c 89bd
00000310: 5224 c6bc af85 0a3e 7861 f63a c780 d7bd
00000320: dc6a 5bbd 6cea 473d 7bfa 1d3d a1ec eebc
00000330: ec11 8a3d 2fdd 323d 3a92 f3bd 0a9e 0f3c
00000340: 538c 9bbd c6e9 94bc e84a 43bc b69f 043d
00000350: 7369 41bd 16d0 a93d 256c f6bc f631 71bd
00000360: 88ad 303d f5d8 8e3d f2b8 193d b529 453d
00000370: d807 d13d 1df1 2ebd 30f5 a1bd 75c4 ac3b
00000380: e739 3bbb c902 693c 9905 553d 4f43 463d
00000390: 7d80 893d 13a2 77bc f6d6 edbd 63e6 b7bd
000003a0: db93 b7bd 50ea 85bc d65d d73d 3f6a 4ebd
000003b0: 4555 00be ba1d 553d b0f9 98bd 1cf5 34bd
000003c0: a950 cb3b a849 583d 6849 fe3b c2d8 bfbc
000003d0: 5798 04bd 6cb3 073e eb7c b73d 19a7 cfbd
000003e0: 2110 3f3d e6e3 74bd 51fb 4fbd 0d7c 7fbc
000003f0: e71c ad3c 0e46 9cbd cca8 c53b 6f59 783c

residual_tower.blocks.0.conv2.bias f4 [8]
0.0036826602 0.006629967 0.008971159 -0.0020297884 -0.009738794 0.009164252 -0.0005037345 -0.0031514848
00000000: c958 713b 3240 d93b c5fb 123c 3306 05bb
00000010: 768f 1fbc a925 163c 0d0d 04ba 2489 4ebb

residual_tower.blocks.0.bn2.weight f4 [8]
0.70682234 0.6540911 0.63384676 0.7114099 0.67045534 0.6453314 0.70795166 0.6364937
00000000: 4ff2 343f 8472 273f c843 223f f61e 363f
00000010: f6a2 2b3f 7034 253f 523c 353f 40f1 223f

residual_tower.blocks.0.bn2.bias f4 [8]
0.08403386 0.02620955 0.05479503 -0.012434856 -0.07304829 -0.004804412 0.04529314 -0.0069515705
00000000: f219 ac3d 69b5 d63c c170 603d 91bb 4bbc
00000010: 589a 95bd 546e 9dbb 4d85 393d 00ca e3bb

residual_tower.blocks.0.bn2.running_mean f4 [8]
-0.26238376 0.021377552 0.13728103 0.07684098 0.064777635 -0.016800154 0.08667764 -0.11685426
00000000: 2a57 86be fa1f af3c 6693 0c3e ce5e 9d3d
00000010: 23aa 843d 7aa0 89bc 0c84 b13d 4951 efbd

residual_tower.blocks.0.bn2.running_var f4 [8]
0.10896944 0.19921541 0.10246565 0.088381425 0.15825514 0.12534472 0.116233125 0.12641983
00000000: 5f2b df3d 20ff 4b3e 83d9 d13d 5201 b53d
00000010: a30d 223e 5e5a 003e a20b ee3d 3374 013e

residual_tower.blocks.1.conv1.weight f4 [8, 8, 3, 3]
-0.0067082336 0.091234915 -0.03181805 0.025498172 -0.05274403 -0.04541555 -0.007829423 -0.09006401
0.110960916 -0.029382426 -0.018507427 -0.0047528334 -0.04960183 0.045037642 0.0021947941 0.05204358
0.06329393 0.0056549706 0.029524181 -0.04648933 0.07661975 0.0048624566 -0.025259502 0.05530444
0.1255879 0.008120901 0.037935376 0.06322855 -0.013491447 -0.14103225 -0.10226187 0.016476313
-0.10458577 0.03315599 -0.027860383 -0.12515979 0.10650754 -0.037068 -0.18768291 0.046930697
0.091127716 0.0066186953 -0.02990134 0.118929856 -0.0158154 0.048479803 0.017726127 0.0050207353
-0.04970317 -0.004168568 0.00689499 -0.02954659 -0.0061140973 0.025718696 0.005523988 -0.07611427
-0.086352505 0.040206954 0.07627688 0.07351435 0.06761349 -0.088047266 -0.07602308 -0.03627106
-0.044577733 -0.04643614 -0.09604053 -0.0030413459 0.07793961 -0.007912391 0.03436821 -0.019535732
0.03352779 -0.05063442 -0.083763316 -0.089750156 0.05604635 0.0057286434 0.08751709 -0.064007156
0.019525053 -0.06028635 -0.028022999 -0.024954706 -0.03862227 -0.08972154 -0.029496448 -0.10143818
0.02286088 -0.03157747 -0.0040338864 0.0316026 -0.010696944 -0.09796176 -0.033316746 0.043459237
-0.084515445 0.0127655035 -0.015353111 -0.0035451415 0.020385642 0.05600191 0.055059023 -0.04750552
-0.058466703 -0.010416345 0.01986513 0.08745821 -0.053507846 0.027234903 -0.0661978 -0.010758204
-0.05620969 -0.018343031 -0.025444996 0.12095631 -0.021922924 -0.078212105 -0.03044601 -0.116525784
-0.045684252 0.021100452 0.011901491 -0.030841464 -0.020597486 -0.045357108 -0.061951213 -0.069108084
-0.060484394 -0.07022659 0.035663437 -0.005943896 -0.002284035 0.06128804 0.08392097 -0.014839038
-0.048703004 -0.077572174 -0.038395006 -0.055209946 -0.0061607463 0.0131964795 -0.002074642 0.07159384
0.0010257754 -0.0027448847 -0.032646414 0.07613424 0.07293964 0.118258506 0.017870486 -0.025772184
-0.044782516 -0.009445332 -0.099645294 0.034952164 -0.011685844 -0.019787913 0.12403448 0.09063974
0.042723633 0.08147106 0.07161356 -0.0764881 0.054492977 0.06754171 0.02167668 0.02189356
0.046018317 0.049918048 0.025808938 0.018430062 0.050687443 0.069540784 -0.03622796 0.073527604
0.028036386 -0.028808393 0.04670577 -0.029982505 0.113879845 0.011362643 -0.038616795 0.07452085
-0.008198531 -0.11519783 0.088991575 0.014727671 -0.05813814 0.094231814 0.05109073 -0.021921946
0.040659677 0.15008149 0.05396964 0.030815158 0.0936471 0.092377864 0.019391306 -0.052086532
0.005401332 0.06564738 -0.020453885 0.066194475 -0.028122649 -0.026645506 0.0237772 0.03241775
0.032423563 0.051996697 0.014302214 -0.016752407 0.06389791 0.08889391 0.028021647 -0.0013637233
-0.00953757 -0.032430124 0.051669087 -0.017498408 0.09664563 0.029304534 0.039074093 0.025471937
0.008506273 -0.0468119 0.00807111 -0.10848153 -0.026158974 0.09816738 -0.04021989 -0.06679084
0.008888929 0.084989004 -0.0019948622 -0.112203605 -0.01451841 -0.1580143 0.058835596 -0.055619307
-0.026665913 0.0005006146 -0.0927213 -0.0832248 -0.055426102 0.0458841 0.12473832 0.03643152
0.050391987 0.091853596 -0.023940532 -0.02675787 0.0538962 -0.027252171 -0.07997618 -0.034282345
00000000: bed0 dbbb 5fd9 ba3d a553 02bd 8be1 d03c
00000010: 200a 58bd a805 3abd fb46 00bc 7b73 b8bd
00000020: 7a3f e33d 6ab3 f0bc e39c 97bc a8bd 9bbb
00000030: 4a2b 4bbd 6479 383d 89d6 0f3b a62b 553d
00000040: 3fa0 813d 554d b93b b2dc f13c 986b 3ebd
00000050: d1ea 9c3d 3e55 9f3b 04ed cebc e986 623d
00000060: 1d9a 003e 870d 053c 2062 1b3d f87d 813d
00000070: 3b0b 5dbc c26a 10be ac6e d1bd 55f9 863c
00000080: 1031 d6bd 93ce 073d 753b e4bc e329 00be
00000090: a020 da3d 9dd4 17bd f32f 40be 673a 403d
000000a0: 2ba1 ba3d a4e1 d83b a8f3 f4bc 7f91 f33d
000000b0: 4c8f 81bc c292 463d 6236 913c fb84 a43b
000000c0: 8d95 4bbd 7c98 88bb 5eef e13b b10b f2bc
000000d0: c458 c8bb 04b0 d23c 9202 b53b cce1 9bbd
000000e0: 95d9 b0bd 0cb0 243d 0e37 9c3d b18e 963d
000000f0: f178 8a3d 2052 b4bd fdb1 9bbd f790 14bd
00000100: 2497 36bd d233 3ebd e6b0 c4bd 5151 47bb
00000110: cd9e 9f3d f9a2 01bc aec5 0c3d 6609 a0bc
00000120: 7054 093d 0a66 4fbd 1a8c abbd eece b7bd
00000130: dc90 653d 58b7 bb3b 293c b33d 2f16 83bd
00000140: 01f3 9f3c d2ee 76bd 7d90 e5bc d06d ccbc
00000150: 6332 1ebd edbf b7bd 89a2 f1bc d2be cfbd
00000160: bd46 bb3c 6157 01bd b12e 84bb ba71 013d
00000170: 3c42 2fbc 2da0 c8bd 2477 08bd 5002 323d
00000180: 6f16 adbd 6726 513c 9d8b 7bbc 9b55 68bb
00000190: caff a63c 4262 653d 9285 613d 2695 42bd
000001a0: c87a 6fbd 51a9 2abc 32bc a23c 4a1d b33d
000001b0: 0b2b 5bbd bb1b df3c b692 87bd 2e43 30bc
000001c0: 223c 66bd 2044 96bc 0672 d0bc f1b7 f73d
000001d0: b497 b3bc ab2d a0bd e969 f9bc 12a5 eebd
000001e0: 691f 3bbd dbda ac3c 79fe 423c 3da7 fcbc
000001f0: 0fbc a8bc 60c8 39bd 8ec0 7dbd 8a88 8dbd
00000200: 7cbe 77bd f5d2 8fbd d313 123d 03c5 c2bb
00000210: c0af 15bb 2b09 7b3d c2de ab3d 701f 73bc
00000220: cd7c 47bd 29de 9ebd 1544 1dbd d323 62bd
00000230: 16e0 c9bb 0c36 583c b8f6 07bb cb9f 923d
00000240: 5073 863a 86e3 33bb 3fb8 05bd 45ec 9b3d
00000250: 6161 953d 8431 f23d 2065 923c 3020 d3bc
00000260: df6d 37bd 98c0 1abc d512 ccbd 002a 0f3d
00000270: fb75 3fbc 431a a2bc ca05 fe3d 54a1 b93d
00000280: fafe 2e3d 4dda a63d 21aa 923d cba5 9cbd
00000290: 0734 5f3d 4f53 8a3d 4b93 b13c 205a b33c
000002a0: b47d 3c3d de76 4c3d 446d d33c a4fa 963c
000002b0: a39d 4f3d 666b 8e3d c563 14bd a495 963d
000002c0: 90ac e53c 94ff ebbc 8d4e 3f3d df9d f5bc
000002d0: d639 e93d 612a 3a3c a52c 1ebd 639e 983d
000002e0: 2253 06bc d7ec ebbd 3741 b63d 544c 713c
000002f0: 4222 6ebd 9cfc c03d 8344 513d a795 b3bc
00000300: c38a 263d f6ae 193e 450f 5d3d 1270 fc3c
00000310: 0dca bf3d 9b30 bd3d 84da 9e3c b058 55bd
00000320: a8fd b03b 2272 863d e88e a7bc f890 873d
00000330: 7861 e6bc ad47 dabc 67c8 c23c 7ac8 043d
00000340: 92ce 043d 7dfa 543d d553 6a3c 583c 89bc
00000350: e8dc 823d 030e b63d a78d e53c f6be b2ba
00000360: 7843 1cbc 73d5 04bd f7a2 533d d258 8fbc
00000370: 25ee c53d 1010 f03c 280c 203d 86aa d03c
00000380: e55d 0b3c d6bd 3fbd b03c 043c 902b debd
00000390: 584b d6bc fb0b c93d 9dbd 24bd a3c9 88bd
000003a0: dfa2 113c b70e ae3d 3cbc 02bb 01cb e5bd
000003b0: a0de 6dbc 80ce 21be 98fd 703d 12d1 63bd
000003c0: 7972 dabc ad3b 033a aae4 bdbd c471 aabd
000003d0: 7b06 63bd f7f0 3b3d ce76 ff3d 3839 153d
000003e0: d467 4e3d bd1d bc3d ef1e c4bc 5233 dbbc
000003f0: 43c2 5c3d f23f dfbc 8dca a3bd a56b 0cbd

residual_tower.blocks.1.conv1.bias f4 [8]
0.004793366 0.010129496 -0.009374134 -0.0006606475 0.005213084 0.005017897 0.00026465513 -0.003063024
00000000: ab11 9d3b 30f6 253c f895 19bc 4e2f 2dba
00000010: 85d2 aa3b 2c6d a43b 69c1 8a39 04bd 48bb

residual_tower.blocks.1.bn1.weight f4 [8]
0.6646657 0.6424057 0.6652823 0.64814156 0.69801575 0.67904484 0.6536879 0.6321785
00000000: 8827 2a3f b374 243f f14f 2a3f 9bec 253f
00000010: 29b1 323f e2d5 2d3f 1758 273f 73d6 213f

residual_tower.blocks.1.bn1.bias f4 [8]
0.013789965 -0.032968458 -0.012648499 0.0049693063 0.08594575 0.053996723 -0.060572322 -0.065582894
00000000: 4eef 613c ef09 07bd a63b 4fbc 90d5 a23b
00000010: 5304 b03d ab2b 5d3d af1a 78bd 5350 86bd

residual_tower.blocks.1.bn1.running_mean f4 [8]
0.08683833 -0.6089001 0.7135412 -0.04928942 0.44740042 0.40733588 -0.811932 -0.06293223
00000000: 4bd8 b13d e1e0 1bbf a3aa 363f b4e3 49bd
00000010: ab11 e53e 548e d03e c7da 4fbf 9de2 80bd

residual_tower.blocks.1.bn1.running_var f4 [8]
0.25520572 0.7746566 0.6771464 0.273158 0.43788373 0.44824496 0.71122164 0.24758855
00000000: 53aa 823e e54f 463f 7759 2d3f 5edb 8b3e
00000010: 4c32 e03e 5d80 e53e 9f12 363f da87 7d3e

residual_tower.blocks.1.conv2.weight f4 [8, 8, 3, 3]
-0.052514967 0.06869277 -0.034505367 0.05871021 -0.047752257 -0.0653666 0.04216586 0.065340154
0.016083358 0.0052992646 0.022465743 -0.026683848 0.07737938 -0.0152879255 -0.026833704 -0.017776327
0.0114692915 -0.027332013 0.06735867 0.10338244 -0.010491271 0.026026476 0.14826262 0.08762375
0.04176835 -0.012337047 -0.022074452 0.00776167 -0.013674906 0.0008114521 0.03568263 0.055116545
-0.021448508 0.07960296 0.1622869 -0.069546916 -0.049072392 -0.079327054 -0.0023835895 -0.046027016
0.13638982 0.034576662 6.1898725e-05 -0.002973421 -0.113005415 0.050262727 -0.10062162 0.020409908
0.0706739 -0.054061994 0.083159 -0.07792777 0.0671391 -0.05036524 -0.022564286 -0.04339771
0.041574318 -0.0067293043 -0.034660626 0.00051821134 -0.051427037 -0.06962131 -0.0106979385 0.05292016
-0.08234161 -0.050376393 -0.029327327 0.12238576 -0.019490458 0.04344099 0.09011064 0.05182806
0.045401827 0.053835843 0.052354142 0.05037719 0.07958253 -0.108162306 -0.047596764 0.09641656
-0.05025738 0.059448283 -0.015191633 -0.055937096 -0.05837657 -0.07296228 -0.05969248 0.048188046
-0.015741386 -0.042346902 -0.0044429284 0.03415548 0.10450315 -0.0048571737 -0.10144089 0.013042086
0.03569957 -0.09352723 -0.07787925 0.010001748 -0.0018500759 -0.09304123 0.020050773 0.031341467
-0.0981771 -0.023846054 -0.10772261 0.017000321 -0.05996145 0.0712815 -0.10167837 0.01217467
0.017771175 -0.12702665 0.00582029 0.048855893 -0.005841593 -0.0013281729 -0.0030728423 -0.004150162
-0.045400262 0.055695936 0.077509046 -0.018946158 0.0189992 -0.0051413965 -0.0317828 -0.02332046
-0.08269995 -0.009759742 -0.091581665 -0.04948633 -0.03735524 -0.09672726 -0.009011117 -0.11607003
-0.037599552 0.002865384 -0.077755734 0.012595813 -0.0020106256 0.03947979 0.02788456 -0.0723533
-0.047247075 0.028667726 -0.038052134 -0.0049894187 0.050009813 0.08325619 0.06254742 -0.07327519
-0.05505591 -0.05532679 0.12216371 0.028654894 0.06310915 -0.11643944 -0.08499859 -0.03227232
-0.027706495 0.025549028 -0.036361735 -0.00084141584 -0.00932054 0.0020796773 -0.031419095 -0.0629058
0.06466367 0.043226633 -0.0014802251 0.004792084 0.0401419 -0.13010487 0.08047312 0.030846557
0.004909253 0.04870075 0.031468242 0.0703306 -0.08879025 0.115887605 0.026753219 0.019818284
-0.07422082 -0.054237157 -0.17544298 0.01210187 0.13379933 -0.04010891 -0.00821222 0.026212653
-0.04522281 0.023870492 -0.017555034 -0.112090416 0.003994485 0.08408445 0.059314217 -0.011413073
0.0078591015 -0.027862718 0.015844889 0.015422105 0.041005336 0.010172397 0.00786521 -0.07025749
0.033823762 0.025167499 0.00046084117 -0.056376807 0.07352485 0.10707311 -0.075531036 0.057746273
0.008705523 0.022386301 -0.036477923 -0.016053036 0.026972722 -0.06662467 0.036481824 -0.06542897
-0.055010125 0.0113211125 0.033668384 -0.087252416 0.11666122 -0.017815415 0.06020087 0.058046557
-0.021180982 0.020622566 0.051454987 0.0077572786 -0.043755632 -0.025902685 0.07878531 -0.051249843
-0.06421683 -0.045390736 -0.027317112 0.036144245 -0.02644023 0.07098637 0.049710948 -0.10224832
-0.07602953 -0.006356896 0.011927299 -0.087080225 -0.092145026 -0.049191393 -0.044997793 0.079246126
00000000: ef19 57bd ccae 8c3d 8055 0dbd 1e7a 703d
00000010: df97 43bd edde 85bd 1cb6 2c3d 0fd1 853d
00000020: 3fc1 833c 74a5 ad3b 140a b83c 1698 dabc
00000030: 1579 9e3d 357a 7abc 5bd2 dbbc a99f 91bc
00000040: b2e9 3b3c 63e7 dfbc 58f3 893d 2cba d33d
00000050: 94e3 2bbc 7a35 d53c 28d2 173e 1574 b33d
00000060: 4a15 2b3d 5321 4abc 7bd5 b4bc 9b55 fe3b
00000070: b70c 60bc a1b7 543a f327 123d e3c1 613d
00000080: c8b4 afbc e006 a33d 8a2e 263e 9d6e 8ebd
00000090: 2200 49bd 3976 a2bd ff35 1cbb d386 3cbd
000000a0: c6a9 0b3e 42a0 0d3d a0cf 8138 badd 42bb
000000b0: 626f e7bd 4ae0 4d3d b512 cebd ae32 a73c
000000c0: 7abd 903d 1c70 5dbd 444f aa3d 9898 9fbd
000000d0: 3980 893d c84b 4ebd bdd8 b8bc ccc1 31bd
000000e0: d549 2a3d 7f81 dcbb 4df8 0dbd 93d8 073a
000000f0: 28a5 52bd 9e95 8ebd 6846 2fbc cfc2 583d
00000100: b8a2 a8bd 7a57 4ebd dd3f f0bc 63a5 fa3d
00000110: 74aa 9fbc 2eef 313d ed8b b83d a949 543d
00000120: 44f7 393d f982 5c3d 4c71 563d 5058 4e3d
00000130: 2afc a23d 3384 ddbd d3f4 42bd 0c76 c53d
00000140: afda 4dbd 0b80 733d 54e6 78bc 4c1e 65bd
00000150: 451c 6fbd 3f6d 95bd 1a80 74bd d460 453d
00000160: 14f4 80bc f273 2dbd fc95 91bb 9ee6 0b3d
00000170: bf05 d63d ed28 9fbb 3ec0 cfbd 79ae 553c
00000180: b639 123d 348b bfbd 287f 9fbd 5fde 233c
00000190: 3f7e f2ba 678c bebd 8541 a43c e95f 003d
000001a0: 1311 c9bd cd58 c3bc ac9d dcbd 4244 8b3c
000001b0: 239a 75bd 09fc 913d c03c d0bd 4478 473c
000001c0: db94 913c 4613 02be 22b8 be3b 1e1d 483d
000001d0: d56a bfbb 1616 aeba bd61 49bb 15fe 87bb
000001e0: a0f5 39bd 6c21 643d 10bd 9e3d f934 9bbc
000001f0: 36a4 9b3c 2979 a8bb ae2e 02bd 8d0a bfbc
00000200: 975e a9bd 53e7 1fbc 2b8f bbbd 2eb2 4abd
00000210: cf01 19bd f118 c6bd 5da3 13bc 20b6 edbd
00000220: fd01 1abd 2bc9 3b3b 663e 9fbd ab5e 4e3c
00000230: b3c4 03bb 8fb5 213d 296e e43c f82d 94bd
00000240: 2686 41bd 94d8 ea3c 8edc 1bbd 477e a3bb
00000250: 17d7 4c3d 3982 aa3d dd18 803d 4e11 96bd
00000260: 4e82 61bd 589e 62bd f830 fa3d abbd ea3c
00000270: 5f3f 813d cd77 eebd be13 aebd fb2f 04bd
00000280: bbf8 e2bc 324c d13c 0bf0 14bd 7692 5cba
00000290: 2eb5 18bc 324b 083b 4fb1 00bd c2d4 80bd
000002a0: 636e 843d 690e 313d 1d04 c2ba ea06 9d3b
000002b0: d56b 243d 363a 05be 17cf a43d ebb1 fc3c
000002c0: cddd a03b 707a 473d d8e4 003d 7d09 903d
000002d0: aad7 b5bd 7b56 ed3d 9129 db3c f459 a23c
000002e0: 1601 98bd c827 5ebd 53a7 33be ec46 463c
000002f0: b102 093e 3e49 24bd 8c8c 06bc ebbb d63c
00000300: 8e3b 39bd 0d8c c33c 93cf 8fbc a98f e5bd
00000310: 2be4 823b 7834 ac3d 77f3 723d e6fd 3abc
00000320: 76c3 003c 5b40 e4bc 24cd 813c ffac 7c3c
00000330: 36f5 273d 20aa 263c 15dd 003c 29e3 8fbd
00000340: c98a 0a3d 122c ce3c 0e9d f139 5eeb 66bd
00000350: 3294 963d 2649 db3d 04b0 9abd 5b87 6c3d
00000360: 9ca1 0e3c 7a63 b73c e069 15bd a881 83bc
00000370: e6f5 dc3c 8472 88bd f76d 153d a0ff 85bd
00000380: 4c52 61bd 307c 393c dce7 093d 65b1 b2bd
00000390: 14ec ee3d a2f1 91bc 3095 763d 3ac2 6d3d
000003a0: bd83 adbc a8f0 a83c 77c2 523d c530 fe3b
000003b0: 1b39 33bd de31 d4bc 315a a13d 5beb 51bd
000003c0: 1d84 83bd a3eb 39bd 23c8 dfbc fd0b 143d
000003d0: 2e99 d8bc 4d61 913d b59d 4b3d 9167 d1bd
000003e0: 5fb5 9bbd 824d d0bb b86a 433c 1e57 b2bd
000003f0: 88b6 bcbd ea7c 49bd 9b4f 38bd cb4b a23d

residual_tower.blocks.1.conv2.bias f4 [8]
0.00038363918 -3.203511e-05 0.0025864828 0.0016181218 0.005162538 -0.0050119124 0.009127731 -0.004343862
00000000: 2e23 c939 705d 06b8 fb81 293b 2817 d43a
00000010: 822a a93b f83a a4bb 7b8c 153c f556 8ebb

residual_tower.blocks.1.bn2.weight f4 [8]
0.7082507 0.65678054 0.6559563 0.6499306 0.6372421 0.7066273 0.66594654 0.67212313
00000000: eb4f 353f c522 283f c1ec 273f da61 263f
00000010: 4c22 233f 87e5 343f 797b 2a3f 4310 2c3f

residual_tower.blocks.1.bn2.bias f4 [8]
0.06268986 0.029132359 0.030659338 0.0017143325 -0.06766253 -0.027342934 -0.03204608 -0.06483343
00000000: 8b63 803d fca6 ee3c 4b29 fb3c 74b3 e03a
00000010: a792 8abd 4afe dfbc c042 03bd 64c7 84bd

residual_tower.blocks.1.bn2.running_mean f4 [8]
0.17010832 -0.19163518 0.06589681 -0.08823308 0.10963788 0.06737726 0.05466067 -0.24348038
00000000: e030 2e3e 033c 44be e8f4 863d 8cb3 b4bd
00000010: d389 e03d 17fd 893d dee3 5f3d ec52 79be

residual_tower.blocks.1.bn2.running_var f4 [8]
0.10828184 0.084043704 0.06942305 0.094317645 0.10167681 0.12744556 0.11379085 0.1853962
00000000: dfc2 dd3d 1b1f ac3d ac2d 8e3d 9c29 c13d
00000010: ee3b d03d 1781 023e 2d0b e93d 80d8 3d3e

residual_tower.blocks.2.conv1.weight f4 [8, 8, 3, 3]
-0.0069419197 0.010423248 -0.09049684 0.015401311 -0.030370733 -0.057657484 0.027135847 -0.06800032
-0.046044406 -0.0065773153 -0.028193418 0.037922904 -0.046590075 0.029181773 0.11661817 0.13161874
0.012691351 0.029874042 -0.08149519 -0.02789228 0.08415392 0.045179408 -0.04844072 -0.027802655
0.0697556 0.023002097 0.01889687 0.02235641 0.06507622 -0.12599897 0.026365472 0.009690096
-0.05103035 0.08250274 0.0328848 0.0374428 0.06084128 0.02022011 0.062939264 0.08564201
-0.021045312 0.075074345 -0.04255427 0.0016188269 0.066524774 0.022757988 -0.055680152 -0.0363822
0.11303038 0.072716266 0.02444424 0.12536895 -0.016508283 -0.030717188 0.0062141344 0.009765731
0.022434479 -0.016725032 0.054909818 -0.012250917 -0.05233787 0.036675926 0.061852567 0.0059400857
-0.014491612 -0.005691141 0.042427313 0.08830839 0.03724411 0.06476661 0.041058857 0.023353692
0.038759593 0.020693012 -0.018463058 0.09041024 0.04682582 -0.012833169 0.065192945 0.15448001
0.050036985 -0.07585811 -0.020295877 0.020587362 -0.02887605 -0.015979415 -0.06646351 -0.03400562
0.10269968 0.035490174 0.0060321977 0.03225273 -0.041255962 0.008164226 -0.09736528 0.04539465
-0.12051391 -0.046146702 -0.013746001 0.0049401578 -0.031097163 -0.03312194 -0.0025765272 0.0010564062
-0.0016095621 0.07832201 0.12922733 0.057959784 0.03113918 0.019589588 -0.020996375 0.05370534
-0.0672302 0.019070767 0.043691285 0.08006052 -0.009190171 -0.0091888 -0.04891005 -0.052969195
0.086688526 -0.048538916 0.03077977 0.05963321 -0.00016485712 0.047367133 -0.023533957 -0.07179013
-0.010683714 -0.059411705 0.03542172 0.06939721 0.14857884 -0.026760172 0.0037452076 0.027752021
-0.04923115 0.05671714 -0.029240888 0.007993875 -0.01770342 -0.02963944 -0.01828176 0.03814193
-0.025867343 0.010594983 -0.039981347 0.018189237 0.044413697 -0.11412594 0.043219358 -0.011259579
0.00954757 0.00040586706 -0.012600975 -0.07627904 -0.048249625 -0.056006216 -0.022316204 0.03840496
-0.094717495 -0.066076994 0.018586297 -0.05674558 -0.0068687396 -0.036046136 0.01738903 -0.016581656
-0.020493342 -0.007807354 0.033311155 0.016876265 -0.005679518 -0.04696297 -0.0028288078 -0.01604635
-0.015483351 0.014935938 -0.027917122 -0.0449302 -0.016220687 -0.03784164 0.019863755 -0.011204977
-0.049652506 9.501986e-05 0.09503971 -0.05578017 0.03327312 -0.066022076 0.013812082 -0.07057171
-0.019846039 -0.023160413 -0.021520233 0.13780831 -0.018537093 -0.0036081744 -0.037462633 -0.029239738
0.0004880676 -0.02641898 0.030941043 0.024839137 0.021597017 -0.03092936 -0.03698989 -0.0047600535
-0.011601936 1.9423123e-05 -0.024505835 -0.04633571 -0.020321043 -0.036921334 0.009192132 -0.002436847
0.03487938 0.044045694 0.06526676 0.051669504 0.057810444 0.051853444 0.112612516 0.10851365
0.0027006362 -0.014332897 -0.04536973 -0.06958439 0.10026675 0.0150852 0.09146583 0.14578827
0.048583105 -0.00817053 0.055414103 -0.085646294 0.071150444 0.04660638 0.043361243 -0.034191485
-0.025552412 0.047062192 0.077348664 0.054313917 0.019955022 0.016978165 0.053761706 0.0789236
0.006515139 0.092330664 0.0022316885 0.063125804 0.021925703 0.025256608 0.034435693 0.01204703
00000000: 0b79 e3bb 45c6 2a3c 6856 b9bd c855 7c3c
00000010: 0bcc f8bc 412a 6cbd ff4b de3c c043 8bbd
00000020: 0f99 3cbd 8586 d7bb e2f5 e6bc 0c55 1b3d
00000030: 3cd5 3ebd 9d0e ef3c 82d5 ee3d 10c7 063e
00000040: 62ef 4f3c 68ba f43c f3e6 a6bd 5a7e e4bc
00000050: e458 ac3d 0b0e 393d c769 46bd 65c2 e3bc
00000060: 06dc 8e3d e56e bc3c 9ccd 9a3c ca24 b73c
00000070: ae46 853d e005 01be 67fc d73c 35c3 1e3c
00000080: 3305 51bd 32f7 a83d 36b2 063d 9f5d 193d
00000090: b534 793d a5a4 a53c 4de6 803d 1465 af3d
000000a0: 3867 acbc 94c0 993d 634d 2ebd d12e d43a
000000b0: 243e 883d f66e ba3c df10 64bd 8005 15bd
000000c0: 797c e73d 44ec 943d 493f c83c b860 003e
000000d0: 613c 87bc 9da2 fbbc f09f cb3b 7200 203c
000000e0: 83c8 b73c ef02 89bc 1ee9 603d 12b8 48bc
000000f0: 3c60 56bd 7f39 163d 1e59 7d3d 0da5 c23b
00000100: 3a6e 6dbc c07c babb 43c8 2d3d 07db b43d
00000110: 488d 183d 5ba4 843d 552d 283d 3e50 bf3c
00000120: 61c2 1e3d 6484 a93c d73f 97bc 0129 b93d
00000130: 6ecc 3f3d 3642 52bc e183 853d 0230 1e3e
00000140: 95f3 4c3d 7f5b 9bbd 8a43 a6bc d4a6 a83c
00000150: 778d ecbc 43e7 82bc 051e 88bd 7a49 0bbd
00000160: 3654 d23d 255e 113d bea9 c53b 701b 043d
00000170: 03fc 28bd 3fc3 053c 7367 c7bd beef 393d
00000180: ffcf f6bd 5304 3dbd e836 61bc 0ce1 a13b
00000190: 7abf febc dfaa 07bd f4da 28bb 1c77 8a3a
000001a0: f1f7 d2ba 4a67 a03d 2b54 043e 3d67 6d3d
000001b0: 9817 ff3c 587a a03c 9700 acbc 21fa 5b3d
000001c0: fdaf 89bd 4c3a 9c3c a2f5 323d c5f6 a33d
000001d0: 5f92 16bc 9f8c 16bc e855 48bd 3af6 58bd
000001e0: c189 b13d bed0 46bd db25 fc3c f441 743d
000001f0: 7fdd 2cb9 0a04 423d 49ca c0bc b406 93bd
00000200: bf0a 2fbc b059 73bd 5e16 113d 2020 8e3d
00000210: 0d25 183e 2638 dbbc 2872 753b 3558 e33c
00000220: 9aa6 49bd 3b50 683d 968a efbc bef8 023c
00000230: c306 91bc 69ce f2bc a1c3 95bc b63a 1c3d
00000240: c0e7 d3bc 9496 2d3c 7bc3 23bd 9801 953c
00000250: 23eb 353d dcba e9bd c806 313d 197a 38bc
00000260: 696d 1c3c 8eca d439 5274 4ebc 2f38 9cbd
00000270: 66a1 45bd c666 65bd 79d0 b6bc 854e 1d3d
00000280: 3ffb c1bd 6053 87bd 4a42 983c 0e6e 68bd
00000290: 2a13 e1bb 1da5 13bd 7073 8e3c 41d6 87bc
000002a0: a7e1 a7bc d5d4 ffbb 4771 083d 1840 8a3c
000002b0: 401b babb 3e5c 40bd 8563 39bb a373 83bc
000002c0: e2ad 7dbc ddb5 743c 73b2 e4bc bb08 38bd
000002d0: 3fe1 84bc d6ff 1abd 50b9 a23c 1495 37bc
000002e0: 6d60 4bbd 6645 c738 2ea4 c23d bf79 64bd
000002f0: 6549 083d 9536 87bd 124c 623c e787 90bd
00000300: 2994 a2bc e8ba bdbc 334b b0bc 9f1d 0d3e
00000310: 1adb 97bc 1f77 6cbb 6b72 19bd 2d88 efbc
00000320: 53e3 ff39 9e6c d8bc 1278 fd3c 727b cb3c
00000330: 3aec b03c 925f fdbc b682 17bd 39fa 9bbb
00000340: 0c16 3ebc d7ee a237 76c0 c8bc 83ca 3dbd
00000350: 5178 a6bc d33a 17bd 999a 163c 82b3 1fbb
00000360: aedd 0e3d 4269 343d 94aa 853d 67a3 533d
00000370: a5ca 6c3d 4764 543d 64a1 e63d 683c de3d
00000380: 28fd 303b 87d4 6abc 9cd5 39bd 4382 8ebd
00000390: a758 cd3d ea27 773c 7052 bb3d 8549 153e
000003a0: 14ff 463d b0dd 05bc e6f9 623d 5367 afbd
000003b0: 53b7 913d 55e6 3e3d 8f9b 313d 5f0c 0cbd
000003c0: 4b53 d1bc 49c4 403d fa68 9e3d 4578 5e3d
000003d0: b778 a33c cb15 8b3c 3c35 5c3d b2a2 a13d
000003e0: f27c d53b dc17 bd3d 8541 123b 1a48 813d
000003f0: 889d b33c f2e6 ce3c 710c 0d3d e860 453c

residual_tower.blocks.2.conv1.bias f4 [8]
0.0032808646 0.00542683 0.0008378404 -0.009030396 -0.008774866 -3.1033067e-06 0.0008635025 -0.009976121
00000000: c603 573b 8dd3 b13b 84a2 5b3a 3af4 13bc
00000010: 75c4 0fbc 6742 50b6 ac5c 623a e272 23bc

residual_tower.blocks.2.bn1.weight f4 [8]
0.6964874 0.6590349 0.6611454 0.6328759 0.63336855 0.6519278 0.65494376 0.69046324
00000000: 004d 323f 83b6 283f d340 293f 2804 223f
00000010: 7124 223f bee4 263f 65aa 273f 33c2 303f

residual_tower.blocks.2.bn1.bias f4 [8]
-0.065749176 -0.039412756 -0.022911679 -0.03270262 -0.050839514 -0.048218075 -0.07380118 -0.00070019386
00000000: 81a7 86bd 456f 21bd 46b1 bbbc 2ff3 05bd
00000010: 183d 50bd 5180 45bd 1325 97bd 378d 37ba

residual_tower.blocks.2.bn1.running_mean f4 [8]
0.75754726 0.65717286 -0.45935667 1.4865125 -0.06594146 0.72631466 0.17566189 0.1546693
00000000: 9eee 413f 7b3c 283f cc30 ebbe 0b46 be3f
00000010: 510c 87bd c2ef 393f b6e0 333e a161 1e3e

residual_tower.blocks.2.bn1.running_var f4 [8]
0.6996928 0.92277 0.5143613 2.5934613 0.93164736 1.2742951 0.5435178 0.44002154
00000000: 111f 333f a83a 6c3f 2fad 033f 45fb 2540
00000010: 7180 6e3f 1a1c a33f fc23 0b3f 814a e13e

residual_tower.blocks.2.conv2.weight f4 [8, 8, 3, 3]
-0.010581489 -0.07096221 0.041806128 -0.013413823 -0.06814497 -0.021572871 0.008524953 -0.02835871
0.049809963 0.0006056955 0.02802548 0.08567838 0.0038904527 0.10562204 -0.0024562068 0.022182042
-0.02318376 -0.06742228 0.025136912 -0.007633942 0.05075008 -0.002934603 -0.017774163 0.03634869
0.037488293 0.058558427 -0.0143980505 0.000738343 -0.030618193 0.11522875 0.01050399 0.009145032
0.04282669 -0.05976358 0.0869325 0.07597646 0.005420288 -0.0069319545 -0.015822306 -0.012443589
0.051287297 0.011821532 0.11771132 0.12812704 0.062106498 -0.048499584 -0.064406596 0.0640651
-0.010295238 -0.039752204 0.024094133 -0.014479967 -0.07586525 -0.08350238 0.041299712 0.04618057
-0.008545596 0.009047988 0.04047061 0.1198329 0.044959795 0.012091614 -0.029704286 0.070705235
0.026093852 0.050464436 0.02173001 0.15001455 -0.033798177 0.083976805 0.021859089 -0.052569352
-0.0099783335 -0.025959734 0.041619107 -0.028074631 -0.05903582 -0.091599986 -0.002935999 -0.048343107
-0.08424447 0.031055171 -0.003838365 -0.011867527 0.004324875 -0.011148513 -0.114655346 0.041705687
-0.010381464 0.012246786 0.026998306 0.05120409 0.023352282 0.09508652 0.06933709 -0.0277016
0.045590464 0.04286947 0.033989526 0.010392974 -0.035046563 0.0049110353 0.010179839 -0.0025821044
-0.04489484 0.04159421 0.03236147 0.009660003 -0.08123369 -0.040686056 -0.020741358 0.019957861
-0.060852185 -0.051315837 -0.028478108 -0.051428784 -0.0005758631 -0.017537909 -0.018453846 -0.07197596
0.033561897 -0.07948144 -0.0010258739 0.019546838 0.05670202 -0.003977245 0.027744966 0.034498174
-0.050393008 -0.0045445855 -0.015939336 0.027477754 -0.0038001598 -0.0020205432 -0.032810662 -0.057835747
-0.0020633219 -0.044751853 -0.004815444 -0.07709203 -0.10257093 -0.0077524306 -0.037723456 0.018193323
-0.06611929 -0.12719123 -0.045762207 0.05041916 0.051186398 0.028308688 -0.06764207 0.006359461
0.015008776 -0.08118871 -0.032267597 0.012787607 -0.012269037 -0.019291585 0.1408467 -0.010106736
0.03476182 -0.12130757 0.066774845 0.019478356 -0.00422615 0.003816048 0.057481203 -0.03843161
0.059337337 -0.04028822 0.10212578 -0.037600387 0.024872199 -0.06403797 -0.044901967 0.06522511
-0.010573027 -0.06520522 0.0024372495 -0.05038133 0.0107484795 -0.0710097 -0.047075775 -0.055206
-0.060654595 0.018926138 0.035640065 0.09241377 -0.043491274 0.009219394 -0.11229766 -0.11710737
-0.08649119 -0.033129152 0.04798906 0.10603289 -0.06004775 -0.0089103 -0.061062604 -0.028309703
-0.040055536 -0.03064164 -0.10281237 -0.0012364285 -0.041341584 0.08100338 0.017472127 0.029935256
-0.006575983 0.035820547 0.020052304 -0.044465523 0.018856613 -0.12002495 0.04411968 0.061377816
-0.030419046 -0.083020814 -0.10918467 -0.07063308 -0.04895123 -0.032196455 0.013199304 -0.09351598
-0.07990643 0.025292013 0.026898593 -0.057799507 0.037467193 0.015337658 0.064458705 -0.04697544
0.041620243 0.018776018 -0.042408977 0.0016860758 -0.020317748 0.044021778 -0.0011152915 0.040032104
-0.030459275 -0.0077904416 -0.0025669993 0.051561393 -0.07392236 -0.025452755 -0.04660799 0.010266826
-0.017204233 -0.011044291 -0.016965382 -0.023765521 0.031867493 0.043151625 -0.050950512 -0.028627375
00000000: fb5d 2dbc a354 91bd e73c 2b3d a7c5 5bbc
00000010: 978f 8bbd 97b9 b0bc 3fac 0b3c 8750 e8bc
00000020: 8805 4c3d 89c7 1e3a b195 e53c 2678 af3d
00000030: f7f6 7e3b 5e50 d83d 50f8 20bb 1db7 b53c
00000040: deeb bdbc b114 8abd edeb cd3c 2626 fabb
00000050: 51df 4f3d 7852 40bb 1f9b 91bc 5de2 143d
00000060: 538d 193d f6da 6f3d cde5 6bbc 5c8d 413a
00000070: 01d3 fabc 0dfd eb3d ed18 2c3c 0bd5 153c
00000080: 0a6b 2f3d a8ca 74bd ab09 b23d 8c99 9b3d
00000090: ac9c b13b 7325 e3bb c89d 81bc 32e0 4bbc
000000a0: a112 523d 19af 413c a212 f13d bc33 033e
000000b0: 6263 7e3d 80a7 46bd 9be7 83bd 9034 833d
000000c0: 5cad 28bc 35d3 22bd 0f61 c53c 623d 6dbc
000000d0: 3d5f 9bbd 4c03 abbd e329 293d d627 3d3d
000000e0: d402 0cbc 033e 143c 83c4 253d f46a f53d
000000f0: c327 383d e81b 463c 6756 f3bc e8cd 903d
00000100: c6c2 d53c ccb3 4e3d 2203 b23c 6a9d 193e
00000110: f56f 0abd 08fc ab3d d511 b33c f652 57bd
00000120: 2a7c 23bc 82a9 d4bc cc78 2a3d c5fc e5bc
00000130: 8bcf 71bd c698 bbbd e469 40bb 6c03 46bd
00000140: 5d88 acbd 6a67 fe3c 148d 7bbb 0470 42bc
00000150: aeb7 8d3b 41a8 36bc 6cd0 eabd 95d3 2a3d
00000160: 0417 2abc bea6 483c 8d2b dd3c 61bb 513d
00000170: 494d bf3c b9bc c23d 9b00 8e3d 77ee e2bc
00000180: 11bd 3a3d e697 2f3d 9a38 0b3d 4b47 2a3c
00000190: fc8c 0fbd c0ec a03b 57c9 263c 8638 29bb
000001a0: a7e3 37bd b15e 2a3d 768d 043d fd44 1e3c
000001b0: d95d a6bd 6ca6 26bd c8e9 a9bc ab7e a33c
000001c0: 2440 79bd 8e30 52bd ec4a e9bc fda6 52bd
000001d0: 85f5 16ba a9ab 8fbc 852c 97bc 2268 93bd
000001e0: 3378 093d 2ac7 a2bd 9e76 86ba b120 a03c
000001f0: 6140 683d 8d53 82bb 6949 e33c f54d 0d3d
00000200: e668 4ebd bfea 94bb 3693 82bc 0719 e13c
00000210: 1a0c 79bb 176b 04bb 7964 06bd 2de5 6cbd
00000220: cc38 07bb b84d 37bd dfca 9dbb 6de2 9dbd
00000230: b510 d2bd 1a08 febb e983 1abd 2a0a 953c
00000240: 8d69 87bd 6b3e 02be 2771 3bbd 5284 4e3d
00000250: d4a8 513d 9fe7 e73c ed87 8abd 0763 d03b
00000260: 5fe7 753c 4446 a6bd 072b 04bd 1c83 513c
00000270: 1204 49bc 6309 9ebc 1e3a 103e b996 25bc
00000280: 6962 0e3d 1a70 f8bd 40c1 883d 1391 9f3c
00000290: 847b 8abb a916 7a3b 6971 6b3d 776a 1dbd
000002a0: b50b 733d 4305 25bd 5227 d13d dd02 1abd
000002b0: c8c0 cb3c 5726 83bd 20eb 37bd be94 853d
000002c0: 7d3a 2dbc 508a 85bd 43ba 1f3b a75c 4ebd
000002d0: 641a 303c 896d 91bd 87d2 40bd b01f 62bd
000002e0: f470 78bd fd0a 9b3c 51fb 113d 6e43 bd3d
000002f0: e823 32bd f10c 173c 51fc e5bd fdd5 efbd
00000300: 4b22 b1bd 6fb2 07bd 2d90 443d c627 d93d
00000310: a1f4 75bd 82fc 11bc c81c 7abd c0e9 e7bc
00000320: 4611 24bd 2d04 fbbc 4b8f d2bd a80f a2ba
00000330: cb55 29bd 1ae5 a53d b521 8f3c c83a f53c
00000340: 587b d7bb 91b8 123d bb44 a43c 7b21 36bd
00000350: 2f79 9a3c a4cf f5bd d6b6 343d 4e67 7b3d
00000360: 5d31 f9bc d106 aabd 369c dfbd 14a8 90bd
00000370: 1681 48bd 6ee0 03bd e541 583c 4e85 bfbd
00000380: fba5 a3bd 3231 cf3c 705a dc3c 2dbf 6cbd
00000390: 3377 193d cd4a 7b3c ed02 843d 5269 40bd
000003a0: fd79 2a3d 2ad0 993c 09b5 2dbd 51ff dc3a
000003b0: 6871 a6bc 2e50 343d f92e 92ba b4f8 233d
000003c0: bb85 f9bc f646 ffbb 1a3b 28bb 0a32 533d
000003d0: 9b64 97bd 4c82 d0bc 05e8 3ebd 3036 283c
000003e0: e4ef 8cbc 1df3 34bc fcfa 8abc e9af c2bc
000003f0: 7d87 023d c2bf 303d 7cb1 50bd f583 eabc

residual_tower.blocks.2.conv2.bias f4 [8]
-0.0009460253 -0.0006158366 0.000745837 -0.00089693425 0.009006853 -0.0008708701 -0.005324265 0.010146492
00000000: affe 77ba 1870 21ba 4684 433a 3d20 6bba
00000010: 7b91 133c 1a4b 64ba 2c77 aebb 793d 263c

residual_tower.blocks.2.bn2.weight f4 [8]
0.64872587 0.64785343 0.64045763 0.6645998 0.6872031 0.6335405 0.6643787 0.68667996
00000000: e612 263f b9d9 253f 08f5 233f 3623 2a3f
00000010: 8bec 2f3f b62f 223f b914 2a3f 42ca 2f3f

residual_tower.blocks.2.bn2.bias f4 [8]
0.03235823 0.005884269 -0.008225355 -0.012826166 -0.051733002 -0.044640552 -0.023229206 -0.05381712
00000000: 108a 043d d3d0 c03b a4c3 06bc d724 52bc
00000010: fce5 53bd 03d9 36bd 2d4b bebc 576f 5cbd

residual_tower.blocks.2.bn2.running_mean f4 [8]
0.23772845 -0.23071522 -0.033016607 -0.27427486 0.47909182 0.21689805 0.11076163 0.02572463
00000000: 166f 733e 9c40 6cbe 6c3c 07bd c16d 8cbe
00000010: 864b f53e 861a 5e3e fed6 e23d 76bc d23c

residual_tower.blocks.2.bn2.running_var f4 [8]
0.13369083 0.2453208 0.089265585 0.16531433 0.4725454 0.24629143 0.21857125 0.101540044
00000000: 40e6 083e 6035 7b3e e0d0 b63d 2948 293e
00000010: 78f1 f13e d233 7c3e 24d1 5f3e 3af4 cf3d
