model_drawn_sunset_42.pth (torch, 154361 bytes, 83 tensors)

input_conv.conv.weight f4 [8, 2, 3, 3]
0	0xbdc01ec7	-0.0938087
1	0xbe67a23f	-0.22620486
2	0xbd4ed298	-0.050493807
3	0xbe17ac8e	-0.14811918
4	0xbe003847	-0.12521468
5	0xbdb9c491	-0.09070695
6	0xbd5b6416	-0.053562246
7	0xbc9ba4c7	-0.01899947
8	0xbd78ae99	-0.060713384
9	0x3d8dc44b	0.069222055
10	0xbd0f4655	-0.034979183
11	0x3b23abf4	0.0024974318
12	0x3e300806	0.1719056
13	0x3e00cfd5	0.12579282
14	0xbc8133ae	-0.015771713
15	0xbdf2cecb	-0.11855849
16	0x3e7fc70a	0.24978271
17	0x3c1c7755	0.009549935
18	0xbdbf3f80	-0.093382835
19	0x3b21bd96	0.0024679652
20	0xbdc9bb49	-0.09850175
21	0x3bb34680	0.0054710507
22	0xbd722c05	-0.05912401
23	0xbdb4ca07	-0.08827596
24	0x3d1ff315	0.03905018
25	0x3db50203	0.08838274
26	0xbddb2dfa	-0.10702129
27	0xbc107e24	-0.008819137
28	0x3a81eb88	0.0009912113
29	0x3cd0d712	0.025493179
30	0xbd4d6c2e	-0.050151996
31	0xbd4ab2a5	-0.049486775
32	0x3ee512d2	0.4474092
33	0x3d1f6037	0.038910117
34	0x3d957446	0.07297568
35	0xbdf6e256	-0.12054889
36	0x3de2d6cf	0.11076128
37	0x3d929440	0.07157183
38	0xbdf04945	-0.11732725
39	0x3e83a9c7	0.25715467
40	0x3d19b16d	0.037522722
41	0x3d66a681	0.056311134
42	0xbce92d2a	-0.028463919
43	0x3debdd05	0.115167655
44	0x3d2d66e3	0.04233445
45	0xbd8fb17e	-0.07016276
46	0xbd1e7003	-0.03868104
47	0xbe05af78	-0.13055217
48	0xbe37427a	-0.17896453
49	0x3d8787bf	0.066176884
50	0xbd9071fa	-0.07052989
51	0xbdbf8a4b	-0.09352549
52	0xbdb5861d	-0.08863471
53	0xbd89be78	-0.06725782
54	0xbcaf0d52	-0.021368656
55	0xbdd9355f	-0.10605883
56	0xbc11f9ea	-0.008909682
57	0xbe692837	-0.22769247
58	0xbdc25981	-0.09489728
59	0xbe64e293	-0.22352056
60	0x3ccb309a	0.024803448
61	0x3d094d95	0.033521254
62	0x3e08f147	0.1337329
63	0x3c8e3f3a	0.017364133
64	0x3ce45faf	0.027877657
65	0xbde990cc	-0.11404571
66	0x3e041cec	0.12901658
67	0x3dd6e24a	0.1049238
68	0x3d8acda0	0.06777501
69	0x3da45449	0.080238886
70	0xbe75adcb	-0.23992078
71	0x3d704e8a	0.05866865
72	0x3c73ffda	0.014892543
73	0x3e4238ea	0.18967023
74	0xbe211474	-0.15730458
75	0x3dd0cd65	0.10195426
76	0x3d038d48	0.03211716
77	0x3e39f8e5	0.18161352
78	0xbd204a59	-0.039133403
79	0xbd915cca	-0.07097776
80	0xbd8c91f2	-0.06863774
81	0xbdac3e8f	-0.084103696
82	0xbc4a0b86	-0.012331849
83	0xbe5921dc	-0.21204323
84	0x3d07acbb	0.033123713
85	0x3dcea567	0.10090142
86	0x3e02dfb9	0.12780656
87	0x3bd17397	0.006391953
88	0x3db9273a	0.09040685
89	0x3c948c28	0.018133238
90	0xbe0610a1	-0.13092281
91	0x3d68febd	0.056883562
92	0x3d07d7da	0.033164836
93	0xbd0480f5	-0.032349546
94	0x3e69fbc1	0.22849943
95	0x3d7615a6	0.06007924
96	0x3d34c48d	0.044132758
97	0xbe35d26b	-0.1775605
98	0xbb893f1c	-0.0041884314
99	0xbd77405a	-0.060364105
100	0x3cae0d8e	0.021246698
101	0xbd029b3c	-0.031886324
102	0xbe35b6c2	-0.17745498
103	0x3c00d963	0.007864329
104	0xbe3de368	-0.1854378
105	0x3c358f79	0.01108157
106	0x3dad04c9	0.08448178
107	0xbb441043	-0.002991692
108	0xbd706173	-0.058686685
109	0xbbe37131	-0.0069409837
110	0xbd98091c	-0.074236125
111	0x3c2b7553	0.010464984
112	0xbbfdb483	-0.007742466
113	0x3e804f39	0.25060442
114	0x3c98cfaa	0.01865371
115	0x3c5d50f7	0.013508073
116	0x3e66d02c	0.22540349
117	0xbd02f602	-0.031972893
118	0xbd9d900d	-0.07693491
119	0xbebfa002	-0.37426764
120	0x3d3bfe5f	0.045896884
121	0xbc554efb	-0.013019319
122	0xbcdfd7b6	-0.027324539
123	0xbc48240a	-0.012215624
124	0x3c5e18d8	0.013555728
125	0xbcac9868	-0.021068767
126	0x3cfbf845	0.030758033
127	0x3db08129	0.08618385
128	0x3d9547c2	0.07289077
129	0xbb81dca0	-0.003963068
130	0xbd1cd0cb	-0.038285058
131	0x3e15c4ee	0.14625904
132	0xbd99204c	-0.07476863
133	0xbdafe8bb	-0.08589312
134	0xbdca3d21	-0.09874941
135	0xbd9962dc	-0.07489559
136	0xbda67e90	-0.08129609
137	0xbc94c44f	-0.018160013
138	0x3d8b91f5	0.068149485
139	0x3d84b083	0.064789794
140	0x3d280e3e	0.041029207
141	0xbcbf73d4	-0.02337066
142	0xbc4ba401	-0.012429238
143	0x3db46ed6	0.08810203

input_conv.conv.bias f4 [8]
0	0xb6199885	-2.2887555e-06
1	0x35152927	5.556671e-07
2	0x354f9280	7.7326695e-07
3	0xb6121d0e	-2.1772607e-06
4	0x36d64522	6.385745e-06
5	0x367f1fd9	3.8016499e-06
6	0xb551cbde	-7.8155233e-07
7	0x35e59441	1.7104977e-06

input_conv.bn.weight f4 [8]
0	0x3e5cc1c1	0.21558286
1	0x3e8c4387	0.2739527
2	0x3e4565a4	0.19277054
3	0x3e560c9d	0.20903249
4	0x3e11251a	0.1417431
5	0x3e25dbc1	0.1619711
6	0x3e7296a2	0.23690274
7	0x3e27bde3	0.1638103

input_conv.bn.bias f4 [8]
0	0x3dbb0015	0.09130875
1	0x3e10f18c	0.14154643
2	0x3e0f765e	0.14009997
3	0x3deeea72	0.11665811
4	0xbd5be02d	-0.053680588
5	0x3d2e1dfa	0.042509057
6	0xbd66b2e8	-0.056322962
7	0xbe279675	-0.16365989

input_conv.bn.running_mean f4 [8]
0	0xbc9284fa	-0.017885674
1	0x3c3feb7f	0.0117138615
2	0xbc770d92	-0.015078919
3	0xbd2bb1b4	-0.041917518
4	0x3d30a99d	0.043130506
5	0xbc9168d0	-0.017750174
6	0x3c623407	0.01380635
7	0x3c543c2f	0.012953802

input_conv.bn.running_var f4 [8]
0	0x3c986a6e	0.018605437
1	0x3caedfe0	0.021346986
2	0x3c8cb0ec	0.017174207
3	0x3ce11b20	0.027478755
4	0x3c2b5d53	0.010459262
5	0x3c85e979	0.01634668
6	0x3c5a7d1f	0.013335495
7	0x3c0efa00	0.008726597

residual_tower.blocks.0.conv1.weight f4 [8, 8, 3, 3]
0	0x3bbb2ba3	0.005711989
1	0xbb0674b7	-0.0020516345
2	0xbce6367c	-0.028102152
3	0xbd8c967e	-0.068646416
4	0x3d1ed6d7	0.038779106
5	0xbd72ea67	-0.059305575
6	0x3c90f579	0.017695175
7	0xbb882614	-0.00415493
8	0xbd1b170b	-0.037863772
9	0x3ca590f7	0.020210726
10	0xbded32ba	-0.11581941
11	0xbd948baf	-0.07253205
12	0x3cce9df6	0.025221806
13	0x3c93f20f	0.018059758
14	0xbd14fc1c	-0.036373243
15	0x3d331671	0.043722574
16	0xbe1c539f	-0.15266274
17	0xbc6ebdfb	-0.014571662
18	0xba97cf6e	-0.0011582205
19	0x3cf2ab5a	0.029622722
20	0x3d36ba37	0.044611182
21	0x3c8e6826	0.017383646
22	0x3d4d047b	0.0500531
23	0xbca7552a	-0.020426352
24	0x3c9d1822	0.019176546
25	0xbcb09326	-0.02155454
26	0x3c4dbcad	0.012557191
27	0xbc9eae4d	-0.019370222
28	0x3de8100c	0.11331186
29	0x3ba1d27c	0.004938422
30	0xbc321097	-0.010868213
31	0xbd01a5fb	-0.031652432
32	0xbbeed820	-0.0072889477
33	0xbcc7e892	-0.02440289
34	0x3ca3a9e1	0.019978466
35	0x3c64cba4	0.013964567
36	0xbd6daa97	-0.058024015
37	0x3da8f93d	0.082506634
38	0x3b8998ab	0.0041991076
39	0xbd87e67d	-0.06635759
40	0x3cca9abe	0.02473199
41	0xbd8cbbc4	-0.06871751
42	0xbc75e296	-0.015007636
43	0xbdc1c66a	-0.094616726
44	0xbd74989c	-0.059715852
45	0x3c44b549	0.012006112
46	0x3c8efc90	0.017454416
47	0xbccffc58	-0.025388882
48	0x3d0aa2ef	0.03384679
49	0x3d50b481	0.050953392
50	0xbbfb0570	-0.0076605603
51	0x3d9a1aa8	0.075246155
52	0x3c671bb5	0.014105727
53	0xbe25f22b	-0.16205661
54	0xbd3c1f59	-0.045928333
55	0x3e729ce7	0.23692666
56	0xbd133ea9	-0.03594843
57	0xbc5c1cb9	-0.013434582
58	0x3e503d46	0.20335874
59	0xbd8f4367	-0.06995278
60	0xbcfd84e3	-0.030947154
61	0x3d93977d	0.072066285
62	0xbd4320bd	-0.047638644
63	0x3c34851b	0.011018063
64	0xba185ff2	-0.0005812637
65	0xbb27d33e	-0.0025608088
66	0xb914b838	-0.00014183007
67	0xbd8e2700	-0.069410324
68	0xbcfb5b4a	-0.030683178
69	0xbd33720d	-0.04380994
70	0xbddf215e	-0.10895036
71	0xbd825910	-0.063646436
72	0xbceb706b	-0.028740129
73	0x3d4d38ae	0.050102882
74	0x3c6d3810	0.014478698
75	0xbe1dfcf3	-0.15428524
76	0xbddb796c	-0.10716519
77	0x3a1ea9ca	0.0006052522
78	0xbd6d9888	-0.058006793
79	0xbdfe867b	-0.12427994
80	0xbb3dd50c	-0.0028966097
81	0x3d53a866	0.05167427
82	0xbce22f38	-0.027610406
83	0x3d25a122	0.04043687
84	0x3d272521	0.040806893
85	0xba870c1e	-0.0010303294
86	0x3c04becd	0.008102131
87	0xbe128548	-0.14308655
88	0xbe81f1a1	-0.2537966
89	0xbe9c76b9	-0.30559328
90	0x3dd41e39	0.10357327
91	0xbb48242e	-0.0030539143
92	0xbc930daf	-0.01795086
93	0x3d518441	0.051151518
94	0x3d35d2a8	0.04439035
95	0xbd10ff58	-0.035399765
96	0xbe03923a	-0.1284875
97	0x3e6d5334	0.2317627
98	0x3d90d2ee	0.07071482
99	0x3cbb3abf	0.02285516
100	0xbd0e5e59	-0.034757946
101	0xbbe0e4b8	-0.006863203
102	0x3dff57e7	0.12467938
103	0x3d8a7b49	0.06761796
104	0x3de13582	0.10996534
105	0xbd358826	-0.044319294
106	0x3aa11c66	0.0012291789
107	0xbdaf322a	-0.0855449
108	0xbd0e55d3	-0.034749817
109	0xbd22550d	-0.039631892
110	0x3db323fe	0.08747099
111	0xbd90b8f5	-0.07066528
112	0xbdc26fa0	-0.09493947
113	0xbd183943	-0.037163984
114	0x3b86c50a	0.0041128444
115	0x3d862b9e	0.06551288
116	0xbcfee6eb	-0.03111597
117	0xbc0dc157	-0.008652053
118	0xbd290128	-0.04126087
119	0x3cfda042	0.030960206
120	0x3cf73231	0.0301753
121	0xbcd0360f	-0.025416402
122	0x3cbc2244	0.022965558
123	0x3d4a86fa	0.04944513
124	0x3daa628b	0.08319577
125	0x3dc7e7b9	0.097609945
126	0xbd129db0	-0.035794914
127	0xbd053887	-0.03252461
128	0xbc6a065f	-0.014283746
129	0xbc7c88a5	-0.015413438
130	0x3d36277f	0.04447126
131	0x3d4f895b	0.0506681
132	0x39b20852	0.00033957005
133	0x3d73a55f	0.059483882
134	0x3db5e01f	0.08880638
135	0xbd72a6f3	-0.059241246
136	0x3cb2b8d6	0.021816652
137	0x3d2160a7	0.039398815
138	0x3d3392a1	0.043841008
139	0xbca27ff2	-0.0198364
140	0xbcfef326	-0.031121802
141	0xbde0bf6b	-0.1097401
142	0xbd926a95	-0.07149235
143	0xbd06c1f0	-0.032899797
144	0xbdda7eb7	-0.106687
145	0x3d4f2d0b	0.050580066
146	0xbd30a7e3	-0.04312886
147	0xbd4a6ab3	-0.049418163
148	0x3d8c567c	0.06852433
149	0xbc2c957f	-0.0105336895
150	0xbc7be21b	-0.015373732
151	0x3d09f19e	0.03367769
152	0xbc0bd7a0	-0.008535296
153	0xbcb22d2e	-0.021750059
154	0xbd187d29	-0.037228737
155	0x3c9b5079	0.01895927
156	0x3e4328d4	0.19058543
157	0x3d996530	0.07490003
158	0xbd607b6e	-0.05480521
159	0x3d3c8092	0.04602105
160	0xbd0ff9be	-0.035150282
161	0xbd06ff66	-0.03295841
162	0x3cf09989	0.029370086
163	0xbdf127a1	-0.11775137
164	0xbe380985	-0.17972381
165	0x3da4941e	0.080360636
166	0x3c753461	0.014966101
167	0xbbde7743	-0.0067891194
168	0x3ba5bd9a	0.0050580027
169	0xbc92d6a3	-0.017924612
170	0xbd5f710e	-0.054551177
171	0xbcf73072	-0.030174468
172	0xbe26dcf8	-0.1629523
173	0xbd75699e	-0.059915178
174	0x3d7df960	0.0620054
175	0x3a87066f	0.00103016
176	0x3c0f4337	0.008744053
177	0x3c82b69f	0.015956221
178	0x39f2457e	0.00046209613
179	0x3d7c10ed	0.06153958
180	0x3cc0bcfd	0.023527617
181	0xbdb30a57	-0.087422065
182	0xba77ae7e	-0.00094483036
183	0x3e8550cc	0.26038206
184	0x3d050991	0.032479826
185	0x3d9ebf78	0.077513635
186	0xbd9cb26a	-0.07651217
187	0x3d92d653	0.07169785
188	0x3cef8576	0.029238444
189	0xbd9c02de	-0.076177344
190	0xbe065d64	-0.13121563
191	0x3db0f5e4	0.0864065
192	0x3d0b7370	0.034045637
193	0x3d78fdb3	0.06078882
194	0xbc5585d3	-0.013032394
195	0x3d248531	0.040166084
196	0x3d430f60	0.047622085
197	0xbd591b8d	-0.05300479
198	0xbe394182	-0.18091395
199	0x3cd3b781	0.025844337
200	0x3d19b93b	0.037530165
201	0xbcef3915	-0.029202024
202	0x39ba7640	0.00035564788
203	0xbd46aff1	-0.048507635
204	0xbc9ab5a7	-0.018885447
205	0xbc54237d	-0.012947914
206	0xbd2e58d1	-0.04256517
207	0xbd94c29b	-0.072636805
208	0xbc5f5ad6	-0.013632497
209	0xbd28fb64	-0.04125537
210	0x3e443900	0.19162369
211	0x3ccc57fc	0.024944298
212	0x3dfb195d	0.12260697
213	0x3ca2b243	0.019860392
214	0x3caf66c6	0.02141131
215	0xbca6105f	-0.020271478
216	0x3d207c26	0.039180897
217	0xbd62e6ab	-0.055395763
218	0xbe1ec426	-0.15504512
219	0x3d0993d0	0.03358823
220	0xbd98cdec	-0.074611515
221	0x3c1d67b5	0.009607245
222	0x3d02469c	0.03180562
223	0xbcebfc0e	-0.028806712
224	0x3d8482e1	0.06470276
225	0x3d1cfa20	0.038324475
226	0x3df9d80d	0.121994115
227	0xbd499b01	-0.04922009
228	0x3d20fa78	0.039301366
229	0xbe4b9f4c	-0.19884986
230	0x3e14d8f5	0.14535888
231	0xbd247bc8	-0.04015711
232	0x3e3940db	0.18091147
233	0x3d341b40	0.0439713
234	0xbdc5b2d2	-0.09653248
235	0xbce43f9f	-0.027862368
236	0xbccb9a36	-0.024853807
237	0xbbbd4cd8	-0.0057769828
238	0xbd2e17b9	-0.042503092
239	0xbd2665de	-0.040624492
240	0x3d5b8fa2	0.053603776
241	0xbc9d5336	-0.019204717
242	0x3d9e05fd	0.07715986
243	0xbdb1dee4	-0.08685091
244	0xbe43d1cd	-0.19123001
245	0xbdcf03d2	-0.101081505
246	0xbccb20f8	-0.024795994
247	0x3d21cb7a	0.03950069
248	0xbd8d93dd	-0.06912968
249	0x3dbaa15e	0.091128096
250	0x3d815e82	0.06316854
251	0xbcf46d2f	-0.029837219
252	0xbd44c991	-0.04804379
253	0x3d11f9bb	0.035638552
254	0x3d29cdd6	0.041456066
255	0xbcc77406	-0.024347316

residual_tower.blocks.0.conv1.bias f4 [8]
0	0x340751b2	1.2602575e-07
1	0x39651754	0.00021847832
2	0x353fca3c	7.1447334e-07
3	0xb6dc9668	-6.5740205e-06
4	0x36857bfc	3.9781426e-06
5	0xb6459676	-2.9442867e-06
6	0xb7669272	-1.3743165e-05
7	0x04b59590	4.2690247e-36

residual_tower.blocks.0.bn1.weight f4 [8]
0	0x3df7b1f2	0.12094487
1	0x3e686b3a	0.22697154
2	0x3e001e38	0.12511528
3	0x3db36a42	0.087605014
4	0x3e0ffe95	0.14061959
5	0x3e1d4085	0.15356643
6	0x3d6328f9	0.055458996
7	0x1ea73ff3	1.7708262e-20

residual_tower.blocks.0.bn1.bias f4 [8]
0	0xbe8ef3d5	-0.27920404
1	0xbe87f801	-0.265564
2	0xbd37beee	-0.04485982
3	0x3d40b54d	0.047047902
4	0xbdb68267	-0.08911591
5	0xbd73fa9d	-0.059565175
6	0xbcab652f	-0.020922272
7	0x9e0cd063	-7.454632e-21

residual_tower.blocks.0.bn1.running_mean f4 [8]
0	0xbce77641	-0.02825463
1	0xbcee2e7f	-0.029074905
2	0xbcf99b71	-0.030469628
3	0xbd380e54	-0.04493554
4	0xbd96db5c	-0.07366058
5	0xbd56f773	-0.05248208
6	0xbd43a465	-0.0477642
7	0x12490cbc	6.3440113e-28

residual_tower.blocks.0.bn1.running_var f4 [8]
0	0x3c02b841	0.0079785
1	0x3c8e7257	0.017388506
2	0x3c1e22ff	0.009651898
3	0x3c61e668	0.013787843
4	0x3c29c5e5	0.010362123
5	0x3c7406ab	0.014894168
6	0x3baf051d	0.0053411857
7	0x00000004	6e-45

residual_tower.blocks.0.conv2.weight f4 [8, 8, 3, 3]
0	0x3c8c1590	0.017100126
1	0xbbe61c27	-0.007022399
2	0xbc15fcde	-0.0091545265
3	0x3c45e1d1	0.012077765
4	0xbc5d82e0	-0.013519973
5	0x3d22b3df	0.03972232
6	0xbbd47161	-0.0064832424
7	0xbd597be2	-0.05309666
8	0x3d320e1f	0.0434705
9	0xbc82d2ee	-0.01596972
10	0xbd12df3f	-0.035857435
11	0xbd951834	-0.07280007
12	0xbcaf7369	-0.021417337
13	0xbd5a7df0	-0.05334276
14	0xbcc0fb44	-0.023557313
15	0x3c28148a	0.010258803
16	0x3ca470fa	0.020073403
17	0xbd664553	-0.056218456
18	0x3d5f3f3b	0.05450366
19	0xba6431ec	-0.00087049487
20	0x3d924bd8	0.07143372
21	0xbb9cdd7a	-0.0047871443
22	0xbca7bd89	-0.02047612
23	0xbd2e0cd8	-0.042492718
24	0x3badc1f7	0.0053026634
25	0x3ca9734f	0.020684866
26	0x3d93f200	0.07223892
27	0xbc41d585	-0.011830692
28	0xbc96c72c	-0.01840552
29	0xbc07497a	-0.008257264
30	0x3d05144c	0.03249006
31	0x3d6ff4b6	0.058582984
32	0xbd56ec9f	-0.052471753
33	0xbd970313	-0.07373633
34	0x3d1223b4	0.03567858
35	0x3d0a498e	0.033761553
36	0x3df958cc	0.1217514
37	0x3d3c9aa1	0.046045903
38	0x3d96390a	0.07335098
39	0x3e1aa365	0.15101393
40	0x3c621cf3	0.013800847
41	0x3d8aa871	0.06770409
42	0xbd9bae32	-0.076015845
43	0xbc6bf49b	-0.01440158
44	0x3b9f80b5	0.004867638
45	0x3d8d5647	0.06901222
46	0xbd5bbe87	-0.053648498
47	0xbd1afa5d	-0.03783642
48	0x3d1c55ab	0.038167637
49	0xbcf4bd84	-0.029875524
50	0xbb9a2e3b	-0.004705218
51	0x3dbb7dcd	0.09154854
52	0x3d26ce56	0.04072412
53	0xbad7ad74	-0.0016454891
54	0xbcf7c004	-0.030242927
55	0x3d8fbf61	0.070189245
56	0x3c55845d	0.013032046
57	0xbd0fbe44	-0.03509356
58	0x3c51797a	0.01278531
59	0x3d49a447	0.049228933
60	0x3c91423f	0.017731784
61	0xbdba66f0	-0.09101665
62	0x3d39a3f4	0.045322374
63	0x1be2befb	3.7511982e-22
64	0x9ac0426c	-7.951665e-23
65	0x1ced9c62	1.5723768e-21
66	0x1b43f8e1	1.6210439e-22
67	0x93485288	-2.528424e-27
68	0x1d0c1cc5	1.854372e-21
69	0x1cb9ab8c	1.2286617e-21
70	0x1ca5b8be	1.0966539e-21
71	0x1d1d21b3	2.07962e-21
72	0x3d88c471	0.06678093
73	0x3c191190	0.009342566
74	0xbc159bcc	-0.009131383
75	0xbd0b598d	-0.03402095
76	0x3c545fc9	0.01296229
77	0xbb473f19	-0.00304026
78	0xbaefc47e	-0.0018292812
79	0xbb8b33a1	-0.004248098
80	0xbd8c48be	-0.06849812
81	0xbc206a2f	-0.009790941
82	0x3d9adc2f	0.07561528
83	0x3df2e60e	0.11860286
84	0xbcc2051b	-0.023684075
85	0xbd7248bc	-0.059151396
86	0xbd6906e6	-0.056891344
87	0x3c94fa71	0.018185826
88	0x3cf67280	0.030083895
89	0xbda02ba6	-0.07820825
90	0xbccd4c29	-0.02506073
91	0x3caa0266	0.020753097
92	0x3d2ab708	0.04167846
93	0xbc966be7	-0.018361999
94	0xbbd42195	-0.00647373
95	0xbdfc4538	-0.1231789
96	0xbc807a36	-0.015683275
97	0xbd1103ec	-0.03540413
98	0x3d4ac23a	0.049501635
99	0x3d7eda02	0.062219627
100	0xbdae7ad3	-0.085195206
101	0x3d333b63	0.043757807
102	0xbdd45c31	-0.103691466
103	0xbd65215d	-0.05594002
104	0x3d389a1b	0.04506884
105	0x3cb2008b	0.021728775
106	0x3dd9fc70	0.10643852
107	0xbd111b96	-0.0354267
108	0x3c0a4c8c	0.008441102
109	0x3c0c257e	0.008553861
110	0x3c3897fb	0.011266704
111	0x3ca14460	0.019685924
112	0x3d76ab4b	0.06022195
113	0xbe058fb6	-0.13043103
114	0xbd2f8ebc	-0.04286073
115	0xbd311b1b	-0.04323874
116	0xbdc4b594	-0.09604946
117	0x3dc8c3ea	0.09802993
118	0xbc523ef4	-0.012832392
119	0x3d12b4b2	0.035816856
120	0xbd7af3c9	-0.061267648
121	0x3a1b2d11	0.0005919496
122	0x3bbe89a1	0.0058147465
123	0x3dcc45fa	0.099742845
124	0x3e02c3c6	0.12769994
125	0xbe15f02f	-0.14642404
126	0xbd46a66e	-0.048498563
127	0xbcdd08f9	-0.026981818
128	0xbce1f552	-0.027582798
129	0x395e4ccd	0.0002120018
130	0x3d45bb81	0.04827452
131	0xbd185557	-0.03719076
132	0xbd8f4eb8	-0.06997436
133	0x3ca3ab30	0.01997909
134	0xbd655424	-0.055988446
135	0x1d3a26d0	2.463696e-21
136	0x1c9c8b9d	1.0359303e-21
137	0x1cdd05f2	1.462609e-21
138	0x1d061227	1.7744137e-21
139	0x12eb455b	1.4847682e-27
140	0x1becee66	3.9196986e-22
141	0x9a75f500	-5.0862722e-23
142	0x9d08e9e5	-1.812037e-21
143	0x9cf76f0c	-1.6373794e-21
144	0x3d17bf50	0.037047684
145	0x3d509bb3	0.050929736
146	0x3cf027f6	0.02931593
147	0x3c8362f0	0.016038388
148	0xbd5643c5	-0.052310724
149	0xbc1453a5	-0.009053146
150	0xbc38cec7	-0.011279768
151	0xbb65fa61	-0.0035091864
152	0xbc411243	-0.011784139
153	0x3e0f7c30	0.14012218
154	0x3d2a707f	0.04161119
155	0xbda36c48	-0.079796374
156	0x3c22f173	0.009945261
157	0x3d98ae09	0.074550696
158	0xbdab3afc	-0.0836086
159	0xb8aa471f	-8.119479e-05
160	0x3dad6608	0.084667265
161	0xbb01c25b	-0.0019799683
162	0x3d7a5ed2	0.061125584
163	0x3d0468a6	0.032326363
164	0x3d32c73c	0.043647036
165	0xbba3661a	-0.0049865367
166	0xbdaaa98b	-0.08333119
167	0xbb9c6b3f	-0.004773527
168	0x3cd33fb5	0.025787214
169	0xbceaa308	-0.028642192
170	0x3cc077d5	0.02349464
171	0x3cb1848c	0.021669649
172	0x3d792ed9	0.060835693
173	0xbd97346b	-0.07383045
174	0x3b415b28	0.0029503796
175	0x3d27cf62	0.04096926
176	0xbc258f80	-0.010105014
177	0x3dbab3f0	0.091163516
178	0xbd007a4a	-0.031366624
179	0xbd1b45ce	-0.037908368
180	0x3db17860	0.08665538
181	0xbd9dd207	-0.07706075
182	0x3c0ba610	0.008523479
183	0x3b8d304e	0.004308737
184	0xbccc5735	-0.024943927
185	0x3d5ecb25	0.054392952
186	0x3cab31ea	0.020897824
187	0xbdca6d0b	-0.098840795
188	0x3e044c18	0.12919652
189	0x3d0ca2fb	0.034335118
190	0xbcce8b15	-0.025212804
191	0x3cc60c9a	0.02417593
192	0xbc5692c4	-0.013096515
193	0xbc8a2c73	-0.016866898
194	0x3d7ddcd8	0.06197819
195	0x3d85e020	0.06536889
196	0xbdb858ca	-0.0900131
197	0x3e132f7d	0.14373584
198	0x3bb1c001	0.0054245
199	0x3ca01152	0.019539509
200	0xbc1d3656	-0.009595474
201	0xbc0500a3	-0.008117828
202	0xbcbff430	-0.023431867
203	0xbd686f91	-0.056747023
204	0x3d81dc35	0.06340829
205	0xbd4861e4	-0.04892148
206	0x3cfbac8f	0.03072193
207	0x1c100688	4.7654045e-22
208	0x1ba4f191	2.7287633e-22
209	0x1c638abf	7.5287325e-22
210	0x1b94fb19	2.4646814e-22
211	0x92ce3509	-1.3013502e-27
212	0x1bd5d5a5	3.5375959e-22
213	0x9cb6ddbd	-1.2101068e-21
214	0x9d10dde0	-1.9172948e-21
215	0x9cecd144	-1.5671264e-21
216	0x3cb4f2c2	0.022088412
217	0x3cab5de7	0.0209188
218	0x3d2a87fe	0.0416336
219	0x3d6f2af6	0.05839058
220	0x3cc71b79	0.024305092
221	0x3d69091f	0.056893464
222	0x3d248d57	0.040173855
223	0xbb080fcd	-0.002076137
224	0x3c7761a6	0.015098965
225	0x3ba3422f	0.004982255
226	0x3c846ef5	0.01616619
227	0xbd08eaa7	-0.033426907
228	0xbaca9915	-0.0015456999
229	0x3c8b371e	0.016994055
230	0x3d7b27f4	0.0613174
231	0x3cbac1c6	0.022797477
232	0x3bcd1973	0.0062591373
233	0x3c98e904	0.018665798
234	0xbae06988	-0.0017121295
235	0xbc6da942	-0.014505686
236	0xbc9fb2a4	-0.019494362
237	0x3c39454c	0.011308026
238	0xbc232fce	-0.009960128
239	0x3d7805d7	0.060552444
240	0xbc724718	-0.014787458
241	0x3d006873	0.03134961
242	0x3c7884a8	0.015168346
243	0xbd370575	-0.04468294
244	0x3c085f13	0.008323449
245	0x3b871698	0.0041225664
246	0xbc8238d1	-0.015896233
247	0xbd028bc0	-0.031871557
248	0xbb9d9b48	-0.0048097707
249	0x3bdd9d55	0.00676314
250	0xbc6edee1	-0.014579506
251	0xbc987ee0	-0.018615186
252	0xbc0e42b1	-0.008682893
253	0xbc2717ff	-0.010198592
254	0xbd255908	-0.04036811
255	0xbd8d83ef	-0.0690993

residual_tower.blocks.0.conv2.bias f4 [8]
0	0x36e15411	6.715309e-06
1	0x354544a0	7.348808e-07
2	0x36caf78d	6.048888e-06
3	0xb6441d9d	-2.9223513e-06
4	0x369ec5b6	4.7317835e-06
5	0xb6e8e4fd	-6.9407965e-06
6	0x382fabcb	4.1883246e-05
7	0x34e9a1c2	4.3517326e-07

residual_tower.blocks.0.bn2.weight f4 [8]
0	0x3cd778ef	0.026302783
1	0x3d7731c2	0.060350187
2	0x3dc246b8	0.09486145
3	0xbd073c17	-0.03301629
4	0x3e098868	0.13430941
5	0x3e308976	0.17239937
6	0x3e81b676	0.2533452
7	0x3d3ea904	0.046547905

residual_tower.blocks.0.bn2.bias f4 [8]
0	0xbdaa0107	-0.08300977
1	0xbdf220a5	-0.11822633
2	0xbd87d0b8	-0.06631607
3	0xbd844370	-0.06458175
4	0xbe045dee	-0.12926456
5	0xbe1b6aa2	-0.15177396
6	0xbd7fba0b	-0.062433284
7	0xbe181804	-0.14852911

residual_tower.blocks.0.bn2.running_mean f4 [8]
0	0x3be3c0ac	0.0069504585
1	0x3aabcea4	0.0013107848
2	0x3c36340e	0.011120809
3	0xbb94a5c8	-0.004536364
4	0x3a547ff8	0.0008106227
5	0xbc9a284c	-0.018818043
6	0xbcbbf498	-0.02294378
7	0xbbf7b889	-0.00755984

residual_tower.blocks.0.bn2.running_var f4 [8]
0	0x39d03263	0.00039710393
1	0x3a67ba2f	0.0008839694
2	0x3a1b726f	0.00059298327
3	0x398c09ad	0.0002671009
4	0x3a84aa1f	0.0010121501
5	0x3a6e6da3	0.00090953166
6	0x3a887998	0.0010412214
7	0x38c7f77a	9.5351556e-05

residual_tower.blocks.1.conv1.weight f4 [8, 8, 3, 3]
0	0xb3be74dd	-8.868822e-08
1	0x3729639e	1.0096379e-05
2	0x368f86a1	4.277405e-06
3	0xb6383b63	-2.7452704e-06
4	0x3653932b	3.1527113e-06
5	0x371f8cbd	9.509907e-06
6	0xb4deb9e9	-4.148599e-07
7	0xb5735d74	-9.0660546e-07
8	0xb56c6dd9	-8.80767e-07
9	0x3397610f	7.04914e-08
10	0x35f7408e	1.8421722e-06
11	0x3184f400	3.869445e-09
12	0x38164393	3.582572e-05
13	0x350a43ff	5.1507953e-07
14	0xb4a7e319	-3.127141e-07
15	0xb7a996cd	-2.0216592e-05
16	0x3814f528	3.551427e-05
17	0xb75bdde5	-1.3105081e-05
18	0xb121cd0e	-2.3545144e-09
19	0xb2e29881	-2.6379213e-08
20	0x33ffe8c8	1.19167055e-07
21	0x3588e06b	1.0198104e-06
22	0xb52cb833	-6.434304e-07
23	0xb4311e2f	-1.649539e-07
24	0xb4121c88	-1.3607689e-07
25	0xb5a74c3b	-1.2464656e-06
26	0x35b914fb	1.378968e-06
27	0x2c7fb1b7	3.633633e-12
28	0x2b98e272	1.0863101e-12
29	0x2cd35942	6.0068903e-12
30	0x2e088f42	3.105006e-11
31	0x2d586f81	1.2302937e-11
32	0x2b2f48ea	6.227368e-13
33	0x2b4410f4	6.9656715e-13
34	0x2c874f79	3.845754e-12
35	0x2cae919f	4.9615446e-12
36	0xae39dc89	-4.2260005e-11
37	0x2d2526df	9.387795e-12
38	0xacb726dd	-5.2054875e-12
39	0xad8242ac	-1.4808897e-11
40	0x2d8bf6be	1.5912046e-11
41	0x2df77a95	2.8135086e-11
42	0xada4270a	-1.8661978e-11
43	0xad135833	-8.375567e-12
44	0xae832686	-5.9640334e-11
45	0x32e48af0	2.6605875e-08
46	0x3482b525	2.4346187e-07
47	0xb28a6c7c	-1.6114647e-08
48	0xb4a49d26	-3.066172e-07
49	0xb57afb4d	-9.349795e-07
50	0xb65153ba	-3.1192162e-06
51	0xb388fac8	-6.37861e-08
52	0xb3c56cf8	-9.193349e-08
53	0x344648f0	1.8466721e-07
54	0x3618d884	2.2775794e-06
55	0xb31b22f0	-3.6120525e-08
56	0xb3dfde32	-1.0424664e-07
57	0xb5a12149	-1.2005122e-06
58	0x35171700	5.6285353e-07
59	0xb4cc1cee	-3.801901e-07
60	0xb4a1df69	-3.015114e-07
61	0xb48bfeb7	-2.6076097e-07
62	0x32a560d6	1.9252564e-08
63	0xad0f35ee	-8.140584e-12
64	0xac0357ac	-1.8664887e-12
65	0x2a97efa3	2.698927e-13
66	0x2abe2be2	3.378123e-13
67	0x2d85bb5d	1.5203555e-11
68	0x2aec9c73	4.203058e-13
69	0x2c9a1de1	4.3802605e-12
70	0xadaa538b	-1.9363863e-11
71	0x2d13b531	8.396215e-12
72	0x889cb529	-9.431499e-34
73	0x06c8b872	7.5502656e-35
74	0x0693a667	5.553976e-35
75	0x085e51bd	6.690178e-34
76	0x8a953f1e	-1.437192e-32
77	0x86a5aaaf	-6.23169e-35
78	0x0a1dc024	7.595413e-33
79	0x0905e854	1.6118533e-33
80	0x0c2f1d66	1.3490356e-31
81	0x0760db9d	1.6916426e-34
82	0x86c2cedd	-7.327865e-35
83	0x08d849e1	1.3017396e-33
84	0x076d059b	1.7831546e-34
85	0x0718eb73	1.1504401e-34
86	0x88668425	-6.9368443e-34
87	0x0984778f	3.1890276e-33
88	0x8c554d93	-1.6432267e-31
89	0x8939af45	-2.2350976e-33
90	0x07ac1289	2.5890578e-34
91	0x8808c946	-4.1162607e-34
92	0x86b7e932	-6.91796e-35
93	0x86c037ba	-7.2304256e-35
94	0x074e7e41	1.553482e-34
95	0x07bda5d1	2.8535017e-34
96	0x8610f6cb	-2.7264705e-35
97	0x07ef0677	3.5964523e-34
98	0x8702503b	-9.803691e-35
99	0x878e63c2	-2.1424418e-34
100	0x05ea7ea5	2.2051776e-35
101	0x07a6194d	2.4991774e-34
102	0x09ab4a5e	4.1236687e-33
103	0x8722e8a4	-1.2255892e-34
104	0x8774707a	-1.8389574e-34
105	0x07ffccad	3.8488433e-34
106	0x86e72909	-8.695284e-35
107	0x07fd1e7d	3.8085128e-34
108	0x057f3e62	1.20015e-35
109	0x8768cb46	-1.7513477e-34
110	0x06c033f4	7.229871e-35
111	0x077c3d3f	1.8976371e-34
112	0x87ee02ca	-3.58119e-34
113	0x87d693da	-3.228604e-34
114	0x07313371	1.3331117e-34
115	0x05e98347	2.1959438e-35
116	0x86a565b0	-6.221552e-35
117	0x883bc1b1	-5.650095e-34
118	0x85e911ac	-2.1917706e-35
119	0x0832ea44	5.3840304e-34
120	0x899790f9	-3.648826e-33
121	0x8829e2c0	-5.112313e-34
122	0x8a078ee8	-6.526891e-33
123	0x0891a554	8.7657385e-34
124	0x09dd7945	5.3317856e-33
125	0x09a6f785	4.0195813e-33
126	0x889085c7	-8.698136e-34
127	0x86ed1db7	-8.9193154e-35
128	0x86f1bdeb	-9.0933184e-35
129	0x87665487	-1.7328117e-34
130	0x085133f2	6.295471e-34
131	0x07887564	2.0532002e-34
132	0x87dd0ea3	-3.3260987e-34
133	0x89ce5b0b	-4.9678312e-33
134	0x0d9dea50	9.732281e-31
135	0x889eff60	-9.5693175e-34
136	0x88a1a916	-9.729587e-34
137	0x86aed03b	-6.575749e-35
138	0x888c3cb2	-8.440213e-34
139	0x86906f46	-5.433028e-35
140	0x88016de3	-3.8948697e-34
141	0x0e039613	1.6219255e-30
142	0x07d06006	3.13528e-34
143	0x0842f81f	5.8671416e-34
144	0xbcb07276	-0.021538954
145	0x3d2028e9	0.039101515
146	0x3d24aa9e	0.040201776
147	0x3da0ea20	0.07857156
148	0xbaad968d	-0.001324372
149	0xbd243cd7	-0.040097084
150	0x3d88fea9	0.066891976
151	0x3c5c69db	0.013452972
152	0x3c8099fa	0.015698422
153	0x3d529c31	0.051418487
154	0x3c70beb1	0.014693902
155	0xbd00c483	-0.03143741
156	0xbcdd135d	-0.026986772
157	0x3c362610	0.011117473
158	0xbd054c02	-0.03254319
159	0x3d121dd0	0.035672963
160	0xbbb77849	-0.005599056
161	0xbd5a421a	-0.053285696
162	0xbcd721a3	-0.026261156
163	0xbcecf105	-0.02892352
164	0xbc8447e8	-0.016147569
165	0xbca264d3	-0.019823467
166	0xbd286511	-0.04111201
167	0xbd8502fa	-0.06494708
168	0x3c21179f	0.009832292
169	0xbcf6996d	-0.030102456
170	0xbd0496c2	-0.032370336
171	0xbb578fae	-0.0032892036
172	0xbc391fbd	-0.011299071
173	0xbc1abf50	-0.0094450265
174	0xbc169116	-0.009189865
175	0xbc5bebca	-0.013422916
176	0xbd6d840c	-0.057987258
177	0xbb138890	-0.0022511818
178	0x3d2aad8e	0.04166942
179	0xbc7e0feb	-0.015506725
180	0xbd2d1640	-0.042257547
181	0xbce8e6a5	-0.028430292
182	0xbba250a5	-0.0049534612
183	0xbcb366da	-0.02189963
184	0x3c4dbe22	0.012557538
185	0xbd603cdc	-0.05474554
186	0x3d135463	0.03596915
187	0x3babf0e3	0.005247222
188	0xbcf4857d	-0.029848808
189	0xbb9595f1	-0.0045649935
190	0x3c84fd62	0.016234104
191	0xbcf523ed	-0.029924357
192	0x3b600fdf	0.0034189147
193	0xbd01ed9e	-0.03172075
194	0x3cc048bc	0.023472182
195	0xbd938ebd	-0.072049595
196	0xbd7b6d43	-0.061383497
197	0xbda9170d	-0.0825635
198	0xbcd74ff8	-0.02628325
199	0xbcc1ad98	-0.023642346
200	0xbca2e3f6	-0.01988409
201	0x3cdc0919	0.026859807
202	0x39297cf8	0.0001616365
203	0xbd5e15e4	-0.054220095
204	0x3c22e6a1	0.0099426815
205	0x3c92cee6	0.017920922
206	0xbd953fea	-0.07287581
207	0xba55a159	-0.0008149348
208	0xbb8bba13	-0.004264125
209	0x3b81a34d	0.0039562345
210	0x3bebc6d2	0.007195332
211	0xbbbf8ed0	-0.005845882
212	0x3aa7c6ab	0.0012800297
213	0xbc863278	-0.016381487
214	0xbc7ab42c	-0.015301745
215	0x3b971725	0.0046109133
216	0x3d68d61c	0.056844816
217	0xbda8fb8d	-0.082511045
218	0x3d9b0318	0.075689495
219	0xbc8db96c	-0.01730033
220	0xbd5a9068	-0.053360373
221	0x3d6ef2e0	0.058337092
222	0xbb9b8fa4	-0.004747348
223	0xbd0243b4	-0.031802848
224	0xbcd474bc	-0.02593457
225	0xbd794bda	-0.060863353
226	0x3c4ded08	0.01256872
227	0x3d05701c	0.03257762
228	0x3cf775eb	0.030207595
229	0xbb238123	-0.0024948798
230	0x3d22eb5e	0.039775245
231	0xbe06c5b5	-0.13161357
232	0xbc54a352	-0.012978392
233	0x3e27fe21	0.16405536
234	0x3d2b5801	0.041831974
235	0xbc9d4d34	-0.019201852
236	0xbbfb779c	-0.0076741707
237	0x3e08d2f0	0.13361716
238	0x3cfb9d1a	0.03071456
239	0xbe1b0abb	-0.15140812
240	0x3c6ac56a	0.014329294
241	0xbd42fd82	-0.047605045
242	0xbda9e05d	-0.08294747
243	0x3d3271cb	0.043565553
244	0xbc3928cc	-0.011301231
245	0x3ca2d05d	0.019874746
246	0x3daa9cf5	0.083307184
247	0xbd6f2e7a	-0.058393933
248	0x3c107730	0.008817479
249	0xbd58810a	-0.052857436
250	0xbd3ea034	-0.0465395
251	0xbc92655b	-0.017870596
252	0x3e0cd8e7	0.13754617
253	0xbd9bbb27	-0.07604056
254	0x3acaf539	0.0015484459
255	0xbc1a9433	-0.0094347475

residual_tower.blocks.1.conv1.bias f4 [8]
0	0xa52c87cd	-1.4964633e-16
1	0x00b02a86	1.6178302e-38
2	0x3410087f	1.3414136e-07
3	0xb583a628	-9.808618e-07
4	0xb5c7f5d3	-1.48982e-06
5	0xb700da9e	-7.680295e-06
6	0x0b9c19eb	6.012801e-32
7	0x354d0eb8	7.638987e-07

residual_tower.blocks.1.bn1.weight f4 [8]
0	0x3b13ccfc	0.00225526
1	0x123b227e	5.904931e-28
2	0x3d5bfd7e	0.053708546
3	0x3e0bf6aa	0.13668314
4	0x3ddfe928	0.10933143
5	0x3e38bfff	0.1804199
6	0xa15e5f30	-7.5342505e-19
7	0x3dfdc9d6	0.12392013

residual_tower.blocks.1.bn1.bias f4 [8]
0	0xbc01c7a2	-0.007921131
1	0x9f0ba6b9	-2.9572305e-20
2	0xbe1fad84	-0.15593535
3	0xbddb73fa	-0.1071548
4	0xbe345749	-0.17611422
5	0xbdffffe7	-0.124999814
6	0x1e6681fd	1.22029796e-20
7	0xbe11226e	-0.1417329

residual_tower.blocks.1.bn1.running_mean f4 [8]
0	0x36d26ed1	6.2713884e-06
1	0x0b1f872b	3.0723975e-32
2	0xbd8111f8	-0.063022554
3	0xbd175e9d	-0.036955465
4	0x39b08086	0.00033665093
5	0x3bb5419d	0.0055315034
6	0x0d3e3888	5.8616317e-31
7	0x3b50848d	0.0031817288

residual_tower.blocks.1.bn1.running_var f4 [8]
0	0x2f6802f8	2.1101332e-10
1	0x00000004	6e-45
2	0x3b966a52	0.004590311
3	0x3be6335d	0.007025166
4	0x3bbc85c9	0.005753253
5	0x3c44ae14	0.012004394
6	0x00000004	6e-45
7	0x3bfa44a8	0.007637579

residual_tower.blocks.1.conv2.weight f4 [8, 8, 3, 3]
0	0xb794db93	-1.7745222e-05
1	0xb6ca6432	-6.0317334e-06
2	0xb5927b36	-1.0913707e-06
3	0xb7e47235	-2.72329e-05
4	0xb5eb489b	-1.7529995e-06
5	0xb5281751	-6.2618807e-07
6	0x3681308a	3.8501503e-06
7	0xb48128f5	-2.4057923e-07
8	0xb5f078f1	-1.7916592e-06
9	0x9c5a9073	-7.2316846e-22
10	0x9b9c5051	-2.5859938e-22
11	0x9beaa7bc	-3.8820448e-22
12	0x9d2050f6	-2.121768e-21
13	0x14142cbd	7.4809136e-27
14	0x1c736905	8.053769e-22
15	0x9c461951	-6.5545425e-22
16	0x1ca8cd58	1.1170388e-21
17	0x1baecf36	2.8919792e-22
18	0x3c84e2c5	0.016221413
19	0xbb8de83b	-0.0043306625
20	0x3c05ff4f	0.008178546
21	0xbd17cea0	-0.037062287
22	0xbba6c441	-0.0050893133
23	0xbcbe97d1	-0.023265751
24	0xbcc5bcd7	-0.024137897
25	0xbc2c10bb	-0.010502036
26	0xbc420ca8	-0.011843838
27	0xbd9e89f9	-0.0774116
28	0xbd185497	-0.037190046
29	0x3d49ba04	0.049249664
30	0xbc006e16	-0.0078387465
31	0xbb48e65f	-0.003065489
32	0xbd049654	-0.032369927
33	0xbe30ee09	-0.17278303
34	0x3d62dbf7	0.055385556
35	0xbd2a862c	-0.041631863
36	0xbcb49df8	-0.022047982
37	0xbd7ffc03	-0.062496196
38	0xbd593854	-0.053032234
39	0xbcca704b	-0.024711749
40	0xbd3ab408	-0.045581847
41	0xbd77c325	-0.06048884
42	0x3d11d19a	0.035600282
43	0x3cbf2a07	0.02333547
44	0xbce8c0d8	-0.028412268
45	0x3b7ed8a8	0.0038886461
46	0xbd06b13c	-0.032883868
47	0x3d51087c	0.051033482
48	0xbd17ce83	-0.03706218
49	0xbc218b9a	-0.009859944
50	0xbd81eb5a	-0.06343718
51	0xbcd17d1d	-0.025572354
52	0xbd0ea9fd	-0.034830082
53	0x3d4ab748	0.049491197
54	0x1bad473c	2.8666483e-22
55	0x9ab9ac50	-7.679259e-23
56	0x9bb36c02	-2.9682864e-22
57	0x1a99be33	6.35866e-23
58	0x1391c507	3.679743e-27
59	0x1c1df425	5.226249e-22
60	0x1b806a9c	2.1244718e-22
61	0x96a399c6	-2.6431115e-25
62	0x1c2b5146	5.6684197e-22
63	0x3d6dd1a6	0.058061264
64	0x3d973183	0.073824905
65	0x3dc63ff5	0.096801676
66	0x3cc2da0b	0.023785612
67	0xbd93dc68	-0.072197735
68	0xbdd5737f	-0.1042242
69	0xba8123ed	-0.0009852626
70	0x3d8d41ac	0.068972915
71	0x3d8c542d	0.06851993
72	0x2b2d50eb	6.1574243e-13
73	0x2cda8b9b	6.211432e-12
74	0x2cd33705	6.003089e-12
75	0xaa3f4e23	-1.6991317e-13
76	0xacb2bb43	-5.0798545e-12
77	0x2ad839a9	3.8409318e-13
78	0xaaca7ca6	-3.59689e-13
79	0x2d22ddce	9.257884e-12
80	0x2ce099aa	6.383523e-12
81	0x9e138a96	-7.810774e-21
82	0x9ca3f9c1	-1.0850995e-21
83	0x1b483f51	1.6564071e-22
84	0x9e105196	-7.640168e-21
85	0x93dea93b	-5.6207553e-27
86	0x1d021cd6	1.7220265e-21
87	0x9e0baf73	-7.394881e-21
88	0x9d042f47	-1.7494496e-21
89	0x1ccf3599	1.3711966e-21
90	0x3bd5dd17	0.0065266
91	0x3ba1d2fc	0.0049384814
92	0xbb8e0eec	-0.004335275
93	0x3c1f57b5	0.009725501
94	0xbb899ea9	-0.004199822
95	0xbbe0ee43	-0.0068643405
96	0x3a1c8f8b	0.00059723173
97	0xba8544b7	-0.0010167573
98	0xbc824c98	-0.015905663
99	0xbc6619d3	-0.014044243
100	0x3d3ce9ae	0.04612129
101	0x3cd7f539	0.026362048
102	0xbc08cf71	-0.008350239
103	0xbc2e9928	-0.0106566325
104	0x3c7c6382	0.015404584
105	0xbc98fcc1	-0.01867521
106	0xbcbdcc5f	-0.02316874
107	0xba506cd3	-0.00079507864
108	0x3d0feef1	0.03513998
109	0x3d2b4e20	0.041822553
110	0x3aa07a86	0.0012243546
111	0xbcae4e56	-0.021277588
112	0xbc81c0a3	-0.015838927
113	0x397b1bfd	0.00023947652
114	0xbcbe4b7c	-0.023229353
115	0xbc984481	-0.018587353
116	0xbc62d85d	-0.01384553
117	0xba145f62	-0.0005659965
118	0x3d01eb56	0.031718574
119	0x3ada8387	0.0016671278
120	0x3dfee0f8	0.12445253
121	0x3c08d983	0.00835264
122	0x3d4d3039	0.050094817
123	0x3c07ac93	0.008280891
124	0xbca931c6	-0.020653617
125	0xbc84d130	-0.01621303
126	0x1c6725c4	7.64803e-22
127	0x1b43d0c3	1.6197476e-22
128	0x1bc96682	3.3318905e-22
129	0x1c5bcfbd	7.2729517e-22
130	0x9348c768	-2.5341864e-27
131	0x1bebc08a	3.9001914e-22
132	0x1cb19765	1.1752012e-21
133	0x9b702a02	-1.9865908e-22
134	0x1c0887e5	4.5174265e-22
135	0x3d3bb167	0.04582348
136	0x3d8c8a52	0.0686232
137	0xbc37a3ce	-0.011208488
138	0xbdafb35a	-0.085791305
139	0xbcf83440	-0.030298352
140	0xbbf2d4e4	-0.0074106324
141	0xbd894cfe	-0.06704138
142	0xbd5936b3	-0.05303068
143	0xbc828221	-0.01593119
144	0xb4e6b88f	-4.2975122e-07
145	0xb377583f	-5.758943e-08
146	0x33135fce	3.431324e-08
147	0xaf62ad8e	-2.0616239e-10
148	0xb08608c9	-9.75228e-10
149	0xb486e28d	-2.5124282e-07
150	0xb110266c	-2.0976598e-09
151	0x2e4c369b	4.643273e-11
152	0xb1543a9c	-3.0883376e-09
153	0x1d2e8cc8	2.310149e-21
154	0x1d8824a8	3.60368e-21
155	0x1d2c1941	2.2777066e-21
156	0x9c8675ba	-8.897808e-22
157	0x9512fbe2	-2.9683166e-26
158	0x9d9560ba	-3.9539985e-21
159	0x1da01501	4.2373365e-21
160	0x1de72365	6.1181788e-21
161	0x1ddce114	5.846624e-21
162	0xbcf56698	-0.029956147
163	0x3c654042	0.013992371
164	0x3b88c31f	0.004173651
165	0xb9be64ce	-0.0003631473
166	0xbc4c94d7	-0.012486658
167	0xbb3b88d9	-0.0028615503
168	0x3b972531	0.004612588
169	0x3aa5b7b7	0.0012643252
170	0xbbcf14f3	-0.006319636
171	0xbd6a0e15	-0.057142336
172	0x3e4252c4	0.18976885
173	0x3b683a89	0.003543528
174	0x3d07d479	0.033161614
175	0x3db913a6	0.09036951
176	0x3e36ce77	0.17852198
177	0x3d6520c9	0.05593947
178	0xbc4c49c3	-0.012468758
179	0xbd33f987	-0.04393914
180	0xbd6ed265	-0.058306117
181	0xbc5f0c6d	-0.013613802
182	0xbc73496e	-0.01484905
183	0xbda74a85	-0.0816851
184	0x3d6f163e	0.05837082
185	0xbccfb214	-0.025353469
186	0x3d0d080e	0.03443151
187	0x3d18c436	0.037296496
188	0xbc7b1bf0	-0.015326485
189	0x3d64c6b4	0.05585356
190	0x3ba47d19	0.0050197956
191	0xbd48a17e	-0.048982136
192	0x3dd23919	0.10264797
193	0xbc2337a4	-0.009961996
194	0xbdc0c1d3	-0.09411969
195	0xbdc094f7	-0.09403413
196	0xbda4ea19	-0.08052463
197	0xbc2e4be7	-0.010638214
198	0x1ad37d49	8.7469964e-23
199	0x1ba99dc0	2.8060648e-22
200	0x9c344c3b	-5.965553e-22
201	0x1b406317	1.5913885e-22
202	0x924fb27c	-6.553768e-28
203	0x9bba81de	-3.0855043e-22
204	0x9d873128	-3.578503e-21
205	0x9d70678d	-3.181727e-21
206	0x9d6960f2	-3.0887413e-21
207	0x3c071b54	0.008246262
208	0x3e1d9b10	0.15391183
209	0x3d082686	0.033239864
210	0xbd59ce7d	-0.05317544
211	0xbb5d3759	-0.0033754914
212	0xbd73deda	-0.0595387
213	0x3d91b791	0.07115091
214	0x3d5c2705	0.05374815
215	0x3d1e5a04	0.038660064
216	0xad3021b2	-1.0011924e-11
217	0x2c9bec6d	4.4316135e-12
218	0xacc8434f	-5.6918146e-12
219	0x2b11c086	5.178153e-13
220	0x2e2190d8	3.673581e-11
221	0x2d34a187	1.0267682e-11
222	0x2bab5fa9	1.2176832e-12
223	0x2d0c762e	7.98432e-12
224	0x2c9c8ac2	4.449192e-12
225	0x1e408e73	1.0193853e-20
226	0x1d870747	3.5741727e-21
227	0x9dc22f04	-5.1399985e-21
228	0x1d95712b	3.9556985e-21
229	0x13b398f7	4.5336788e-27
230	0x1dc40f28	5.189644e-21
231	0x1e3386ab	9.50403e-21
232	0x1d5d1894	2.9261813e-21
233	0x1e33f876	9.527562e-21
234	0x3ccf30c3	0.025291806
235	0xbc58b497	-0.01322665
236	0x3c291a5b	0.010321225
237	0xbc40f796	-0.011777779
238	0xbb698265	-0.00356307
239	0xbd12341a	-0.03569422
240	0xbc7f850a	-0.015595684
241	0xbd5a8b6a	-0.05335561
242	0x3d1ba9ec	0.038003847
243	0xbd7c3130	-0.061570346
244	0xbd88ad7a	-0.06673713
245	0xbd585b7b	-0.052821618
246	0x3dbf353f	0.09336328
247	0xbca81fd4	-0.02052299
248	0x3c3ce278	0.011528604
249	0xbd3b5f6e	-0.045745306
250	0x3d699f4e	0.05703669
251	0x3da4728d	0.08029661
252	0xbc7b0880	-0.015321851
253	0xbd0cdce5	-0.03439035
254	0xbc4d3084	-0.012523774
255	0xbceccb72	-0.028905604

residual_tower.blocks.1.conv2.bias f4 [8]
0	0xb6f7ec2e	-7.3886686e-06
1	0xb7075e0c	-8.068524e-06
2	0x371ce930	9.352618e-06
3	0xb8270dfe	-3.9828934e-05
4	0x37717397	1.4391632e-05
5	0xb71d1da7	-9.364833e-06
6	0x348d55d2	2.632574e-07
7	0xb4a9244b	-3.150511e-07

residual_tower.blocks.1.bn2.weight f4 [8]
0	0x3d0c5df3	0.034269284
1	0xbcdf9a72	-0.027295325
2	0x3d23941b	0.039936166
3	0x3dbf7fa5	0.09350518
4	0x3dd681c7	0.10473972
5	0x3e5d8fca	0.21636882
6	0x3c8df1f2	0.017327283
7	0x3c1c8ff6	0.009555807

residual_tower.blocks.1.bn2.bias f4 [8]
0	0xbd401e71	-0.04690403
1	0x3d228592	0.039678164
2	0xbd7b2c2b	-0.06132142
3	0xbe13cea0	-0.1443429
4	0xbd389311	-0.04506213
5	0xbe50f0a0	-0.20404291
6	0xbbd46e80	-0.006482899
7	0x3e2b7fdd	0.16747995

residual_tower.blocks.1.bn2.running_mean f4 [8]
0	0xbbd13af3	-0.006385201
1	0x3b0b58ff	0.0021262763
2	0x3b529427	0.0032131763
3	0x3b39560a	0.0028280043
4	0x3c4262f6	0.011864414
5	0xbc40ad15	-0.011760016
6	0x3af87bc7	0.0018957787
7	0xba29aca7	-0.00064725656

residual_tower.blocks.1.bn2.running_var f4 [8]
0	0x39efc71e	0.00045733986
1	0x39d660a0	0.00040889252
2	0x3a09fa5c	0.00052634417
3	0x3a2f16a8	0.0006679096
4	0x3ac402ec	0.0014954484
5	0x3a7cfac3	0.00096504035
6	0x399551fd	0.0002848058
7	0x389c3a4e	7.44952e-05

residual_tower.blocks.2.conv1.weight f4 [8, 8, 3, 3]
0	0x299db1e3	7.003059e-14
1	0xad11a013	-8.277839e-12
2	0x3229414d	9.851942e-09
3	0x2f224c89	1.4761005e-10
4	0xafd2c4a0	-3.8338488e-10
5	0x32c3ee37	2.2809315e-08
6	0xaeca03f1	-9.1865966e-11
7	0xb088379e	-9.91111e-10
8	0xb0b886cd	-1.3426075e-09
9	0xb0978f8b	-1.1027493e-09
10	0xb2ffacec	-2.9764543e-08
11	0x319ab244	4.5022563e-09
12	0x30ed8aab	1.7283431e-09
13	0x3310c2e1	3.3704854e-08
14	0xb2f1c069	-2.814359e-08
15	0xb37d0db8	-5.891863e-08
16	0x352a71b6	6.3495406e-07
17	0x344d024f	1.9092953e-07
18	0xadab7b1d	-1.9495123e-11
19	0xb0b8fef9	-1.346023e-09
20	0xb226d9b9	-9.711976e-09
21	0x314552e0	2.8714382e-09
22	0xada819ee	-1.9110904e-11
23	0x2f0527b0	1.211038e-10
24	0xac8b6bf6	-3.9626037e-12
25	0xaa0bf0eb	-1.2429265e-13
26	0x2e8f7ed9	6.52542e-11
27	0xa81b7105	-8.628736e-15
28	0xa9295984	-3.760318e-14
29	0x287f70a8	1.4179772e-14
30	0x278f4d52	3.9774304e-15
31	0x282de69e	9.653436e-15
32	0x26b574b2	1.2591028e-15
33	0xa913bdab	-3.2805068e-14
34	0x2879a6c0	1.3858435e-14
35	0x27a1c9f3	4.490543e-15
36	0x2b091efc	4.8715177e-13
37	0xaf9d294c	-2.8587477e-10
38	0xad5dec3b	-1.2614849e-11
39	0x2f9e7789	2.8824967e-10
40	0xb1b912bc	-5.3863385e-09
41	0xb2e349e5	-2.6459881e-08
42	0x2c171706	2.1471171e-12
43	0xaf7cf621	-2.3006709e-10
44	0x306c5005	8.5970014e-10
45	0x31043de3	1.9243707e-09
46	0xb284393c	-1.539285e-08
47	0x3306604b	3.1286884e-08
48	0x3406cb95	1.2553785e-07
49	0xb48ba0d4	-2.6007785e-07
50	0xb3af36ee	-8.159064e-08
51	0xab3eb98c	-6.775906e-13
52	0xace338fa	-6.4580537e-12
53	0xae9fca3f	-7.266409e-11
54	0xb57e5fb4	-9.476164e-07
55	0x2bf72704	1.7561235e-12
56	0xa7e1734a	-6.257504e-15
57	0x33c14116	8.999102e-08
58	0xabff489f	-1.8138996e-12
59	0x2ae8e63a	4.137123e-13
60	0xb060f1be	-8.183426e-10
61	0x2c14808a	2.1103418e-12
62	0xa9c22941	-8.622487e-14
63	0xaa84784d	-2.3531386e-13
64	0xa9410498	-4.2858593e-14
65	0xa8cf2009	-2.299551e-14
66	0x2b54c210	7.5586846e-13
67	0x28052fa1	7.393311e-15
68	0xa815a658	-8.307232e-15
69	0xa8537b68	-1.1739612e-14
70	0x28d8e553	2.4080271e-14
71	0xa857cab4	-1.1978852e-14
72	0x8d8be58c	-8.621798e-31
73	0x8d8bf64a	-8.625828e-31
74	0x8dbb43b1	-1.1541061e-30
75	0x8d885a9f	-8.403463e-31
76	0x0ad0eb18	2.0118104e-32
77	0x8b0c7a5f	-2.705508e-32
78	0x8d5acb28	-6.7420977e-31
79	0x8dbd5d68	-1.1670511e-30
80	0x0ba5168c	6.358961e-32
81	0x0c93419d	2.2688426e-31
82	0x0c3bb816	1.4461352e-31
83	0x8cf565c6	-3.780948e-31
84	0x8b2dcceb	-3.347275e-32
85	0x8cb0cb42	-2.7239425e-31
86	0x0cd3dd36	3.2642834e-31
87	0x0c6660c1	1.7747671e-31
88	0x0dc9f648	1.2446871e-30
89	0x0cf79c7a	3.8150552e-31
90	0x8d14f10b	-4.5896166e-31
91	0x0c832865	2.0208057e-31
92	0x0dd1909d	1.2915434e-30
93	0x8cefd8f9	-3.6954366e-31
94	0x8df21a5e	-1.4920749e-30
95	0x0debfd4f	1.4543975e-30
96	0x8d445901	-6.0504298e-31
97	0x0da0ecf3	9.917805e-31
98	0x8db93aa7	-1.1415625e-30
99	0x8d1cdfba	-4.8340512e-31
100	0x0ad979a1	2.0942092e-32
101	0x8c0fd516	-1.1080442e-31
102	0x0c84f6ee	2.0486436e-31
103	0x8d0e8409	-4.391606e-31
104	0x0cbddca5	2.9252856e-31
105	0x0cc07471	2.9652365e-31
106	0x8ad01259	-2.0036573e-32
107	0x8cb0a58d	-2.721673e-31
108	0x8d9ba0da	-9.591336e-31
109	0x8d7b0095	-7.7346047e-31
110	0x8e2de2cb	-2.1433093e-30
111	0x0daf528c	1.080508e-30
112	0x0dec622c	1.4568257e-30
113	0x8e18c08e	-1.8828158e-30
114	0x0c423b5a	1.4963077e-31
115	0x0dc7dc6c	1.23173865e-30
116	0x0d4c0f7b	6.2880987e-31
117	0x8d6cd806	-7.2983143e-31
118	0x8d14a005	-4.5798638e-31
119	0x0d7082e6	7.4113273e-31
120	0x0cc79281	3.0748979e-31
121	0x8ddb9795	-1.3533409e-30
122	0x8d80a906	-7.9293e-31
123	0x0c694bed	1.7972515e-31
124	0x0d66809a	7.102902e-31
125	0x0de08dbc	1.3839187e-30
126	0x8d128082	-4.514441e-31
127	0x0d002172	3.9483304e-31
128	0x0d2a3dfb	5.24599e-31
129	0x8ded67b3	-1.4631217e-30
130	0x0d8227bf	8.021437e-31
131	0x8ba289e2	-6.2607593e-32
132	0x0d2fa950	5.412984e-31
133	0x8c762a17	-1.8963817e-31
134	0x8b937e88	-5.6812723e-32
135	0x0c4e0258	1.5870368e-31
136	0x0d51185e	6.443243e-31
137	0x8d60f971	-6.9325583e-31
138	0x8c9ae4c8	-2.386515e-31
139	0x8d164ae9	-4.631249e-31
140	0x8b8be7ba	-5.3889516e-32
141	0x8be591da	-8.8427044e-32
142	0x0beef634	9.204471e-32
143	0x0d2662bb	5.127154e-31
144	0xbbdc43ba	-0.006721941
145	0xbd09e28c	-0.033663318
146	0xbca432fe	-0.020043846
147	0xbc41241a	-0.011788392
148	0xbd09fa13	-0.033685755
149	0xbcbc7b96	-0.02300815
150	0xbce461ae	-0.027878609
151	0xbd6d8e97	-0.057997312
152	0xbcbdb5ea	-0.023158032
153	0xbd8cfc06	-0.06884007
154	0xbd39bfe6	-0.045349024
155	0x3bc55285	0.0060218
156	0xbc6cc58f	-0.0144513985
157	0xbdb01cac	-0.08599219
158	0xbd1bc073	-0.03802533
159	0xbd60767d	-0.0548005
160	0xbdc7c0f8	-0.09753603
161	0xbd5c7b47	-0.053828504
162	0xbc89bf41	-0.01681483
163	0xbce11e5d	-0.027480299
164	0xbd52486a	-0.05133859
165	0xbd611027	-0.054947045
166	0xbca10cf3	-0.019659495
167	0xbda3cb6a	-0.079977825
168	0xbd8795d0	-0.06620371
169	0xbd7f32c4	-0.062304273
170	0xbd3b3061	-0.045700435
171	0xbd08edde	-0.033429973
172	0xbcb8957f	-0.022532223
173	0xbcbda8b8	-0.02315174
174	0xbd43d300	-0.047808647
175	0xbca089a7	-0.019596888
176	0xbd4a7c21	-0.049434785
177	0xbd10a563	-0.035313975
178	0xbd635926	-0.05550494
179	0xbd870d4b	-0.06594332
180	0xbc059f66	-0.008155679
181	0xbcb0bf01	-0.021575453
182	0xbd4a1bb5	-0.04934283
183	0xba876cc8	-0.0010332102
184	0xbc145642	-0.009053769
185	0xbcbf684f	-0.023365168
186	0xbcc313cb	-0.023813149
187	0x3a49e56c	0.0007701728
188	0xbcac5252	-0.021035347
189	0xbd8345c4	-0.06409791
190	0xbd45c441	-0.048282865
191	0x3bd366b3	0.0064514517
192	0xbd2ef06a	-0.042709745
193	0xbd19fc34	-0.037594035
194	0x3b992159	0.004673165
195	0xbb7ff662	-0.0039056768
196	0xbd36a38d	-0.044589568
197	0x3d11a2ca	0.03555564
198	0xbc3a1eaf	-0.011359855
199	0xbcc1e10e	-0.023666885
200	0xbdbe02cf	-0.092778794
201	0xbb2e675a	-0.0026611895
202	0xbc554774	-0.013017524
203	0xbd84f9fd	-0.06492994
204	0xbcc68d5b	-0.024237325
205	0x3c52b861	0.012861342
206	0xbd6f92cd	-0.05848961
207	0x3cb67aa3	0.022275275
208	0x3d91230b	0.07086762
209	0x3cb715c2	0.022349242
210	0xbd7d97ea	-0.061912455
211	0x3cadd548	0.021219864
212	0xbd4f18e5	-0.05056085
213	0xbd7d7a6d	-0.061884332
214	0xbcf1c265	-0.02951164
215	0xbd2704ad	-0.040775944
216	0xbda95f8c	-0.08270177
217	0xbd6a2352	-0.05716259
218	0xbbe0a725	-0.0068558627
219	0x3d13825e	0.036013
220	0xbc897c94	-0.016783036
221	0xbd1d8878	-0.038460225
222	0x3b466abf	0.0030276028
223	0x3dad2a2a	0.08455308
224	0xbd1bfb9f	-0.03808176
225	0xbd5e79e3	-0.05431546
226	0xbd68a5a2	-0.056798585
227	0x3d608fec	0.054824755
228	0x3dbea312	0.09308447
229	0xbc53d03f	-0.012928068
230	0x3cadab1d	0.021199757
231	0xbdf7253b	-0.12067648
232	0xbccc3a43	-0.024930125
233	0x3dbcac39	0.09212536
234	0xbdb9076c	-0.09034619
235	0xbdc44e50	-0.095852494
236	0x3d5c2a9a	0.053751566
237	0x3db053cb	0.08609732
238	0xbd45a7bb	-0.048255663
239	0xbddc6754	-0.10761896
240	0xbd9cd3dd	-0.07657597
241	0x3c246d5d	0.01003584
242	0xbda91bce	-0.082572564
243	0xbce05f98	-0.027389333
244	0xbd1e292e	-0.03861349
245	0xbd36cb6e	-0.0446276
246	0xbd254514	-0.04034908
247	0xbd7002d9	-0.058596466
248	0x3ca8d541	0.0206095
249	0x3b8e2b2a	0.0043386417
250	0xbd41a1f7	-0.047273602
251	0xbc9015bc	-0.017588489
252	0x3c86963c	0.01642906
253	0xbcfd2366	-0.030900668
254	0xba0f8a31	-0.0005475609
255	0xbc715dd5	-0.014731844

residual_tower.blocks.2.conv1.bias f4 [8]
0	0x9ff5d229	-1.0410922e-19
1	0x04a61c91	3.9052647e-36
2	0x36f0db78	7.178107e-06
3	0xb4864941	-2.5012744e-07
4	0x8605557e	-2.507733e-35
5	0x39fd9991	0.00048370336
6	0xb40ebbee	-1.3293149e-07
7	0x2d68aba9	1.3225789e-11

residual_tower.blocks.2.bn1.weight f4 [8]
0	0xba601a2c	-0.0008548822
1	0x21a4795e	1.1145198e-18
2	0x3e161e15	0.14659913
3	0x3dc58ce3	0.09646013
4	0xa55660a9	-1.8594291e-16
5	0xb090f3a4	-1.0546626e-09
6	0x3d967837	0.07347148
7	0xbc59468e	-0.01326145

residual_tower.blocks.2.bn1.bias f4 [8]
0	0xbbbd2691	-0.0057724197
1	0x9d8c850c	-3.719526e-21
2	0xbe0c4e1c	-0.13701671
3	0xbe3b135c	-0.18269104
4	0x9b9e368e	-2.6174162e-22
5	0xa6d4f9f1	-1.4778202e-15
6	0xbe330721	-0.17483188
7	0xbd26fe64	-0.04076995

residual_tower.blocks.2.bn1.running_mean f4 [8]
0	0x33687041	5.4118804e-08
1	0x0c702a94	1.850174e-31
2	0xbe0ae974	-0.13565618
3	0xbd67d9bb	-0.05660413
4	0x0d0119b3	3.978213e-31
5	0xb8ac42ba	-8.214028e-05
6	0xbc8a3862	-0.016872589
7	0x3a8fa9b6	0.0010960612

residual_tower.blocks.2.bn1.running_var f4 [8]
0	0x297030d4	5.3333057e-14
1	0x00000004	6e-45
2	0x3c061d8f	0.008185758
3	0x3bcfe382	0.0063442597
4	0x00000004	6e-45
5	0x1e6b6a67	1.24628e-20
6	0x3bedab6a	0.0072531
7	0x362a0653	2.5335655e-06
