model_fine_oath_35.pth (torch, 152714 bytes, 83 tensors)

input_conv.conv.weight f4 [8, 2, 3, 3]
-0.14052317 -0.08421889 0.03275341 -0.052303936 -0.12413175 -0.1903835 0.09717256 0.022152444
-0.15057503 0.15990737 0.14322652 -0.115457185 0.08103628 0.094590075 0.044346187 -0.26870084
0.060229056 0.030844955 -0.14372826 -0.038910232 -0.004050898 0.07363124 0.19050972 0.17106286
-0.09418543 -0.116027564 -0.15031387 0.040413253 0.09360209 -0.07520254 -0.25182074 -0.06261796
-0.04590682 -0.1397924 -0.07558945 0.16254936 -0.029015096 0.091118164 0.10520148 0.07059423
-0.0627974 0.018893024 0.18170235 -0.104996905 0.116268575 -0.13850194 -0.010888189 -0.075536944
-0.23900701 0.14566334 -0.076374196 -0.28654912 0.21574165 -0.053350963 -0.18037657 -0.22781998
-0.03276218 -0.23665823 0.049919505 -0.045408607 -0.09379541 -0.17634284 -0.009175741 0.13388966
0.10220767 0.031702444 0.07112004 0.30977458 0.066036135 0.03426329 0.1798676 -0.14737555
0.27666283 0.0008211385 -0.06881835 0.24685054 0.10563692 0.18967877 0.029295284 0.026197685
-0.039188813 0.117933944 0.0038255202 -0.07196575 0.11669145 0.216906 0.053136125 0.10196486
-0.0025950496 -0.06622967 0.10278915 0.07294314 -0.0716272 0.31823573 0.03867732 -0.084107675
-0.1674397 -0.1088193 -0.07536236 -0.07040791 -0.045365922 0.06789331 -0.07138803 -0.17002316
-0.09304867 -0.10637191 -0.10492013 0.06702766 -0.035975095 -0.10919368 0.016933823 0.15266256
-0.24493492 0.034177374 0.043920126 0.10152696 -0.031265307 -0.14693446 0.08165293 -0.10102523
0.37806743 -0.052022256 0.016874518 0.012951286 0.20954704 0.14239067 -0.06585009 0.12803566
-0.07274913 0.0004643323 0.04217997 0.0549854 -0.20659398 -0.08025298 0.28743315 0.10109262
-0.27155188 0.08956555 -0.0325508 0.10677035 -0.098578684 0.058434457 -0.00864328 -0.09706472
00000000: 4ee5 0fbe f47a acbd 7128 063d a73c 56bd
00000010: c938 febd e4f3 42be 6802 c73d 0b79 b53c
00000020: 5730 1abe c2be 233e f9a9 123e d174 ecbd
00000030: 59f6 a53d 71b8 c13d 59a4 353d 2893 89be
00000040: beb2 763d 8fae fc3c 802d 13be 5660 1fbd
00000050: 65bd 84bb facb 963d fb14 433e 1a2b 2f3e
00000060: 4ae4 c0bd dc9f edbd e1eb 19be 5e88 253d
00000070: 74b2 bf3d ca03 9abd a6ee 80be d83d 80bd
00000080: ca08 3cbd bd25 0fbe a4ce 9abd 5773 263e
00000090: 11b1 edbc 299c ba3d e073 d73d b593 903d
000000a0: ec9b 80bd 8bc5 9a3c 2e10 3a3e 9e08 d7bd
000000b0: 381e ee3d 74d3 0dbe 6064 32bc 1db3 9abd
000000c0: 41be 74be c528 153e 136a 9cbd 91b6 92be
000000d0: 61eb 5c3e 8a86 5abd a3b4 38be a449 69be
000000e0: a331 06bd 8956 72be 6578 4c3d 60fe 39bd
000000f0: cf17 c0bd 3893 34be d955 16bc 5f1a 093e
00000100: 4152 d13d 6cda 013d 62a7 913d c69a 9e3e
00000110: f43d 873d aa57 0c3d 362f 383e 9ee9 16be
00000120: c0a6 8d3e ac41 573a a3f0 8cbd 63c6 7c3e
00000130: 2b58 d83d 273b 423e aafc ef3c 879c d63c
00000140: 7384 20bd 5a87 f13d 94b5 7a3b c762 93bd
00000150: edfb ee3d 9b1c 5e3e 44a5 593d f4d2 d03d
00000160: b511 2abb 6ca3 87bd 1e83 d23d 3763 953d
00000170: 48b1 92bd cbef a23e 1c6c 1e3d a540 acbd
00000180: 5075 2bbe a7dc debd 9557 9abd 0632 90bd
00000190: 9ed1 39bd a60b 8b3d e333 92bd 8d1a 2ebe
000001a0: 4d90 bebd 84d9 d9bd 5de0 d6bd cc45 893d
000001b0: 9f5a 13bd f0a0 dfbd cdb8 8a3c 9353 1c3e
000001c0: 38d0 7abe 93fd 0b3d 97e5 333d 5eed cf3d
000001d0: 0d10 00bd fd75 16be a739 a73d 51e6 cebd
000001e0: 0e92 c13e 4a15 55bd 6e3c 8a3c a131 543c
000001f0: 8093 563e dcce 113e 69dc 86bd c81b 033e
00000200: 7ffd 94bd a071 f339 e7c4 2c3d 5f38 613d
00000210: 5f8d 53be ad5b a4bd 702a 933e a609 cf3d
00000220: d908 8bbe 256e b73d fd53 05bd 6aaa da3d
00000230: 9fe3 c9bd f858 6f3d 8b9c 0dbc dec9 c6bd

input_conv.conv.bias f4 [8]
3.0457256e-06 1.0901864e-06 -4.223722e-06 2.495683e-05 -3.570873e-06 5.415413e-06 -2.0610105e-06 5.1876286e-06
00000000: 2b65 4c36 8552 9235 7fb9 8db6 625a d137
00000010: 22a3 6fb6 0bb6 b536 e44f 0ab6 6411 ae36

input_conv.bn.weight f4 [8]
0.28497514 0.36440313 0.42084917 0.37069842 0.34928003 0.28327313 0.32689223 0.24497022
00000000: 43e8 913e 0c93 ba3e 8b79 d73e 2fcc bd3e
00000010: d5d4 b23e 2d09 913e 6b5e a73e 79d9 7a3e

input_conv.bn.bias f4 [8]
0.046492133 0.003409272 -0.034886565 -0.025786305 -0.014983279 0.060346685 0.14545467 0.15949586
00000000: 896e 3e3d 186e 5f3b 37e5 0ebd cd3d d3bc
00000010: 6d7c 75bc 162e 773d 12f2 143e e252 233e

input_conv.bn.running_mean f4 [8]
-0.065246366 -0.07270909 -0.030550858 -0.0013729582 0.22183456 -0.092333965 0.10278712 -0.00090214325
00000000: e39f 85bd 81e8 94bd cb45 fabc d5f4 b3ba
00000010: 9928 633e 9719 bdbd 0e82 d23d cf7d 6cba

input_conv.bn.running_var f4 [8]
0.034592487 0.045648318 0.046517264 0.03536327 0.05881492 0.031305198 0.031049797 0.03775442
00000000: dab0 0d3d bbf9 3a3d e388 3e3d 14d9 103d
00000010: eae7 703d e139 003d 255c fe3c 61a4 1a3d

residual_tower.blocks.0.conv1.weight f4 [8, 8, 3, 3]
0.0011262426 -0.049173273 0.009209695 -0.02956488 -0.02076876 0.015504766 0.014421742 0.033518273
0.09022931 -0.03122752 -0.1221265 -0.06902585 -0.017906658 0.17796274 -0.032673147 -0.01903612
-0.0644554 -0.039775528 -0.043710522 0.18447848 -0.119096465 -0.17469 0.10861282 -0.1272014
0.102198 0.14634943 0.015278793 0.0051036086 0.07767622 0.026550751 -0.1938779 -0.0041674874
0.10792326 0.17456603 -0.10663249 -0.05932144 0.10171546 -0.022569142 0.064452425 -0.05294078
-0.10035016 -0.031921487 -0.07010618 -0.042467188 0.007845273 -0.07225093 -0.003971783 -0.067588344
-0.029016566 0.08261489 -0.083082825 -0.005345924 -0.045489654 -0.05986496 0.16120195 -0.08363871
0.026504243 -0.08263642 -0.024002016 -0.024787629 0.01656255 0.04692557 -0.04340235 0.015443316
0.0053439564 0.03275672 -0.067122675 -0.053309724 -0.107112095 -0.05806702 0.020266674 0.014595335
-0.08654795 0.00816488 -0.1539639 -0.09254698 0.084491976 0.08305664 -0.09130599 0.026298577
-0.07082531 -0.039034337 0.10697389 0.026534034 0.11868189 -0.08262795 -0.07347604 0.0030970124
-0.066614166 0.03997116 -0.017857233 -0.065580286 -0.04187743 0.09787684 0.041936357 0.018457413
0.067798145 -0.08804492 -0.11042069 0.079873994 -0.028473845 -0.11826254 -0.16388945 0.11656063
0.113186106 0.09052532 -0.122396484 -0.09251742 0.03601023 0.13599314 0.09053036 -0.010633971
-0.007877614 0.08253012 -0.06874723 0.07072627 -0.011459119 0.033218205 0.031477146 -0.13230523
-0.07105513 -0.03341586 0.03506247 -0.046467066 -0.06252135 -0.090958364 -0.05182941 0.023382436
-0.04530519 0.06579189 -0.047294404 0.16066916 -0.06322111 -0.07014156 -0.072146386 -0.051313657
-0.14669071 -0.20394209 -0.06661936 -0.048494842 -0.010997879 -0.14091387 -0.029027002 -0.08386531
-0.026242672 -0.108893715 0.15689206 0.070765145 0.10950392 0.025685575 -0.010809116 0.107745945
-0.19484405 0.026916876 -0.042310998 -0.11733686 -0.0345667 0.0437272 0.092018455 -0.09912332
-0.015093994 -0.11585742 0.042944245 0.08787056 -0.1543004 0.016502352 -0.037267707 -0.051657554
0.11647939 0.06878316 0.054611985 0.08470936 0.01875047 0.023836182 -0.078791305 -0.019239863
-0.097038336 -0.13098292 0.15687273 0.10343034 0.05101415 0.1482971 -0.08800164 0.09560407
-0.10099543 -0.03447665 0.019740632 -0.09017337 -0.03744769 0.058645606 -0.007519782 -0.16294317
0.04816644 0.12050199 0.0045589325 -0.16739124 -0.18576542 -0.09681677 -0.12628117 0.07745638
-0.03497656 0.07746805 0.18508984 -0.1157861 0.059439305 0.1898369 0.059010115 -0.027982203
0.015150518 0.02437718 0.008179662 -0.035894386 0.1192486 -0.06666025 0.012427086 0.05952549
-0.11133695 0.051768374 0.17847179 0.06270445 0.05143405 -0.032897115 0.10328479 0.017925702
-0.01593981 -0.03392621 -0.025106696 0.14494643 0.04884308 -0.0014038039 -0.09924292 -0.043095555
0.009827267 -0.042099223 -0.19896121 -0.109330766 -0.23938332 -0.07283756 0.045597203 -0.014131906
0.032575388 -0.07394364 -0.0038088034 0.060237896 0.047872145 0.008709632 -0.051635582 0.054700404
0.0064443373 0.050240237 0.0027349389 0.054653145 0.04500554 0.09612892 0.019728476 -0.058465216
00000000: 6e9e 933a ea69 49bd 43e4 163c 0c32 f2bc
00000010: 3f23 aabc b407 7e3c 2c49 6c3c 754a 093d
00000020: 25ca b83d dbd0 ffbc 751d fabd 6d5d 8dbd
00000030: fcb0 92bc dd3b 363e 47d4 05bd a3f1 9bbc
00000040: 3101 84bd aaeb 22bd ce09 33bd ede7 3c3e
00000050: d9e8 f3bd efe1 32be 6670 de3d 1541 02be
00000060: 2f4d d13d a0dc 153e e753 7a3c 2c3c a73b
00000070: b614 9f3d f680 d93c ee87 46be 6b8f 88bb
00000080: df06 dd3d 70c1 323e 2362 dabd 0afb 72bd
00000090: 3250 d03d ece2 b8bc a2ff 833d 6ed8 58bd
000000a0: 6284 cdbd 1bc0 02bd d493 8fbd 13f2 2dbd
000000b0: 7689 003c 4cf8 93bd bb25 82bb c26b 8abd
000000c0: 26b4 edbc ff31 a93d 5427 aabd dc2c afbb
000000d0: 5c53 3abd f634 75bd 2012 253e c64a abbd
000000e0: 6d1f d93c 493d a9bd e09f c4bc 6d0f cbbc
000000f0: 2fae 873c 0735 403d aac6 31bd f605 7d3c
00000100: 5b1c af3b e92b 063d 9d77 89bd 4c5b 5abd
00000110: 965d dbbd afd7 6dbd 4c06 a63c 4621 6f3c
00000120: 0d40 b1bd fdc5 053c b6a8 1dbe 4589 bdbd
00000130: 210a ad3d 9a19 aa3d a3fe babd 1d70 d73c
00000140: dc0c 91bd 78e2 1fbd 2015 db3d e75d d93c
00000150: 7e0f f33d d838 a9bd 9b7a 96bd 3ff7 4a3b
00000160: 026d 88bd cdb8 233d 5549 92bc f54e 86bd
00000170: ab87 2bbd a773 c83d 75c5 2b3d 0034 973c
00000180: c1d9 8a3d e550 b4bd 3e24 e2bd fa94 a33d
00000190: fb41 e9bc a133 f2bd a3d2 27be 57b7 ee3d
000001a0: 1ece e73d 5765 b93d 02ab fabd c679 bdbd
000001b0: 777f 133d c941 0b3e fb67 b93d 1b3a 2ebc
000001c0: 1c11 01bc 8d05 a93d 59cb 8cbd efd8 903d
000001d0: 07bf 3bbc d00f 083d 2eee 003d 067b 07be
000001e0: 5a85 91bd 12df 08bd aa9d 0f3d 4054 3ebd
000001f0: 320b 80bd 6148 babd 134b 54bd 868c bf3c
00000200: ef91 39bd e6bd 863d c7b7 41bd 7586 243e
00000210: 127a 81bd 61a6 8fbd 7cc1 93bd 452e 52bd
00000220: 1736 16be 32d6 50be bb6f 88bd 87a2 46bd
00000230: 7330 34bc ba4b 10be 09ca edbc 93c1 abbd
00000240: dffa d6bc ab03 dfbd 50a8 203e 51ed 903d
00000250: 9743 e03d 8e6a d23c b818 31bc e8a9 dc3d
00000260: 3385 47be c880 dc3c 4c4e 2dbd 4f4e f0bd
00000270: d095 0dbd 4b1b 333d 2c74 bc3d 2b01 cbbd
00000280: cd4c 77bc a846 edbd 4ee6 2f3d 7bf5 b33d
00000290: ed00 1ebe f12f 873c 06a6 18bd df96 53bd
000002a0: bf8c ee3d 2fde 8c3d d1b0 5f3d 1a7c ad3d
000002b0: 969a 993c 1944 c33c 565d a1bd eb9c 9dbc
000002c0: 09bc c6bd 6320 06be 3fa3 203e 49d3 d33d
000002d0: 37f4 503d 32db 173e 343a b4bd 11cc c33d
000002e0: b1d6 cebd 6337 0dbd 1bb7 a13c d1ac b8bd
000002f0: c062 19bd 6036 703d 8168 f6bb 93da 26be
00000300: 2c4a 453d bfc9 f63d 1963 953b 9c68 2bbe
00000310: 4a39 3ebe df47 c6bd da4f 01be 73a1 9e3d
00000320: 9543 0fbd 92a7 9e3d 3188 3d3e 4321 edbd
00000330: a176 733d 9b64 423e 97b4 713d ef3a e5bc
00000340: e139 783c a7b2 c73c fd03 063c fe05 13bd
00000350: 9c38 f43d 2b85 88bd fa9a 4b3c 00d1 733d
00000360: a004 e4bd 130b 543d 4fc1 363e 316b 803d
00000370: 83ac 523d 20bf 06bd fa86 d33d ecd8 923c
00000380: 3494 82bc 36f6 0abd 8fac cdbc d66c 143e
00000390: ae0f 483d d8ff b7ba df3f cbbd f784 30bd
000003a0: 8c02 213c 3c70 2cbd 7dbc 4bbe cfe8 dfbd
000003b0: e720 75be dc2b 95bd 22c4 3a3d 8389 67bc
000003c0: c56d 053d c36f 97bd 1e9d 79bb 03bc 763d
000003d0: 9515 443d d8b2 0e3c d57f 53bd 880d 603d
000003e0: 052b d33b b5c8 4d3d a93c 333b fadb 5f3d
000003f0: bb57 383d 3ddf c43d 9d9d a13c 3979 6fbd

residual_tower.blocks.0.conv1.bias f4 [8]
-1.20347495e-05 -1.5487799e-06 -7.4890154e-06 1.2970639e-06 -3.5734208e-06 -8.645575e-06 -5.0622325e-06 -2.6591883e-07
00000000: dbe8 49b7 acdf cfb5 274a fbb6 c716 ae35
00000010: e7ce 6fb6 760c 11b7 3fdc a9b6 9bc3 8eb4

residual_tower.blocks.0.bn1.weight f4 [8]
0.19682956 0.23102076 0.26651463 0.26612267 0.24181037 0.24488495 0.2104061 0.26745316
00000000: b08d 493e b590 6c3e 9b74 883e 3b41 883e
00000010: 239d 773e 1fc3 7a3e b274 573e 9fef 883e

residual_tower.blocks.0.bn1.bias f4 [8]
-0.020068036 -0.123482496 -0.002589246 -0.06878459 0.033621978 -0.07627361 -0.050883695 -0.08833539
00000000: b965 a4bc 64e4 fcbd 57b0 29bb efde 8cbd
00000010: 33b7 093d 5735 9cbd 6c6b 50bd 2fe9 b4bd

residual_tower.blocks.0.bn1.running_mean f4 [8]
-0.0749204 -0.15173782 0.07558499 -0.103610486 -0.036605086 -0.051632375 0.00318521 0.011106604
00000000: de6f 99bd 2961 1bbe 4ecc 9a3d bc31 d4bd
00000010: 37ef 15bd 787c 53bd f5be 503b 79f8 353c

residual_tower.blocks.0.bn1.running_var f4 [8]
0.026828924 0.016008127 0.033854175 0.031417813 0.031760406 0.029250711 0.026212612 0.030205244
00000000: 55c8 db3c 7a23 833c adaa 0a3d f7af 003d
00000010: 3317 023d 309f ef3c d5bb d63c fd70 f73c

residual_tower.blocks.0.conv2.weight f4 [8, 8, 3, 3]
-0.021986054 0.06325201 -0.063149124 0.04791508 0.07294269 -0.008774777 0.06419646 0.0292776
0.052769925 0.010628057 -0.0068910965 0.083450854 0.09722429 -0.050534368 0.0032007971 -0.14462475
-0.028844846 0.020470098 0.015713613 -0.06729107 0.11164524 -0.13647646 -0.024910089 -0.10323252
0.06538319 -0.14494951 -0.18121462 0.14904842 -0.007218712 0.061457355 -0.0065741083 -0.10661942
0.10755239 0.055000503 0.005280041 -0.05623458 -0.102969445 0.03758218 0.0075952243 -0.035507385
-0.0021794345 -0.1443668 -0.1896549 0.11859966 -0.05600385 0.08036793 0.14077045 -0.101679616
0.050464664 -0.012486079 0.038171697 0.027937878 -0.16265401 -0.012876396 0.029231844 -0.043548148
-0.0060904175 -0.10804006 -0.036952097 0.1354363 0.18365078 0.014372364 0.051720377 0.17946099
0.14769533 0.041416883 0.08101325 0.034723096 -0.10299773 -0.07873777 -0.019836836 -0.07588988
-0.026731072 -0.016546369 -0.16035567 -0.00223779 -0.07134838 0.113590725 0.010816289 -0.034852132
-0.06303643 -0.0095241675 0.053902283 0.07354255 -0.07387883 -0.1190008 -0.0058366074 0.07059977
0.006768444 0.18360306 0.004761824 -0.0039435443 -0.10381443 0.006060234 0.09942194 0.028825764
-0.01643853 0.03294243 -0.1796561 -0.010933923 -0.026699051 -0.07134061 0.0056265444 -0.08082568
-0.06199815 -0.04282646 -0.0006616392 -0.06920064 -0.1020316 0.1005567 -0.16984822 -0.08909366
0.082577184 0.07461825 0.20339483 -0.15430811 -0.1292644 -0.03683789 0.036040608 0.0347398
-0.12247678 -0.13057941 0.05849568 0.029692477 -0.028021289 0.1149346 -0.0662272 0.013960937
0.018302776 -0.15338719 -0.0061945897 -0.06977103 -0.014794009 0.03351022 -0.0853272 -0.0112840375
-0.06358121 -0.028531823 0.007910192 0.1430894 0.1839045 -0.010586356 -0.124727614 -0.08279516
0.04197369 0.02883453 -0.08090225 -0.02645061 -0.102244936 -0.053268425 0.042806152 -0.028742637
0.100502014 0.102076106 -0.009112747 -0.07941126 -0.0690804 -0.10036756 0.014794312 0.11369869
-0.11771036 -0.052386303 0.08966245 0.12245273 0.07781052 0.16783042 -0.13118486 -0.06341039
0.09140479 0.038290415 -0.21838053 -0.028784387 0.023736466 0.05644344 -0.027376527 0.06813037
-0.00039447763 0.12045698 -0.022866001 0.0063258773 0.043895 0.12248467 -0.010369229 0.010471246
0.089771524 -0.051269468 0.09241893 -0.07420298 0.009838222 0.02756895 -0.09948367 -0.09807577
-0.14373975 0.06561102 0.039163806 0.008330384 0.14850618 0.04115126 0.007443031 0.032712035
-0.017594578 -0.19736865 0.0150745 0.14652303 0.009390395 -0.09995862 0.09071624 -0.051333692
0.08644965 -0.04445946 -0.14930302 -0.087257005 0.019306129 -0.061049093 0.039229568 -0.038331416
-0.008889663 0.047605526 -0.08136004 -0.1698197 0.0036679208 0.08910268 -0.0076639056 -0.018070675
0.0013697101 -0.00030409245 -0.05269687 -0.024701545 0.039075963 0.09381023 -0.037232853 -0.006107161
-0.032353494 0.05598688 -0.033841036 0.025289265 0.0272412 0.058946636 0.02409417 0.040459454
-0.013055367 -0.013025308 -0.06683758 -0.07472419 0.03289481 -0.0031969796 0.013997112 0.032726616
-0.08789539 0.08256221 0.030793581 0.00477266 -0.06819844 0.0010730105 -0.1153542 -0.018189287
00000000: 191c b4bc 458a 813d 5454 81bd 9a42 443d
00000010: fa62 953d 15c4 0fbc 6f79 833d 94d7 ef3c
00000020: 4725 583d 4d21 2e3c b5ce e1bb 48e8 aa3d
00000030: 871d c73d 20fd 4ebd 77c4 513b 8318 14be
00000040: 074c ecbc e8b0 a73c d6b9 803c e7cf 89bd
00000050: 42a6 e43d 7cc0 0bbe 3e10 ccbc 926b d3bd
00000060: 9fe7 853d a56d 14be 5390 39be 26a0 183e
00000070: f28a ecbb b5ba 7b3d 9e6b d7bb 485b dabd
00000080: 6d44 dc3d 3548 613d 3204 ad3b 3b56 66bd
00000090: a5e1 d2bd c6ef 193d 5ce1 f83b 3170 11bd
000000a0: d8d4 0ebb e4d4 13be e534 42be 61e4 f23d
000000b0: 4b64 65bd f197 a43d 2126 103e 673d d0bd
000000c0: 09b4 4e3d 6992 4cbc ed59 1c3d fadd e43c
000000d0: c68e 26be 85f7 52bc 9f77 ef3c 8b5f 32bd
000000e0: 2092 c7bb 1b44 ddbd 155b 17bd d0af 0a3e
000000f0: f30e 3c3e 107a 6b3c bfd8 533d 9fc4 373e
00000100: 723d 173e c0a4 293d 46ea a53d ce39 0e3d
00000110: 79f0 d2bd 4541 a1bd dc80 a2bc 276c 9bbd
00000120: 1ffb dabc 408c 87bc 4734 24be e3a7 12bb
00000130: 191f 92bd 41a2 e83d ce36 313c 1cc1 0ebd
00000140: 3e19 81bd 410b 1cbc a4c8 5c3d 7a9d 963d
00000150: c94d 97bd b1b6 f3bd 0341 bfbb 9d96 903d
00000160: d3c9 dd3b 7102 3c3e 1309 9c3b d938 81bb
00000170: a99c d4bd ed94 c63b bb9d cb3d 0224 ec3c
00000180: 19aa 86bc a4ee 063d c5f7 37be 3224 33bc
00000190: f8b7 dabc 071b 92bd e05e b83b ef87 a5bd
000001a0: c6f1 7dbd cc6a 2fbd db71 2dba 11b9 8dbd
000001b0: f2f5 d0bd acf0 cd3d b1ec 2dbe bd76 b6bd
000001c0: 3a1e a93d 74d1 983d bc46 503e f202 1ebe
000001d0: e35d 04be 54e3 16bd 519f 133d 524b 0e3d
000001e0: 1bd5 fabd 9cb6 05be 2b99 6f3d a33d f33c
000001f0: e78c e5bc d562 eb3d 20a2 87bd 6abc 643c
00000200: b4ef 953c 8811 1dbe fcfb cabb 1de4 8ebd
00000210: 9262 72bc 0342 093d 07c0 aebd afe0 38bc
00000220: de36 82bd 92bb e9bc c099 013c 0786 123e
00000230: 7651 3c3e 6572 2dbc 3171 ffbd 8290 a9bd
00000240: 9bec 2b3d 6436 ec3c 14b0 a5bd f3ae d8bc
00000250: cb65 d1bd fe2f 5abd 8155 2f3d ae75 ebbc
00000260: 00d4 cd3d 470d d13d a24d 15bc 5fa2 a2bd
00000270: 067a 8dbd 828d cdbd d863 723c dcda e83d
00000280: 2112 f1bd 0593 56bd f2a0 b73d 7fc8 fa3d
00000290: 1f5b 9f3d bddb 2b3e 5355 06be 4edd 81bd
000002a0: 6f32 bb3d 69d6 1c3d 259f 5fbe 3ccd ebbc
000002b0: fa72 c23c 3d31 673d bd44 e0bc ef87 8b3d
000002c0: e4d1 ceb9 26b2 f63d 7b51 bbbc 4e49 cf3b
000002d0: 3ecb 333d 3ed9 fa3d b3e3 29bc 978f 2b3c
000002e0: 22da b73d efff 51bd 2346 bd3d bbf7 97bd
000002f0: 7e30 213c 47d8 e13c 18be cbbd f3db c8bd
00000300: 8330 13be 125f 863d 3a6a 203d 2a7c 083c
00000310: 0112 183e 398e 283d abe4 f33b 0efd 053d
00000320: 8122 90bc 021b 4abe 09fb 763c 220a 163e
00000330: 2cda 193c 1bb7 ccbd 70c9 b93d 4743 52bd
00000340: 840c b13d 1f1b 36bd e4e2 18be cdb3 b2bd
00000350: e327 9e3c 9d0e 7abd 2faf 203d 6701 1dbd
00000360: f3a5 11bc 03fe 423d 18a0 a6bd 37e5 2dbe
00000370: 8061 703b 777b b63d 8021 fbbb f408 94bc
00000380: d887 b33a 996e 9fb9 acd8 57bd e55a cabc
00000390: 1e0e 203d 941f c03d 7a81 18bd 941e c8bb
000003a0: 1985 04bd 8052 653d e69c 0abd 6f2b cf3c
000003b0: f028 df3c 0772 713d 2361 c53c d0b8 253d
000003c0: 2ee6 55bc 1a68 55bc 24e2 88bd ff08 99bd
000003d0: b5bc 063d 6b84 51bb 2554 653c 580c 063d
000003e0: 8002 b4bd 6016 a93d d242 fc3c f963 9c3b
000003f0: a0ab 8bbd 42a4 8c3a d33e ecbd b301 95bc

residual_tower.blocks.0.conv2.bias f4 [8]
-1.3533985e-05 5.8365454e-06 7.851475e-06 -4.6715826e-07 -6.2529904e-07 2.3815212e-05 1.0860959e-05 7.6310477e-07
00000000: 0610 63b7 8bd7 c336 d4b9 0337 becd fab4
00000010: 39da 27b5 c7c6 c737 7737 3637 29d8 4c35

residual_tower.blocks.0.bn2.weight f4 [8]
0.27073786 0.2577201 0.3016718 0.08497001 0.10458509 0.25969514 0.23667414 0.2121832
00000000: 279e 8a3e e4f3 833e ba74 9a3e c204 ae3d
00000010: b530 d63d c3f6 843e b55a 723e 8e46 593e

residual_tower.blocks.0.bn2.bias f4 [8]
-0.0312132 -0.08075736 -0.11949603 0.03331607 0.046582356 -0.08274518 -0.10810893 0.010035621
00000000: d3b2 ffbc 1d64 a5bd 56ba f4bd 6e76 083d
00000010: 24cd 3e3d 4e76 a9bd 3768 ddbd 726c 243c

residual_tower.blocks.0.bn2.running_mean f4 [8]
-0.03889216 -0.06981936 0.0070711966 -0.015450195 -0.08050271 -0.041082017 -0.107446894 -0.07545468
00000000: 634d 1fbd 74fd 8ebd 7fb5 e73b d122 7dbc
00000010: 9bde a4bd 9e45 28bd 1e0d dcbd fc87 9abd

residual_tower.blocks.0.bn2.running_var f4 [8]
0.010965558 0.0089547625 0.009046731 0.0032171563 0.007467088 0.007341777 0.009842782 0.01137599
00000000: e2a8 333c ffb6 123c bd38 143c edd6 523b
00000010: 79ae f43b 4a93 f03b 9f43 213c 5c62 3a3c

residual_tower.blocks.1.conv1.weight f4 [8, 8, 3, 3]
0.12921312 0.031822894 -0.10792813 0.03329344 -0.014933981 0.056518055 0.002923544 -0.035142448
0.08925339 0.015551561 -0.02860439 -0.017945895 0.15532468 0.048377767 -0.03824523 0.068870746
0.1368089 0.06331311 0.1497301 0.08802232 0.13241535 0.10444425 0.010846308 -0.15865608
-0.02898334 -0.02908981 0.10856545 0.012041738 0.05169721 0.03093367 -0.040644333 0.077567644
-0.041299064 0.06483807 -0.0829282 -0.009221302 -0.011451229 -0.04714297 -0.014447531 -0.0057767206
0.054763056 0.056138493 -0.017288227 -0.04654846 -0.009015094 0.05132019 0.013441569 0.008707963
-0.08370217 0.021312185 0.01472004 0.036334965 0.019143565 -0.04917451 0.05193845 -0.0067099524
-0.09659939 -0.055024017 -0.038354818 0.047480546 0.06328713 0.03719068 0.06984225 0.044777475
-0.050326824 0.089581855 0.14624529 0.019860767 0.06870864 -0.029893575 0.0032578947 -0.12695818
0.14824155 0.021499556 0.032233454 0.026322668 0.009298411 -0.072354846 -0.022777468 -0.15223055
-0.026645849 -0.059569664 0.0065084817 -0.024432056 0.003779832 -0.094815806 0.021520251 0.14824392
0.14208385 0.1330795 -0.082113445 0.06525482 -0.05948875 0.13380824 -0.03901682 0.020341871
-0.07432836 0.015399433 -0.050323527 -0.072750755 0.0020040553 -0.06479291 -0.025439946 0.08332136
-0.009305751 -0.013226941 -0.09879642 -0.044044297 -0.0029586717 -0.042065155 -0.094810985 -0.07253161
-0.03337875 -0.13954984 0.059809387 0.0969646 0.13317646 0.10376665 -0.016215608 -0.044499636
0.07644529 -0.1079703 0.07636847 -0.10542717 0.13830411 0.18789741 -0.03864782 -0.06474584
-0.026772609 -0.054311622 -0.06424728 -0.03970855 0.024447346 0.0854344 -0.021243157 0.050122295
0.0784674 -0.12752129 -0.05628646 -0.03147478 -0.047030732 -0.0074103368 0.039091 -0.060338248
0.06939835 -0.09714507 0.056028645 0.056016758 0.14219229 0.029789252 0.012348523 0.05893018
-0.0056510195 -0.0021624404 0.025997106 0.037156504 0.023281813 -0.028281847 0.09215025 -0.058991127
0.007381468 -0.023285892 -0.09569589 0.0353479 0.020007068 -0.014778873 0.071185105 -0.050359458
-0.09996953 -0.046939734 0.13814609 0.08810296 0.08398262 0.13385284 0.025746372 -0.024338145
0.05225619 0.004954928 0.06723186 0.04826676 -0.04254532 0.068979755 0.023851298 -0.04155128
0.030123051 -0.029860662 0.076575726 0.052662265 -0.13666967 0.06415695 0.071510516 0.01952423
-0.02840908 -0.07439756 -0.051129207 -0.019714573 -0.13724299 -0.002730192 -0.10678338 -0.0067597674
-0.03918245 -0.09931791 0.030679425 0.05390491 0.1235998 0.09959777 -0.07534353 -0.14567447
0.021802897 0.05349599 -0.04632962 0.17497797 -0.012518152 -0.00877047 0.12464758 -0.055947397
-0.022884302 -0.074007496 -0.0843711 -0.02415015 -0.09426497 0.015781082 -0.13797341 -0.08386142
-0.056727685 -0.036352098 0.055853747 -0.04354717 0.048492663 0.07652087 -0.019835228 -0.01579648
-0.04531344 -0.06570747 -0.12849838 -0.06470913 -0.040139273 -0.06912194 -0.041913792 -0.004645982
0.062508404 0.027216738 -0.04917859 0.032601923 -0.014461119 0.014810487 0.012147995 0.104714505
-0.031067403 -0.02803004 0.009621633 -0.041735638 -0.012453677 0.011523674 -0.06618086 0.1039218
00000000: 7250 043e b958 023d 6c09 ddbd b45e 083d
00000010: a8ad 74bc 7a7f 673d ee98 3f3b 87f1 0fbd
00000020: 7bca b63d f9cb 7e3c c153 eabc 4503 93bc
00000030: 6f0d 1f3e c427 463d 08a7 1cbd 1b0c 8d3d
00000040: a217 0c3e 4eaa 813d d952 193e 0c45 b43d
00000050: e497 073e dee6 d53d b7b4 313c bd76 22be
00000060: 786e edbc c14d eebc 9057 de3d b64a 453c
00000070: 74c0 533d 9c68 fd3c ac7a 26bd c9db 9e3d
00000080: 3529 29bd d2c9 843d 43d6 a9bd f214 17bc
00000090: f09d 3bbc fd18 41bd 56b5 6cbc a54a bdbb
000000a0: 3a4f 603d 7af1 653d 0aa0 8dbc 99a9 3ebd
000000b0: 0bb4 13bc 1f35 523d 073a 5c3c d8ab 0e3c
000000c0: 0b6c abbd e496 ae3c 532c 713c f9d3 143d
000000d0: f7d2 9c3c 366b 49bd 6abd 543d 29df dbbb
000000e0: e7d5 c5bd dd60 61bd f119 1dbd f67a 423d
000000f0: af9c 813d 4155 183d 7409 8f3d 9668 373d
00000100: 8023 4ebd b176 b73d 53c1 153e 0cb3 a23c
00000110: 1eb7 8c3d 5fe3 f4bc 6782 553b 5301 02be
00000120: a2cc 173e d61f b03c 3a07 043d a3a2 d73c
00000130: 5d58 183c c72e 94bd d097 babc 53e2 1bbe
00000140: 6548 dabc 52ff 73bd 1a45 d53b bc25 c8bc
00000150: 0fb7 773b ca2e c2bd 3d4b b03c 41cd 173e
00000160: 6e7e 113e fe45 083e 182b a8bd 52a4 853d
00000170: 7aaa 73bd 0705 093e 1ad0 1fbd ffa3 a63c
00000180: 7839 98bd e74d 7c3c 0b20 4ebd 59fe 94bd
00000190: 7856 033b 25b2 84bd 6f67 d0bc 64a4 aa3d
000001a0: 2677 18bc d0b5 58bc c755 cabd cb67 34bd
000001b0: 46e6 41bb 834c 2cbd 432c c2bd 748b 94bd
000001c0: 28b8 08bd 27e6 0ebe b0fa 743d 6095 c63d
000001d0: 695f 083e 9c83 d43d 98d6 84bc 4045 36bd
000001e0: 598f 9c3d 881f ddbd 1367 9c3d 33ea d7bd
000001f0: 989f 0d3e 2e68 403e 2d4d 1ebd 7899 84bd
00000200: 3b52 dbbc dd75 5ebd 1494 83bd 6fa5 22bd
00000210: cd45 c83c 3bf8 ae3d 2106 aebc 094d 4d3d
00000220: 84b3 a03d f194 02be a28c 66bd b3eb 00bd
00000230: 4ca3 40bd 69d2 f2bb e21d 203d 3d25 77bd
00000240: b920 8e3d fff3 c6bd 4b7e 653d d471 653d
00000250: db9a 113e 9708 f43c 7651 4a3c c660 713d
00000260: 302c b9bb bbb7 0dbb e2f7 d43c 6b31 183d
00000270: 80b9 be3c 55af e7bc 45b9 bc3d aea0 71bd
00000280: 3ee0 f13b 0ec2 bebc 35fc c3bd f6c8 103d
00000290: dde5 a33c 1623 72bc 7fc9 913d b845 4ebd
000002a0: d3bc ccbd e143 40bd 2b76 0d3e 536f b43d
000002b0: 14ff ab3d b810 093e 0eea d23c ca60 c7bc
000002c0: 960a 563d f35c a23b dbb0 893d 5eb3 453d
000002d0: 0044 2ebd 4245 8d3d cc63 c33c ad31 2abd
000002e0: 9ec4 f63c 599e f4bc bcd3 9c3d 63b4 573d
000002f0: 22f3 0bbe b864 833d 1b74 923d 47f1 9f3c
00000300: 29ba e8bc bf5d 98bd dc6c 51bd 7580 a1bc
00000310: 6d89 0cbe 05ed 32bb 3fb1 dabd 0a81 ddbb
00000320: c77d 20bd 3067 cbbd 6b53 fb3c 65cb 5c3d
00000330: e421 fd3d eaf9 cb3d b54d 9abd b02b 15be
00000340: fd9b b23c 9c1e 5b3d 21c4 3dbd 6d2d 333e
00000350: ef18 4dbc 04b2 0fbc 3b47 ff3d 1929 65bd
00000360: dc77 bbbc 3e91 97bd c1ca acbd 89d6 c5bc
00000370: fe0d c1bd 5447 813c e748 0dbe 89bf abbd
00000380: 4a5b 68bd f0e5 14bd e6c6 643d 845e 32bd
00000390: 3ea0 463d f9b6 9c3d 7d7d a2bc 9f67 81bc
000003a0: 969a 39bd a391 86bd 1495 03be 3886 84bd
000003b0: 1469 24bd ce8f 8dbd ccad 2bbd 523d 98bb
000003c0: 6804 803d a3f5 de3c 7d6f 49bd 9889 053d
000003d0: 54ee 6cbc afa7 723c 6208 473c 8f74 d63d
000003e0: 1181 febc 419f e5bc 0ea4 1d3c fdf2 2abd
000003f0: 820a 4cbc cbcd 3c3c d589 87bd f4d4 d43d

residual_tower.blocks.1.conv1.bias f4 [8]
3.1314096e-06 2.1550645e-06 -4.2760485e-06 -8.079382e-07 -8.649684e-06 -1.5338355e-06 2.0426662e-05 2.2444603e-07
00000000: 3525 5236 ba9f 1036 fa7a 8fb6 17e1 58b5
00000010: 1c1e 11b7 30de cdb5 ec59 ab37 41ff 7034

residual_tower.blocks.1.bn1.weight f4 [8]
0.15434076 0.21890678 0.1827244 0.18650061 0.14247054 0.1868481 0.2007165 0.20230028
00000000: 810b 1e3e 1929 603e 1b1c 3b3e 04fa 3e3e
00000010: cce3 113e 1c55 3f3e a088 4d3e ce27 4f3e

residual_tower.blocks.1.bn1.bias f4 [8]
-0.11103412 -0.09312277 -0.13405588 -0.1596171 -0.045738995 -0.09211482 -0.068916276 -0.1564544
00000000: db65 e3bd 27b7 bebd f245 09be aa72 23be
00000010: d058 3bbd b2a6 bcbd fa23 8dbd 9535 20be

residual_tower.blocks.1.bn1.running_mean f4 [8]
0.1412061 -0.067241095 0.12403179 -0.09958267 -0.008139293 -0.021350238 -0.051826283 -0.06404532
00000000: 5598 103e b3b5 89bd 6104 fe3d 00f2 cbbd
00000010: ab5a 05bc b2e6 aebc cc47 54bd 312a 83bd

residual_tower.blocks.1.bn1.running_var f4 [8]
0.015719507 0.02219745 0.020713339 0.016626377 0.017352102 0.018075429 0.029054489 0.026579253
00000000: 32c6 803c 6dd7 b53c 05af a93c 0a34 883c
00000010: ff25 8e3c ec12 943c ae03 ee3c bcbc d93c

residual_tower.blocks.1.conv2.weight f4 [8, 8, 3, 3]
0.02608819 -0.012761896 0.043013275 0.060888067 -0.013602189 0.14244281 -0.01431288 -0.074784696
0.056007795 -0.009740199 0.03218092 -0.00070000434 -0.07040649 -0.0813596 0.096433215 0.022574354
-0.0519646 0.064881876 0.08474705 0.06487595 0.06694598 -0.034533948 0.037912745 0.080523856
0.06668465 -0.031563077 0.049029853 -0.0065961303 -0.020522574 -0.06788724 0.07475156 -0.095283486
-0.056427028 0.021561814 0.020097367 -0.035758846 0.061596937 -0.0004986278 0.038767353 0.10922942
-0.04300839 -0.041793548 0.022700632 -0.03064712 -0.027057597 -0.022813743 0.19093616 -0.03427426
0.16258726 0.052839704 0.024950756 0.07467758 -0.02241875 0.039096177 -0.06805205 0.020574732
0.027915074 -0.13795793 -0.07084074 0.11976594 -0.032080125 0.058034904 0.028316481 -0.05466204
0.035006452 0.07092696 0.0142741185 -0.079460315 -0.016280992 0.070519455 0.025672683 0.05700281
-0.04370994 -0.06262413 0.07995676 0.003936298 -0.096705645 -0.04632265 0.004242479 0.05363067
-0.09150556 0.01170563 0.047603652 0.082715444 -0.115357906 -0.012863312 -0.041951932 -0.028784828
0.06792578 -0.07966144 -0.07677347 -0.16758254 -0.031483576 0.06426873 0.015245072 -0.16147557
0.01890755 0.07048954 -0.060364857 -0.03653989 -0.1332249 0.0063152397 0.06678537 0.010816568
-0.0052335397 0.035715148 -0.026115278 0.07691729 0.00036167973 -0.055161748 -0.01831661 0.059991773
0.030812984 -0.04163657 -0.07182661 0.16669656 -0.00072280894 -0.070905715 -0.08499485 -0.04610891
0.0634401 0.13413998 0.050379056 -0.004209016 0.0015997023 -0.116982736 -0.09307722 0.00965893
-0.011856436 0.0078552235 -0.11662737 -0.14275712 -0.06620759 -0.12882333 -0.01362923 0.0376513
0.079398714 -0.13447727 0.060097724 0.024083247 -0.18044643 -0.098030254 0.13528515 -0.0023509834
-0.038804542 -0.02846858 -0.038725868 -0.08804781 0.038196914 0.023245854 -0.06261359 -0.033727035
-0.14607877 -0.026954822 0.03114372 -0.106337324 -0.019399842 -0.02224795 0.17294337 -0.119337015
0.06927235 0.023582805 -0.01126681 0.12218422 -0.09556937 0.09907515 -0.09569517 -0.04441667
0.011541567 -0.031168217 -0.041386448 0.04709228 -0.030615672 -0.12465395 -0.00907828 -0.045355342
-0.0066110697 0.034895267 -0.11627529 -0.055703048 0.11805305 -0.005230979 -0.13356774 0.1515147
-0.049821462 -0.14533842 -0.030726414 0.043654025 0.06514756 -0.024032092 0.05878635 0.040594902
-0.10611097 0.049767688 -0.005997407 -0.0028568637 0.09982626 0.059661172 0.04489918 0.12381112
0.009970506 0.10681595 -0.043027826 0.20191911 -0.16977951 0.022321038 0.0029794348 -0.1061043
0.016209045 -0.00082311826 -0.067204475 -0.08267823 -0.106433414 -0.0011381888 -0.03909034 -0.020939864
0.04473353 0.034505032 -0.07053908 0.042902265 0.07833143 0.045636296 -0.004974489 0.010200986
-0.04114953 -0.040639337 0.006520246 -0.085836 -0.10146248 0.051710222 -0.023878558 0.17687172
0.09056146 0.085699454 -0.033510152 0.04621722 -0.03369767 -0.053326532 -0.028262211 0.073600136
-0.035607085 0.05922171 0.011397378 -0.1189555 -0.024957027 0.02539475 0.11536923 0.05939107
-0.016199034 0.003996132 0.0044692936 0.009178151 -0.04123012 -0.08010479 -0.078825705 0.034395646
00000000: e6b6 d53c 4517 51bc b02e 303d c465 793d
00000010: b7db 5ebc 87dc 113e 9280 6abc b828 99bd
00000020: 6e68 653d 5b95 1fbc 24d0 033d 7f80 37ba
00000030: 4731 90bd dd9f a6bd c77e c53d daed b83c
00000040: d5d8 54bd cae0 843d dd8f ad3d afdd 843d
00000050: f91a 893d 7873 0dbd 654a 1b3d b1e9 a43d
00000060: f691 883d 4948 01bd 87d3 483d 5a24 d8bb
00000070: f51e a8bc 7708 8bbd 5917 993d fd23 c3bd
00000080: 0720 67bd 67a2 b03c 3ca3 a43c de77 12bd
00000090: 124d 7c3d 58b6 02ba 84ca 1e3d adb3 df3d
000000a0: 9129 30bd b62f 2bbd adf6 b93c ab0f fbbc
000000b0: e5a7 ddbc e3e3 babc c584 433e 2b63 0cbd
000000c0: 467d 263e 726e 583d 8765 cc3c 8ff0 983d
000000d0: 87a7 b7bc 5023 203d e05e 8bbd 578c a83c
000000e0: 27ae e43c d844 0dbe f314 91bd d847 f53d
000000f0: 7366 03bd 02b6 6d3d f7f7 e73c 4ee5 5fbd
00000100: ed62 0f3d 2742 913d fedd 693c 17bc a2bd
00000110: b75f 85bc 816c 903d 854f d23c c77b 693d
00000120: 3209 33bd 1441 80bd 5fc0 a33d 10fc 803b
00000130: 9c0d c6bd d2bc 3dbd 7e04 8b3b d5ab 5b3d
00000140: 4467 bbbd f9c8 3f3c 0cfc 423d b766 a93d
00000150: c440 ecbd a4c0 52bc cad5 2bbd 29ce ebbc
00000160: ac1c 8b3d 8925 a3bd 693b 9dbd c29a 2bbe
00000170: ecf4 00bd 539f 833d 77c6 793c da59 25be
00000180: 02e4 9a3c d25c 903d 2441 77bd daaa 15bd
00000190: 1c6c 08be 12f0 ce3b c5c6 883d f937 313c
000001a0: 1d7e abbb 0c4a 123d b5ef d5bc d086 9d3d
000001b0: d59f bd39 49f1 61bd b70c 96bc efb9 753d
000001c0: 836b fc3c 1c8b 2abd d419 93bd 81b2 2a3e
000001d0: e37a 3dba 0437 91bd c811 aebd b2dc 3cbd
000001e0: e2ec 813d fe5b 093e 455a 4e3d c9eb 89bb
000001f0: 1aad d13a a594 efbd 459f bebd 7d40 1e3c
00000200: 7f41 42bc 32b3 003c 55da eebd ec2e 12be
00000210: d897 87bd 43ea 03be 224d 5fbc 4038 1a3d
00000220: cb9b a23d 69b4 09be 0829 763d 3b4a c53c
00000230: f3c6 38be 16c4 c8bd 3188 0a3e f512 1abb
00000240: 83f1 1ebd f136 e9bc 049f 1ebd 6952 b4bd
00000250: 5e74 1c3d 176e be3c 8e3b 80bd 5c25 0abd
00000260: ac95 15be 5cd0 dcbc 1d21 ff3c 62c7 d9bd
00000270: 6bec 9ebc 5541 b6bc 1118 313e f766 f4bd
00000280: a9de 8d3d ba30 c13c 6d98 38bc b83b fa3d
00000290: e0b9 c3bd eae7 ca3d d4fb c3bd 41ee 35bd
000002a0: d718 3d3c 7d54 ffbc d684 29bd d6e3 403d
000002b0: b8cd fabc 924a ffbd 11bd 14bc 86c6 39bd
000002c0: aca1 d8bb 57ee 0e3d bd21 eebd e128 64bd
000002d0: ccc5 f13d a268 abbb fbc5 08be ab26 1b3e
000002e0: 9711 4cbd 98d3 14be f6b5 fbbc 90ce 323d
000002f0: 156c 853d f3de c4bc f5c9 703d d746 263d
00000300: b550 d9bd 34d9 4b3d e585 c4bb 383a 3bbb
00000310: b671 cc3d 465f 743d 34e8 373d af90 fd3d
00000320: 555b 233c 52c2 da3d f23d 30bd e2c3 4e3e
00000330: aeda 2dbe 9cda b63c 9f42 433b 364d d9bd
00000340: d5c8 843c 88c6 57ba 80a2 89bd 3453 a9bd
00000350: c3f9 d9bd 472f 95ba 311d 20bd 148a abbc
00000360: 823a 373d 2655 0d3d cb76 90bd 49ba 2f3d
00000370: 3b6c a03d 20ed 3a3d 0a01 a3bb 0922 273c
00000380: 698c 28bd 6f75 26bd caa7 d53b c9ca afbd
00000390: 90cb cfbd 19ce 533d f79c c3bc dc1d 353e
000003a0: 4978 b93d 3283 af3d f141 09bd 454e 3d3d
000003b0: 9106 0abd ec6c 5abd 2786 e7bc abbb 963d
000003c0: bcd8 11bd 7792 723d 11bc 3a3c f19e f3bd
000003d0: ae72 ccbc a708 d03c b446 ec3d 0d44 733d
000003e0: d6b3 84bc fcf1 823b 2773 923b f55f 163c
000003f0: eae0 28bd fb0d a4bd 5f6f a1bd 73e2 0c3d

residual_tower.blocks.1.conv2.bias f4 [8]
2.6127234e-06 4.2556403e-06 8.900979e-06 2.6413657e-06 -1.6258859e-05 -8.659162e-06 -1.2730438e-05 4.4349463e-06
00000000: 3f56 2f36 accb 8e36 6a55 1537 5142 3136
00000010: a263 88b7 d146 11b7 d194 55b7 e6cf 9436

residual_tower.blocks.1.bn2.weight f4 [8]
0.16341597 0.20029375 0.16130912 0.120402314 0.10469837 0.14897116 0.14993067 0.01683939
00000000: 8456 273e ce19 4d3e 382e 253e 7d95 f63d
00000010: 196c d63d e58b 183e 6d87 193e c3f2 893c

residual_tower.blocks.1.bn2.bias f4 [8]
-0.12443361 -0.12663499 0.021617098 0.019463846 -0.04858372 0.0037576198 0.016676825 -0.043773975
00000000: 0cd7 febd 9aac 01be 5716 b13c a572 9f3c
00000010: b9ff 46bd 6642 763b d69d 883c 574c 33bd

residual_tower.blocks.1.bn2.running_mean f4 [8]
0.024064777 -0.033027112 -0.009491851 -0.02435526 -0.011719578 -0.04482216 0.023818059 -0.009191717
00000000: 7f23 c53c 7047 07bd b583 1bbc af84 c7bc
00000010: 7903 40bc 7197 37bd 171e c33c db98 16bc

residual_tower.blocks.1.bn2.running_var f4 [8]
0.0019755338 0.0038569542 0.0029054403 0.0024137532 0.002071781 0.0026929246 0.0037552614 0.0009481443
00000000: f577 013b f4c4 7c3b 3369 3e3b 0f30 1e3b
00000010: b8c6 073b c77b 303b d51a 763b e38c 783a

residual_tower.blocks.2.conv1.weight f4 [8, 8, 3, 3]
0.010104721 0.014324772 0.06935661 0.10753921 0.010852553 -0.08961188 -0.17847122 -0.04273302
0.0069192895 0.14710328 0.0073593473 0.026348814 -0.11851795 -0.08773247 -0.050002363 0.08914782
0.023250407 0.036352836 0.047561612 -0.009722276 -0.0114984345 -0.11707967 -0.018793313 0.024372356
0.058682695 -0.07051123 -0.06724124 0.101141274 0.06931339 0.03319962 -0.01757158 0.046175636
-0.031038994 0.017682375 0.1372838 0.024594137 0.04970777 -0.007852955 -0.005406377 -0.00016236819
-0.00525182 0.011970144 -0.12645577 -0.025454458 -0.081409976 0.090632804 0.10801258 0.11001521
0.019315492 0.015953375 -0.016141843 -0.06312223 0.016089834 -0.017698297 0.07864622 0.025902577
-0.08995795 -0.00230716 0.0005261231 0.0156034175 -0.029291317 -0.0017565504 0.009078416 -0.033514105
-0.0010032285 -0.078827776 -0.04128175 -0.07507663 0.07863521 -0.002223559 -0.12788814 -0.06050189
-0.0007758014 0.059986014 -0.05373719 0.019378738 -0.031611335 -0.05629059 0.0579889 -0.00030149057
-0.11140912 0.034912452 -0.08857749 -0.10282146 0.11066713 0.13534628 0.019473126 -0.020716656
0.045207806 -0.0041693156 0.0454513 0.14065343 0.09165822 0.03706673 0.021018382 -0.031091796
-0.03385345 0.030443484 0.08231063 0.040435106 0.021543961 -0.030179815 0.044174682 0.041217234
-0.017741758 0.12875715 -0.03922684 0.015371735 -0.037043743 0.04635382 0.037651625 -0.0073381057
-0.049605325 0.1064046 0.0038478652 -0.02192665 0.08753679 -0.026768476 0.09890434 0.10603695
-0.0737987 -0.011717067 0.015312354 -0.06853958 0.029320724 -0.04197929 0.054374836 -0.030475758
-0.049434625 -0.0481574 0.05935372 -0.0076049888 -0.047101438 -0.016138308 0.058303893 -0.031430036
0.021408409 -0.024936482 0.012566288 0.017371548 0.09691294 0.024346428 -0.005313409 0.05991727
-0.007821067 -0.044777308 -0.033273157 0.025039725 0.0730782 0.058637172 -0.01590285 0.022860976
-0.062283378 0.09881572 0.08434187 0.01758824 -0.009243669 0.0414331 -0.12324385 -0.051517807
0.109540455 0.020529255 -0.038554836 -0.065087974 -0.0855821 -0.04093194 0.006857594 -0.019631037
-0.12993698 -0.035140432 0.06057151 -0.13387753 0.06508974 -0.034094695 0.13537233 -0.09029328
-0.065331236 0.095278926 -0.07694454 -0.11909299 -0.011581175 -0.0602694 -0.033646755 -0.008380388
0.19608307 0.04173413 -0.061081387 0.08323205 0.058194708 -0.09388669 -0.049296673 -0.094791144
0.0262756 -0.0019328878 0.009743076 0.018269451 -0.042099744 -0.0033521324 -0.07203273 0.10358691
0.05486842 -0.14386111 0.12854244 0.014435118 -0.03790494 -0.057630196 -0.08991025 -0.054953095
-0.005923776 0.11567701 -0.06203521 0.026730755 -0.036645483 -0.040029902 0.017213397 -0.041497126
0.025540363 0.006785542 0.0075990874 -0.004112546 -0.04464994 -0.042007748 -0.049011845 0.044800352
0.012135391 -0.08753714 -0.119869135 -0.08008751 0.074545726 -0.008908421 0.04985436 0.06328001
0.07114423 0.010307896 0.09090326 -0.015881576 0.064611115 -0.060857803 0.044367626 -0.025141694
-0.13835824 -0.053348012 -0.013258763 0.014931289 0.059639893 -0.021363154 -0.059010133 -0.14586768
-0.11705203 0.11905869 0.024333889 0.13004316 -0.007116499 0.08065057 -0.020744758 -0.06967731
00000000: 468e 253c 73b2 6a3c d70a 8e3d 843d dc3d
00000010: e8ce 313c 6f86 b7bd 29c1 36be d208 2fbd
00000020: 35bb e23b 3ea2 163e ae26 f13b 78d9 d73c
00000030: 8ab9 f2bd 15ad b3bd 47cf 4cbd 2293 b63d
00000040: a377 be3c b6e6 143d f7cf 423d 2e4a 1fbc
00000050: ee63 3cbc 77c7 efbd 6ff4 99bc 89a8 c73c
00000060: 445d 703d 3168 90bd c6b5 89bd 2823 cf3d
00000070: 2ef4 8d3d 53fc 073d 46f2 8fbc aa22 3d3d
00000080: 7d45 febc a1da 903c 2094 0c3e a579 c93c
00000090: 609a 4b3d aea9 00bc fa27 b1bb 6141 2ab9
000000a0: 7617 acbb 6c1e 443c 9f7d 01be de85 d0bc
000000b0: 46ba a6bd b19d b93d b335 dd3d a84f e13d
000000c0: 863b 9e3c a7b0 823c e63b 84bc 3a46 81bd
000000d0: d4ce 833c 05fc 90bc 4511 a13d a431 d43c
000000e0: e03b b8bd b933 17bb 86eb 093a 7aa5 7f3c
000000f0: 58f4 efbc 0d3c e6ba a3bd 143c 1646 09bd
00000100: c37e 83ba 7570 a1bd 0d17 29bd c7c1 99bd
00000110: 7f0b a13d 21b9 11bb 1cf5 02be d4d0 77bd
00000120: 275f 4bba e5b3 753d 871b 5cbd 29c0 9e3c
00000130: e37a 01bd f690 66bd c585 6d3d 6111 9eb9
00000140: 772a e4bd 5c00 0f3d 1d68 b5bd 0f94 d2bd
00000150: 73a5 e23d 3798 0a3e 1b86 9f3c fab5 a9bc
00000160: d22b 393d c19e 88bb 242b 3a3d 7407 103e
00000170: 4eb7 bb3d 49d3 173d be2e ac3c 39b4 febc
00000180: eaa9 0abd 9d64 f93c 7a92 a83d 489f 253d
00000190: f67c b03c a93b f7bc 83f0 343d 67d3 283d
000001a0: 2a57 91bc ead8 033e 53ac 20bd bbd9 7b3c
000001b0: 2ebb 17bd 81dd 3d3d 9738 1a3d 7e74 f0bb
000001c0: f42e 4bbd a8ea d93d 772c 7c3b 859f b3bc
000001d0: 7d46 b33d 9049 dbbc 5c8e ca3d e729 d93d
000001e0: c623 97bd f1f8 3fbc abe0 7a3c 7b5e 8cbd
000001f0: 0432 f03c 7af2 2bbd 26b8 5e3d 4ca8 f9bc
00000200: f67b 4abd b240 45bd e31c 733d 4533 f9bb
00000210: 70ed 40bd 7c34 84bc 10d0 6e3d c8bc 00bd
00000220: b060 af3c 9847 ccbc d5e2 4d3c c74e 8e3c
00000230: 4b7a c63d 2972 c73c 1b1c aebb d06b 753d
00000240: ef23 00bc 6968 37bd 6f49 08bd 1c20 cd3c
00000250: 06aa 953d 882d 703d b246 82bc f146 bb3c
00000260: db1c 7fbd e55f ca3d 6ebb ac3d 3615 903c
00000270: c272 17bc c1b5 293d 4667 fcbd 5604 53bd
00000280: bf56 e03d f82c a83c adeb 1dbd d84c 85bd
00000290: ab45 afbd 40a8 27bd abb5 e03b 45d1 a0bc
000002a0: 330e 05be 6aef 0fbd d519 783d 3117 09be
000002b0: c54d 853d e1a6 0bbd 0b9f 0a3e afeb b8bd
000002c0: 62cc 85bd 9921 c33d 1995 9dbd 07e7 f3bd
000002d0: f8be 3dbc 0cdd 76bd 2ed1 09bd e54d 09bc
000002e0: 00ca 483e 68f1 2a3d 7a30 7abd 9175 aa3d
000002f0: 935d 6e3d aa47 c0bd 4feb 49bd dc21 c2bd
00000300: ed3f d73c f458 fdba 6ca1 1f3c d1a9 953c
00000310: c870 2cbd 73af 5bbb e585 93bd 6025 d43d
00000320: b5bd 603d 5450 13be a1a0 033e 4681 6c3c
00000330: 3642 1bbd a40d 6cbd dd22 b8bd 7f16 61bd
00000340: 3c1c c2bb 11e8 ec3d a218 7ebd 75fa da3c
00000350: 9319 16bd 65f6 23bd 1c03 8d3c e4f8 29bd
00000360: 063a d13c 4059 de3b c401 f93b 89c2 86bb
00000370: dbe2 36bd 5110 2cbd a5c0 48bd 9380 373d
00000380: 85d3 463c ac46 b3bd f37d f5bd ec04 a4bd
00000390: 6eab 983d a0f4 11bc 1634 4c3d f398 813d
000003a0: 11b4 913d 73e2 283c 7d2b ba3d 141a 82bc
000003b0: d552 843d 0846 79bd d4ba 353d f4f5 cdbc
000003c0: c8ad 0dbe 7283 5abd 483b 59bc 5da2 743c
000003d0: f648 743d c801 afbc 9cb4 71bd 565e 15be
000003e0: fab8 efbd 0bd5 f33d dd57 c73c 092a 053e
000003f0: 8531 e9bb 202c a53d e9f0 a9bc fab2 8ebd

residual_tower.blocks.2.conv1.bias f4 [8]
-2.4095152e-06 2.7518238e-06 1.3643221e-05 6.4753004e-07 -1.0276791e-07 9.2593797e-07 8.7562296e-07 -1.7312494e-06
00000000: 28b3 21b6 f9ab 3836 30e5 6437 edd1 2d35
00000010: 42b1 dcb3 f98d 7835 5a0c 6b35 475d e8b5

residual_tower.blocks.2.bn1.weight f4 [8]
0.17641287 0.15874718 0.20172058 0.16449817 0.16280167 0.21877493 0.13702472 0.15702374
00000000: 93a5 343e 9f8e 223e d78f 4e3e 3572 283e
00000010: 7bb5 263e 8906 603e 3550 0c3e d5ca 203e

residual_tower.blocks.2.bn1.bias f4 [8]
-0.06426321 -0.07799049 -0.09183655 -0.11549209 -0.038268805 -0.09047302 -0.11256231 0.025847165
00000000: 6e9c 83bd 7ab9 9fbd cd14 bcbd 1e87 ecbd
00000010: c0bf 1cbd eb49 b9bd 1287 e6bd 6fbd d33c

residual_tower.blocks.2.bn1.running_mean f4 [8]
-0.0061229 0.1531567 -0.069140434 -0.072138324 -0.11438147 -0.028935224 -0.108920135 0.029915983
00000000: 9ca2 c8bb 1cd5 1c3e 8099 8dbd 42bd 93bd
00000010: d540 eabd 9009 edbc 8511 dfbd 5d12 f53c

residual_tower.blocks.2.bn1.running_var f4 [8]
0.015011912 0.011996644 0.016480062 0.014016715 0.01305232 0.018090922 0.010960203 0.013414926
00000000: 86f4 753c 928d 443c 3201 873c 5da6 653c
00000010: 66d9 553c 6a33 943c 6c92 333c 47ca 5b3c

residual_tower.blocks.2.conv2.weight f4 [8, 8, 3, 3]
0.038801283 0.01043682 -0.02664705 0.015301761 -0.056035656 0.006386463 -0.075068146 0.038178895
0.020588132 -0.007694357 0.070479125 0.02054732 0.0107296705 0.1367326 -0.051372506 -0.01925128
-0.016873814 0.101926275 -0.066193745 0.062798 -0.017236698 -0.043896526 0.015901683 -0.09517949
0.034467537 -0.034021944 -0.0016559493 0.014310778 0.0009609637 0.037882883 -0.005333964 -0.014136497
-0.0074864207 -0.0077785016 -0.030834181 0.09339733 -0.088874556 -0.0042534512 -0.12502587 -0.018515218
-0.046895593 -0.026765538 0.041661635 -0.014646157 -0.044793747 0.04954943 -0.09842238 0.017670004
0.023649685 -0.03841841 0.042126335 -0.04865159 -0.08086466 -0.047014363 0.029764922 -0.00709126
-0.07117293 -0.034646217 -0.02426204 -0.071274176 0.02750346 -0.044622444 0.053303383 0.12955622
-0.054519918 0.02944394 -0.034992814 -0.017793035 -0.059629895 0.07459383 -0.008513524 0.031234084
-0.014736944 0.11132571 -0.003069143 0.10935546 0.05041325 -0.0029799503 0.13706766 -0.0006109858
-0.037560795 -0.022069447 0.0009639143 -0.0005578301 -0.027206628 0.021718344 0.05604647 0.01660776
0.10847906 -0.047764406 -0.18106723 0.0036416065 0.013378098 -0.13227525 -0.08962225 0.00053530023
-0.027919397 -0.06717003 -0.17676958 -0.034448672 0.13413179 0.072853364 0.1406853 0.08216866
0.11729778 -0.016510671 -0.03793401 0.04135195 -0.029456507 -0.040706493 -0.018254098 -0.0029880505
-0.0044561964 -0.014278676 -0.066741236 0.10765207 -0.06648934 0.14310533 0.008011207 0.026981588
-0.10904199 0.014298722 -0.051977966 0.1212512 -0.050319117 0.12921235 -0.07098733 -0.003081261
-0.050114382 0.058742743 0.017808385 -0.018722817 0.07235622 0.01284625 0.031385392 -0.075859636
0.0026727146 -0.024320496 0.051719658 -0.042012807 0.08386488 0.17774306 0.07021728 0.008457645
-0.07255895 -0.0028443383 -0.0021158971 -0.008394996 -0.02663914 -0.10319404 0.08917133 1.0953311e-05
0.05487201 0.016887028 0.060261622 -0.051189683 -0.08281924 0.007201409 0.09415706 0.02764962
0.024802007 0.03222338 -0.033197906 0.09141592 -0.10327216 -0.03258096 0.13733125 -0.040358935
-0.01897574 -0.06758402 -0.14562102 0.12999806 -0.0052877553 -0.052362524 -0.01635989 -0.066680655
-0.04786298 0.006763443 0.0013436794 -0.025838025 0.01851057 -0.040359482 -0.01143536 0.08311821
-0.02820044 -0.0718117 -0.103920154 0.0023127843 -0.124537155 -0.0967603 -0.016220246 0.068168685
-0.0534848 0.14873375 -0.026254557 -0.08352005 -0.05645678 0.060118336 0.010690876 0.006231841
-0.062191606 0.029337132 0.004069502 -0.035985846 0.10170256 0.0790684 -0.17018649 0.10748112
0.01066218 0.0339514 0.082664326 -0.11798328 0.08347035 -0.05103958 0.025702983 0.08711451
0.0011553004 -0.092099614 0.014842596 0.006949529 -0.03572984 -0.04721545 0.029677628 0.061504457
-0.09251908 -0.121343814 -0.049329147 -0.06712442 0.045850854 0.03877575 -0.023911605 -0.009774617
0.042051565 -0.023782782 -0.0024641957 -0.04303559 -0.08322668 -0.013991819 0.0043193973 -0.030381046
-0.016477827 -0.018543027 0.00016727879 0.029003058 0.09034934 0.007493086 -0.012579119 0.027929878
-0.015211043 -0.045406386 0.034684237 0.011015404 -0.025347995 0.057193898 -0.017372578 0.01959454
00000000: 18ee 1e3d 32ff 2a3c ea4a dabc 3db4 7a3c
00000010: a585 65bd 8945 d13b 54bd 99bd 7961 1c3d
00000020: 71a8 a83c f220 fcbb 5c57 903d da52 a83c
00000030: 80cb 2f3c a103 0c3e fa6b 52bd dcb4 9dbc
00000040: f43a 8abc b9be d03d 9690 87bd 3d9c 803d
00000050: fa33 8dbc d8cc 33bd 3f44 823c 77ed c2bd
00000060: d52d 0d3d 985a 0bbd 700c d9ba c177 6a3c
00000070: 2fe9 7b3a 152b 1b3d 88c8 aebb c49c 67bc
00000080: a650 f5bb cde2 febb f797 fcbc 1947 bf3d
00000090: dd03 b6bd 8960 8bbb c806 00be 3aad 97bc
000000a0: 9815 40bd 6743 dbbc 64a5 2a3d 6ff6 6fbc
000000b0: a679 37bd 58f4 4a3d ac91 c9bd afc0 903c
000000c0: fcbc c13c 9f5c 1dbd aa8c 2c3d e446 47bd
000000d0: 5f9c a5bd 2292 40bd 91d5 f33c cd5d e8bb
000000e0: 1dc3 91bd 31e9 0dbd 30c1 c6bc 32f8 91bd
000000f0: f04e e13c 06c6 36bd a654 5a3d 63aa 043e
00000100: 4750 5fbd 6b34 f13c a054 0fbd b3c2 91bc
00000110: 7a3e 74bd a6c4 983d 4f7c 0bbc 9fde ff3c
00000120: 3973 71bc bcfe e33d ad23 49bb c1f5 df3d
00000130: 207e 4e3d 454b 43bb 775b 0c3e 902a 20ba
00000140: 59d9 19bd fcca b4bc 32af 7c3a 583b 12ba
00000150: 6fe0 debc abea b13c fc90 653d ff0c 883c
00000160: 452a de3d 9ca4 43bd b069 39be 05a8 6e3b
00000170: cf2f 5b3c 2a73 07be df8b b7bd 6453 0c3a
00000180: 38b7 e4bc 7190 89bd 1603 35be 0d1a 0dbd
00000190: d859 093e 2534 953d cf0f 103e 0b48 a83d
000001a0: d239 f03d 6341 87bc b160 1bbd aa60 293d
000001b0: c64e f1bc dabb 26bd 9e89 95bc 2bd3 43bb
000001c0: 4905 92bb 1cf1 69bc a1af 88bd b078 dc3d
000001d0: 902b 88bd 348a 123e 7041 033c 7e08 dd3c
000001e0: 6851 dfbd 3045 6a3c d9e6 54bd 8d52 f83d
000001f0: 6b1b 4ebd 3e50 043e ce61 91bd fbee 49bb
00000200: bd44 4dbd 3b9c 703d e4e2 913c 9860 99bc
00000210: 7f2f 943d 1479 523c f88d 003d 4c5c 9bbd
00000220: b628 2f3b c73b c7bc fed7 533d 9f15 2cbd
00000230: 5ac1 ab3d 4702 363e 14ce 8f3d ef91 0a3c
00000240: c999 94bd 1468 3abb ddaa 0abb 2a8b 09bc
00000250: 533a dabc 6657 d3bd 759f b63d 1dc4 3737
00000260: 79c1 603d aa56 8a3c e4d4 763d 46ac 51bd
00000270: 229d a9bd ccf9 eb3b 6bd5 c03d 7581 e23c
00000280: 942d cb3c aafc 033d 87fa 07bd 4538 bb3d
00000290: 5b80 d3bd 9d73 05bd 90a0 0c3e 694f 25bd
000002a0: 0373 9bbc 7e69 8abd ad1d 15be 361e 053e
000002b0: e844 adbb 167a 56bd 2d05 86bc de8f 88bd
000002c0: f90b 44bd df9f dd3b 661e b03a 44aa d3bc
000002d0: 7ba3 973c fc4f 25bd 605b 3bbc e139 aa3d
000002e0: 9c04 e7bc 0312 93bd 17d4 d4bd 1592 173b
000002f0: 560d ffbd 442a c6bd 52e0 84bc 069c 8b3d
00000300: e112 5bbd a94d 183e cc13 d7bc 8f0c abbd
00000310: 393f 67bd a53e 763d c928 2f3c 7934 cc3b
00000320: a0bc 7ebd 6d54 f03c 7559 853b e565 13bd
00000330: 6f49 d03d 9dee a13d 5e45 2ebe 101f dc3d
00000340: 6db0 2e3c a010 0b3d ea4b a93d 38a1 f1bd
00000350: 81f2 aa3d e10e 51bd 108f d23c 1869 b23d
00000360: 736d 973a b99e bcbd 5c2e 733c e0b8 e33b
00000370: 7459 12bd fd64 41bd 7f1e f33c 19ec 7b3d
00000380: a57a bdbd 1b83 f8bd 5c0d 4abd 8778 89bd
00000390: 1bce 3b3d 52d3 1e3d 45e2 c3bc b725 20bc
000003a0: 433e 2c3d 1cd4 c2bc 587e 21bb 1646 30bd
000003b0: c072 aabd f13d 65bc bb89 8d3b ace1 f8bc
000003c0: 82fc 86bc 8ce7 97bc 8f67 2f39 d297 ed3c
000003d0: 1309 b93d 9088 f53b a618 4ebc 33cd e43c
000003e0: bd37 79bc 0cfc 39bd 0f11 0e3d f479 343c
000003f0: 99a6 cfbc 2644 6a3d f050 8ebc bb84 a03c

residual_tower.blocks.2.conv2.bias f4 [8]
9.673797e-07 -6.366254e-06 3.2195692e-06 -1.7514025e-06 -2.4653907e-06 -3.8936233e-07 -1.7749888e-05 9.297882e-06
00000000: ead6 8135 b59d d5b6 c70f 5836 bb11 ebb5
00000010: 1773 25b6 8d09 d1b4 98e5 94b7 19fe 1b37

residual_tower.blocks.2.bn2.weight f4 [8]
0.06535422 0.17587355 0.1675061 0.08194329 0.09106631 0.09962873 0.116155155 0.11095404
00000000: 6fd8 853d 3218 343e b886 2b3e e2d1 a73d
00000010: f980 ba3d 260a cc3d c1e2 ed3d df3b e33d

residual_tower.blocks.2.bn2.bias f4 [8]
-0.24633265 -0.13119897 -0.1382053 -0.021818995 -0.10175258 -0.016075216 -0.030907862 0.009516625
00000000: a03e 7cbe 0659 06be b185 0dbe c0bd b2bc
00000010: a863 d0bd 2cb0 83bc 7c32 fdbc 9eeb 1b3c

residual_tower.blocks.2.bn2.running_mean f4 [8]
-0.013561584 0.019080658 -0.0076675895 -0.034784123 0.017870937 -0.02530967 -0.027634313 -0.016820537
00000000: 6831 5ebc 0a4f 9c3c 6740 fbbb cc79 0ebd
00000010: 1266 923c 3a56 cfbc 5b61 e2bc 39cb 89bc

residual_tower.blocks.2.bn2.running_var f4 [8]
0.0014303247 0.0032809752 0.0022573571 0.0020605105 0.0017254909 0.0018611741 0.0030568414 0.0014776605
00000000: bc79 bb3a a105 573b 2bf0 133b a109 073b
00000010: de29 e23a a4f2 f33a 4a55 483b 0fae c13a
