model_0.pth (torch, 4280 bytes, 9 tensors)

net.0.weight f4 [3, 42]
0.061888028 0.140193 -0.071732305 -0.12160178 -0.029519672 0.07099195 -0.0508621 -0.086334
-0.12728657 -0.14633778 0.088716894 0.04040027 -0.08192708 -0.042693075 -0.101318285 -0.15182409
0.086110964 0.10535517 -0.051454343 -0.0060545513 -0.067174286 0.02518805 0.048383877 0.1237928
-0.004239963 -0.07559112 0.09953584 -0.07875611 -0.06641095 -0.038763884 0.07530402 -0.093235776
0.124388866 -0.120487615 0.02222361 0.14422049 0.05932727 -0.056594968 0.11917444 -0.023225388
0.052653953 0.060391553 -0.14959462 -0.034987185 0.05983766 -0.15212993 0.14884855 -0.09678212
-0.056082886 0.14196819 0.07050681 -0.071515635 -0.08716656 0.044093773 0.053951915 -0.03685694
0.07864063 -0.051113274 0.05128611 0.063991465 -0.1517808 -0.003592517 0.10401555 -0.006493975
-0.028398791 0.037915166 0.13572986 -0.083693035 -0.064615786 -0.05443876 -0.06440462 -0.14701574
0.06295367 -0.10322146 0.066471785 -0.00011963714 -0.1496123 -0.11542945 -0.07769316 0.075948484
-0.014620416 0.05855546 0.09688344 0.04945719 -0.054220106 -0.08646305 -0.04127262 -0.07938691
0.114670776 0.026890837 0.013212895 -0.090831004 0.022055043 0.0042687687 -0.051057227 0.046610657
-0.018076962 -0.043596532 -0.022751585 0.022331696 -0.073361956 0.14907174 0.14464194 0.08460523
0.053503957 0.04348326 0.048606154 0.15263557 0.12940286 -0.0028236497 0.10575742 -0.08900771
0.0059493906 -0.1071602 0.12139693 -0.11279645 -0.067927 -0.154106 -0.07032118 0.015367393
0.12366941 -0.10335276 0.10122957 -0.07544661 0.13323773 0.048532855
00000000: 4d7e 7d3d c18e 0f3e 63e8 92bd 5b0a f9bd
00000010: 3dd3 f1bc 3a64 913d c754 50bd e1cf b0bd
00000020: 6957 02be 92d9 15be 34b1 b53d c17a 253d
00000030: 63c9 a7bd efde 2ebd f67f cfbd c677 1bbe
00000040: f25a b03d 74c4 d73d cac1 52bd 4265 c6bb
00000050: ac92 89bd 2b57 ce3c 2c2e 463d 1487 fd3d
00000060: 63ef 8abb 84cf 9abd 72d9 cb3d e24a a1bd
00000070: 7702 88bd e1c6 1ebd fe38 9a3d 66f2 bebd
00000080: 97bf fe3d 36c2 f6bd 4a0e b63c 89ae 133e
00000090: 2701 733d 20d0 67bd bb11 f43d 2b43 bebc
000000a0: acab 573d 225d 773d 552f 19be b94e 0fbd
000000b0: 5618 753d f3c7 1bbe c16b 183e b435 c6bd
000000c0: 2bb7 65bd 1c60 113e e065 903d ca76 92bd
000000d0: 6284 b2bd ac9b 343d affc 5c3d 4df7 16bd
000000e0: 570e a13d 275c 51bd 6211 523d f50d 833d
000000f0: 6d6c 1bbe 6f70 6bbb 1b06 d53d 69cb d4bb
00000100: 95a4 e8bc ef4c 1b3d c5fc 0a3e 4167 abbd
00000110: 4855 84bd 2dfb 5ebd 92e6 83bd 4b8b 16be
00000120: dbed 803d c665 d3bd 5c22 883d b3e5 fab8
00000130: f733 19be 4766 ecbd 971d 9fbd e18a 9b3d
00000140: 788a 6fbc dad7 6f3d d36a c63d 9f93 4a3d
00000150: e715 5ebd 8a13 b1bd 7b0d 29bd 9b95 a2bd
00000160: 83d8 ea3d 2c4a dc3c e67a 583c 9b05 babd
00000170: c7ac b43c 07e1 8b3b 6221 51bd d1ea 3e3d
00000180: 2316 94bc 4792 32bd 8861 babc f6f0 b63c
00000190: cb3e 96bd 43a6 183e 041d 143e 8245 ad3d
000001a0: f726 5b3d 811b 323d 3f17 473d 804c 1c3e
000001b0: 2f82 043e fb0c 39bb 5997 d83d ad49 b6bd
000001c0: 1bf3 c23b cf76 dbbd f49e f83d d301 e7bd
000001d0: 501d 8bbd f7cd 1dbe 8d04 90bd 85c7 7b3c
000001e0: 6346 fd3d 9daa d3bd 7351 cf3d c183 9abd
000001f0: 796f 083e 63ca 463d

net.0.bias f4 [3]
0.03628228 -0.15001217 0.12590846
00000000: ba9c 143d ca9c 19be 26ee 003e

net.2.weight f4 [3, 3]
-0.020767892 -0.44544253 -0.010015833 -0.4288449 0.21619552 -0.27941382 -0.16657709 -0.22404082
-0.43544424
00000000: 6d21 aabc 0b11 e4be 7319 24bc 8f91 dbbe
00000010: 5c62 5d3e 540f 8fbe 2f93 2abe f56a 65be
00000020: 8cf2 debe

net.2.bias f4 [3]
-0.18451715 -0.17241025 -0.16017817
00000000: 10f2 3cbe 508c 30be bf05 24be

net.4.weight f4 [3, 3]
-0.35287 -0.11991283 0.23099239 -0.56645626 0.13113676 0.15637742 -0.24196573 0.1930597
-0.06400745
00000000: 60ab b4be dc94 f5bd 4589 6c3e 4703 11bf
00000010: b748 063e 6721 203e ddc5 77be 71b1 453e
00000020: 5716 83bd

net.4.bias f4 [3]
0.4321882 0.36828136 -0.47113955
00000000: c647 dd3e 608f bc3e 3439 f1be

value_head.weight f4 [1, 3]
-0.48585296 0.3800009 0.26214075
00000000: b8c1 f8be 7a8f c23e 5037 863e

policy_head.weight f4 [7, 3]
-0.03855876 0.39429754 0.11378186 0.08883192 0.29357705 0.17016606 -0.04655345 0.5772431
0.5554536 -0.19268556 -0.5386171 -0.29282683 -0.20405662 -0.2460257 0.46562347 -0.26992282
-0.34221846 -0.15850888 -0.500211 -0.086969554 0.47617483
00000000: caef 1dbd 5ee1 c93e 7706 e93d 82ed b53d
00000010: bb4f 963e 0340 2e3e d5ae 3ebd 34c6 133f
00000020: 3532 0e3f 5d4f 45be cfe2 09bf 66ed 95be
00000030: 38f4 50be 29ee 7bbe 3366 ee3e 5333 8abe
00000040: 4237 afbe 2750 22be d40d 00bf 181d b2bd
00000050: 30cd f33e

policy_head.bias f4 [7]
0.12143262 -0.243463 0.40578613 0.1125745 0.42470384 -0.009180903 -0.021940539
00000000: aab1 f83d 5d4e 79be 33c3 cf3e 768d e63d
00000010: c872 d93e 806b 16bc a5bc b3bc
