model_drawn_sunset_42.pth (torch, 154361 bytes, 83 tensors)

input_conv.conv.weight f4 [8, 2, 3, 3]
-0.066980734 -0.15336756 -0.08022417 -0.040892713 -0.1714974 -0.026775468 -0.018056152 -0.13313933
-0.025132585 -0.00428412 0.0049024737 0.02743269 0.033899575 0.16201639 0.0023398653 -0.054375283
0.29660082 -0.10528899 -2.9470766e-05 0.015950307 -0.04309204 -0.011664494 0.01316997 -0.14342661
0.10932615 0.1508318 -0.2729982 0.0017244874 -0.006205065 0.006778288 -0.033066828 -0.06295483
0.30073494 0.090931185 0.16897321 -0.30809307 0.029653488 -0.025787776 0.046630412 0.112551086
-0.12088499 0.16620776 -0.0063966857 0.13918282 -0.08138094 0.0023600238 -0.1368713 -0.05478722
-0.14495233 -0.25767148 -0.09108744 0.04587038 0.12698752 -0.058009803 -0.025882665 -0.025982108
-0.020502795 -0.29280144 -0.23621988 -0.30678216 0.07471979 -0.12264886 0.039625302 -0.026361909
-0.011834497 -0.044630885 0.14396632 0.10032776 0.113517836 -0.0096432 -0.04239404 0.04650955
-0.067990564 0.17285977 0.019183436 -0.14654174 0.13975254 -0.05916025 0.101531416 -0.005505306
0.0032987762 -0.08414834 -0.033315036 -0.13682938 -0.015769502 -0.053312715 0.025015341 -0.05845774
0.010635457 -0.01744996 -0.027006567 -0.052706033 -0.012836951 0.1515057 0.12759614 0.15746729
0.123170614 -0.109897934 -0.12838571 0.05277679 0.019692557 0.0017072441 -0.27630547 -0.14111935
-0.14783639 0.16176334 -0.09319911 -0.11813276 -0.015139983 -0.04666743 -0.15419234 -0.02404316
0.01423466 0.27385917 0.009307628 -0.0077278125 0.1243576 -0.012894754 -0.04372228 -0.41581276
-0.00085444126 0.029237239 0.17289978 0.009563603 0.00473284 -0.0030774851 0.12452589 0.036279038
-0.01717339 -0.055781387 -0.0038536994 0.025128365 -0.024398802 -0.048366647 -0.0516002 -0.044688053
-0.0076537635 0.051420663 0.09911183 0.01900314 -0.040713143 -0.09835043 -0.021176122 -0.07331087
00000000: 322d 89bd 630c 1dbe 924c a4bd 1e7f 27bd
00000010: 049d 2fbe 3a58 dbbc 7fea 93bc ad55 08be
00000020: dae2 cdbc ce61 8cbb eea4 a03b 85ba e03c
00000030: 48da 0a3d a0e7 253e 6d58 193b 9eb8 5ebd
00000040: 10dc 973e c1a1 d7bd fd37 f7b7 38aa 823c
00000050: 4781 30bd 6f1c 3fbc dcc6 573c 6dde 12be
00000060: 63e6 df3d a773 1a3e 6cc6 8bbe 3208 e23a
00000070: dc53 cbbb 671c de3b 1571 07bd 76ee 80bd
00000080: eef9 993e 213a ba3d 5007 2d3e 60be 9dbe
00000090: dfeb f23c e340 d3bc 88ff 3e3d 2f81 e63d
000000a0: 8d92 f7bd 5e32 2a3e 4a9b d1bb f185 0e3e
000000b0: 0dab a6bd a1aa 1a3b fd27 0cbe 9068 60bd
000000c0: 626e 14be 84ed 83be 0d8c babd 94e2 3b3d
000000d0: 0409 023e b09b 6dbd e207 d4bc 6ed8 d4bc
000000e0: 7af5 a7bc 12ea 95be a0e3 71be 8d12 9dbe
000000f0: b006 993d 532f fbbd 244e 223d eef4 d7bc
00000100: 7ae5 41bc e0ce 36bd e86b 133e a478 cd3d
00000110: 0a7c e83d 83fe 1dbc 5fa5 2dbd cc80 3e3d
00000120: a33e 8bbd 2702 313e 9526 9d3c 0a0f 16be
00000130: 4a1b 0f3e 0552 72bd b4ef cf3d db65 b4bb
00000140: 4830 583b f755 acbd 5975 08bd 001d 0cbe
00000150: 0b2f 81bc 6f5e 5abd f9ec cc3c 6271 6fbd
00000160: 5740 2e3c 38f3 8ebc e03c ddbc 48e2 57bd
00000170: 1352 52bc 4f24 1b3e 90a8 023e 1b3f 213e
00000180: e040 fc3d 2b12 e1bd 8b77 03be 7a2c 583d
00000190: 4952 a13c 9bc5 df3a e977 8dbe 9781 10be
000001a0: 6c62 17be 4aa5 253e 2ddf bebd 97ef f1bd
000001b0: b10d 78bc 5926 3fbd 99e4 1dbe 29f6 c4bc
000001c0: 7e38 693c 4537 8c3e 057f 183c 9739 fdbb
000001d0: 33af fe3d 8544 53bc 2216 33bd 69e5 d4be
000001e0: 95fc 5fba ef82 ef3c a40c 313e a9b0 1c3c
000001f0: f115 9b3b a2af 49bb 6e07 ff3d 5499 143d
00000200: 36af 8cbc 067b 64bd 598e 7cbb 00da cd3c
00000210: ffdf c7bc 1b1c 46bd bb5a 53bd d20a 37bd
00000220: 6ccc fabb 799e 523d 25fb ca3d 79ac 9b3c
00000230: d3c2 26bd f36b c9bd 8c79 adbc 0224 96bd

input_conv.conv.bias f4 [8]
0.00018333482 6.742094e-06 7.3340266e-06 1.8841253e-06 4.8069933e-06 5.101214e-06 -1.8432642e-06 1.1471874e-06
00000000: 913d 4039 253a e236 cf16 f636 0de2 fc35
00000010: c24b a136 182b ab36 1366 f7b5 0ff9 9935

input_conv.bn.weight f4 [8]
0.19329825 0.2872942 0.18941745 0.27889737 0.13733277 0.2107649 0.22159691 0.078542925
00000000: faef 453e 3a18 933e a6f6 413e a3cb 8e3e
00000010: f6a0 0c3e c1d2 573e 4dea 623e 1ddb a03d

input_conv.bn.bias f4 [8]
-0.008091613 0.10036097 0.0459583 0.008143532 -0.0786259 -0.06498925 -0.085948765 -0.094638675
00000000: af92 04bc 0d8a cd3d c53e 3c3d 736c 053c
00000010: 9e06 a1bd 1519 85bd e805 b0bd ecd1 c1bd

input_conv.bn.running_mean f4 [8]
-0.023690911 0.0055160485 -0.044182476 -0.05951332 -0.02048214 -0.03826191 0.023929587 -0.011157775
00000000: 7113 c2bc f8bf b43b aff8 34bd 3dc4 73bd
00000010: 29ca a7bc 85b8 1cbd fb07 c43c 1acf 36bc

input_conv.bn.running_var f4 [8]
0.019139796 0.022570074 0.01720604 0.033176087 0.011233932 0.028106758 0.009862764 0.0075596785
00000000: 10cb 9c3c e0e4 b83c aef3 8c3c a6e3 073d
00000010: 870e 383c 2540 e63c 6e97 213c 2eb7 f73b

residual_tower.blocks.0.conv1.weight f4 [8, 8, 3, 3]
-0.0013446069 -0.022244263 -0.06896201 0.030209035 -0.00745467 0.022309555 0.054361105 -0.0037616906
-0.0050896313 -0.034448344 -0.116027474 0.041954596 -0.011031906 -0.08211152 0.012207262 0.05047778
-0.18677273 0.007401131 0.0022692678 0.07313232 0.099211134 -0.007641234 0.00018199268 -0.025360065
-0.021137647 0.030656971 0.07428459 0.009823536 -0.0298052 -0.018530205 -0.023860617 -0.06006451
-0.01962892 0.008528061 -0.039183147 0.026943382 0.025951533 0.01750387 -0.0015732147 -0.028105592
-0.04460311 0.033360068 0.033001017 -0.023438493 -0.033496276 -0.032023136 0.06440738 0.05593068
-0.037643164 0.017579801 -0.023618434 -0.061626203 -0.019768646 0.007225879 -0.010355395 0.24992868
-0.011946602 -0.054662496 0.18374254 0.04094758 -0.03816877 0.084309384 -0.023911647 -0.0076172715
0.0217847 -0.025070855 0.017680315 -0.04641067 0.004434477 -0.014760402 0.008884113 -0.017064517
0.050857037 -0.049994685 -0.027507687 -0.19342674 -0.039631583 0.01179004 -0.052512463 0.060198028
-0.094018236 0.08305988 -0.02661247 -0.057718083 -0.049842305 -0.013310068 0.06528681 -0.17608209
-0.240267 -0.37905324 0.05357781 0.014738004 0.036799856 -0.007979974 -0.05123832 -0.03963343
-0.09492288 0.12900399 0.091443785 -0.04580476 -0.028033456 0.046220493 -0.000722844 -0.023172379
0.0020847633 -0.052226994 -0.009278188 0.038457688 -0.09607547 0.027212657 0.0296573 -0.10573993
0.035984 -0.055188134 -0.020809097 0.042213436 -0.014431066 -0.08470168 0.0039239125 -0.0571988
-0.09530951 -0.032778192 -0.073234186 -0.13408574 0.29377013 0.18377991 -0.032422494 0.016318157
0.020830804 0.0042502363 -0.0212773 0.0340704 -0.01547874 0.008179494 0.058037266 -0.02983559
-0.05162344 0.042830363 0.01802267 0.021990549 -0.020692423 -0.16326724 -0.043723624 -0.03243355
-0.009781647 0.1756417 0.0057109413 0.04141447 0.10489457 0.04199211 0.027480211 0.187645
0.008482656 -0.057552043 -0.048510548 0.054769136 0.07959177 0.063042685 -0.05072742 -0.021491626
0.04878456 0.04316488 -0.035199136 0.09435898 -0.09780725 -0.07078509 -0.14008163 -0.015090003
-0.10937551 -0.019737557 -0.08808469 0.074775204 -0.02040143 0.007966469 -0.036121365 0.076770894
-0.070632555 -0.061228998 -0.0029560542 -0.030114284 0.0031422882 -0.069656126 0.07793938 0.05046342
-0.039279144 0.01872785 0.016686596 0.015401446 -0.03982512 0.020898277 0.100037694 -0.05363405
-0.006265929 -0.033476368 0.0008923044 -0.12965074 0.02595701 -0.08404909 -0.055044763 0.0026619919
0.058156606 0.15448801 -0.03207865 -0.018296339 -0.08100201 0.01314947 0.06804166 0.024615541
0.009913209 0.005866486 0.0060738064 0.0013024339 0.008973899 0.064052366 0.028120184 0.011264698
0.000104072686 0.018576175 -0.12653679 0.050966583 0.08677885 -0.09436832 -0.010459292 0.033281595
0.14457962 -0.0835834 0.06267502 -0.02008144 0.003401736 -0.037014674 0.069859646 -0.0034424728
0.061577197 -0.0026444788 0.093082406 0.01171432 -0.12763008 -0.0035457492 -0.013256086 0.04471667
-0.047894254 0.06894238 -0.0075656367 0.03848261 0.017758872 0.0070324484 -0.0029414985 0.028844675
-0.086272754 -0.01218136 0.0038432044 -0.044526577 0.0050095636 -0.023236245 0.054746166 -0.016854657
00000000: 853d b0ba 9a39 b6bc f43b 8dbd f078 f73c
00000010: 4e46 f4bb 87c2 b63c c0a9 5e3d b286 76bb
00000020: ecc6 a6bb b519 0dbd d09f edbd 95d8 2b3d
00000030: 2bbf 34bc 162a a8bd f800 483c cac1 4e3d
00000040: 5a41 3fbe 3085 f23b ffb7 143b 66c6 953d
00000050: 352f cb3d 5163 fabb 4ad5 3e39 e9bf cfbc
00000060: dc28 adbc 5424 fb3c 8522 983d e5f2 203c
00000070: 092a f4bc a8cc 97bc 5777 c3bc 3406 76bd
00000080: d4cc a0bc 48b9 0b3c 827e 20bd 5eb8 dc3c
00000090: 4f98 d43c 4764 8f3c 5334 ceba b33d e6bc
000000a0: c0b1 36bd 91a4 083d 132c 073d 1502 c0bc
000000b0: 6433 09bd b12a 03bd 04e8 833d 9217 653d
000000c0: b82f 1abd 8403 903c 727b c1bc c26b 7cbd
000000d0: dbf1 a1bc 11c7 ec3b ada9 29bc 4eed 7f3e
000000e0: aebb 43bc c8e5 5fbd 0127 3c3e a6b8 273d
000000f0: db56 1cbd 66aa ac3d 5ce2 c3bc 4e9a f9bb
00000100: d475 b23c 6561 cdbc 4fd6 903c 1d19 3ebd
00000110: 174f 913b 9dd5 71bc ac8e 113c e3ca 8bbc
00000120: 784f 503d 3ac7 4cbd cd57 e1bc a911 46be
00000130: ba54 22bd 032b 413c 4f17 57bd 3592 763d
00000140: a28c c0bd 4c1b aa3d 6502 dabc cc69 6cbd
00000150: 7227 4cbd 7912 5abc 17b5 853d dd4e 34be
00000160: 8d08 76be 4413 c2be 6874 5b3d ab77 713c
00000170: 72bb 163d 70be 02bc 46df 51bd aa56 22bd
00000180: ed66 c2bd 9f19 043e e146 bb3d c69d 3bbd
00000190: 6ba6 e5bc b351 3d3d 3d7d 3dba 00d4 bdbc
000001a0: 86a0 083b f9eb 55bd 8b03 18bc cf85 1d3d
000001b0: 37c3 c4bd 14ed de3c def3 f23c 2d8e d8bd
000001c0: f563 133d f40c 62bd d777 aabc ffe7 2c3d
000001d0: 4770 6cbc 1378 adbd 2a94 803b 4a49 6abd
000001e0: a231 c3bd 6d42 06bd cefb 95bd c64d 09be
000001f0: 0a69 963e cd30 3c3e 73cd 04bd a8ad 853c
00000200: 5da5 aa3c 9145 8b3b bb4d aebc 678d 0b3d
00000210: 8b9a 7dbc 4903 063c 7cb8 6d3d c469 f4bc
00000220: 1a73 53bd e46e 2f3d 47a4 933c 8625 b43c
00000230: 2883 a9bc 872f 27be 8b17 33bd 0bd9 04bd
00000240: 3343 20bc 6bdb 333e d922 bb3b 38a2 293d
00000250: f7d2 d63d ebff 2b3d 2e1e e13c 0326 403e
00000260: d7fa 0a3c b1bb 6bbd ffb2 46bd 9a55 603d
00000270: 0301 a33d 861c 813d 8ec7 4fbd 350f b0bc
00000280: 52d2 473d a8cd 303d f82c 10bd 483f c13d
00000290: 2b4f c8bd c6f7 90bd 8f71 0fbe 0f3c 77bc
000002a0: 4400 e0bd a8b0 a1bc bf65 b4bd be23 993d
000002b0: e620 a7bc cb85 023c fff3 13bd 0f3a 9d3d
000002c0: cda7 90bd 42cb 7abd 5cba 41bb 3bb2 f6bc
000002d0: d9ee 4d3b dfa7 8ebd af9e 9f3d bbb2 4e3d
000002e0: 2be3 20bd 266b 993c 54b2 883c 5956 7c3c
000002f0: aa1f 23bd dd32 ab3c 90e0 cc3d 61af 5bbd
00000300: 6c52 cdbb 841e 09bd 89e9 693a 2ac3 04be
00000310: cca3 d43c ee21 acbd 9e76 61bd d074 2e3b
00000320: 9f35 6e3d 1b32 1e3e e764 03bd 34e2 95bc
00000330: 62e4 a5bd e070 573c 6d59 8b3d 88a6 c93c
00000340: 036b 223c a73b c03b c806 c73b 6eb6 aa3a
00000350: 4307 133c e32d 833d 4d5c e63c 918f 383c
00000360: 9941 da38 102d 983c dc92 01be 56c2 503d
00000370: 1cb9 b13d 2e44 c1bd 735d 2bbc 4852 083d
00000380: ae0c 143e c62d abbd c35b 803d d581 a4bc
00000390: a9ef 5e3b b39c 17bd 9312 8f3d 1c9b 61bb
000003a0: 5f38 7c3d fe4e 2dbb fda1 be3d 6bed 3f3c
000003b0: 76b1 02be cd5f 68bb 0e30 59bc d428 373d
000003c0: c42c 44bd aa31 8d3d 29e9 f7bb f19f 1d3d
000003d0: 0e7b 913c 7470 e63b 28c6 40bb ab4b ec3c
000003e0: c5af b0bd 5494 47bc 45de 7b3b 8061 36bd
000003f0: 4427 a43b f059 bebc 843d 603d c712 8abc

residual_tower.blocks.0.conv1.bias f4 [8]
3.2938019e-07 2.2078755e-05 -1.392945e-06 -2.222311e-06 7.809056e-08 4.6320138e-06 -4.7923295e-15 -6.07e-43
00000000: abd5 b034 c435 b937 3af5 bab5 0323 15b6
00000010: bdb2 a733 b26c 9b36 70a9 aca7 b101 0080

residual_tower.blocks.0.bn1.weight f4 [8]
0.106295265 0.22198848 0.110892184 0.06108237 0.07693521 0.06684671 0.000103903505 4.97e-43
00000000: 55b1 d93d f350 633e 711b e33d 8231 7a3d
00000010: 3590 9d3d eee6 883d c5e6 d938 6301 0000

residual_tower.blocks.0.bn1.bias f4 [8]
-0.2913579 -0.21405981 -0.10949196 0.08730238 0.0051093595 -0.026258165 -7.823167e-05 4.97e-43
00000000: dd2c 95be 7f32 5bbe 523d e0bd 97cb b23d
00000010: 6a6c a73b 5d1b d7bc 4f10 a4b8 6301 0000

residual_tower.blocks.0.bn1.running_mean f4 [8]
-0.020624517 -0.110221215 -0.0015684121 -0.0064957817 0.04084527 -0.03781697 -6.8651617e-12 -1.98e-43
00000000: bff4 a8bc a9bb e1bd 2d93 cdba 91da d4bb
00000010: 5f4d 273d f8e5 1abd e18b f1ac 8d00 0080

residual_tower.blocks.0.bn1.running_var f4 [8]
0.005981924 0.012175958 0.0054905354 0.0073030465 0.0041983817 0.0077733723 4.7019524e-23 6e-45
00000000: 0404 c43b ab7d 473c f3e9 b33b 654e ef3b
00000010: 9492 893b c6b7 fe3b 5a5f 631a 0400 0000

residual_tower.blocks.0.conv2.weight f4 [8, 8, 3, 3]
-0.024611829 0.017564263 0.061950527 0.0035427315 -0.027590297 -0.04444531 -0.005449301 0.055381533
-0.07132992 -0.043894507 -0.03303049 -0.052455943 -0.018688604 -0.075141944 -0.037485015 -0.028426504
0.007929847 -0.070717625 0.12490746 0.16152477 -0.07696627 -0.026311895 -0.030824723 -0.13142955
-0.051190525 0.15651868 -0.0037353826 -0.07254173 0.032881305 0.0689846 -0.0043129707 0.012088468
-0.06387267 0.035684884 0.10528246 0.07956535 0.026692383 0.10249355 0.037840165 0.0053211227
-0.105982214 0.10165965 0.10983912 -0.051667094 0.038176663 0.070271075 -0.09911812 0.1083796
0.009982888 0.0076609883 -0.0224105 0.1360648 0.020414941 0.05450449 -2.2032778e-19 3.1796058e-24
1.1359446e-24 -8.8576167e-14 -2.1406215e-14 1.7250145e-17 -4.7892876e-14 -5.6642393e-15 -1.6323081e-19 2.131e-42
7.33e-43 2.016e-42 -5.97e-43 -5e-43 -6.36e-43 -9.98e-43 -1.239e-42 -1.005e-42
0.025443304 -0.035753604 0.019344695 0.024962524 0.0010070549 0.06751399 -0.02251321 0.004459136
-0.0104301125 -0.020408291 -0.06443496 -0.06930094 0.07363255 -0.0010089625 0.12408239 -0.008467066
0.028678225 -0.036212597 0.040844154 0.006924623 0.017350668 -0.03675301 0.07839004 0.035496987
-0.049555775 -0.042671982 -0.018682886 0.05269389 -0.06079121 -0.042190168 -0.015473355 -0.0050988724
-0.05412848 0.00050817634 0.0056419554 0.03852316 -0.02941616 -0.037171245 -0.054133024 -0.007152569
-0.013684354 0.047362506 0.020149494 -0.011639022 -0.04432781 -0.01563315 -0.0032132806 -0.007966364
-0.103725865 0.07537601 -0.08965049 -0.007238184 0.0013286663 -0.023026938 8.713103e-35 2.2840974e-35
1.3427071e-35 -1.130327e-33 -2.627376e-32 -2.7713473e-35 7.342314e-35 2.7442543e-31 2.1183639e-34 -4.24e-42
-3.114e-42 -2.775e-42 -3.998e-42 -1.803e-42 -1.916e-42 -3.562e-42 -1.305e-42 -1.473e-42
0.02173371 -0.011231851 0.0008791959 0.041489523 -0.00407141 0.0051828315 0.040529203 -0.028230775
-0.023934172 0.0013144724 -0.0035190885 0.12918717 -0.0106017105 -0.07326135 0.025763536 0.075941734
0.04281216 0.109665506 0.0005787774 0.045396093 0.02403611 0.0114975795 0.11030532 -0.006716218
-0.040013615 0.035582915 0.0601178 -0.053141024 0.0072680763 0.014765267 0.051699746 0.025577076
-0.023094608 -0.045506224 0.0930936 0.06343675 -0.020130806 -0.06938283 -0.060259756 -0.044671804
0.026657665 -0.039739735 -0.0019428328 0.017301068 -0.0019756265 0.022875065 0.005890781 0.006444141
-0.061958943 -0.027649978 -0.03960215 -0.036399856 0.049857687 -0.03049639 -5.087757e-26 -2.8026992e-28
-1.6331403e-28 1.4204542e-18 1.4734273e-20 7.388994e-27 1.5648181e-20 6.745467e-23 -3.8383312e-23 -6.37e-42
-1.952e-42 6e-44 -2.16e-42 -5.51e-43 4.32e-43 -2.528e-42 1.705e-42 1.813e-42
-0.0008320848 -0.0057791304 -0.008674327 0.0015132892 0.0069373017 -0.008238994 -0.014973335 -0.007846038
-0.0059291716 0.013255727 0.011168375 0.008156279 -0.04292973 0.007321274 0.0045210994 -0.015458491
-0.0074786153 -0.0017053746 -0.071869306 -0.036943655 -0.039803237 -0.027943099 -0.03638519 -0.043069307
0.007955096 -0.039572738 -0.021320118 -0.042515595 -0.014403012 -0.026554167 0.029604388 0.00616569
-0.039659526 0.008700663 0.070698984 0.04064997 0.019030815 -0.017236643 -0.022809869 -0.008360701
00000000: bf9e c9bc eee2 8f3c d6bf 7d3d 2c2d 683b
00000010: 0c05 e2bc 490c 36bd 0d90 b2bb bfd7 623d
00000020: 6c15 92bd baca 33bd fb4a 07bd 0bdc 56bd
00000030: d818 99bc 05e4 99bd e389 19bd b3de e8bc
00000040: 30ec 013c 67d4 90bd 7bcf ff3d c066 253e
00000050: 7ea0 9dbd 0b8c d7bc 2184 fcbc 7895 06be
00000060: 28ad 51bd 6f46 203e 52cd 74bb c290 94bd
00000070: 8cae 063d cc47 8d3d d253 8dbb b60e 463c
00000080: adcf 82bd 502a 123d 559e d73d 29f3 a23d
00000090: fca9 da3c 23e8 d13d 4afe 1a3d d05c ae3b
000000a0: 340d d9bd ef32 d03d 55f3 e03d e0a0 53bd
000000b0: 225f 1c3d 48ea 8f3d 71fe cabd 20f6 dd3d
000000c0: 448f 233c 0709 fb3b 3a96 b7bc 9254 0b3e
000000d0: 3c3d a73c 1a40 5f3d fe0e 82a0 9502 7618
000000e0: 67c7 af17 af74 c7a9 5fcf c0a8 c11a 9f23
000000f0: bab0 57a9 6313 cca7 7cb5 40a0 f105 0000
00000100: 0b02 0000 9f05 0000 aa01 0080 6501 0080
00000110: c601 0080 c802 0080 7403 0080 cd02 0080
00000120: 7a6e d03c 5f72 12bd c478 9e3c 357e cc3c
00000130: 28ff 833a c644 8a3d a06d b8bc f21d 923b
00000140: 10e3 2abc 4a2f a7bc 7af6 83bd a7ed 8dbd
00000150: aacc 963d 2a3f 84ba e81e fe3d 73b9 0abc
00000160: 99ee ea3c a953 14bd 334c 273d f3e7 e23b
00000170: fd22 8e3c 538a 16bd f58a a03d 4a65 113d
00000180: fffa 4abd d1c8 2ebd da0c 99bc 8cd5 573d
00000190: 3400 79bd 99cf 2cbd f483 7dbc 7114 a7bb
000001a0: d3b5 5dbd 2337 053a 27e0 b83b 76ca 1d3d
000001b0: 29fa f0bc e040 18bd 97ba 5dbd 1960 eabb
000001c0: 5734 60bc 30ff 413d 8d10 a53c 99b1 3ebc
000001d0: 1491 35bd 1711 80bc e795 52bb 5a85 02bc
000001e0: 3a6e d4bd bd5e 9a3d ad9a b7bd 4a2e edbb
000001f0: a526 ae3a fda2 bcbc 4ea2 e706 0ce3 f205
00000200: f7c7 8e05 cbce bb88 d16b 088b a059 1386
00000210: 3331 c306 bf1c b20c 18ca 8c07 d20b 0080
00000220: ae08 0080 bc07 0080 250b 0080 0705 0080
00000230: 5705 0080 ee09 0080 a303 0080 1b04 0080
00000240: e50a b23c cc05 38bc d779 663a ebf0 293d
00000250: 7669 85bb bed4 a93b f301 263d 3a44 e7bc
00000260: 9911 c4bc 604a ac3a 82a0 66bb a449 043e
00000270: ccb2 2dbc 0c0a 96bd 0d0e d33c 5787 9b3d
00000280: ce5b 2f3d 4f98 e03d 18b9 173a 41f1 393d
00000290: 60e7 c43c 5860 3c3c c1e7 e13d b813 dcbb
000002a0: 51e5 23bd 64bf 113d 153e 763d 67aa 59bd
000002b0: 0b29 ee3b 05ea 713c 1dc3 533d 0487 d13c
000002c0: e730 bdbc bc64 3abd dba7 be3d 20eb 813d
000002d0: 5ce9 a4bc 9618 8ebd efd2 76bd c8f9 36bd
000002e0: 2d61 da3c 22c6 22bd a7a6 feba f8ba 8d3c
000002f0: 8379 01bb 7d64 bb3c 7407 c13b 5f29 d33b
00000300: a9c8 7dbd 3582 e2bc dd35 22bd 0418 15bd
00000310: 9337 4c3d 91d3 f9bc fbee 7b95 65a4 b191
00000320: 6f06 4f91 3e9f d121 4929 8b1e a75a 1214
00000330: fbca 931e 6b18 a31a 3d9c 399a c211 0080
00000340: 7105 0080 2b00 0000 0506 0080 8901 0080
00000350: 3401 0000 0c07 0080 c104 0000 0e05 0000
00000360: 4420 5aba dc5e bdbb c41e 0ebc 8f59 c63a
00000370: 4e52 e33b d8fc 06bc b852 75bc ab8c 00bc
00000380: 7f49 c2bb 8c2e 593c 8ffb 363c eaa1 053c
00000390: 16d7 2fbd 4ce7 ef3b bb25 943b 9c45 7dbc
000003a0: 2c0f f5bb e086 dfba 3730 93bd 3b52 17bd
000003b0: b808 23bd ede8 e4bc a308 15bd 7169 30bd
000003c0: 1756 023c 0617 22bd 87a7 aebc d524 2ebd
000003d0: 9cfa 6bbc 2088 d9bc e784 f23c 8e09 ca3b
000003e0: 0772 22bd 3a8d 0e3c a1ca 903d 9580 263d
000003f0: 83e6 9b3c dc33 8dbc c3db babc 52fb 08bc

residual_tower.blocks.0.conv2.bias f4 [8]
-9.903854e-06 -4.0059135e-06 1.5668591e-05 -1.2378081e-05 -1.430841e-05 2.8830433e-05 8.667221e-05 -1.3976367e-06
00000000: bb28 26b7 896a 86b6 0b70 8337 74ab 4fb7
00000010: 270e 70b7 e2d8 f137 cac3 b538 6e96 bbb5

residual_tower.blocks.0.bn2.weight f4 [8]
0.11225349 0.020838855 0.05638377 -0.017182846 0.086141616 0.14366142 0.2333484 0.03916168
00000000: 28e5 e53d 3fb6 aa3c abf2 663d 0ac3 8cbc
00000010: 046b b03d fb1b 133e e2f2 6e3e ff67 203d

residual_tower.blocks.0.bn2.bias f4 [8]
-0.111382574 -0.043440543 0.012916265 0.009312514 -0.049243737 -0.10719399 -0.12415121 -0.12902166
00000000: 8c1c e4bd b6ee 31bd be9e 533c 8493 183c
00000010: cdb3 49bd 8688 dbbd fd42 febd 411e 04be

residual_tower.blocks.0.bn2.running_mean f4 [8]
0.018478585 -0.012178277 0.008988155 -0.00015123546 -0.019358061 0.0014412062 -0.04522679 0.008709557
00000000: 6760 973c 6587 47bc 0e43 133c f694 1eb9
00000010: cc94 9ebc dbe6 bc3a ba3f 39bd 88b2 0e3c

residual_tower.blocks.0.bn2.running_var f4 [8]
0.00039102824 0.00015949385 0.00023420008 0.000120575496 0.00028007224 0.00030252655 0.0007737139 4.7773152e-05
00000000: ec02 cd39 ce3d 2739 9b93 7539 7add fc38
00000010: a9d6 9239 6d9c 9e39 10d3 4a3a 0860 4838

residual_tower.blocks.1.conv1.weight f4 [8, 8, 3, 3]
-4.92e-43 3.0547783e-36 -5.359915e-39 1.18191e-40 9.3312e-41 2.852752e-38 2.19e-43 -2.58943e-40
6.014e-42 -3.1e-43 5.2666e-40 4.96e-43 1.3460722e-35 -2.2369167e-38 1.15e-43 3.6547288e-33
-1.2418584e-34 3.0063574e-37 5e-43 -1.06e-43 3.176e-41 -7.246e-42 -1.711e-42 4.15e-43
-4.96e-43 2.506e-42 2.3987e-41 -4.93e-43 4.95e-43 4.97e-43 5.02e-43 -4.97e-43
4.92e-43 5.03e-43 -5.02e-43 5e-43 4.97e-43 -4.99e-43 -4.93e-43 -4.99e-43
-4.95e-43 4.95e-43 -4.92e-43 4.96e-43 4.99e-43 -4.92e-43 -5.73e-43 -4.96e-43
3.36e-43 4.9131e-41 7.5419e-41 4.93e-43 7.08e-43 -8.7e-44 7.30568e-40 4.96e-43
-4.99e-43 1.486918e-39 1.122831e-39 1.9e-43 1.1e-43 2.75e-43 1.86e-43 -4.99e-43
5e-43 5.03e-43 -4.93e-43 4.99e-43 -4.92e-43 -4.92e-43 -4.92e-43 4.99e-43
-4.78e-43 -2.55e-43 -3.71e-43 -5.38e-43 -5.69e-43 -5.03e-43 -3.73e-43 8.8e-44
1.4e-43 -3.6e-44 -5.28e-43 -4.95e-43 3e-45 -5.27e-43 -8e-44 2.5e-44
-5.32e-43 -6e-44 -3.53e-43 -5.07e-43 -4.93e-43 -5.65e-43 -4.29e-43 -4.3e-44
-4.93e-43 -4.92e-43 -4.93e-43 -5.69e-43 -4.43e-43 -4.96e-43 3.4e-44 -5.27e-43
-4.9e-43 -5.13e-43 5.11e-43 -5.07e-43 -4.34e-43 -4.99e-43 -3.49e-43 -5.04e-43
-4.95e-43 -5.07e-43 -4.79e-43 -4.95e-43 1.95e-43 -1.1e-43 -3.2e-44 -5e-44
-3e-44 -5.06e-43 8.1e-44 4.3e-44 -5e-43 -4.92e-43 -5.9e-44 -5.03e-43
-1.63e-43 -4.95e-43 -4.97e-43 -1.77e-43 -5.09e-43 6e-45 -5.03e-43 -4.99e-43
-5.07e-43 4.95e-43 4.99e-43 4.97e-43 5.1e-43 -5e-43 -4.99e-43 -5.02e-43
5.0117685e-27 -9.685103e-23 5.832973e-23 4.6565587e-25 5.068066e-28 4.892415e-23 -1.13751554e-29 -3.800063e-28
1.0314933e-27 8.594758e-18 7.8129996e-23 -2.0658096e-30 -6.566788e-18 3.8825732e-18 -8.985596e-25 3.1246344e-19
-3.1823212e-15 -1.9709831e-17 -1.1712095e-30 -8.4633065e-29 -3.1993575e-28 6.503947e-27 9.328826e-28 -2.5981359e-20
-1.232258e-24 -4.4495526e-27 6.693182e-23 -1.8213331e-35 6.043641e-33 4.949992e-35 -3.856774e-37 8.8546006e-36
-5.2947096e-37 1.3933341e-36 1.9461714e-34 -1.8100827e-35 2.7551958e-35 -1.7889698e-34 -5.685668e-36 1.5420596e-34
-4.1729785e-33 -9.420507e-34 -1.729343e-33 1.5798633e-35 -4.327774e-38 2.2113431e-28 1.1349234e-28 -4.832743e-28
4.7956334e-24 3.1004726e-24 9.138742e-19 -2.8633822e-30 1.0890138e-31 2.2349644e-29 -4.631427e-25 8.763804e-27
1.4458696e-30 -5.534032e-27 2.4425476e-26 -2.670375e-28 -2.471371e-27 -4.6135852e-27 -2.4529058e-28 -4.4534016e-38
2.4553711e-38 -6.343731e-38 1.1638053e-37 8.0922346e-38 -3.0159656e-38 3.7065393e-38 2.2311109e-37 1.6955886e-37
-4.055148e-08 -8.2337953e-10 -1.371742e-10 -1.9735002e-07 -1.1147721e-10 -8.785623e-08 -7.461705e-10 -1.3414665e-09
-1.5957432e-09 -8.2027846e-10 -4.508269e-07 1.75791e-08 -1.2901144e-06 -1.5671219e-08 -1.691076e-08 1.8301273e-07
-3.1874475e-05 -4.046904e-06 -8.478164e-09 -6.776664e-09 1.2503641e-06 1.8193184e-07 1.2210678e-07 -3.6713985e-07
-7.737435e-09 5.487739e-08 -1.5710842e-07 -4.3114373e-11 -2.670249e-09 -2.1837774e-09 4.041115e-11 -1.3615098e-12
-1.15547594e-17 -3.6303342e-11 -1.7629019e-09 -5.7770955e-11 -7.5031626e-13 -1.3943846e-12 -6.4006274e-12 4.5927606e-13
00000000: 5f01 0080 97ef 8104 435d 3a80 7849 0100
00000010: 1e04 0100 8f51 1b01 9c00 0000 d4d1 0280
00000020: c410 0000 dd00 0080 1dbc 0500 6201 0000
00000030: 9223 8f05 2394 f380 5200 0000 becf 9709
00000040: 4012 2587 229a cc02 6501 0000 4c00 0080
00000050: 8958 0000 3314 0080 c504 0080 2801 0000
00000060: 6201 0080 fc06 0000 de42 0000 6001 0080
00000070: 6101 0000 6301 0000 6601 0000 6301 0080
00000080: 5f01 0000 6701 0000 6601 0080 6501 0000
00000090: 6301 0000 6401 0080 6001 0080 6401 0080
000000a0: 6101 0080 6101 0000 5f01 0080 6201 0000
000000b0: 6401 0000 5f01 0080 9901 0080 6201 0080
000000c0: f000 0000 f588 0000 3dd2 0000 6001 0000
000000d0: f901 0000 3e00 0080 87f4 0700 6201 0000
000000e0: 6401 0080 ec30 1000 ff39 0c00 8800 0000
000000f0: 4e00 0000 c400 0000 8500 0000 6401 0080
00000100: 6501 0000 6701 0000 6001 0080 6401 0000
00000110: 5f01 0080 5f01 0080 5f01 0080 6401 0000
00000120: 5501 0080 b600 0080 0901 0080 8001 0080
00000130: 9601 0080 6701 0080 0a01 0080 3f00 0000
00000140: 6400 0000 1a00 0080 7901 0080 6101 0080
00000150: 0200 0000 7801 0080 3900 0080 1200 0000
00000160: 7c01 0080 2b00 0080 fc00 0080 6a01 0080
00000170: 6001 0080 9301 0080 3201 0080 1f00 0080
00000180: 6001 0080 5f01 0080 6001 0080 9601 0080
00000190: 3c01 0080 6201 0080 1800 0000 7801 0080
000001a0: 5e01 0080 6e01 0080 6d01 0000 6a01 0080
000001b0: 3601 0080 6401 0080 f900 0080 6801 0080
000001c0: 6101 0080 6a01 0080 5601 0080 6101 0080
000001d0: 8b00 0000 4e00 0080 1700 0080 2400 0080
000001e0: 1500 0080 6901 0080 3a00 0000 1f00 0000
000001f0: 6501 0080 5f01 0080 2a00 0080 6701 0080
00000200: 7400 0080 6101 0080 6301 0080 7e00 0080
00000210: 6b01 0080 0400 0000 6701 0080 6401 0080
00000220: 6a01 0080 6101 0000 6401 0000 6301 0000
00000230: 6c01 0000 6501 0080 6401 0080 6601 0080
00000240: 5f89 c613 e22b ea9a 5b08 8d1a 0f1d 1017
00000250: 099d 2012 2a95 6c1a 2fb7 668f 8cdb f091
00000260: 5772 a312 998b 1e23 20e8 bc1a 3099 278e
00000270: 8f45 f2a2 de3d 8f22 9d0b 8b97 2472 b820
00000280: 774f 65a7 86ca b5a3 240a be8d 0092 d690
00000290: 8bc8 ca91 eed2 0014 37d2 9312 1263 f59e
000002a0: c5ae be97 d343 b093 cad4 a11a 67ad c185
000002b0: 040b fb09 e697 8306 3d3d 0383 0851 3c05
000002c0: 6d2b 3483 4210 ed03 6458 8107 237b c085
000002d0: c87d 1206 7dcb 6d87 71d7 f184 92f9 4c07
000002e0: b856 ad89 6886 9c88 0fab 0f89 f8ff a705
000002f0: 5ea0 6b81 1829 8c11 5fde 0f11 df27 1992
00000300: a785 b918 30e3 6f18 31dd 8621 1f4e 688e
00000310: b15c 0d0c fea6 e20f f255 0f97 c495 2d14
00000320: 139b ea0d c039 db93 f0e5 f114 5041 a991
00000330: 5ccd 4393 50c3 b693 ac78 9b91 5c77 7281
00000340: e1ae 0501 5ab1 ac81 b268 1e02 a54a dc01
00000350: 6d34 2481 9ecd 4901 6fd7 9702 a4ca 6602
00000360: d32a 2eb3 2f54 62b0 1bd3 16af 29e7 53b4
00000370: 1724 f5ae 79ab bcb3 151b 4db0 a85e b8b0
00000380: 3951 dbb0 f779 61b0 2d09 f2b4 da00 9732
00000390: fe27 adb5 609d 86b2 2843 91b2 2882 4434
000003a0: f5b0 05b8 a4ca 87b6 5ca7 11b2 2bd8 e8b1
000003b0: 2fd2 a735 0b59 4334 751c 0334 511b c5b4
000003c0: 99ed 04b2 54b2 6b33 a2b1 28b4 789e 3dae
000003d0: 847f 37b1 6b11 16b1 e9ba 312e 8f9d bfab
000003e0: cf25 55a3 eea9 1fae 994a f2b0 5014 7eae
000003f0: fc31 53ab 003e c4ab ba33 e1ac 5446 012b

residual_tower.blocks.1.conv1.bias f4 [8]
3.107e-42 4.97e-43 4.52e-42 1.1344932e-05 -3.7994296e-06 -7.5855615e-07 -4.0170674e-13 1.1375524e-05
00000000: a908 0000 6301 0000 9a0c 0000 1d56 3e37
00000010: b4f9 7eb6 959f 4bb5 0b24 e2aa 81d9 3e37

residual_tower.blocks.1.bn1.weight f4 [8]
1.1027303e-06 5e-43 0.0005034964 0.0024313983 0.102572575 0.08817471 -4.93e-43 0.11381865
00000000: 8601 9435 6501 0000 12fd 033a 1858 1f3b
00000010: 9211 d23d f194 b43d 6001 0080 c119 e93d

residual_tower.blocks.1.bn1.bias f4 [8]
-1.0086542e-11 -0.00043958556 -4.9342016e-06 -0.0070673623 -0.2747152 -0.12940751 -1.5773149e-32 -0.2169622
00000000: bf71 31ad 2d78 e6b9 7890 a5b6 5595 e7bb
00000010: 78a7 8cbe 6783 04be 39cc a38a 572b 5ebe

residual_tower.blocks.1.bn1.running_mean f4 [8]
8.312558e-34 -5.34e-43 -5.313994e-16 2.288466e-06 0.032980785 -0.03544509 1.492097e-14 0.0666474
00000000: b61d 8a08 7d01 0080 5b2a 19a6 8c93 1936
00000010: dc16 073d df2e 11bd 6a65 8628 6f7e 883d

residual_tower.blocks.1.bn1.running_var f4 [8]
6e-45 6e-45 8.163264e-31 5.71104e-10 0.004563204 0.007726783 1.4108045e-38 0.006018613
00000000: 0400 0000 0400 0000 df74 840d dffb 1c30
00000010: ee86 953b f430 fd3b 7d9f 9900 c937 c53b

residual_tower.blocks.1.conv2.weight f4 [8, 8, 3, 3]
-6.685008e-36 -2.112823e-36 -2.43662e-40 9.1989e-37 -1.0170631e-38 -3.496154e-39 -1.3472114e-38 -7.191402e-38
8.0552e-41 -6.386335e-05 -3.8012233e-06 -2.0432146e-05 -4.746004e-05 1.85854e-10 6.6284547e-06 -3.591076e-05
2.6200546e-06 -3.5287323e-07 -1.0329963e-26 -1.9415208e-28 -1.6716543e-31 -9.97679e-25 3.3072358e-29 5.4330337e-27
1.1482677e-27 5.3195535e-26 1.0707806e-31 5.1161816e-18 -9.820683e-18 -5.6220054e-22 1.8791799e-13 4.3818077e-15
1.7685696e-16 2.4427747e-16 9.975678e-17 1.2715056e-16 -0.009732711 -0.03829551 -0.10274262 -0.003911672
-0.045955334 -0.007842352 -0.027555427 0.0070496956 -0.05633748 -0.026879735 -0.046398222 -0.048168916
0.06745203 -0.0027028874 0.02765237 -0.033233143 0.055368826 -0.012837581 6.734137e-33 4.2170522e-33
5.8204948e-33 2.5004578e-33 1.1166573e-38 2.332198e-33 3.4071127e-33 7.745559e-34 4.7522033e-33 0.06301379
9.398172e-05 0.011652421 0.03523712 -0.026076367 -0.057519533 0.15664148 0.12597427 0.1281767
-5.02e-43 4.93e-43 -4.95e-43 -5.02e-43 -4.96e-43 5.02e-43 5.03e-43 4.92e-43
5.02e-43 -1.51438435e-05 -1.5072592e-06 3.5727257e-06 -2.3682047e-05 5.3244263e-11 -1.4273612e-06 -2.3930272e-05
2.0834914e-05 1.5686013e-05 -2.9703996e-38 -5.280454e-38 1.1344773e-37 2.3381485e-38 2.635971e-37 -1.3094741e-37
-4.5780662e-38 -2.2458817e-37 -5.102365e-37 2.2874354e-19 -3.7537065e-20 4.7625615e-20 -1.1307398e-20 -4.925401e-22
-2.7814895e-20 6.945972e-19 -2.9771745e-21 1.0418738e-20 0.02519346 -0.048614714 0.04642269 -0.054680128
0.058051553 -0.022388972 -0.07905193 -0.028878964 0.044122666 0.025303585 0.010825608 0.103075676
0.06734995 0.08368919 0.030368676 -0.09890785 0.011002981 -0.0047460673 2.488426e-33 1.0715735e-33
1.2048648e-33 1.6680204e-33 1.8859845e-38 2.2328658e-34 -2.7547155e-33 -4.926036e-33 -5.0546007e-33 0.06671654
0.09537322 0.053536724 -0.103926204 0.0068945573 -0.09485471 0.022655576 -0.18392777 -0.007759399
-1.721e-42 -3.38e-43 -4.99e-43 -4.93e-43 -4.95e-43 2.14e-43 -4.92e-43 4.92e-43
-4.95e-43 3.945976e-05 4.5792387e-07 -3.553977e-05 6.915236e-05 7.1261025e-11 -3.9841652e-05 4.054288e-05
5.334416e-06 -3.299857e-05 -6.2745537e-31 -3.389484e-35 1.380747e-31 3.2990322e-33 -1.4719488e-33 5.8515815e-34
-2.0529102e-35 -1.508263e-36 7.884171e-37 1.0175026e-16 9.7442035e-17 -1.0780735e-17 1.00986945e-11 -3.1959933e-13
-9.156877e-12 -9.065549e-11 2.1610302e-14 1.17523e-15 0.04468068 0.08191556 0.01866237 -0.012304918
0.00601565 -0.034320556 0.0685673 0.05814845 0.04439002 0.004854326 0.031989086 -0.073042884
0.009438315 0.113584414 0.029983189 0.031369187 0.012020664 0.029369395 -4.794046e-33 1.563726e-33
2.5989556e-33 -6.802946e-33 -2.803044e-39 2.8865557e-33 -6.452633e-33 -1.6511811e-34 2.5822518e-33 -0.07796229
-0.008295277 0.00010348373 -0.0040404885 -0.03857719 0.037875168 -0.08072832 -0.05993558 -0.028397217
-4.99e-43 5.03e-43 -5.02e-43 -5.03e-43 -4.99e-43 4.99e-43 5e-43 -4.99e-43
-4.96e-43 -1.3000317e-05 -9.534187e-06 2.7840682e-05 -4.675335e-06 -8.422031e-12 -2.5160098e-05 1.6879147e-06
-5.729596e-06 -2.831921e-05 2.3130787e-35 9.006703e-36 -4.814788e-37 -2.846136e-34 -1.4259906e-33 4.8863756e-35
-1.8373612e-36 3.4287248e-32 -4.3399145e-33 -3.9470045e-19 3.0307344e-21 -8.2094323e-22 -8.6574927e-20 -7.11614e-21
2.9204452e-20 -6.9302423e-15 -1.7085367e-16 8.267175e-21 0.009929506 -0.0044143256 -0.08190307 0.065544784
00000000: a52c 0e85 36bd 3384 3ba7 0280 dc82 9c03
00000010: 95bf 6e80 db11 2680 c6b2 9280 c2c4 c381
00000020: 8ce0 0000 60ee 85b8 8518 7fb6 b365 abb7
00000030: d40f 47b8 4059 4c2f fe69 de36 e39e 16b8
00000040: 32d4 2f36 8772 bdb4 239b 4c94 f41d 7691
00000050: 3efe 588c 2362 9a97 60b2 2710 8239 d713
00000060: 46f3 b512 adb4 8315 cafe 0a0c f8c0 bc22
00000070: dd28 35a3 29ea 299c ac93 532a 0bdf 9d27
00000080: f6e6 4b25 fed0 8c25 0206 e624 3998 1225
00000090: f375 1fbc c1db 1cbd b96a d2bd 7c2d 80bb
000000a0: a93b 3cbd 357d 00bc ebbb e1bc 2201 e73b
000000b0: 21c2 66bd e432 dcbc 100c 3ebd c54c 45bd
000000c0: 4a24 8a3d ed22 31bb 3987 e23c 7a1f 08bd
000000d0: 6cca 623d b854 52bc d0dc 0b0a 642b af09
000000e0: 1ec6 f109 dbba 4f09 dd97 7900 5ec0 4109
000000f0: a386 8d09 f7b1 8008 1866 c509 600d 813d
00000100: 0d18 c538 cce9 3e3c cc54 103d 1b9e d5bc
00000110: 9a99 6bbd a066 203e 66ff 003e c140 033e
00000120: 6601 0080 6001 0000 6101 0080 6601 0080
00000130: 6201 0080 6601 0000 6701 0000 5f01 0000
00000140: 6601 0000 5012 7eb7 084d cab5 f6c2 6f36
00000150: cfa8 c6b7 b62b 6a2e c293 bfb5 debd c8b7
00000160: a3c6 ae37 7595 8337 54b9 2181 65bf 8f81
00000170: c46a 1a02 119a fe00 1865 b302 833c 3282
00000180: ee40 7981 c7d8 9882 de9f 2d83 bf06 8720
00000190: 8743 319f d6e7 601f 3997 559e 72dc 149c
000001a0: 255a 039f 4802 4d21 eef2 609d edcd 441e
000001b0: 8462 ce3c 3920 47bd b825 3e3d 45f8 5fbd
000001c0: 77c7 6d3d 1469 b7bc fae5 a1bd 9493 ecbc
000001d0: f8b9 343d 7749 cf3c e45d 313c 5719 d33d
000001e0: c5ee 893d 3d65 ab3d bbc7 f83c 3390 cabd
000001f0: d945 343c e684 9bbb f8ba 4e09 b20b b208
00000200: 4831 c808 df92 0a09 935d cd00 3e66 9407
00000210: 52da 6489 9a9e cc89 bcf5 d189 aea2 883d
00000220: 0953 c33d 5349 5b3d 43d7 d4bd bdeb e13b
00000230: 3043 c2bd 3098 b93c 9057 3cbe 8e42 febb
00000240: cc04 0080 f100 0080 6401 0080 6001 0080
00000250: 6101 0080 9900 0000 5f01 0080 5f01 0000
00000260: 6101 0080 9881 2538 94d8 f534 8a10 15b8
00000270: e405 9138 64b4 9c2e a61b 27b8 960c 2a38
00000280: 49fe b236 f267 0ab8 f49e 4b8d 4437 3486
00000290: 303b 330c 5409 8909 c791 f488 c073 4208
000002a0: 884d da85 0f4f 0084 6824 8603 c19e ea24
000002b0: a0af e024 95de 46a3 7aa8 312d 1eeb b3aa
000002c0: e816 21ad 815a c7ae f7a5 c228 565e a926
000002d0: 1703 373d 58c3 a73d d4e1 983c 919a 49bc
000002e0: ee1e c53b b693 0cbd 036d 8c3d 122d 6e3d
000002f0: 4fd2 353d 0a11 9f3b fd06 033d 8297 95bd
00000300: 2aa3 1a3c f29e e83d 4e9f f53c fa7c 003d
00000310: 52f2 443c 1698 f03c 0b23 c789 c6e8 0109
00000320: ace9 5709 aa4a 0d8a bf85 1e80 40ce 6f09
00000330: 1504 068a c87a 5b87 6c86 5609 b1aa 9fbd
00000340: eae8 07bc 6805 d938 1366 84bb 1e03 1ebd
00000350: fe22 1b3d e454 a5bd 037f 75bd 48a1 e8bc
00000360: 6401 0080 6701 0000 6601 0080 6701 0080
00000370: 6401 0080 6401 0000 6501 0000 6401 0080
00000380: 6201 0080 f01b 5ab7 05f5 1fb7 698b e937
00000390: d2e0 9cb6 7529 14ad e60e d3b7 4f8c e235
000003a0: db40 c0b6 0a8f edb7 fef7 f505 288d 3f05
000003b0: b8d6 2383 7f28 bd87 efee ec88 f3e6 8106
000003c0: 2f4e 1c84 9207 320b e345 b489 72fd e8a0
000003d0: eefe 641d 681d 789c 556b cc9f 8b6b 069e
000003e0: 04ea 091f 34b0 f9a7 1afb 44a5 9b29 1c1e
000003f0: 5eaf 223c 0ca6 90bb ccbc a7bd 583c 863d

residual_tower.blocks.1.conv2.bias f4 [8]
0.00041134862 6.694379e-05 -4.708299e-06 -1.1046931e-05 -3.6592915e-05 5.0774608e-05 4.922029e-06 -1.1424557e-05
00000000: 47aa d739 2c64 8c38 fbfb 9db6 3556 39b7
00000010: 587b 19b8 d2f6 5438 e827 a536 19ac 3fb7

residual_tower.blocks.1.bn2.weight f4 [8]
0.09164029 -0.050896708 0.050325867 -0.030901795 0.12594421 0.16604304 -0.008641318 0.015540821
00000000: e8ad bb3d 1179 50bd 7f22 4e3d c325 fdbc
00000010: 85f7 003e 3007 2a3e 5194 0dbc ed9e 7e3c

residual_tower.blocks.1.bn2.bias f4 [8]
-0.028972814 -0.09432335 -0.06850693 -0.13771918 -0.10224179 -0.18662302 0.035249073 0.1893699
00000000: 6558 edbc 9a2c c1bd 5c4d 8cbd 4206 0dbe
00000010: 2564 d1bd 1b1a 3fbe 5561 103d 2fea 413e

residual_tower.blocks.1.bn2.running_mean f4 [8]
0.00083218253 -0.00039079157 0.00046999965 -0.00028983608 0.004359134 0.00057700777 0.0007996067 0.00046054096
00000000: d326 5a3a 28e3 ccb9 496a f639 24f5 97b9
00000010: 11d7 8e3b 5642 173a b39c 513a c374 f139

residual_tower.blocks.1.bn2.running_var f4 [8]
0.000112442176 0.000106768864 7.290757e-05 1.8951943e-05 0.00021407181 0.000106732434 1.930708e-05 1.0517215e-05
00000000: efce eb38 19e9 df38 f4e5 9838 fdfa 9e37
00000010: 7778 6039 8ad5 df38 a3f5 a137 1873 3037

residual_tower.blocks.2.conv1.weight f4 [8, 8, 3, 3]
4.96e-43 4.99e-43 -4.97e-43 -4.95e-43 -4.97e-43 3.6e-43 4.93e-43 -4.96e-43
-2.72e-43 -4.92e-43 4.33e-43 -4.93e-43 -4.95e-43 -3.03e-43 4.7e-43 2.65e-43
4.830978e-39 -3.953e-42 -4.92e-43 -4.92e-43 4.96e-43 -4.93e-43 4.95e-43 4.93e-43
4.97e-43 -4.93e-43 4.93e-43 5.03e-43 -5.03e-43 -4.92e-43 -4.99e-43 5.1e-43
5.09e-43 -4.93e-43 5e-43 5.04e-43 -4.96e-43 -4.96e-43 4.96e-43 4.92e-43
-4.95e-43 -4.93e-43 4.99e-43 -4.92e-43 -4.97e-43 -3.95e-43 4.79e-43 -2.9052e-41
-8.91e-43 2.0752e-41 -4.34e-43 4.95e-43 -4.95e-43 4.99e-43 3.7841126e-38 -4.96e-43
4.93e-43 -4.311e-41 4.92e-43 5e-43 4.97e-43 -5e-43 -4.99e-43 -4.96e-43
4.92e-43 -4.96e-43 -4.92e-43 -5e-43 4.95e-43 5e-43 4.95e-43 -5e-43
4.96e-43 -4.97e-43 -5.09e-43 5.06e-43 -4.99e-43 -4.93e-43 4.92e-43 5.03e-43
-5.06e-43 -4.93e-43 4.92e-43 -4.96e-43 -4.95e-43 -4.96e-43 -4.99e-43 -5.04e-43
-4.93e-43 -4.95e-43 5.03e-43 4.99e-43 -5.06e-43 -4.97e-43 5.06e-43 5.02e-43
5.03e-43 -5.02e-43 4.96e-43 5e-43 5.1e-43 -5.23e-43 -4.97e-43 -4.97e-43
-4.95e-43 -5.03e-43 -4.93e-43 -5.07e-43 4.92e-43 5.04e-43 -5.16e-43 -4.97e-43
-5.09e-43 5.03e-43 -4.92e-43 -5.11e-43 5.02e-43 -4.95e-43 -5.04e-43 -4.97e-43
5.07e-43 -4.96e-43 -4.93e-43 -4.96e-43 -4.96e-43 5.03e-43 -5.07e-43 4.95e-43
-4.99e-43 -4.97e-43 4.93e-43 4.97e-43 4.92e-43 5.28e-43 -4.93e-43 -4.95e-43
-6.12e-43 -5.03e-43 -5.07e-43 -4.92e-43 -5.1e-43 4.96e-43 4.93e-43 -5.09e-43
-0.07159524 -0.06528095 -0.051659666 -0.015806263 -0.014084975 -0.04703744 -0.030840017 0.013695485
-0.08303526 -0.08578611 -0.09465682 -0.034104172 -0.033570528 -0.089310125 -0.12468786 -0.040836044
-0.033340283 0.0051760143 0.0155868735 -0.05672461 0.009012702 -0.012586222 0.0031547192 -0.0749359
-0.058220375 -0.04096644 -0.08709191 -0.04033669 -0.020945068 -0.06178902 -0.10582213 -0.049583428
-0.07654274 -0.06978336 -0.03772937 -0.018341081 -0.027637295 -0.013283874 -0.06606435 -0.04182532
-0.05508401 -0.017536703 0.017060854 0.020238481 0.02417147 -0.0053702462 0.0182889 -0.0035531186
-0.003608356 -0.04685168 -0.057677638 -0.0065503484 0.0008108935 -0.03554563 -0.067078136 -0.0274023
0.03418046 -0.05664039 -0.08458129 -0.091270834 -0.0007802061 -0.048799995 -0.11137166 -0.000754645
0.030089676 0.030413343 -0.029530583 0.002096111 0.00790109 -0.07404389 -0.037736524 -0.05407091
-0.06102251 -0.0817885 -0.0035269787 0.06667436 -0.0021447996 0.049869187 -0.06356037 0.013515749
-0.0589875 0.010531322 -0.1701062 0.018991582 0.14574932 -0.14513348 -0.04665753 -0.30044454
0.04541488 0.048689656 0.0834405 0.04959033 0.054284543 -0.036737964 -0.10719516 -0.04281118
0.03964518 0.056726888 0.028306115 -0.054432 0.024927685 0.03498992 -0.08052098 0.07449976
-0.08571124 0.117836796 -0.017684909 0.020770099 -0.015487303 -0.099971436 -0.04382771 0.039847825
00000000: 6201 0000 6401 0000 6301 0080 6101 0080
00000010: 6301 0080 0101 0000 6001 0000 6201 0080
00000020: c200 0080 5f01 0080 3501 0000 6001 0080
00000030: 6101 0080 d800 0080 4f01 0000 bd00 0000
00000040: cd9a 3400 050b 0080 5f01 0080 5f01 0080
00000050: 6201 0000 6001 0080 6101 0000 6001 0000
00000060: 6301 0000 6001 0080 6001 0000 6701 0000
00000070: 6701 0080 5f01 0080 6401 0080 6c01 0000
00000080: 6b01 0000 6001 0080 6501 0000 6801 0000
00000090: 6201 0080 6201 0080 6201 0000 5f01 0000
000000a0: 6101 0080 6001 0080 6401 0000 5f01 0080
000000b0: 6301 0080 1a01 0080 5601 0000 fc50 0080
000000c0: 7c02 0080 d939 0000 3601 0080 6101 0000
000000d0: 6101 0080 6401 0000 d506 4e01 6201 0080
000000e0: 6001 0000 2c78 0080 5f01 0000 6501 0000
000000f0: 6301 0000 6501 0080 6401 0080 6201 0080
00000100: 5f01 0000 6201 0080 5f01 0080 6501 0080
00000110: 6101 0000 6501 0000 6101 0000 6501 0080
00000120: 6201 0000 6301 0080 6b01 0080 6901 0000
00000130: 6401 0080 6001 0080 5f01 0000 6701 0000
00000140: 6901 0080 6001 0080 5f01 0000 6201 0080
00000150: 6101 0080 6201 0080 6401 0080 6801 0080
00000160: 6001 0080 6101 0080 6701 0000 6401 0000
00000170: 6901 0080 6301 0080 6901 0000 6601 0000
00000180: 6701 0000 6601 0080 6201 0000 6501 0000
00000190: 6c01 0000 7501 0080 6301 0080 6301 0080
000001a0: 6101 0080 6701 0080 6001 0080 6a01 0080
000001b0: 5f01 0000 6801 0000 7001 0080 6301 0080
000001c0: 6b01 0080 6701 0000 5f01 0080 6d01 0080
000001d0: 6601 0000 6101 0080 6801 0080 6301 0080
000001e0: 6a01 0000 6201 0080 6001 0080 6201 0080
000001f0: 6201 0080 6701 0000 6a01 0080 6101 0000
00000200: 6401 0080 6301 0080 6001 0000 6301 0000
00000210: 5f01 0000 7901 0000 6001 0080 6101 0080
00000220: b501 0080 6701 0080 6a01 0080 5f01 0080
00000230: 6c01 0080 6201 0000 6001 0000 6b01 0080
00000240: 86a0 92bd 05b2 85bd 1699 53bd 237c 81bc
00000250: abc4 66bc 55aa 40bd 34a4 fcbc 0763 603c
00000260: 640e aabd a1b0 afbd 6fdb c1bd d1b0 0bbd
00000270: 4081 09bd 3ae8 b6bd 595c ffbd b243 27bd
00000280: d28f 08bd 8e9b a93b 1660 7f3c 1158 68bd
00000290: 03aa 133c 7136 4ebc 68bf 4e3b fe77 99bd
000002a0: 7d78 6ebd 6dcc 27bd 3e5d b2bd 1638 25bd
000002b0: fe94 abbc 7c16 7dbd 46b9 d8bd fe17 4bbd
000002c0: 71c2 9cbd 94ea 8ebd 1d8a 1abd 0940 96bc
000002d0: 9c67 e2bc 9ba4 59bc bf4c 87bd 0751 2bbd
000002e0: c59f 61bd 22a9 8fbc 34c3 8b3c 2ccb a53c
000002f0: 3f03 c63c e4f8 afbb 9ad2 953c 70db 68bb
00000300: 2b7a 6cbb 8ce7 3fbd 633f 6cbd 4ea4 d6bb
00000310: 2492 543a 4b98 11bd 4360 89bd ca7a e0bc
00000320: cf00 0c3d c1ff 67bd f538 adbd 34ec babd
00000330: bf86 4cba 81e2 47bd d316 e4bd 5ed3 45ba
00000340: a07e f63c 6725 f93c 1fea f1bc e85e 093b
00000350: 9373 013c 53a4 97bd 9d91 1abd 7579 5dbd
00000360: bdf2 79bd bb80 a7bd e224 67bb 918c 883d
00000370: c48f 0cbb a243 4c3d f02b 82bd 2971 5d3c
00000380: e09c 71bd 918b 2c3c 5230 2ebe 3c94 9b3c
00000390: 4f3f 153e df9d 14be f71b 3fbd ded3 99be
000003a0: f404 3a3d ce6e 473d dae2 aa3d 3b1f 4b3d
000003b0: 7859 5e3d 8c7a 16bd 2389 dbbd c75a 2fbd
000003c0: fc62 223d 745a 683d 3ae2 e73c 17f4 5ebd
000003d0: 2535 cc3c 9751 0f3d 2fe8 a4bd 5593 983d
000003e0: 6089 afbd 6b54 f13d f1df 90bc 0e26 aa3c
000003f0: 75be 7dbc d3bd ccbd af84 33bd 7937 233d

residual_tower.blocks.2.conv1.bias f4 [8]
2.903e-42 2.123e-42 0.0005031695 5.811832e-06 6.01e-43 -2.2888877e-07 -1.34752e-06 5.37e-43
00000000: 1808 0000 eb05 0000 22e7 033a 4203 c336
00000010: ad01 0000 77c4 75b4 6fdc b4b5 7f01 0000

residual_tower.blocks.2.bn1.weight f4 [8]
-1.5859656e-06 4.92e-43 0.155364 0.1314704 -4.96e-43 -1.465456e-39 0.08089577 -5.2386218e-05
00000000: 5ddd d4b5 5f01 0000 be17 1f3e 2da0 063e
00000010: 6201 0080 18f5 0f80 aeac a53d 46b9 5bb8

residual_tower.blocks.2.bn1.bias f4 [8]
-1.247367e-10 2.0852633e-09 -0.14222935 -0.16245738 -3.695858e-15 -1.6298601e-28 -0.14912592 -8.7268175e-09
00000000: 4226 09af 574c 0f31 92a4 11be 3a5b 26be
00000010: 4628 85a7 fc9b 4e91 77b4 18be f3ec 15b2

residual_tower.blocks.2.bn1.running_mean f4 [8]
3.46242e-39 -1.003e-42 -0.15513246 -0.02780684 9.36e-43 9.648747e-09 -0.008744407 8.17881e-21
00000000: d1b3 2500 cc02 0080 0bdb 1ebe 2ccb e3bc
00000010: 9c02 0000 a3c3 2532 b444 0fbc 4c7e 1a1e

residual_tower.blocks.2.bn1.running_var f4 [8]
6e-45 6e-45 0.009812129 0.008667943 6e-45 2.562181e-29 0.005003982 5.71706e-40
00000000: 0400 0000 0400 0000 0dc3 203c fd03 0e3c
00000010: 0400 0000 03eb 0110 72f8 a33b af39 0600

residual_tower.blocks.2.conv2.weight f4 [8, 8, 3, 3]
2.23e-43 6.9036e-41 2.3622e-41 4.92e-43 4.92e-43 4.96e-43 -4.92e-43 4.95e-43
4.93e-43 2.087469e-11 1.9686818e-11 4.0376005e-11 -3.3015361e-12 -1.7487419e-16 1.1942618e-11 3.4305757e-12
1.1423805e-12 -4.8381844e-13 -0.036980618 -0.062451925 -0.018231744 -0.044280834 -0.058901466 -0.009498653
-0.068216175 -0.05787033 -0.004928059 0.017004337 -0.019372536 -0.08769306 -0.044464987 0.016379612
-0.016844233 -0.0976113 0.034569524 -0.088690124 4.6162295e-16 1.2470227e-16 7.3117043e-16 1.2710756e-16
5.211986e-22 3.412911e-16 4.8188954e-16 7.087739e-16 1.3934355e-15 6.452223e-30 7.2718074e-30 9.387013e-30
-4.2444253e-30 -4.3367157e-36 3.0083336e-30 -1.5398962e-29 -1.03087296e-29 -1.0126219e-29 -0.038155153 0.040368147
0.05079692 0.024267502 0.088655084 0.032998234 -0.035318673 -0.049356107 -0.024377203 3.027889e-39
2.81917e-39 1.63e-43 -2.988268e-39 -1.81675e-39 3.95e-43 2.36443e-39 1.854e-42 4.92e-43
4.99e-43 4.97e-43 4.95e-43 5.02e-43 -5.02e-43 -4.93e-43 -5e-43 4.96e-43
-5.03e-43 3.280061e-11 5.885376e-12 -5.4564853e-11 2.081274e-11 -5.017814e-16 -7.788741e-11 -1.301153e-10
-1.3374941e-10 -2.748332e-10 0.00607792 -0.059837084 -0.014932946 -0.027709948 -0.021429189 -0.08416718
-0.059016764 -0.04393279 -0.034736477 -0.0814325 0.13380718 0.034622256 0.05458739 0.017079659
0.0011271852 0.102715336 0.024119105 -0.0064236512 1.1034427e-16 8.89386e-17 -5.5993265e-17 1.1535108e-16
-1.5445982e-21 -2.1378045e-16 -5.1567316e-17 4.0525466e-16 1.429572e-16 2.8519532e-30 -5.1472306e-30 -9.960809e-30
7.663156e-30 1.2005969e-34 -6.362914e-30 -1.5054964e-29 -2.6260506e-29 -3.6728652e-29 0.022553006 0.008885924
-0.10189914 0.12048783 0.02004853 0.06429149 0.020233024 -0.022616573 0.040867887 -5.02e-43
4.92e-43 -4.99e-43 5.02e-43 -5e-43 -4.97e-43 -5.07e-43 4.92e-43 5.02e-43
5.03e-43 4.99e-43 -4.95e-43 -4.99e-43 5e-43 4.95e-43 -4.99e-43 -4.93e-43
4.93e-43 -1.0382704e-10 -4.756586e-11 -6.237546e-11 -6.0097816e-11 9.615565e-17 -2.1133916e-11 -7.4014295e-11
-4.3341202e-11 -5.7328125e-11 0.010450782 -0.020454451 -0.014638707 0.025439927 -0.01926755 0.007481996
-0.007772123 -0.00972309 -0.010028795 -0.027883744 0.01688934 -0.06852564 -0.01642501 0.047125615
-0.046749767 -0.033719163 0.093380444 -0.051596697 -2.4377357e-16 3.4561623e-16 5.9445286e-16 8.473308e-17
4.978232e-23 -1.5901385e-16 8.9917266e-17 2.0348272e-17 3.5814409e-16 1.0765817e-30 -4.088276e-30 9.715705e-31
7.818327e-30 -1.9146866e-35 -1.1286642e-30 -3.0337563e-30 -9.774586e-30 -8.705381e-30 0.024520021 0.00450993
0.003371984 -0.04675547 -0.066946045 -0.061839912 0.029710224 0.029736398 0.058810532 5e-43
-5.09e-43 -5.02e-43 4.96e-43 -4.96e-43 5.07e-43 4.97e-43 5.06e-43 4.92e-43
4.97e-43 -4.99e-43 -4.97e-43 -5.02e-43 4.99e-43 4.99e-43 5e-43 4.99e-43
4.95e-43 -6.0848875e-11 -3.2523352e-11 -2.0483537e-10 -3.9289336e-11 -2.4893528e-16 -1.4913061e-10 -5.6975485e-10
-4.5008233e-10 -5.0678417e-10 -0.006636006 -0.009246769 -0.0037318736 -0.005462694 -0.009775767 -0.018144798
0.02647858 0.045751 0.0072368304 0.04238215 0.023455724 0.081815094 0.041965216 0.10742062
0.00025786515 -0.01402267 -0.08691131 -0.025399733 3.1187618e-16 -9.791786e-19 2.9064813e-16 3.894893e-17
00000000: 9f00 0000 72c0 0000 d941 0000 5f01 0000
00000010: 5f01 0000 6201 0000 5f01 0080 6101 0000
00000020: 6001 0000 a09d b72d c62a ad2d 5793 312e
00000030: 3053 68ac c09d 49a5 c518 522d c267 712c
00000040: 98c6 a02b cb2e 08ab fd78 17bd 97cd 7fbd
00000050: bd5a 95bc d25f 35bd aa42 71bd 3da0 1bbc
00000060: ecb4 8bbd 7009 6dbd 8e7b a1bb ae4c 8b3c
00000070: 27b3 9ebc 6b98 b3bd eb20 36bd 892e 863c
00000080: ebfc 89bc 6fe8 c7bd c698 0d3d 2ba3 b5bd
00000090: c30d 0526 9dc5 0f25 dbbe 5226 888b 1225
000000a0: ca85 1d1c adbd c425 2ce5 0a26 484a 4c26
000000b0: b2d0 c826 dbdd 020f 627d 130f 2864 3e0f
000000c0: a22c ac8e a776 b884 a510 740e fe29 9c8f
000000d0: fc15 518f 5662 4d8f 9448 1cbd 1259 253d
000000e0: 6e10 503d a4cc c63c cc90 b53d 2829 073d
000000f0: 50aa 10bd a129 4abd b3b2 c7bc 86f8 2000
00000100: b3b2 1e00 7400 0000 138a 2080 5cc8 1380
00000110: 1a01 0000 12bf 1900 2b05 0000 5f01 0000
00000120: 6401 0000 6301 0000 6101 0000 6601 0000
00000130: 6601 0080 6001 0080 6501 0080 6201 0000
00000140: 6701 0080 3442 102e c112 cf2c 90fa 6fae
00000150: 2012 b72d efa0 10a6 b746 abae 3310 0faf
00000160: 1d0f 13af 5617 97af 4a29 c73b bb17 75bd
00000170: 51a9 74bc f9ff e2bc 448c afbc d85f acbd
00000180: 90bb 71bd dff2 33bd d647 0ebd 15c6 a6bd
00000190: c004 093e 11d0 0d3d 0797 5f3d a4ea 8b3c
000001a0: 0fbe 933a 6b5c d23d 6e95 c53c 7e7d d2bb
000001b0: c36f fe24 1514 cd24 971c 81a4 a1fd 0425
000001c0: c069 e99c da78 76a5 f1cf 6da4 089d e925
000001d0: 85d1 2425 c060 670e e6cb d08e 7a07 4a8f
000001e0: 616d 1b0f 3296 1f07 230e 018f ecac 988f
000001f0: 1628 0590 843c 3a90 15c1 b83c 4496 113c
00000200: 7fb0 d0bd 53c2 f63d d13c a43c 42ab 833d
00000210: babf a53c 6446 b9bc 1665 273d 6601 0080
00000220: 5f01 0000 6401 0080 6601 0000 6501 0080
00000230: 6301 0080 6a01 0080 5f01 0000 6601 0000
00000240: 6701 0000 6401 0000 6101 0080 6401 0080
00000250: 6501 0000 6101 0000 6401 0080 6001 0080
00000260: 6001 0000 6d51 e4ae 6632 51ae 432a 89ae
00000270: 1028 84ae 47b8 dd24 59e5 b9ad 58c2 a2ae
00000280: db9d 3eae bb21 7cae c239 2b3c 1890 a7bc
00000290: 30d7 6fbc 6567 d03c fbd6 9dbc 882b f53b
000002a0: 4bad febb 984d 1fbc d14f 24bc 736c e4bc
000002b0: 835b 8a3c 2c57 8cbd be8d 86bc ca06 413d
000002c0: af7c 3fbd 1b1d 0abd 3f3e bf3d 0f57 53bd
000002d0: a186 8ca5 f43b c725 e156 2b26 9561 c324
000002e0: 87bb 701a 9b54 37a5 c955 cf24 00ae bb23
000002f0: bd74 ce25 74af ae0d 16d7 a58e 76a5 9d0d
00000300: 1393 1e0f ba9a cb85 e022 b78d a720 768e
00000310: 8d40 468f ec90 308f 36de c83c 09c8 933b
00000320: 81fc 5c3b aa82 3fbd 021b 89bd d94b 7dbd
00000330: db62 f33c bf99 f33c 50e3 703d 6501 0000
00000340: 6b01 0080 6601 0080 6201 0000 6201 0080
00000350: 6a01 0000 6301 0000 6901 0000 5f01 0000
00000360: 6301 0000 6401 0080 6301 0080 6601 0080
00000370: 6401 0000 6401 0000 6501 0000 6401 0000
00000380: 6101 0000 dfce 85ae 0a0a 0fae 0838 61af
00000390: dccb 2cae 5d80 8fa5 89f8 23af ef9c 1cb0
000003a0: 756f f7af c44d 0bb0 da72 d9bb c37f 17bc
000003b0: 7392 74bb 6600 b3bb 8a2a 20bc 66a4 94bc
000003c0: 9be9 d83c 6765 3b3d ef22 ed3b e898 2d3d
000003d0: 3826 c03c ac8e a73d b8e3 2b3d 58ff db3d
000003e0: 1332 8739 57bf 65bc 8ffe b1bd 1a13 d0bc
000003f0: cdc8 b325 5280 90a1 188c a725 c89e 3324

residual_tower.blocks.2.conv2.bias f4 [8]
4.9307273e-05 3.1877523e-06 6.89854e-05 -6.0347378e-05 -1.2033719e-06 -0.00029542265 -8.159699e-06 1.4832716e-05
00000000: 48cf 4e38 2bed 5536 41ac 9038 811d 7db8
00000010: 8b83 a1b5 f5e2 9ab9 a4e5 08b7 08da 7837

residual_tower.blocks.2.bn2.weight f4 [8]
0.0025004838 -0.01861671 0.009176746 -0.08095806 0.004365808 0.093072936 0.2685976 0.09136004
00000000: 28df 233b 1282 98bc 105a 163c 57cd a5bd
00000010: 0d0f 8f3b 069d be3d a085 893e f91a bb3d

residual_tower.blocks.2.bn2.bias f4 [8]
0.010760314 -0.033327498 0.014693202 -0.031382047 0.019298133 -0.10379787 -0.057464413 0.1385113
00000000: 074c 303c 6a82 08bd c2bb 703c 768a 00bd
00000010: 1e17 9e3c fa93 d4bd ce5f 6bbd e8d5 0d3e

residual_tower.blocks.2.bn2.running_mean f4 [8]
-0.0023139396 -0.00026675913 -0.0006265612 0.00086930813 -0.00076177676 0.00046372382 0.00025862173 -0.0036988351
00000000: 77a5 17bb cedb 8bb9 cf3f 24ba 48e2 633a
00000010: f9b1 47ba f51f f339 9f97 8739 2868 72bb

residual_tower.blocks.2.bn2.running_var f4 [8]
3.6497993e-05 5.31225e-05 2.1646392e-05 4.5302135e-05 9.941219e-06 1.6075222e-05 6.7816574e-05 5.8320515e-05
00000000: 6c15 1938 dacf 5e38 4695 b537 cc02 3e38
00000010: 36c9 2637 47d9 8637 bf38 8e38 2d9d 7438
