model.pth (torch, 181243 bytes, 42 tensors)

input_conv.conv.weight f4 [32, 1, 3, 3]
0	0x3dd66ea8	0.10470325
1	0x3d7ca3b8	0.061679572
2	0xbe10b31d	-0.14130826
3	0x3e5e98c4	0.21737963
4	0xbe80e637	-0.2517564
5	0x3e83a9b6	0.25715417
6	0x3e161c57	0.14659248
7	0xbe8766c8	-0.26445603
8	0x3dc47888	0.09593302
9	0xbe0d30d2	-0.13788155
10	0x3e003cc4	0.1252318
11	0x3e3a7f59	0.18212642
12	0xbd8d7617	-0.069072895
13	0xbd04c9a6	-0.03241887
14	0xbf06781b	-0.52527016
15	0x3e3be7a6	0.18350086
16	0x3e02faf8	0.1279105
17	0xbdacf4c7	-0.08445125
18	0xbec2418b	-0.3794063
19	0xbeeaa479	-0.45828608
20	0xbd72d374	-0.05928369
21	0x3e335607	0.17513286
22	0x3e2ce81e	0.1688542
23	0xbd621b7c	-0.055201992
24	0xbdf3553a	-0.1188149
25	0x3e6225c7	0.22084723
26	0xbcd50f3b	-0.026008239
27	0x3e87cac7	0.26521894
28	0x3e2992b8	0.16559875
29	0x3efebebc	0.49754894
30	0x3e817f05	0.2529222
31	0xbe2b0a07	-0.16703044
32	0xbe394720	-0.18093538
33	0xbdf9aac4	-0.12190774
34	0x3d70e910	0.058816016
35	0xbe472444	-0.19447428
36	0x3e98a49d	0.2981309
37	0x3e3e57b4	0.18588144
38	0x3dbfc165	0.09363059
39	0xbe54f0d6	-0.20794997
40	0x3df12841	0.11775256
41	0x3c661265	0.014042472
42	0x3e9fb359	0.3119152
43	0xbe987c71	-0.2978244
44	0x3e102a80	0.14078712
45	0x3b90902f	0.0044117193
46	0x3e40d310	0.18830514
47	0x3deb4939	0.114885755
48	0x3d81a6c7	0.063306384
49	0x3f05e419	0.52301174
50	0x3dba71c1	0.09103728
51	0x3e9fb039	0.31189135
52	0xbcdd0196	-0.026978295
53	0xbcf832f7	-0.03029774
54	0x3e390000	0.18066406
55	0xbee2b365	-0.44277492
56	0xbde6df6a	-0.112730816
57	0x3ee06e46	0.43834132
58	0x3de0fb7a	0.10985465
59	0xbe5fcf72	-0.21856478
60	0x3cf5f2fa	0.030023087
61	0xbe9e173f	-0.3087711
62	0xbe1f7b20	-0.15574312
63	0x3e3da853	0.18521242
64	0x3e214813	0.1575015
65	0x3e382a8a	0.17984977
66	0x3e2a5648	0.16634476
67	0x3de0e243	0.10980656
68	0xbf12b527	-0.57307667
69	0xbe88c84b	-0.2671531
70	0xbe1e7e08	-0.15477765
71	0x3d81485f	0.06312632
72	0xbe999128	-0.29993558
73	0xbdf55745	-0.11979536
74	0xbbd5645c	-0.006512208
75	0xbc85e176	-0.01634286
76	0xbddc817d	-0.107668854
77	0xbe392ed2	-0.18084267
78	0x3e9d4276	0.30714768
79	0x3e87e23c	0.2653979
80	0x3e739405	0.23786934
81	0xbd9cd216	-0.07657258
82	0x3cfb4067	0.030670358
83	0xbe644da6	-0.22295246
84	0x3ebfc9fd	0.37458792
85	0x3c9836e7	0.018580867
86	0x3da339ab	0.07969984
87	0xbdd3c1a4	-0.103396684
88	0xbcf6691c	-0.030079417
89	0x3d460354	0.048343018
90	0x3d6de0f1	0.05807585
91	0xbdf5deed	-0.1200541
92	0xbdfd9aad	-0.12383018
93	0xbecadadb	-0.39620098
94	0xbeaee897	-0.34161827
95	0x3e65f7ad	0.22457762
96	0xbea433b3	-0.32070693
97	0xbe929703	-0.28630838
98	0xbd931433	-0.07181587
99	0xbdcbde0b	-0.09954461
100	0x3e01a8a7	0.12661992
101	0xbdf8bf47	-0.12145858
102	0x3a14ada7	0.0005671628
103	0xbeb31eee	-0.34984535
104	0xbeef8986	-0.4678461
105	0x3e8db2e0	0.27675533
106	0x3e1893b7	0.14900099
107	0x3e822957	0.25422165
108	0xbceefc73	-0.029173112
109	0xbe1f9770	-0.15585113
110	0x3d19c715	0.037543375
111	0x3ea6e128	0.32593656
112	0x3e5604ce	0.2090027
113	0xbe16d09e	-0.14728019
114	0x3d95db67	0.07317238
115	0xbed00dd9	-0.40635565
116	0xbea8a8b2	-0.32941204
117	0xbdec8303	-0.11548426
118	0x3ebfe545	0.37479606
119	0x3ec3c34e	0.38234943
120	0x3e12f329	0.1435057
121	0xbed5d0cc	-0.41760862
122	0xbe3bf5e1	-0.18355514
123	0x3ca0c9de	0.019627508
124	0x3dba46c0	0.09095526
125	0xbe2d748f	-0.16938995
126	0xbdca1d6f	-0.09868895
127	0x3d6cdc33	0.057827186
128	0xbeb329e5	-0.349929
129	0x3dee6f4f	0.11642324
130	0xbe8dfee0	-0.27733517
131	0x3e97f36b	0.296779
132	0xbedb6f42	-0.4285832
133	0x3e2e7a27	0.17038785
134	0x3ec9c093	0.39404735
135	0x3ec2b5cc	0.38029325
136	0x3ba2ba6a	0.00496607
137	0xbf027532	-0.50960076
138	0x3c9f5a31	0.019452186
139	0x3e17a661	0.14809562
140	0xbd89eb0e	-0.06734286
141	0x3c917364	0.017755218
142	0xbe2b9b51	-0.16758467
143	0xbde06b0c	-0.109579176
144	0xbd765c65	-0.060146708
145	0x3e160c36	0.14653096
146	0xbc17c222	-0.009262593
147	0x3d85b22f	0.065281264
148	0xbee2082a	-0.44146854
149	0x3e9d9960	0.30781078
150	0xbda59a95	-0.08086125
151	0x3ea9e779	0.33184412
152	0x3cb02336	0.021501165
153	0xbeaab56b	-0.33341536
154	0x3ed51f2a	0.4162534
155	0xbd9dbe2e	-0.077022895
156	0xbdb3057e	-0.08741282
157	0xbe8cf205	-0.27528396
158	0x3d773565	0.060353655
159	0x3e96a8e2	0.29425722
160	0x3b2767ce	0.002554405
161	0x3c0571d4	0.0081448145
162	0x3e8e3450	0.27774286
163	0xbea6abff	-0.32553098
164	0x3e085cc0	0.13316631
165	0xbe5b3621	-0.21407367
166	0xbdb7a1e1	-0.08966423
167	0xbeb820c9	-0.35962513
168	0x3d6c2e4c	0.05766134
169	0x3e44aff9	0.19207753
170	0x3e111edc	0.14171928
171	0x3cdda1ff	0.027054785
172	0x3d75b681	0.059988502
173	0xbe8a0ff7	-0.26965305
174	0xbd8e7445	-0.069557704
175	0xbe6f45c4	-0.23366457
176	0x3e5cdeca	0.21569362
177	0x3e41b773	0.18917637
178	0x3e4df013	0.20111112
179	0x3db2f14e	0.087374315
180	0x3e1ece92	0.15508488
181	0xbea3bbe0	-0.31979275
182	0x3e339774	0.17538244
183	0xbcdcba54	-0.026944317
184	0x3dc7c576	0.097544596
185	0xbc1659ac	-0.009176653
186	0x3eb79a50	0.3585992
187	0x3ea91a9b	0.3302811
188	0xbe40b80a	-0.18820205
189	0xbdfc9a99	-0.12334175
190	0x3ebe45fc	0.3716277
191	0xbd90d823	-0.07072475
192	0xbd30ecc2	-0.04319454
193	0x3e93c86d	0.2886385
194	0xbe6f7e54	-0.23388034
195	0x3d9b8838	0.07594341
196	0xbef0953f	-0.46988866
197	0xbe8230cf	-0.25427863
198	0xbe04cc33	-0.12968521
199	0xbe0907f0	-0.13381934
200	0xbe628963	-0.22122721
201	0xbd07158e	-0.03297954
202	0xbe9c4921	-0.30524543
203	0x3c23b69a	0.009992266
204	0x3de26512	0.11054434
205	0xbec9317c	-0.39295566
206	0x3da3f5f1	0.08005894
207	0xbe821e1f	-0.25413606
208	0xbd377d81	-0.044797424
209	0x3ed5d1a9	0.4176152
210	0xbed8e1ba	-0.42359716
211	0xbcc44594	-0.023958959
212	0x3db91ac8	0.09038311
213	0x3e169253	0.14704256
214	0xbe2643ef	-0.16236852
215	0xbe7b9a6a	-0.24570623
216	0x3e847757	0.258723
217	0xbd970df1	-0.07375706
218	0xbdf4b0b9	-0.1194777
219	0xbd38cfec	-0.045120165
220	0x3e1b93f8	0.15193164
221	0x3e4d6fbf	0.20062159
222	0xbde42770	-0.111403346
223	0x3e760c61	0.2402816
224	0xbd9a9f43	-0.07549908
225	0x3dbdc394	0.09265819
226	0x3d9aec61	0.07564617
227	0x3d7d4a63	0.06183852
228	0xbe5ba0fe	-0.21448132
229	0x3e9a1a20	0.30098057
230	0xbe44bd54	-0.19212848
231	0x3e862610	0.26200914
232	0x3e8c7f63	0.27440938
233	0x3e843914	0.25824797
234	0x3e3107ef	0.17288183
235	0x3d448c5f	0.04798543
236	0x3e90ce8b	0.2828258
237	0xbdaa08a0	-0.08302426
238	0xbefde29a	-0.49586946
239	0xbcccd32b	-0.025003036
240	0xbe8abbf3	-0.2709652
241	0x3ee83bcc	0.4535812
242	0xbd5c3a3f	-0.053766485
243	0x3c859758	0.016307518
244	0x3e2930f4	0.1652258
245	0xbe5d2e36	-0.2159966
246	0xbc2aa47e	-0.010415195
247	0xbed37e23	-0.41307172
248	0x3ee00df1	0.43760636
249	0xbe3c5c18	-0.18394506
250	0x3e8e82a6	0.27834052
251	0x3e511110	0.20416665
252	0x3d419ff0	0.04727167
253	0x3e305a83	0.17222027
254	0xbe06f2a5	-0.13178499
255	0x3e0a82db	0.1352648

input_conv.conv.bias f4 [32]
0	0x3b5b3eb7	0.003345413
1	0xbadda399	-0.0016909718
2	0xba7953bf	-0.00095110753
3	0xbc150dc3	-0.009097519
4	0xbc09581c	-0.008382823
5	0x3bbad3cd	0.005701518
6	0xba9818cb	-0.0011604069
7	0x3bcf203b	0.006320981
8	0x3b39912e	0.0028315294
9	0xbaa82c74	-0.0012830631
10	0xbb2a99ec	-0.0026031686
11	0x3b786170	0.0037899874
12	0xbb91d57e	-0.004450499
13	0x3b93033e	0.0044864705
14	0x3b92bca7	0.0044780555
15	0x3c141f2c	0.009040635
16	0x3b86ea08	0.004117254
17	0x3a8903e8	0.0010453435
18	0xbb17e6d1	-0.0023178349
19	0x3bb6cce9	0.0055786264
20	0xbbff87ec	-0.0077981856
21	0xbb2a9a9f	-0.0026032103
22	0x3b119570	0.0022214316
23	0x3c14f1b3	0.009090829
24	0xbaa58cdb	-0.0012630479
25	0x3bff1bf4	0.0077853147
26	0xbbb240a9	-0.005439837
27	0x3c0db401	0.008648873
28	0x3b833bf1	0.0040049483
29	0x3aacc8b9	0.0013182379
30	0x3c08e622	0.008355649
31	0xbc0f8c87	-0.008761532

input_conv.bn.weight f4 [32]
0	0x3f47ae1a	0.7800003
1	0x3f6147b1	0.8800002
2	0x3f6147af	0.88000005
3	0x3f828f5c	1.02
4	0x3f6147aa	0.87999976
5	0x3f51eb84	0.81999993
6	0x3f1eb857	0.6200003
7	0x3f800000	1.0
8	0x3f51eb8d	0.82000047
9	0x3f28f081	0.6599198
10	0x3f6147c3	0.88000125
11	0x3f7ae148	0.98
12	0x3f7ae147	0.97999996
13	0x3f70a3dc	0.9400003
14	0x3f828f5c	1.02
15	0x3f800001	1.0000001
16	0x3f7ae148	0.98
17	0x3f851eb8	1.04
18	0x3f800003	1.0000004
19	0x3f333339	0.70000035
20	0x3f47ae13	0.7799999
21	0x3f570a42	0.8400003
22	0x3f5c28fe	0.8600005
23	0x3f570a40	0.84000015
24	0x3f5c28fa	0.86000025
25	0x3f614791	0.87999827
26	0x3f6b851e	0.91999996
27	0x3f828f5e	1.0200002
28	0x3f8f5c28	1.1199999
29	0x3f33328a	0.6999899
30	0x3f570a40	0.84000015
31	0x3f800000	1.0

input_conv.bn.bias f4 [32]
0	0x3da3d728	0.08000022
1	0x3da3d6ff	0.079999916
2	0x3d23d704	0.039999977
3	0x3df5c281	0.11999989
4	0x3d75c2a8	0.06000009
5	0x3d75c27b	0.059999924
6	0xbe851ebc	-0.2600001
7	0xbe4cccbe	-0.19999978
8	0xbd23d703	-0.039999973
9	0xbdf5c295	-0.12000004
10	0x3e0f5c1f	0.13999985
11	0x3d23d6e2	0.03999985
12	0xbdcccca3	-0.09999969
13	0x3d75c287	0.05999997
14	0xbca3d739	-0.020000087
15	0x3da3d704	0.07999995
16	0x3e851ebe	0.26000017
17	0xbca3d73c	-0.020000093
18	0x3e23d5a1	0.15999462
19	0x3d75c291	0.060000006
20	0xbe851eb3	-0.25999984
21	0x3dcccced	0.10000024
22	0xb2d9eb85	-2.5369227e-08
23	0x3e4ccccd	0.2
24	0x3d23d717	0.040000048
25	0x3ca3d722	0.020000044
26	0xbd23d736	-0.040000163
27	0xbca3d6fa	-0.01999997
28	0x3da3d715	0.08000008
29	0xbda3d70e	-0.08000003
30	0xbdf5c276	-0.11999981
31	0x3ca3d78c	0.020000242

input_conv.bn.running_mean f4 [32]
0	0xbbbd5c5c	-0.0057788324
1	0x3bd8ff4e	0.0066222316
2	0x3bb6c423	0.0055775805
3	0xbbcd3c84	-0.0062633175
4	0xbc1361fa	-0.008995527
5	0xbc802790	-0.015643865
6	0x3c2a5877	0.010397068
7	0x3c04a727	0.008096493
8	0xbc1ca4de	-0.009560792
9	0x3a63cd47	0.00086899515
10	0x3cb7cca0	0.02243644
11	0xbaa37328	-0.0012470232
12	0x3c275019	0.010211968
13	0xba8f29df	-0.0010922513
14	0xbb38dd63	-0.0028208129
15	0x3c174699	0.00923314
16	0xbbf0de59	-0.0073507247
17	0xbbc2a0e5	-0.0059395903
18	0x3b7d641f	0.0038664413
19	0xbbd11c7d	-0.00638157
20	0xbc4894e6	-0.012242531
21	0x3c49f899	0.012327337
22	0x3beedad3	0.0072892695
23	0x3c4f9f49	0.012672254
24	0xbb3d606f	-0.002889659
25	0xbc598bf5	-0.013277997
26	0x3af94e7c	0.0019020583
27	0xbaa05872	-0.001223339
28	0x3b9350b6	0.0044957055
29	0xbc0df004	-0.008663181
30	0xb9f4927d	-0.0004664845
31	0xbc51bd3d	-0.012801466

input_conv.bn.running_var f4 [32]
0	0x3de30375	0.11084644
1	0x3e37226a	0.17884222
2	0x3e6793b6	0.22614941
3	0x3e45c380	0.19312859
4	0x3e69d539	0.22835244
5	0x3e3274f5	0.17427428
6	0x3e9497de	0.29022115
7	0x3e9422fe	0.28932947
8	0x3e244b37	0.16044317
9	0x3e01c586	0.12673005
10	0x3e3578ee	0.17721912
11	0x3e973d5e	0.29539007
12	0x3e888262	0.26661974
13	0x3eb09ede	0.34496206
14	0x3eab7aba	0.3349207
15	0x3e30cf36	0.17266545
16	0x3e9d84aa	0.30765277
17	0x3e6668c8	0.22500908
18	0x3e7a7f64	0.24462658
19	0x3e112823	0.14175467
20	0x3e4596b3	0.19295768
21	0x3e5b8697	0.2143806
22	0x3ddee848	0.10884148
23	0x3e34c09a	0.17651597
24	0x3dbe1360	0.09281039
25	0x3e56278a	0.2091352
26	0x3eceb069	0.40368965
27	0x3ea5afc3	0.32360658
28	0x3e287e38	0.16454399
29	0x3e29934b	0.16560094
30	0x3e3f2462	0.18666223
31	0x3e66041d	0.22462507

residual_tower.blocks.0.conv1.weight f4 [32, 32, 3, 3]
0	0x3dbca12e	0.0921043
1	0x3da6422b	0.08118089
2	0x3e01d33f	0.1267824
3	0x3b747c43	0.003730551
4	0x3d92b5f5	0.07163612
5	0x3d9ed230	0.07754934
6	0xbe3032ee	-0.17206928
7	0x3bda3f84	0.0066604037
8	0xbdbb66ae	-0.09150444
9	0x3c269e16	0.010169527
10	0x3d318e3c	0.043348536
11	0xbd0a44fa	-0.033757187
12	0x3c734b1d	0.014849451
13	0xbd72776a	-0.059195913
14	0x3c33fae5	0.010985111
15	0x3d822272	0.06354226
16	0xbdb56002	-0.08856203
17	0xbdbe6f13	-0.092985295
18	0x3de0c121	0.109743364
19	0x3da066ce	0.078321084
20	0x3d095536	0.03352853
21	0x3c80dbb2	0.015729759
22	0xbdc32696	-0.09528844
23	0x3da133af	0.07871186
24	0xbda865fd	-0.08222578
25	0xbd960037	-0.0732426
26	0x3d0f0403	0.034915935
27	0x3b75f934	0.003753257
28	0xbcc890fc	-0.024483196
29	0xbbc627f6	-0.006047244
30	0x3d36f44f	0.044666585
31	0xbc64f927	-0.013975418
32	0x3dbddc38	0.09270519
33	0xbd462913	-0.048379015
34	0x3d1bb8e7	0.038018133
35	0x3c860626	0.016360354
36	0xbdfb39e5	-0.12266902
37	0x3cf0b782	0.029384378
38	0x3d8abf27	0.06774741
39	0xbdab4dc0	-0.08364439
40	0x3df61e53	0.12017503
41	0x3dc30a42	0.09523441
42	0xbe0f494d	-0.13992806
43	0xbcd652d7	-0.026162548
44	0xbd825d83	-0.06365492
45	0xbd00823a	-0.031374194
46	0xbd82cca4	-0.06386688
47	0xbdaf2864	-0.08552626
48	0xbdde03a8	-0.10840541
49	0xbcb06ec9	-0.021537201
50	0xbc6b24d0	-0.0143520385
51	0x3c99ed6a	0.018789966
52	0xbd0fe214	-0.035127714
53	0xbd0e553c	-0.034749255
54	0x3db477ab	0.08811887
55	0x3d471c95	0.048611242
56	0x3d2767b0	0.04087037
57	0x3d467355	0.048449833
58	0x3db2ed8c	0.08736715
59	0xbcd6b09d	-0.026207263
60	0x3cdf4b78	0.027257666
61	0x3d70fa71	0.05883259
62	0xbd5523d0	-0.052036107
63	0x3ba51e9e	0.0050390502
64	0x3bb79a8b	0.0056031398
65	0xbcf8bfa8	-0.030364826
66	0xbc6bd116	-0.014393112
67	0xbd627e5e	-0.055296294
68	0x3d58569f	0.052816983
69	0x3d9047f5	0.07044975
70	0x39b22c94	0.0003398402
71	0x3ccd1959	0.0250365
72	0x3d80ea7f	0.062947266
73	0xbcc2d7c0	-0.023784518
74	0xbbe4e3b0	-0.0069851503
75	0xbd7b53b8	-0.061359137
76	0xbe34cfd3	-0.17657404
77	0xbd9997b2	-0.07499637
78	0xbe3652d5	-0.17805035
79	0xbe4a260c	-0.19741076
80	0xbd13363a	-0.035940386
81	0xbb083413	-0.0020782992
82	0x3cd5941d	0.026071602
83	0x3d547078	0.05186507
84	0xbd111250	-0.035417855
85	0x3cae61b0	0.021286815
86	0xbc24aa3f	-0.010050355
87	0xbd8cb6f8	-0.06870836
88	0xbb5e3071	-0.0033903385
89	0xbd3fbd3f	-0.04681134
90	0x3d28c05c	0.041199073
91	0x3b825a1d	0.0039780275
92	0x3e0bd722	0.13656285
93	0x3db33e02	0.087520614
94	0x3da2153a	0.07914205
95	0x3e3289d3	0.17435388
96	0xbe053c05	-0.13011177
97	0x3d394a7e	0.045237057
98	0x3d81f56a	0.06345637
99	0xbd313931	-0.043267433
100	0x3d986907	0.074419074
101	0x3d4d6638	0.05014631
102	0x3dc898c0	0.0979476
103	0x3d418b11	0.047251765
104	0xbd9d6697	-0.07685583
105	0xbd32604f	-0.04354888
106	0xbd52e5b0	-0.05148858
107	0xbd4416a8	-0.04787317
108	0x3db3693e	0.08760308
109	0x3d8bf95f	0.06834673
110	0xbcdc5392	-0.026895318
111	0x3d83daff	0.064382546
112	0x3dbb4ee4	0.091459066
113	0x3cc5105a	0.024055649
114	0xbb2fb3b1	-0.0026809985
115	0xbd835ec9	-0.06414563
116	0xbd976d8a	-0.0739394
117	0x3e08c8e9	0.13357891
118	0x3d1b5753	0.037925076
119	0xbcb8e6e0	-0.022571027
120	0x3d83081c	0.06398031
121	0x3d7641d5	0.060121376
122	0x3cd116d6	0.025523584
123	0x3acec53c	0.0015775333
124	0xbd4710cc	-0.048600003
125	0xbdd098c5	-0.101853885
126	0x3d8f6574	0.070017725
127	0xbb75461c	-0.0037425822
128	0x3d39eb82	0.045390613
129	0xbe346ddb	-0.17620032
130	0xbdac90cc	-0.08426055
131	0x3d19e8a1	0.037575368
132	0xbdd1aa36	-0.10237543
133	0xbdc8545f	-0.097817175
134	0xbd6c7ffc	-0.057739243
135	0x3d59b012	0.05314643
136	0x3c5f8d3b	0.013644512
137	0xbc1a77f8	-0.009428017
138	0x3d1a6959	0.037698124
139	0x3d3231f2	0.043504663
140	0xbd84ca03	-0.06483843
141	0xbd283da9	-0.04107443
142	0x3d86e6c8	0.06586987
143	0xbd386e74	-0.04502721
144	0xbd94d938	-0.07267994
145	0xbd0c9993	-0.034326147
146	0x3cd56f61	0.026054086
147	0xbda975f6	-0.082744524
148	0xbc952b54	-0.018209137
149	0xbd1f0698	-0.038824648
150	0xbe07c870	-0.13260055
151	0xbd896cef	-0.067102306
152	0xbdada7f3	-0.084792994
153	0xbda95dfe	-0.08269881
154	0xbd13e7e2	-0.036109813
155	0xbd80ec12	-0.06295027
156	0x3c1a3cd1	0.009413914
157	0x3dc113e3	0.09427621
158	0xbdf56041	-0.119812496
159	0xbd55b1e1	-0.05217159
160	0xbdc791db	-0.097446166
161	0xbe469022	-0.1939092
162	0x3bf5af8e	0.0074977344
163	0xbc600297	-0.0136724925
164	0x3bcf603a	0.00632861
165	0xbcb8ea5e	-0.022572692
166	0xbbfa1b1e	-0.007632627
167	0x3d30ede7	0.04319563
168	0xbdc65313	-0.09683814
169	0xbe16b430	-0.14717174
170	0x3d545bc0	0.051845312
171	0xbd886f3a	-0.0666184
172	0xbc210104	-0.009826902
173	0x3ce72768	0.028217033
174	0x3ceac7e8	0.028659776
175	0xbd1d903c	-0.03846763
176	0xbd950565	-0.072764196
177	0xbe14af57	-0.14520012
178	0xbcaff62f	-0.021479694
179	0xbd7e1188	-0.062028438
180	0xbdd664f2	-0.104684725
181	0xbb5e980e	-0.0033965143
182	0x3d2bb1a0	0.041917443
183	0x3d480f14	0.048842505
184	0xbd39fb85	-0.045405883
185	0xbd90f7b4	-0.070784956
186	0xbe3ba6ed	-0.18325396
187	0xbd191c9e	-0.037380807
188	0xbe02e4cb	-0.1278259
189	0x3c869c08	0.016431823
190	0x3d5d3e99	0.054014776
191	0xbd86eb6f	-0.06587874
192	0xbd6014e8	-0.054707438
193	0x3dc9ea52	0.09859146
194	0xbdc968d0	-0.098344445
195	0x3dd8b7fc	0.10581967
196	0x3d1cebdc	0.03831087
197	0xbde3d1e2	-0.11124016
198	0x3ce6b16e	0.028160777
199	0x3d9be187	0.07611375
200	0x3de299ce	0.11064492
201	0x3ba7c60f	0.005120046
202	0x3e29a308	0.16566098
203	0x3d9240ee	0.071412906
204	0xbe013584	-0.12618071
205	0x3d3dbef9	0.046324704
206	0xbd7d5638	-0.061849803
207	0x3ccafa56	0.024777573
208	0x3ba602d6	0.005066256
209	0x3de387fe	0.11109923
210	0x3cd008eb	0.025394877
211	0x3ddfe261	0.1093185
212	0x3d9a70a5	0.075410165
213	0xbe086ec1	-0.133235
214	0xbd7fc1e5	-0.06244077
215	0x3d843a9a	0.0645649
216	0xbe299768	-0.16561663
217	0xbba909f4	-0.005158657
218	0x3ce377e9	0.027767139
219	0x3c04433a	0.008072669
220	0xbc16af2f	-0.00919704
221	0xbc2b0f4b	-0.010440658
222	0xbdeb934f	-0.11502706
223	0xbd2f4e8c	-0.042799518
224	0xbdbe8445	-0.09302572
225	0xbdb352d2	-0.08756031
226	0xbd65d9a2	-0.056115754
227	0x3bb5f8c3	0.0055533363
228	0xbd59c625	-0.05316748
229	0xbc4d4884	-0.012529496
230	0xbd69a1ac	-0.057038948
231	0xbdd77203	-0.10519793
232	0xbde8d275	-0.113682665
233	0xbc72c0e6	-0.014816498
234	0x3daffd09	0.085931845
235	0xbd596c9c	-0.053082094
236	0xbb75775c	-0.0037455177
237	0x3d57ed1f	0.05271637
238	0x3cc6668f	0.024218826
239	0xbb9de79e	-0.0048188707
240	0xbdc52678	-0.09626478
241	0xbd6b8b87	-0.05750611
242	0x3d945f7e	0.07244776
243	0xbd2df732	-0.042472072
244	0xbb90bd12	-0.00441707
245	0x3d1b8586	0.037969135
246	0x3ba45d5f	0.0050160135
247	0xbcea309f	-0.028587637
248	0x3d52d5ef	0.051473554
249	0xbdfd36c3	-0.123639606
250	0xbd687730	-0.05675429
251	0xbde9f6ad	-0.11424003
252	0x3db62b86	0.0889502
253	0xbd2c6509	-0.042088542
254	0x3ce57bfd	0.028013224
255	0xbc893959	-0.016750978

residual_tower.blocks.0.conv1.bias f4 [32]
0	0xbc087aa3	-0.00833002
1	0x3afed843	0.0019443113
2	0xbbbf3bd6	-0.0058359904
3	0xbbcc21c2	-0.00622961
4	0xbbd9c59b	-0.006645871
5	0x3c0e7aa6	0.008696234
6	0x3b682e21	0.0035427886
7	0x3acb4406	0.0015507943
8	0x3b3b3635	0.0028566245
9	0xbb6f61d5	-0.0036526818
10	0x3b7b90a4	0.0038385773
11	0xbb466ec3	-0.0030278421
12	0x3b448144	0.0029984275
13	0xbb60687b	-0.0034241963
14	0xbbb468ad	-0.0055056424
15	0xbbe1c076	-0.006889398
16	0x3c0ce1f6	0.008598795
17	0xbc0fed3a	-0.008784587
18	0xbaa27e48	-0.0012397254
19	0xbb7f6714	-0.0038971351
20	0xbb613a77	-0.0034367123
21	0xbbf9b935	-0.0076209554
22	0xbb3f3ded	-0.0029181198
23	0xbbf3851d	-0.00743164
24	0xbb0c4395	-0.0021402587
25	0xbbec5451	-0.0072121997
26	0xbc110b7a	-0.008852834
27	0x3ac2c96b	0.0014861053
28	0x3aab896b	0.0013087218
29	0xbbcb0a62	-0.006196306
30	0xbb09c9c3	-0.00210248
31	0xba820f38	-0.0009922748

residual_tower.blocks.0.bn1.weight f4 [32]
0	0x3f147ae8	0.5800004
1	0x3f1eb85a	0.6200005
2	0x3f147af9	0.5800014
3	0x3e851ebe	0.26000017
4	0x3f428f5e	0.7600001
5	0x3f570a38	0.8399997
6	0x3f0f5c31	0.5600005
7	0x3f4cccca	0.79999983
8	0x3f4cccd6	0.80000055
9	0x3f47ae32	0.78000176
10	0x3f999993	1.1999992
11	0x3f2e147e	0.6800002
12	0x3f5c28f1	0.8599997
13	0x3f4cccd5	0.8000005
14	0x3f6147ab	0.8799998
15	0x3f385200	0.7200012
16	0x3f2e146c	0.6799991
17	0x3f23d713	0.6400005
18	0x3f47ae18	0.7800002
19	0x3f1eb85c	0.6200006
20	0x3f7ffffe	0.9999999
21	0x3f7fffff	0.99999994
22	0x3f6b850f	0.91999906
23	0x3f6b8520	0.9200001
24	0x3f8ccccc	1.0999999
25	0x3f28f5ce	0.6600007
26	0x3f47ae15	0.78000003
27	0x3eb851e3	0.35999975
28	0x3f147ae5	0.5800002
29	0x3f1eb864	0.6200011
30	0x3f7ffffe	0.9999999
31	0x3f3d70a6	0.7400001

residual_tower.blocks.0.bn1.bias f4 [32]
0	0xbe23d43d	-0.15998931
1	0xbe23d702	-0.15999988
2	0xbe6147a2	-0.21999982
3	0xbe4ccce1	-0.2000003
4	0x3e75c281	0.23999979
5	0x3ca3d63e	0.01999962
6	0xbe38514c	-0.17999762
7	0xbdf5c27e	-0.11999987
8	0x3da3d6a0	0.07999921
9	0xbd23d6cb	-0.039999764
10	0x3e385203	0.18000035
11	0xbdccccb3	-0.09999981
12	0xbd75c238	-0.059999675
13	0x3da3d672	0.079998866
14	0x3d23d707	0.039999988
15	0xbca3ef2c	-0.020011507
16	0xbe61479c	-0.21999973
17	0xbda3d6e3	-0.07999971
18	0xbca3d6ac	-0.019999824
19	0x3df5c481	0.12000371
20	0x3ea3d704	0.3199998
21	0x3dccccbb	0.09999987
22	0x3e23d6da	0.15999928
23	0x3e23d704	0.1599999
24	0x3e6147a6	0.21999988
25	0xbe0f5c3a	-0.14000025
26	0x3e75c278	0.23999965
27	0xbe4cccea	-0.20000044
28	0xbdf5c286	-0.11999993
29	0xbca3d665	-0.019999692
30	0xbd75c20b	-0.059999507
31	0xbdccccd2	-0.10000004

residual_tower.blocks.0.bn1.running_mean f4 [32]
0	0xbf823b5d	-1.0174366
1	0xbee38c44	-0.44442952
2	0x3f4ab55b	0.79182976
3	0xbead48af	-0.33844516
4	0xc08ee20f	-4.465095
5	0xc05429fa	-3.315062
6	0xc00051da	-2.0049958
7	0x402f9e9b	2.7440555
8	0xc0897cf7	-4.2965045
9	0xc07081f3	-3.7579315
10	0xc0b2e1ad	-5.5900483
11	0xbf6de23b	-0.92923325
12	0xc07a71cf	-3.9131963
13	0xc074a643	-3.8226478
14	0xc091398e	-4.5382757
15	0xc01c5047	-2.4423997
16	0x3fe3d329	1.7798816
17	0xbeb5814c	-0.35450208
18	0xc009dc17	-2.1540582
19	0xbfc8e679	-1.5695335
20	0xc09bacd6	-4.864848
21	0x40833912	4.1007166
22	0xc08866e3	-4.2625594
23	0xc094b419	-4.6469846
24	0xc0a6bdcc	-5.2106686
25	0xc00ed0e5	-2.2315
26	0xc078d3c4	-3.8879251
27	0xbf26e76e	-0.65196884
28	0xbe530960	-0.20609045
29	0x3e317418	0.17329443
30	0xc0865718	-4.1981316
31	0xc07f7725	-3.991647

residual_tower.blocks.0.bn1.running_var f4 [32]
0	0x4008c846	2.1372237
1	0x407a719d	3.9131844
2	0x40277f93	2.6171615
3	0x3f44301b	0.76635903
4	0x40e27d5a	7.0778017
5	0x40ab6389	5.3559003
6	0x401404a9	2.3127844
7	0x40984149	4.7579694
8	0x40c08bfd	6.0170884
9	0x40aceb8e	5.403754
10	0x4113ae83	9.230105
11	0x407e597c	3.9742117
12	0x40a0de85	5.027163
13	0x40905c2b	4.511251
14	0x40c9c210	6.3049393
15	0x40545499	3.3176634
16	0x40a99007	5.2988315
17	0x40462f2b	3.096629
18	0x406ec9ce	3.7310672
19	0x4045d52b	3.0911357
20	0x40dec17a	6.9611177
21	0x40e2b59a	7.084668
22	0x40da5166	6.8224363
23	0x40c00268	6.0002937
24	0x40f70a28	7.71999
25	0x40305251	2.7550242
26	0x409a5233	4.822534
27	0x40226dd8	2.5379543
28	0x40363c0c	2.847415
29	0x408c5f4a	4.386632
30	0x40a9c04f	5.304725
31	0x409f9a8c	4.9876156

residual_tower.blocks.0.conv2.weight f4 [32, 32, 3, 3]
0	0x3d33e9e9	0.043924246
1	0x3d482345	0.04886176
2	0xbcac8f30	-0.02106437
3	0x3da05394	0.07828441
4	0xbda57e9f	-0.08080792
5	0x3c2ee5a6	0.01067487
6	0xbd0dd2fc	-0.03462504
7	0xbdc9cab4	-0.09853116
8	0xbdbbbbd3	-0.09166684
9	0xbccb3c7a	-0.02480911
10	0x3bb97efa	0.0056608887
11	0xbcb05885	-0.021526584
12	0xbdae692c	-0.08516154
13	0xb60e93d7	-2.1245703e-06
14	0x3c8d77c2	0.017269019
15	0xbe2938c0	-0.16525555
16	0xbd833f99	-0.06408615
17	0xbb765c50	-0.0037591644
18	0x3da1f343	0.079077266
19	0xbc05dbbc	-0.008170065
20	0x3d903074	0.07040492
21	0xbd3935f1	-0.04521746
22	0x3d83297e	0.064043984
23	0x3d4a2097	0.049347486
24	0xbe785c6f	-0.2425401
25	0xbdb2e027	-0.0873416
26	0xbe12c645	-0.14333446
27	0xbb490be7	-0.003067726
28	0x3cc0886a	0.023502547
29	0x3b15a4d5	0.0022833843
30	0x3d7d4a0e	0.061838202
31	0x3b2b35db	0.002612463
32	0xbcb01879	-0.021496044
33	0xbc32641e	-0.010888128
34	0x3c0272f2	0.007961975
35	0xbced5afa	-0.028974045
36	0xbcdaf30b	-0.02672722
37	0x3dd43d36	0.103632376
38	0x3d9df02c	0.07711825
39	0xbc3afe16	-0.011413118
40	0x3e09e1fe	0.13465115
41	0xbd834099	-0.064088054
42	0xbe10270e	-0.14077398
43	0xbdc192fe	-0.09451865
44	0xbdf2f308	-0.11862761
45	0x3d15e8e8	0.03659907
46	0x3e14c39e	0.14527747
47	0x3cb8adfb	0.022543898
48	0x3d88507f	0.066559784
49	0x3de0290c	0.10945329
50	0xbe445088	-0.19171345
51	0xbe09923e	-0.13434693
52	0xbd2ff9fe	-0.04296302
53	0xbdf3ec38	-0.119102895
54	0xbd51728f	-0.051134642
55	0x3b8e7814	0.0043478105
56	0x3d636307	0.05551436
57	0xbd51a9d3	-0.051187348
58	0x3d0dce80	0.034620762
59	0xbd8ae205	-0.06781391
60	0xbce573b6	-0.028009277
61	0xbd0e4140	-0.034730196
62	0xbc27bed1	-0.010238365
63	0xbdf9668d	-0.12177763
64	0xbd3e35c9	-0.046438012
65	0x3d028c99	0.031872366
66	0xbd8d7b77	-0.06908315
67	0xbdc83668	-0.09776002
68	0xbd565463	-0.05232657
69	0xbda016bb	-0.078168355
70	0xbc9453a1	-0.018106284
71	0xbde3c239	-0.111210294
72	0x3c8cd4ba	0.01719128
73	0x3c5e55ee	0.013570292
74	0x3da7bf02	0.08190729
75	0xbdcb2d24	-0.09920719
76	0x3dead813	0.11466994
77	0x3d933596	0.07187955
78	0xbe004c71	-0.1252916
79	0xbddfe87a	-0.10933013
80	0xbdd25a9d	-0.10271189
81	0xbd4801b6	-0.048829757
82	0x3d909e82	0.07061483
83	0x3cc0e12c	0.02354487
84	0x3c964963	0.01834554
85	0x3d518d9f	0.05116045
86	0xbb785226	-0.003789076
87	0xbdd0e92d	-0.10200725
88	0xbcaee403	-0.021348959
89	0xbc3f316f	-0.011669501
90	0xbd1f3c92	-0.038876124
91	0xbce83b70	-0.028348655
92	0x3c8d322f	0.017235843
93	0xbca8e271	-0.020615788
94	0x3cbfef2f	0.023429481
95	0x3d518543	0.05115248
96	0xbdc5ee8b	-0.09664639
97	0xbe1d5c38	-0.1536721
98	0xbe3b7289	-0.1830541
99	0x3ca42ffc	0.020042412
100	0x3ccb8c10	0.02484706
101	0x3dabcf50	0.08389151
102	0x3d04eb53	0.032450985
103	0x3e27ef20	0.16399813
104	0xbda0408c	-0.07824811
105	0xbddbcf31	-0.10732878
106	0xbdf80fed	-0.121124126
107	0xbdb2ab5b	-0.0872409
108	0xbd7b9cbc	-0.06142877
109	0x3c70ff00	0.014709234
110	0xbd0a2a73	-0.03373189
111	0xbdbbd866	-0.09172134
112	0x3dab95bb	0.08378168
113	0xbc4345fe	-0.011918543
114	0xbb892f02	-0.004186512
115	0xbcd1be80	-0.025603533
116	0xbc845666	-0.01615448
117	0xbdfcccec	-0.12343773
118	0xbcd61277	-0.026131852
119	0x3d8814fc	0.066446275
120	0xbe49b118	-0.19696462
121	0xbd101906	-0.035180114
122	0xbc9a82c8	-0.01886119
123	0xbe06296d	-0.1310174
124	0xbddaadc6	-0.10677676
125	0xbd087dd9	-0.033323143
126	0x3bb282c6	0.0054477183
127	0x3cdf112b	0.027229866
128	0xbc2dcb9c	-0.010607626
129	0xbd8a0c1e	-0.067405924
130	0x3b526916	0.0032106093
131	0xbac2549e	-0.0014826243
132	0xbddaefc4	-0.10690263
133	0x3c2c551f	0.010518341
134	0xbe238765	-0.15969618
135	0xbdae83af	-0.085212104
136	0xbd3e2ac7	-0.046427514
137	0x3cd69efd	0.026198858
138	0xbd9284e7	-0.07154255
139	0xbd8c2c23	-0.06844356
140	0xbcfcb3ae	-0.030847397
141	0xbe396db1	-0.1810825
142	0xbd868746	-0.0656877
143	0xbd8493ed	-0.06473527
144	0x3cd322a6	0.025773358
145	0x3cfd05de	0.030886587
146	0xbc7bde78	-0.015372865
147	0xbdd996f2	-0.10624494
148	0xbca019f0	-0.019543618
149	0xbc5d7d14	-0.0135185905
150	0xbe7b50b2	-0.24542502
151	0xbd82ce62	-0.06387021
152	0xbe088e41	-0.13335516
153	0xbd20bd14	-0.03924282
154	0x3cce9fc3	0.025222665
155	0x3d85fea5	0.0654271
156	0xbbc348a8	-0.005959589
157	0x3da0d4c3	0.07853081
158	0xbd2c96d9	-0.042136047
159	0xbe241249	-0.160226
160	0xbdd612f3	-0.10452833
161	0xbe12aef1	-0.14324547
162	0x3de1125f	0.10989832
163	0x3d34a8c8	0.044106275
164	0x3d06de8c	0.03292708
165	0x3d98ec45	0.0746694
166	0x3da289f9	0.079364724
167	0xbdb42543	-0.087961696
168	0xbdfab9cc	-0.12242469
169	0xbdddb4c9	-0.10825498
170	0xbe00407d	-0.125246
171	0x3d1c0080	0.038086414
172	0x3d12baf8	0.03582284
173	0x3abf59f2	0.0014598949
174	0x3d8be1c1	0.068301685
175	0xbc1de7a2	-0.009637745
176	0x3e0a94a4	0.13533264
177	0xbe0cd925	-0.13754709
178	0xbdb1f4a1	-0.086892374
179	0xbce4968d	-0.02790382
180	0x3d3b0597	0.045659628
181	0x3c9140c8	0.017731085
182	0x3da1fef1	0.07909954
183	0xbdb8518f	-0.08999931
184	0x3d42d169	0.04756299
185	0x3e0c875b	0.13723509
186	0xbe072c7d	-0.13200565
187	0xbe15298b	-0.14566629
188	0xbdfaa599	-0.122386165
189	0x3d5d8567	0.0540823
190	0x3d7eef37	0.06223985
191	0xbb6f9f7d	-0.0036563568
192	0xbd9796ca	-0.074018076
193	0xbda9d837	-0.08293193
194	0xbd931581	-0.07181836
195	0xbe10c671	-0.141382
196	0xbe2cc2d6	-0.16871199
197	0x3c5b359d	0.013379482
198	0x3c4167a2	0.011804493
199	0xbd29338e	-0.041308932
200	0x3df26215	0.11835114
201	0xbd83b0a5	-0.06430177
202	0xbc847120	-0.016167223
203	0xbd660dc0	-0.056165457
204	0xbd7c7f33	-0.061644744
205	0xbddd1a08	-0.10795981
206	0xbda9c0b7	-0.082887106
207	0xbbb91f14	-0.0056494568
208	0x3ddf89fc	0.1091499
209	0x3df46f9b	0.119353496
210	0xbddb2398	-0.10700148
211	0x3d3122e1	0.043246154
212	0xbc4cf50e	-0.012509597
213	0xbda35f84	-0.079772025
214	0xbd644002	-0.055725105
215	0xbd0ddc90	-0.034634173
216	0xbd3d2673	-0.046179246
217	0x3dc8ed60	0.09810901
218	0x3dac8012	0.08422865
219	0xbdf6d34a	-0.12052019
220	0x3d3086e1	0.04309738
221	0x3d88e6b3	0.066846274
222	0xbd8f4d0a	-0.06997116
223	0xbd88e9cb	-0.066852175
224	0xbe1c0988	-0.15238011
225	0x3dc19180	0.0945158
226	0x3d1144be	0.03546595
227	0x3da6541a	0.0812151
228	0x3c69d289	0.014271387
229	0xbd419b93	-0.047267508
230	0xbda43062	-0.08017041
231	0x3bdf40e2	0.0068131546
232	0xbdb4c742	-0.08827068
233	0x3c34020f	0.010986819
234	0xbd518796	-0.051154695
235	0x3cbedae4	0.023297735
236	0x3bf4e50b	0.007473593
237	0xbdff280a	-0.12458809
238	0xbdce7803	-0.10081484
239	0xbded6e2c	-0.11593279
240	0xbe0b4f7d	-0.13604541
241	0xbd920c91	-0.07131303
242	0xbd11f9c0	-0.03563857
243	0x3cab78e6	0.020931672
244	0x3cd642d5	0.026154915
245	0x3cbd2d1b	0.023092797
246	0xbd8d399d	-0.068957545
247	0xbc3b51db	-0.01143309
248	0x3d62616a	0.055268683
249	0xbd9de9aa	-0.077105835
250	0xbe13b521	-0.14424564
251	0xbd541e7d	-0.05178689
252	0x3d85e0a8	0.065369904
253	0xbcc23812	-0.023708377
254	0x3cd4d035	0.025978187
255	0x3b773783	0.0037722297

residual_tower.blocks.0.conv2.bias f4 [32]
0	0x3aa502e1	0.0012589359
1	0xba8574e8	-0.0010181936
2	0x3c0c70cf	0.008571818
3	0x3af49f76	0.0018663246
4	0x3c13f928	0.009031571
5	0xbab91566	-0.0014120757
6	0xbc098a08	-0.008394726
7	0xbb87c2c4	-0.004143091
8	0x3a949269	0.0011335138
9	0x3bd6fadb	0.006560666
10	0x3bdd46d1	0.0067528267
11	0xbbfab1ac	-0.0076505747
12	0xbc0a1ffd	-0.008430478
13	0xbc029d78	-0.007972114
14	0xba91a3be	-0.0011111421
15	0xbbba765d	-0.0056903795
16	0xbb9acebf	-0.004724353
17	0xbc0d9b41	-0.008642972
18	0xbc13d0e4	-0.009021971
19	0xbb3159be	-0.0027061547
20	0xbbd8ff77	-0.0066222507
21	0xba8c63c9	-0.0010710891
22	0x3affa51c	0.0019504162
23	0x3c0d44e2	0.00862238
24	0x3bc64e9e	0.0060518524
25	0xbaa54e1b	-0.0012611778
26	0xbbbec598	-0.005821895
27	0x3c0b0a82	0.008486392
28	0x3b9ffa79	0.0048821536
29	0x3c130642	0.00897366
30	0xbb86aed7	-0.004110198
31	0x3b461fc8	0.0030231345

residual_tower.blocks.0.bn2.weight f4 [32]
0	0x3f570a4c	0.84000087
1	0x3f51eb89	0.82000023
2	0x3f666668	0.9000001
3	0x3f570a43	0.84000033
4	0x3f3851f0	0.72000027
5	0x3f5c28f8	0.86000013
6	0x3f3d70a5	0.74000007
7	0x3f3851fe	0.7200011
8	0x3f70a3d9	0.9400001
9	0x3f1ebeb8	0.62009764
10	0x3f0f5c39	0.56000096
11	0x3f666668	0.9000001
12	0x3f2e1480	0.6800003
13	0x3f1eb85c	0.6200006
14	0x3f428f5e	0.7600001
15	0x3f4cccd1	0.80000025
16	0x3f8a3d72	1.0800002
17	0x3f57052d	0.8399227
18	0x3f5c28f6	0.86
19	0x3f428f5e	0.7600001
20	0x3f0f5c36	0.5600008
21	0x3f3851b5	0.71999675
22	0x3f570a40	0.84000015
23	0x3f666670	0.9000006
24	0x3f23d714	0.6400006
25	0x3f0f5c30	0.5600004
26	0x3f3851ee	0.72000015
27	0x3f0a3d82	0.54000103
28	0x3f3851f4	0.7200005
29	0x3f147aea	0.5800005
30	0x3f51eb87	0.8200001
31	0x3f6b851f	0.92

residual_tower.blocks.0.bn2.bias f4 [32]
0	0x3df5c2b1	0.12000025
1	0x3ca3d781	0.020000221
2	0x3d75c294	0.060000017
3	0x3df5c297	0.12000006
4	0xbdccccb7	-0.09999984
5	0x3e4ccccd	0.2
6	0x3e0f5c12	0.13999966
7	0xbdf5c293	-0.12000003
8	0x3e760079	0.24023618
9	0xbca3d6f9	-0.019999968
10	0xbe851eb1	-0.25999978
11	0x3e8f5c26	0.2799999
12	0x3ca3d739	0.020000087
13	0x3da3d6bd	0.079999425
14	0x3e851ebf	0.2600002
15	0x3d75c2a9	0.060000096
16	0x3df5c292	0.12000002
17	0x3da3d70b	0.080000006
18	0xb4e447ae	-4.2520463e-07
19	0x3da3d6fc	0.079999894
20	0x33d9851f	1.01290645e-07
21	0x3e23d711	0.1600001
22	0x3dccccd7	0.100000076
23	0xbdf5c295	-0.12000004
24	0x34778f5c	2.3055821e-07
25	0x3e4cccce	0.20000002
26	0x3d75c2ac	0.060000107
27	0x3e23d6eb	0.15999953
28	0x3df5c3af	0.12000214
29	0xbdf5c811	-0.1200105
30	0xbda3d718	-0.0800001
31	0x3e6147a9	0.21999992

residual_tower.blocks.0.bn2.running_mean f4 [32]
0	0xbfc2548d	-1.5182053
1	0xbf5990e7	-0.8498673
2	0xc04062d6	-3.0060325
3	0xc0185262	-2.3800282
4	0x4032d498	2.7942257
5	0x408b4c2f	4.3530498
6	0xbcd4e3e7	-0.025987579
7	0x3f28d456	0.65949
8	0x401ebc66	2.480249
9	0xbee1e9f5	-0.44123808
10	0x3f9e526c	1.2368903
11	0xc06d5f1c	-3.70893
12	0xbf6ed037	-0.9328646
13	0xbf7e72e8	-0.99394083
14	0xc01a9f38	-2.415968
15	0xc061ab9f	-3.5261
16	0x3fd8729d	1.6909977
17	0xbf5fce39	-0.87424046
18	0xbfe55880	-1.7917633
19	0xbff9dccb	-1.9520506
20	0xbdbd9299	-0.09256477
21	0xbfe169c0	-1.7610397
22	0x3fc15374	1.5103593
23	0xc0094ccc	-2.1453123
24	0x3f5f8d0f	0.87324613
25	0x40369bc7	2.853258
26	0xbfae5838	-1.3620672
27	0xbd0e92d2	-0.034807988
28	0xbfeaf7a4	-1.8356824
29	0xbff5b08c	-1.9194503
30	0xc005fc5a	-2.0935273
31	0x3e33416b	0.17505424

residual_tower.blocks.0.bn2.running_var f4 [32]
0	0x4022c20c	2.5430937
1	0x405e1e09	3.4705832
2	0x41287795	10.529195
3	0x4167b317	14.481223
4	0x40bd0118	5.9063835
5	0x41acf14d	21.617823
6	0x40224ed0	2.5360603
7	0x401f82b6	2.492353
8	0x4177c752	15.486162
9	0x3fa387e2	1.2775843
10	0x402ee95d	2.7329934
11	0x41a66333	20.798437
12	0x41118065	9.093846
13	0x402013f0	2.501217
14	0x41340b00	11.252686
15	0x41686f54	14.52718
16	0x41075b1c	8.4597435
17	0x4030967c	2.7591848
18	0x40da6ee3	6.826036
19	0x408e40a6	4.4453917
20	0x406b67da	3.6782136
21	0x40a600b4	5.187586
22	0x40bcceeb	5.9002585
23	0x413ed978	11.928093
24	0x40270440	2.6096344
25	0x409c5124	4.884905
26	0x4097db35	4.7455087
27	0x40d20b0e	6.5638494
28	0x41307548	11.028633
29	0x3fd7ff73	1.6874832
30	0x40b2f271	5.592095
31	0x406a1923	3.6577842

residual_tower.blocks.1.conv1.weight f4 [32, 32, 3, 3]
0	0xbde31a5b	-0.11089011
1	0xbb009630	-0.0019620769
2	0xbd4f2787	-0.050574806
3	0xba9ba97e	-0.0011876074
4	0x3d7c75ac	0.06163566
5	0x3ddfd2c6	0.10928874
6	0xbe44dcca	-0.1922485
7	0xbe000d4c	-0.12505072
8	0xbe37dcfe	-0.17955396
9	0xbd89bc6c	-0.06725392
10	0x3e12b8df	0.14328335
11	0x3d4afc9d	0.049557317
12	0xbcc62f8d	-0.024192596
13	0x3da4b279	0.080418535
14	0xbd7f2c2c	-0.062297985
15	0xbd3c1fdd	-0.045928825
16	0xbc33179e	-0.010930924
17	0xbd41e427	-0.047336724
18	0x3c153a3f	0.009108125
19	0xbc11ec48	-0.0089064315
20	0xbd50049f	-0.050785657
21	0xbd5ece60	-0.054396033
22	0x3d91d6af	0.07121026
23	0xbd0d5af1	-0.034510557
24	0xbe4139d7	-0.1886972
25	0xbd1844c7	-0.037174966
26	0x3c5f2c8d	0.013621462
27	0xbcc83323	-0.024438446
28	0x3da0d1e5	0.07852534
29	0x3d137bce	0.03600674
30	0x3d9fcff9	0.078033395
31	0x3b4e168d	0.0031446547
32	0xbc88dda7	-0.016707255
33	0xbe22a074	-0.1588152
34	0xbe02ccd1	-0.12773444
35	0x3cf74089	0.03018214
36	0xbcdcba20	-0.02694422
37	0x3be0ea2e	0.006863854
38	0x3d351f36	0.04421922
39	0xbe0f3346	-0.13984403
40	0xbdb28a6c	-0.08717808
41	0xbdc7bbc9	-0.09752614
42	0xbdbec411	-0.093147404
43	0xbde40ab4	-0.11134854
44	0xbdbceb82	-0.09224607
45	0xbdc3ef04	-0.09567073
46	0xbe1b4ae3	-0.15165286
47	0x3d64d7b3	0.05586977
48	0xbe16ffef	-0.14746068
49	0xbe4e536a	-0.20149007
50	0x3c903f04	0.017608173
51	0xbe31f865	-0.17379911
52	0xbe0d4ac8	-0.13798058
53	0xbdd1b8e2	-0.10240342
54	0xbcdc1f07	-0.026870264
55	0xbd22b8bc	-0.039726958
56	0xbd9f45af	-0.07776963
57	0x3d6e94d4	0.058247402
58	0x3cc1f2b2	0.023675296
59	0x3d61a574	0.05508943
60	0xbbded6dd	-0.006800516
61	0x3cd64f68	0.02616091
62	0xbce358ca	-0.027752299
63	0xbd86fe76	-0.06591503
64	0x3d7dff77	0.06201121
65	0x3d1608d0	0.036629498
66	0x3b689b9c	0.003549314
67	0x3d8e7060	0.069550276
68	0xbd8102e9	-0.06299383
69	0xbcf47fbf	-0.02984607
70	0x3d0800a5	0.03320374
71	0x3cb54d73	0.022131657
72	0xbd7ef442	-0.06224466
73	0xbddb5ec3	-0.10711434
74	0x3c9f3387	0.01943375
75	0xbd63f926	-0.05565753
76	0xbd3ccaf0	-0.046091974
77	0xbc1567c1	-0.009118975
78	0xbddcda43	-0.107838176
79	0xbdea6d0f	-0.114465825
80	0xbd82b5f6	-0.063823625
81	0x3d6c3d5a	0.057675697
82	0x3d4552b6	0.048174582
83	0x3d6d0750	0.057868302
84	0xbd12dd9c	-0.035855874
85	0xbcdbc0a9	-0.026825266
86	0xbd85d26b	-0.06534275
87	0xbdc96b77	-0.098349504
88	0xbd566cea	-0.052349962
89	0xbd7d1f65	-0.06179752
90	0x3d88ea52	0.06685318
91	0x3d195e5e	0.03744351
92	0x3d86a027	0.065735154
93	0x3d0f0907	0.03492072
94	0xbcdead7a	-0.02718233
95	0x3d67ac3e	0.056560747
96	0xbddc1782	-0.10746671
97	0xbdf86108	-0.12127882
98	0xbc87e92a	-0.016590673
99	0xbd68fcf0	-0.056881845
100	0xbd47ec29	-0.048809204
101	0xbd8551b3	-0.065097235
102	0x3ce2c35c	0.027681045
103	0x3c27e126	0.010246551
104	0xbcff4a9f	-0.031163512
105	0xbe49ac0e	-0.1969454
106	0xbd877bf0	-0.06615436
107	0xbd9ffd71	-0.07812012
108	0x3d78bcca	0.06072692
109	0xbd123910	-0.03569895
110	0xbcde4970	-0.027134627
111	0xbdb10dc2	-0.08645202
112	0xbd762e14	-0.060102537
113	0x3d145c3b	0.03622077
114	0xbd88ad18	-0.0667364
115	0x3bdcda33	0.0067398786
116	0xbd8645b5	-0.06556264
117	0xbc9585f0	-0.018252343
118	0x3decb278	0.11557478
119	0xbcd51014	-0.026008643
120	0x3d00eff1	0.031478826
121	0x3db6ac1f	0.08919548
122	0xbc4b2de0	-0.012401074
123	0xbe5b10b0	-0.21393085
124	0xbdb2d369	-0.087317295
125	0xbd981389	-0.07425601
126	0x3d763188	0.06010583
127	0xbc2ecfb6	-0.010669639
128	0xbd809bac	-0.06279692
129	0x3d414143	0.04718138
130	0xbd836ca8	-0.06417209
131	0xbdb7f8d0	-0.08983004
132	0xbe288947	-0.16458617
133	0xbd5059d7	-0.050866928
134	0x3d8a3bf8	0.067497194
135	0xbc6a9b8b	-0.014319311
136	0x3d9ef8ec	0.07762322
137	0xbd4fb3ae	-0.050708465
138	0x3d64eb42	0.05588842
139	0x3e0165da	0.1263651
140	0xbd57b8e5	-0.052666564
141	0xbe16e9b6	-0.14737591
142	0x3cc9f868	0.024654582
143	0x3d26124f	0.040544804
144	0xbd9c95eb	-0.07645782
145	0xbd1f8ab1	-0.038950626
146	0x3d65b168	0.05607739
147	0xbd587688	-0.052847415
148	0xbdf91abe	-0.12163304
149	0xbe25c062	-0.1618667
150	0xbe14e1e0	-0.1453929
151	0xbe1e62f4	-0.15467435
152	0xbdfa1d65	-0.12212638
153	0x3c311d8d	0.010810268
154	0xbc48d2e6	-0.012257313
155	0xbd8ac4eb	-0.0677584
156	0x3c354ee9	0.011066177
157	0xbd2cbc68	-0.042171866
158	0xbde7f0c9	-0.11325223
159	0xbdef7689	-0.11692531
160	0xbc087fff	-0.008331298
161	0x3bdea376	0.0067943884
162	0xbda9be21	-0.08288217
163	0x3cfd958c	0.030955099
164	0xbda34aa9	-0.07973225
165	0xbc78b141	-0.015178979
166	0x3db8f59d	0.09031222
167	0x3cacd65b	0.021098306
168	0xbe6cd2e8	-0.2312733
169	0xbcc65e7c	-0.024214976
170	0xbdc859de	-0.09782766
171	0xbadb3cc1	-0.001672648
172	0xbd94d8f9	-0.07267947
173	0xbd52c357	-0.05145582
174	0xbcc7e829	-0.024402695
175	0x3e0cfe78	0.13768947
176	0x3c872b7f	0.016500233
177	0xbdde77b1	-0.10862673
178	0x3d4d76f7	0.05016228
179	0x3d0381cb	0.032106202
180	0x3c83c710	0.016086131
181	0xbd1a1dfd	-0.037626255
182	0x39a204bb	0.00030902572
183	0xbd98343d	-0.07431839
184	0xbd7d2fe8	-0.061813265
185	0xbe02ee10	-0.12786126
186	0xbd9322de	-0.07184385
187	0xbdf37adb	-0.11888667
188	0xbd635af4	-0.05550666
189	0x3e24f339	0.16108407
190	0x3c9b3baf	0.018949358
191	0xbd76385a	-0.060112335
192	0xbd8b8bcb	-0.06813773
193	0xbd306c93	-0.043072294
194	0xbdc389ab	-0.095477425
195	0xbe0d896f	-0.13821958
196	0x3c88e662	0.016711418
197	0xbc6f6714	-0.014611978
198	0xbd51aa04	-0.05118753
199	0x3c801df5	0.015639285
200	0xbc85e05b	-0.016342333
201	0xbd8f1e4c	-0.069882005
202	0xbd1f590a	-0.038903274
203	0x3dad0257	0.08447712
204	0xbe349533	-0.1763504
205	0xbda9fecf	-0.08300554
206	0xbdadf3b5	-0.08493749
207	0x3d591392	0.05299718
208	0xbd574a89	-0.052561317
209	0xbd87f307	-0.06638151
210	0x3c57838b	0.013153921
211	0xbc8e688c	-0.017383836
212	0x3be52382	0.0069927583
213	0xbe19e301	-0.15028001
214	0xbd9e393f	-0.077257626
215	0xbd3e23e5	-0.04642095
216	0xbd5936f1	-0.05303091
217	0x3d9fb6d2	0.07798542
218	0x3d452def	0.04813951
219	0xbd078c31	-0.03309268
220	0xbd925a83	-0.0714617
221	0xbd33e7b6	-0.04392215
222	0xbe3e2b36	-0.18571171
223	0xbe2049e7	-0.15653192
224	0xbd25679f	-0.040382024
225	0xbdc7b51a	-0.09751339
226	0x3a9024ac	0.0010997257
227	0x3da62036	0.081116125
228	0xbdb1287e	-0.086503014
229	0xbe5b940d	-0.21443196
230	0xbcde10bb	-0.027107587
231	0xbe13323b	-0.1437463
232	0xbe06a687	-0.13149463
233	0xbdde4e37	-0.10854762
234	0x3bed7428	0.007246513
235	0xbc671601	-0.014104367
236	0xbd4df3e5	-0.050281424
237	0x3d3c5cd6	0.045986973
238	0x3c2ad8e1	0.0104276845
239	0x3c8f79a8	0.017514065
240	0xbddab5a0	-0.106791735
241	0xbdf3ee29	-0.1191066
242	0x3db9fdf2	0.09081639
243	0x3ae1bc22	0.0017222206
244	0x3c9d2f0f	0.019187478
245	0xbbbe341c	-0.0058045518
246	0xbd9d553c	-0.07682273
247	0xbc4c1651	-0.0124564925
248	0xbc157bdb	-0.009123768
249	0xbe4a3b2a	-0.19749132
250	0xbe221067	-0.1582657
251	0xbd0187e3	-0.031623732
252	0x3cdc3ed4	0.026885428
253	0x3c82a31d	0.01594692
254	0xbccdf7b3	-0.025142526
255	0x3d4144da	0.047184803

residual_tower.blocks.1.conv1.bias f4 [32]
0	0x3be3a06c	0.006946614
1	0xbbd360c7	-0.0064507457
2	0x3bdac294	0.0066760276
3	0xba83e1de	-0.001006182
4	0xbb4bb51c	-0.0031083291
5	0x3ba9f179	0.0051862565
6	0x3bfda945	0.0077411258
7	0xbaf74221	-0.0018864312
8	0xbc0d551f	-0.0086262515
9	0x3bfe0651	0.007752218
10	0xbbf933b3	-0.00760504
11	0x3c0df599	0.008664512
12	0x3b7b6986	0.0038362457
13	0xbb9832fd	-0.00464475
14	0xbba45c3d	-0.0050158785
15	0xbac0edb8	-0.0014719283
16	0x3bfc8f16	0.007707487
17	0x3b4917cf	0.0030684357
18	0x3bdf3fc0	0.0068130195
19	0x3b9347ef	0.004494659
20	0x3c13ebb2	0.009028362
21	0x3b5ec615	0.0033992578
22	0x3c05ab31	0.008158491
23	0xbb9764fb	-0.004620192
24	0x3b82243a	0.0039716037
25	0xbba2274d	-0.0049485327
26	0xbaf04c41	-0.0018333272
27	0x3b2a7ce7	0.002601439
28	0xbbd92ba3	-0.0066275164
29	0x3c108942	0.008821787
30	0x3c0804df	0.008301943
31	0x3b6560a5	0.0035000232

residual_tower.blocks.1.bn1.weight f4 [32]
0	0x3f33333a	0.7000004
1	0x3f6b8515	0.9199994
2	0x3f051ec8	0.52000093
3	0x3ed708cb	0.41998896
4	0x3f28f5cc	0.66000056
5	0x3f38522a	0.7200037
6	0x3f6147b0	0.8800001
7	0x3f75c289	0.9599996
8	0x3f4cccd9	0.8000007
9	0x3f6b851a	0.9199997
10	0x3f1eb854	0.6200001
11	0x3f428f76	0.76000154
12	0x3f666665	0.8999999
13	0x3f4cccca	0.79999983
14	0x3f570a35	0.8399995
15	0x3f000008	0.5000005
16	0x3f75c296	0.9600004
17	0x3f6147ad	0.87999994
18	0x3f33333d	0.7000006
19	0x3f6147b0	0.8800001
20	0x3f2e1480	0.6800003
21	0x3f333339	0.70000035
22	0x3f23d70c	0.6400001
23	0x3f147adf	0.57999986
24	0x3f3d70a8	0.74000025
25	0x3f51eb8a	0.8200003
26	0x3e75c297	0.24000011
27	0x3f800003	1.0000004
28	0x3f28f5d3	0.660001
29	0x3f3d70a8	0.74000025
30	0x3f3d70a6	0.7400001
31	0x3f6148de	0.8800181

residual_tower.blocks.1.bn1.bias f4 [32]
0	0x3dcccca6	0.09999971
1	0x3e0f5bdc	0.13999885
2	0xb9150e03	-0.00014214967
3	0xbe851ecd	-0.26000062
4	0xbd23d3f3	-0.039997052
5	0x3dccccf5	0.1000003
6	0x3dccccb4	0.099999815
7	0xbca3d538	-0.019999132
8	0x3e0f5c1d	0.13999982
9	0x3da3d75b	0.0800006
10	0xbdf5c29f	-0.12000012
11	0x3e75c28d	0.23999996
12	0x3e23d705	0.15999992
13	0xbda3d69d	-0.079999186
14	0x3df5c2f3	0.12000074
15	0xbdccccf9	-0.10000033
16	0x3da3d713	0.080000065
17	0xbd23d735	-0.04000016
18	0xbd75c194	-0.059999064
19	0xbe4cccc2	-0.19999984
20	0x3d23d67c	0.03999947
21	0xbca3d735	-0.02000008
22	0xb4f9fae1	-4.6562403e-07
23	0xbe4ccccb	-0.19999997
24	0x3e0f5bfa	0.1399993
25	0xbda3d763	-0.08000066
26	0xbeae1454	-0.33999884
27	0x3e3851ef	0.18000005
28	0x3ca3d6e8	0.019999936
29	0xbdccccdc	-0.10000011
30	0xb502cf5c	-4.873052e-07
31	0x3d75c2a2	0.06000007

residual_tower.blocks.1.bn1.running_mean f4 [32]
0	0xc0b0ba47	-5.522739
1	0xc0abe202	-5.371339
2	0xc07c0d7a	-3.9383225
3	0x40883197	4.2560534
4	0xc01c1d0e	-2.4392734
5	0xc0843574	-4.131525
6	0xc0a20212	-5.0627527
7	0x40d101d0	6.5314713
8	0xc083da10	-4.120369
9	0xc07c906c	-3.9463148
10	0xbfaa957a	-1.3326867
11	0xc053a32b	-3.306834
12	0xc0c30bec	-6.0952053
13	0x400b6f32	2.1786618
14	0xc04e6f15	-3.22553
15	0xc008ef87	-2.1396196
16	0xc05b6cec	-3.428523
17	0x3febf926	1.8435409
18	0xc043f7b5	-3.0619938
19	0x3fd15eff	1.6357116
20	0xc08e9fa0	-4.4569855
21	0x3ed6b346	0.4193365
22	0x3fb87df4	1.4413438
23	0x407c354a	3.9407525
24	0xc05fe17a	-3.498137
25	0xbfa4e1a2	-1.2881358
26	0x3fe1831f	1.761814
27	0xc0820d01	-4.0640874
28	0x40b2e515	5.590464
29	0xc001a7a8	-2.025858
30	0xc06074ec	-3.5071363
31	0xc050ccb7	-3.2624948

residual_tower.blocks.1.bn1.running_var f4 [32]
0	0x4117951f	9.4739065
1	0x41329d04	11.163334
2	0x40bed081	5.962952
3	0x409be0e4	4.8712025
4	0x40a9c66c	5.3054714
5	0x40f5bd5e	7.679366
6	0x41144295	9.266255
7	0x41741d95	15.257222
8	0x4193e107	18.484877
9	0x410eb882	8.920046
10	0x40a9e6c4	5.3094196
11	0x41005753	8.021319
12	0x413437a3	11.263583
13	0x40c4db09	6.1517377
14	0x40eee8df	7.4659266
15	0x40616667	3.5218751
16	0x41468073	12.40636
17	0x40aed2d8	5.463238
18	0x40cb8634	6.360132
19	0x40ef6cca	7.48203
20	0x40d83a5b	6.7571235
21	0x40bae89d	5.840895
22	0x40e8a9a5	7.2707086
23	0x40e0752c	7.014303
24	0x40c3d004	6.1191425
25	0x40dc04ea	6.8756
26	0x3fe80634	1.8126893
27	0x4125f473	10.37218
28	0x413abf53	11.67171
29	0x409c2840	4.8799133
30	0x4102810f	8.156508
31	0x40fcfc78	7.905819

residual_tower.blocks.1.conv2.weight f4 [32, 32, 3, 3]
0	0xbba765b5	-0.00510856
1	0x3dfd276a	0.12361033
2	0x3d5ce171	0.053925935
3	0xbdcb4d31	-0.099268325
4	0x3dec7546	0.11545806
5	0x3be6a8da	0.0070391716
6	0xbb3179ad	-0.002708058
7	0x3d6224db	0.05521093
8	0x3d1fb512	0.03899104
9	0x3d2dbe69	0.042417917
10	0x3d801973	0.06254854
11	0x3cb765e8	0.02238746
12	0xbc9f9d2b	-0.019484123
13	0xbd008d33	-0.031384658
14	0xbdb9d22b	-0.090732895
15	0xbd3da51e	-0.046300046
16	0x3d13e671	0.036108438
17	0x3d93106e	0.07180868
18	0xbcc2043b	-0.023683658
19	0x3db5e825	0.08882169
20	0x3c789b9e	0.015173821
21	0xbc101098	-0.008793019
22	0x3ce611b6	0.028084617
23	0xbd3ee177	-0.04660174
24	0xbbe6b028	-0.0070400424
25	0x3da27c17	0.079338245
26	0x3c954c0b	0.018224737
27	0xbb6f6ad7	-0.0036532187
28	0xbcae4706	-0.021274101
29	0xbc49c443	-0.012314859
30	0xbd762b66	-0.06009998
31	0xbaa1f031	-0.0012354908
32	0xbbe15f7d	-0.006877838
33	0xbc785b47	-0.015158481
34	0xbc0a4f45	-0.008441751
35	0xbd37e2a5	-0.04489388
36	0xbc47c39c	-0.012192633
37	0xbd155971	-0.03646225
38	0xbc7224dd	-0.014779297
39	0xbde7ed8e	-0.11324607
40	0xbd9a0866	-0.07521133
41	0xbda310ce	-0.079621896
42	0x3baaae62	0.0052087763
43	0x3df36b2d	0.118856765
44	0x3c70e8bc	0.014703926
45	0x3b9a706d	0.004713109
46	0x3c9b57dc	0.018962793
47	0x3d3c504c	0.045975015
48	0xbdae2ac8	-0.085042536
49	0x3dc8d996	0.09807126
50	0xbd16824e	-0.036745362
51	0xbd918bfb	-0.07106777
52	0x3de1d233	0.110264204
53	0x3d3a434a	0.045474328
54	0x3bc1d450	0.005915202
55	0x3d7855f2	0.06062884
56	0x3cfe5897	0.031048102
57	0xbc97d31f	-0.018533288
58	0x3d287959	0.04113135
59	0x3d3247f7	0.043525662
60	0xbdaf7a18	-0.085682094
61	0xbd5639d6	-0.05230125
62	0xbc03830b	-0.008026849
63	0xbe1cd2c6	-0.15314779
64	0xbdbae407	-0.09125524
65	0xbe092f8c	-0.13397044
66	0xbe1b6b68	-0.15177691
67	0xbe49b421	-0.1969762
68	0xbdb2b6f8	-0.08726305
69	0xbe215968	-0.15756762
70	0xbe22bef1	-0.15893151
71	0xbdeda183	-0.116030715
72	0xbc899e62	-0.016799156
73	0x3d620022	0.055175908
74	0x3d95a120	0.07306123
75	0x3d2065fe	0.039159767
76	0x3d9dc5f7	0.077037744
77	0x3d1859d0	0.037195027
78	0xbd50bdb3	-0.05096216
79	0x3e024862	0.12722924
80	0x3d6f258e	0.058385424
81	0x3c44b216	0.01200535
82	0x3e188512	0.14894512
83	0x3dab790c	0.08372697
84	0xbd8194e2	-0.06327225
85	0x3af855ca	0.0018946466
86	0x3b485504	0.0030568251
87	0xbd38b9a3	-0.045098912
88	0x3c480b8f	0.012209787
89	0xbcc5b3f7	-0.024133665
90	0xbcc16181	-0.023606064
91	0xbd2f4f5b	-0.04280029
92	0x3d638dbc	0.05555509
93	0xbd8fe5c6	-0.07026248
94	0xbd5aa744	-0.053382173
95	0xbcc90b90	-0.024541646
96	0x3c4f8de8	0.01266811
97	0x3d48c809	0.049018893
98	0x3c870e46	0.016486298
99	0x3ce8515d	0.02835911
100	0x3db05c0e	0.08611308
101	0x3d1243ee	0.035709314
102	0x3c36b956	0.011152586
103	0xbd48194f	-0.04885226
104	0xbdda1dec	-0.106502384
105	0xbd1de285	-0.038546104
106	0x3ba57c16	0.0050501926
107	0x3d7d2b14	0.06180866
108	0xbcf62559	-0.030047106
109	0x3df7031d	0.12061141
110	0x3d5b8b43	0.053599607
111	0xbda204e2	-0.079110876
112	0x3dc4c32c	0.096075386
113	0x3d2dfd27	0.042477753
114	0xbdacaf9d	-0.08431933
115	0x3da27b24	0.079336435
116	0x3cfa7d01	0.030577185
117	0xbcf7ed9d	-0.03026467
118	0xbcb8c5d9	-0.022555279
119	0xbcc0e97f	-0.02354884
120	0xbd6a015f	-0.057130214
121	0xbdc7e216	-0.09759919
122	0xbd8de207	-0.06927877
123	0xbdd5994f	-0.10429632
124	0xbd6d6e54	-0.057966545
125	0x3c89ca2c	0.016820036
126	0x3b95a434	0.0045666937
127	0x3da1bc7f	0.07897281
128	0x3ce80db4	0.028326847
129	0xbd8c95a2	-0.06864478
130	0x3b6aed9d	0.0035847195
131	0xbd90e695	-0.0707523
132	0xbcc7f3ce	-0.024408247
133	0x3d9a54b4	0.07535687
134	0x3cd6ac13	0.026205098
135	0xbc27fc31	-0.010252998
136	0x3c26be04	0.010177139
137	0x3cc01180	0.023445845
138	0xbce791a2	-0.028267685
139	0xbc07c3e7	-0.008286453
140	0xbd8ad366	-0.06778602
141	0xbd0d419f	-0.03448641
142	0xbc549d77	-0.012976996
143	0x3cc5c748	0.024142876
144	0xbbe9dbed	-0.007136813
145	0xbdaf2c39	-0.08553357
146	0xbdecccf6	-0.11562531
147	0xbcbd36ef	-0.023097483
148	0x3d66aaff	0.05631542
149	0xbd49d82b	-0.04927842
150	0x3d819999	0.063281246
151	0x3d5db2d2	0.054125614
152	0x3e1185c0	0.14211178
153	0x3d6beb38	0.05759737
154	0x3e159623	0.14608054
155	0x3dba386c	0.09092793
156	0xbc87f359	-0.01659553
157	0xbd66f8c5	-0.05638959
158	0xbc4e22c3	-0.01258153
159	0xbda27d23	-0.07934024
160	0xbd397d75	-0.04528566
161	0xbc529864	-0.012853716
162	0xbad7fc9c	-0.0016478482
163	0x3d90630d	0.070501424
164	0x3d8361c7	0.06415134
165	0xbd39f9fc	-0.04540442
166	0x3e2163e5	0.15760763
167	0xbd58d2bd	-0.05293535
168	0xbd0bae42	-0.034101732
169	0x3d83c8f1	0.06434811
170	0x3bf8b5ef	0.0075900475
171	0x3d8efbdf	0.06981634
172	0x3e05ffd7	0.13085876
173	0x3d019224	0.03163351
174	0xbcc338bb	-0.023830762
175	0xbda198bc	-0.0789046
176	0x3c95ab0f	0.018270044
177	0xbd6f8bce	-0.058482938
178	0xbcc4177e	-0.023936983
179	0xbc8f0995	-0.017460624
180	0xbc680da2	-0.014163407
181	0xbca28d63	-0.019842809
182	0x3cd393f8	0.025827393
183	0xbccd0fce	-0.02503195
184	0xbc4308d7	-0.011903963
185	0xbd0eff0f	-0.03491121
186	0x3da39fd4	0.07989469
187	0x3da66435	0.08124582
188	0x3d98cfd4	0.07461515
189	0xbe163b3b	-0.14671032
190	0x3cdbfbaa	0.026853401
191	0xbd46ff4d	-0.048583318
192	0x3d4893db	0.04896913
193	0x3e09c88f	0.13455413
194	0x3da16560	0.07880664
195	0xbd692232	-0.056917377
196	0x3de0c918	0.109758556
197	0x3ca85f8e	0.020553377
198	0xbb81a8d4	-0.0039568935
199	0x3da53884	0.0806742
200	0xbdc1ca34	-0.09462395
201	0xbd1816b0	-0.03713101
202	0xbd6035a2	-0.05473865
203	0x3c98639d	0.018602187
204	0x3d8db426	0.06919126
205	0xbd689a36	-0.056787692
206	0x3d2a6a2c	0.04160516
207	0xbd82bae8	-0.06383306
208	0xbda65f77	-0.08123677
209	0xbd57929b	-0.05263005
210	0xbd17a9ef	-0.037027296
211	0xbd3a42f3	-0.045474004
212	0xbd405e6e	-0.046965055
213	0xbd15fd96	-0.03661879
214	0xbdcfc748	-0.10145432
215	0xbd953527	-0.07285529
216	0x3d409ee4	0.04702653
217	0x3e1d1be2	0.15342668
218	0x3d04910f	0.0323649
219	0xbcf11379	-0.02942823
220	0x3cee0017	0.029052777
221	0x3b579551	0.0032895396
222	0xbde789be	-0.11305569
223	0xbd6c3958	-0.057671875
224	0xbd91b411	-0.07114423
225	0x3ce87683	0.028376823
226	0x3cf9ff9b	0.03051739
227	0xbc88c6b0	-0.016696304
228	0xbd03e32c	-0.03219907
229	0x3c5b027c	0.013367292
230	0x3d1957d5	0.03743728
231	0x3d8c8d80	0.068629265
232	0x3d0abb0a	0.03386978
233	0x3d527aa5	0.051386494
234	0x3b588f8a	0.003304454
235	0x3c1d4ca2	0.00960079
236	0xbc006fef	-0.007839187
237	0xbc071027	-0.008243597
238	0x3bb3f38c	0.0054916795
239	0x3c993239	0.018700706
240	0x3c519d46	0.012793845
241	0xbc7b0439	-0.015320831
242	0xbc5e9d03	-0.013587239
243	0x3d3e0330	0.04638976
244	0x3d6612a4	0.05617012
245	0x3d0afec1	0.03393436
246	0xbbfad673	-0.007654959
247	0xbd74cc18	-0.05976495
248	0xbded6603	-0.11591723
249	0xbce116a9	-0.027476626
250	0x3c8e424e	0.0173656
251	0x3c8f7085	0.017509708
252	0xbd94aaba	-0.07259126
253	0xbdc98284	-0.09839347
254	0xbdb133a4	-0.08652428
255	0x3c97be54	0.018523373
