model_silver_sponge_38.pth (torch, 153182 bytes, 83 tensors)

input_conv.conv.weight f4 [8, 2, 3, 3]
0	0xbe1bd631	-0.15218426
1	0x3e0ed89f	0.13949822
2	0x3e006548	0.12538636
3	0x3dc8c13f	0.09802484
4	0x3e23009d	0.15918203
5	0x3df4b786	0.11949067
6	0x3d18b404	0.03728105
7	0x3e2e88c8	0.17044365
8	0x3e13bc93	0.14427404
9	0xbe488ef2	-0.1958578
10	0x3e661456	0.22468695
11	0x3df2b7ee	0.11851488
12	0x3c9ccdee	0.019141164
13	0x3d85a409	0.06525428
14	0xbd8416e6	-0.0644968
15	0x3d8b7ba2	0.068106905
16	0x3d91172b	0.07084497
17	0x3d896005	0.067077674
18	0x3e524cec	0.20537156
19	0x3d8c3eb7	0.068478994
20	0xbd6d3563	-0.05791224
21	0x3c874292	0.016511235
22	0xbd5f209a	-0.05447445
23	0x3dcde27f	0.10052966
24	0x3e89de0e	0.26927227
25	0x3e1ce2d8	0.15320909
26	0x3d4e944d	0.0504344
27	0x3ce8dace	0.028424647
28	0xbdace051	-0.084412225
29	0x3d121e24	0.035673276
30	0xbdf85526	-0.12125616
31	0xbe0b999b	-0.13632815
32	0xbc2d6a66	-0.010584449
33	0x3cf75926	0.030193876
34	0xbdddf188	-0.10837084
35	0x3e2ac077	0.16674982
36	0xbe18ff9b	-0.14941256
37	0xbd553a78	-0.052057713
38	0xbdba9df1	-0.09112156
39	0xbd8a5aea	-0.06755622
40	0x3c0542b7	0.008133582
41	0xbd2581b9	-0.040406916
42	0x3d968425	0.07349423
43	0xbe18ece7	-0.14934121
44	0xbdbdc372	-0.09265794
45	0x3c2445d4	0.010026414
46	0xbd610051	-0.054931942
47	0xbd585c91	-0.052822653
48	0xbcfea8a0	-0.031086266
49	0x3e068cae	0.13139603
50	0x3e7d6acb	0.2474777
51	0x3e85ac7e	0.26108164
52	0xbcf3530d	-0.029702688
53	0x3d603c4f	0.054745015
54	0xbe394728	-0.1809355
55	0x3cf021ac	0.029312931
56	0xbb632361	-0.0034658539
57	0x3b9a6b5d	0.0047125057
58	0xbd53f4d1	-0.051747147
59	0x3e1035c8	0.14083016
60	0xbd13c4dd	-0.036076415
61	0x3dd882b4	0.10571805
62	0x3d19355e	0.03740441
63	0xbe2e0dbc	-0.16997427
64	0x3daf09a4	0.08546761
65	0x3dbf886a	0.09352191
66	0xbe2b07ab	-0.16702144
67	0x3dd18e7f	0.10232257
68	0x3db2f04c	0.08737239
69	0xbe47bd64	-0.1950584
70	0xbe6c3953	-0.23068742
71	0x3d4001d7	0.046876755
72	0xbc5e72f5	-0.013577213
73	0x3df716ec	0.12064919
74	0x3d8c6b04	0.06856349
75	0xbdd76706	-0.10517697
76	0xbce6be73	-0.028166985
77	0x3e253128	0.16132033
78	0x3d0aac5e	0.03385579
79	0x3e12ad35	0.14323886
80	0xbde3c3ac	-0.11121306
81	0x3bcf2e4a	0.0063226568
82	0x3d5f4538	0.05450937
83	0xbaf03268	-0.0018325569
84	0x3d14290b	0.036171954
85	0xbe29f1ff	-0.1659622
86	0x3e3204bd	0.1738462
87	0x3e2d8119	0.16943778
88	0xbab91833	-0.0014121592
89	0x3e0ff8b2	0.14059713
90	0x3dfca32a	0.123358086
91	0xbcb407fa	-0.02197646
92	0xbdec134e	-0.115271196
93	0x3b77f61e	0.0037835906
94	0xbc4dcd86	-0.012561208
95	0xbe2f1390	-0.17097306
96	0xbca1b97c	-0.019741766
97	0xbd575b11	-0.052577082
98	0x3d352255	0.044222195
99	0x3da2ecd9	0.07955331
100	0x3cb7c7ac	0.022434078
101	0xbd1642e7	-0.036684897
102	0xbe15c759	-0.14626826
103	0x3cbc0ffc	0.02295684
104	0xbd4a9262	-0.049456008
105	0xbe12a9fa	-0.14322653
106	0xbe375d68	-0.17906725
107	0x3d2f941d	0.04286586
108	0x3e2bb3ec	0.16767853
109	0xbdd29eba	-0.10284181
110	0x3c14e3d3	0.009087521
111	0x3d9ed040	0.07754564
112	0xbe632b65	-0.22184522
113	0xbde4ac9a	-0.11165734
114	0xbc8745e2	-0.016512815
115	0x3cbabdde	0.022795614
116	0x3df76c6a	0.12081225
117	0x3e21c2a2	0.15796903
118	0xbce64b88	-0.028112188
119	0xbe0992e5	-0.13434942
120	0x3dc61fb8	0.096740186
121	0xbce8f165	-0.028435418
122	0xbd580571	-0.052739564
123	0x3c522fba	0.012828762
124	0x3e3a852c	0.18214864
125	0x3e6e13a7	0.23249684
126	0xbdd5c930	-0.10438764
127	0x3d1a4d0b	0.03767113
128	0xbd0b905e	-0.034073226
129	0xbca8ef94	-0.020622052
130	0x3e3af1c7	0.18256293
131	0xbe385b33	-0.1800354
132	0xbdae9c8b	-0.08525952
133	0xbdefb26a	-0.11703952
134	0xbcd5e957	-0.026112242
135	0x3be43eea	0.0069655078
136	0xbdab5873	-0.0836648
137	0xbd5216e5	-0.051291365
138	0x3e18ae33	0.14910202
139	0xbd497965	-0.049188036
140	0xbd5e3abc	-0.054255232
141	0xbdb118f0	-0.086473346
142	0xbe4b51fa	-0.1985549
143	0x3d94d3f0	0.07266986

input_conv.conv.bias f4 [8]
0	0x38f262fd	0.00011557897
1	0x3b879021	0.0041370546
2	0xbb4c9230	-0.0031215064
3	0x3a434e35	0.00074503134
4	0x3a725bef	0.00092452666
5	0xbc52449f	-0.012833743
6	0x3b2abfe1	0.002605431
7	0x3c9d4f03	0.019202715

input_conv.bn.weight f4 [8]
0	0x3f439d7a	0.76412165
1	0x3f4a4cdb	0.7902352
2	0x3f2a3f91	0.66503245
3	0x3f368b43	0.71306247
4	0x3f269227	0.6506676
5	0x3f2be5c6	0.6714748
6	0x3f3cb300	0.7371063
7	0x3f2d3535	0.6765931

input_conv.bn.bias f4 [8]
0	0x3d79e090	0.061005175
1	0x3d6a142a	0.057148136
2	0x3d98bb02	0.07457544
3	0x3de2ddb5	0.110774435
4	0x3ddef1be	0.108859524
5	0xbc03df59	-0.008048856
6	0x3d96f496	0.0737087
7	0x3d49dfbb	0.04928563

input_conv.bn.running_mean f4 [8]
0	0x3ee9cfe2	0.45666414
1	0x3e235a92	0.15952519
2	0x3bc01d42	0.005862863
3	0xbd86f0f6	-0.065889284
4	0x3e747534	0.23872834
5	0xbe77d9f8	-0.24204242
6	0x3dce7000	0.10079956
7	0xbe446ff0	-0.19183326

input_conv.bn.running_var f4 [8]
0	0x3d20baaf	0.039240535
1	0x3d23b0b7	0.03996345
2	0x3cf2e3c2	0.029649619
3	0x3d800939	0.06251759
4	0x3d3698ef	0.044579443
5	0x3c8d2f0d	0.01723435
6	0x3d029f27	0.03189006
7	0x3d2cdd98	0.042203516

residual_tower.blocks.0.conv1.weight f4 [8, 8, 3, 3]
0	0xbd0f1175	-0.034928758
1	0xbc9787b9	-0.018497335
2	0x3dd4f542	0.10398342
3	0x3dc11aaa	0.09428914
4	0x3dd03683	0.10166647
5	0x3d4282fd	0.0474882
6	0x3d070ebf	0.032973047
7	0x3dcb4686	0.09925561
8	0x3c3c6c3a	0.011500413
9	0xbbf2b654	-0.007406989
10	0x3d07426d	0.033022333
11	0xbb2d00ad	-0.0026398108
12	0xbd848aa0	-0.06471753
13	0xbce4bc9e	-0.027921971
14	0xbc182cab	-0.009287993
15	0x3e0245d4	0.1272195
16	0x3d4b1776	0.04958292
17	0x3cdc52bf	0.026894925
18	0x3bce473c	0.006295113
19	0xbda9be36	-0.08288233
20	0xbd0c4916	-0.034249388
21	0xbd08e883	-0.033424865
22	0x3e1a11eb	0.15045898
23	0xbb832541	-0.0040022437
24	0xbdf0f767	-0.11765938
25	0x3d30d587	0.043172386
26	0x3d52dc4a	0.051479615
27	0x3c2cf444	0.010556284
28	0x3c990224	0.018677779
29	0x3c4104a3	0.011780891
30	0x3c68eeea	0.014217118
31	0x3d957438	0.072975576
32	0x3d53c4a5	0.051701207
33	0x3d2d4d45	0.042310018
34	0xbd8ddcb9	-0.06926865
35	0xbd3f62f1	-0.046725217
36	0x3c2e9061	0.01065454
37	0x3d79947a	0.060932614
38	0x3cdd82c2	0.02703989
39	0xbcffea9a	-0.031239796
40	0xb97e31aa	-0.00024241829
41	0xbbb0ad8e	-0.005391783
42	0x3e0dc01f	0.1384282
43	0xbbb048e7	-0.0053797844
44	0x3d46cd58	0.048535675
45	0xbd80cf6b	-0.06289562
46	0xbdb4378f	-0.087996595
47	0xbdb414f9	-0.08793063
48	0xbd533041	-0.05155969
49	0xbbb6a8e6	-0.0055743335
50	0xbd2c0193	-0.04199369
51	0x3c90f275	0.017693738
52	0xbcff91d3	-0.031197464
53	0xbcbd58fb	-0.023113718
54	0xbcd61d4f	-0.026137022
55	0xbd7c701d	-0.061630357
56	0x3b430c5a	0.0029762
57	0x3d4e80b5	0.050415713
58	0xbdaf994a	-0.085741594
59	0x3dfa3b65	0.1221836
60	0x3da6afa5	0.0813897
61	0xbd148779	-0.03626201
62	0x3d0836aa	0.033255257
63	0xbda7375f	-0.08164858
64	0xbd9f18c6	-0.07768397
65	0xbcf98613	-0.03045944
66	0xbccecd1d	-0.02524429
67	0xbd3fb2be	-0.04680132
68	0xbc69d9ce	-0.01427312
69	0xbd5a0e2b	-0.053236168
70	0xbd333aac	-0.043757126
71	0xbd205bb6	-0.039149962
72	0xbcf692ba	-0.030099262
73	0xbd662bb2	-0.056194015
74	0xbce33f22	-0.027740065
75	0x3d5da9d7	0.05411705
76	0xbdc56e08	-0.096401274
77	0xbd239b0b	-0.039942782
78	0x3df8cb90	0.121482015
79	0x3d691101	0.05690098
80	0x3c8a8fee	0.016914334
81	0x3d67705f	0.05650365
82	0x3b42e94d	0.002974111
83	0xbdfc66a4	-0.12324265
84	0x3d593ab2	0.05303449
85	0xbd01be48	-0.031675607
86	0x3c787a02	0.015165808
87	0xbb453395	-0.003009056
88	0x3d526fe5	0.051376242
89	0x3d3e7951	0.046502415
90	0xbb9a8690	-0.004715748
91	0xbd7cd19d	-0.06172334
92	0xbdb1354b	-0.08652743
93	0x3d168b73	0.036754083
94	0xbd5b1224	-0.053484097
95	0xbd681a69	-0.05666581
96	0xbbc2a9d4	-0.0059406552
97	0xbd028105	-0.031861324
98	0x3b064fed	0.0020494417
99	0xbc18fce7	-0.00933764
100	0xbb37f569	-0.002806986
101	0xbc78017e	-0.0151370745
102	0x3da3dd9c	0.08001253
103	0x3c879ae5	0.016553352
104	0xbb422e32	-0.0029629585
105	0xbd251d18	-0.04031095
106	0x3da3f41c	0.080055445
107	0x3d1766a2	0.036963113
108	0xbc31383c	-0.01081663
109	0xbd38df58	-0.045134872
110	0xbd7ae062	-0.061249144
111	0xbd96f719	-0.07371349
112	0xbd3a92ac	-0.045550033
113	0x3c302a02	0.010752203
114	0x3c1a67d7	0.009424171
115	0x3d47e340	0.048800707
116	0xbd69dee0	-0.057097316
117	0x3de4786c	0.11155781
118	0x3d0f135b	0.03493057
119	0xbc865fc7	-0.016403092
120	0xbc345a68	-0.011007883
121	0x3d5c049e	0.05371534
122	0x3abad3a7	0.0014253751
123	0x3d82f448	0.06394249
124	0x3c9d6d3a	0.019217122
125	0x3d0fdbc5	0.035121698
126	0xbdd0a972	-0.10188569
127	0xbcd6cee1	-0.026221694
128	0xbdc245b0	-0.09485948
129	0xbcf604b8	-0.030031547
130	0xbd78c6c5	-0.060736436
131	0x3c077ad8	0.008269034
132	0x3cb5315e	0.022118267
133	0xbd03b54b	-0.032155316
134	0xbb4ebe23	-0.0031546436
135	0x3ca501ca	0.020142455
136	0x3c7e374d	0.015516114
137	0xb99059aa	-0.00027532625
138	0xb8579bc7	-5.1405073e-05
139	0x3d52f4c5	0.05150296
140	0xbd35f3ca	-0.04442195
141	0xbd43d50b	-0.047810595
142	0xbd9d1bbe	-0.07671307
143	0x3c7bf290	0.015377656
144	0x3cb90fcf	0.022590546
145	0xbd814c41	-0.063133724
146	0xbd7a1e9e	-0.061064355
147	0x3caec38e	0.021333482
148	0x3d426370	0.047458112
149	0x3cbb3ac7	0.022855176
150	0x3d780c45	0.060558576
151	0xbd2f7adc	-0.042841777
152	0x3de34314	0.110967785
153	0xbb519d8c	-0.0031984774
154	0xbd707439	-0.05870459
155	0x3de09277	0.10965436
156	0xbb3364b4	-0.0027373256
157	0x3dc3c03d	0.09558151
158	0x3d263d65	0.040585894
159	0xbc8d7fd6	-0.017272871
160	0x3deb1a34	0.11479607
161	0x3e192f66	0.14959487
162	0xbd251046	-0.040298723
163	0xbd986e1f	-0.07442879
164	0x3d7ba7ee	0.061439447
165	0xbd64a23a	-0.055818774
166	0xbd802c77	-0.06258481
167	0x3a81d71e	0.0009906029
168	0xbd400e6d	-0.046888757
169	0xbe0ba5b3	-0.13637428
170	0x3af64e94	0.0018791729
171	0x3dbda15b	0.09259292
172	0xbd977916	-0.07396142
173	0x3dffc2d4	0.124883324
174	0x3d8cb8d2	0.06871189
175	0xbd9fec0d	-0.07808695
176	0x3dfe6b77	0.12422841
177	0xbd5a3b65	-0.0532793
178	0x3cc60152	0.024170551
179	0x3be04158	0.006843727
180	0xbd637e9b	-0.055540662
181	0xbda0f73b	-0.078596555
182	0x3c53e82d	0.012933773
183	0x3d2a703e	0.04161095
184	0xbde0fa3a	-0.10985227
185	0x3dea1a4b	0.11430796
186	0xbc26a481	-0.010171057
187	0xbd1c318a	-0.03813318
188	0x3d81ee85	0.06344322
189	0x3d835d37	0.06414264
190	0x3daef7cc	0.08543357
191	0x3d0940bb	0.033508997
192	0x3c0782cf	0.008270933
193	0x3d23fafd	0.040034283
194	0xbd5c4e52	-0.05378563
195	0x3dadec2e	0.08492313
196	0x3e13e4e5	0.14442785
197	0xbd28d286	-0.041216396
198	0xbdec1623	-0.1152766
199	0x3d2cf27a	0.04222343
200	0xbd5916f1	-0.053000394
201	0xbdf36c90	-0.11885941
202	0x3c8330ef	0.016014544
203	0xbddd03c6	-0.10791735
204	0xbd58d1eb	-0.05293457
205	0xbc9d3555	-0.01919047
206	0x3cddc95a	0.027073551
207	0x3d951fa2	0.07281424
208	0x3de62c54	0.11238924
209	0xbb4a3993	-0.003085707
210	0x3c6b595c	0.014364567
211	0xbd38afed	-0.04508965
212	0xbd589c4e	-0.05288344
213	0x3d50ec88	0.051006824
214	0x3d530e90	0.05152756
215	0xbd49cb86	-0.04926636
216	0x3c41e44e	0.011834217
217	0xbd1b4a75	-0.037912805
218	0xbd1719af	-0.03688973
219	0xbd12e888	-0.03586629
220	0xbdaa2c79	-0.08309264
221	0xbcdae1f8	-0.026719078
222	0xbd2a6e18	-0.0416089
223	0x3c3324e5	0.010934089
224	0xbd95c24c	-0.0731245
225	0x3da3233d	0.079657055
226	0x3dafafd6	0.0857846
227	0x3c585a98	0.013205193
228	0x3d855d76	0.06511967
229	0x3d78b49c	0.060719118
230	0x3d8912b2	0.06693019
231	0x3d314d7f	0.043286797
232	0x3c8374c2	0.016046885
233	0x3d9dc57b	0.07703682
234	0x3ce1257d	0.027483696
235	0x3d21c2d0	0.03949243
236	0x3d1f91e1	0.03895748
237	0xbd208b49	-0.039195333
238	0xbdc8e13b	-0.09808584
239	0x3bab6bab	0.005231341
240	0xbdb8b8e4	-0.0901964
241	0xbcbff187	-0.023430599
242	0x3be81586	0.007082644
243	0x3be29ba8	0.0069155283
244	0xbd4b98bb	-0.049706202
245	0x3c808ec9	0.015693085
246	0xba54825f	-0.0008106585
247	0x3d5ae8b0	0.053444564
248	0x3bc50085	0.006012025
249	0x3da8a17d	0.082339264
250	0x3d62d3e0	0.05537784
251	0xbd6827a7	-0.05667844
252	0x3d7e64a3	0.062107693
253	0xbd00aa50	-0.031412423
254	0x3cca2ee3	0.02468056
255	0xbe0d36e5	-0.13790472

residual_tower.blocks.0.conv1.bias f4 [8]
0	0x3a51ebee	0.00080078735
1	0x3a3361ec	0.00068428996
2	0xbba27656	-0.0049579544
3	0xba236e7b	-0.00062344194
4	0xba3f2d30	-0.0007292805
5	0xba91897a	-0.0011103593
6	0x3a03b1ea	0.00050237647
7	0x3a05d337	0.0005105021

residual_tower.blocks.0.bn1.weight f4 [8]
0	0x3f1e7714	0.6190045
1	0x3f1760f5	0.5913232
2	0x3f24c8cd	0.643689
3	0x3f210a45	0.62906295
4	0x3f314490	0.69245243
5	0x3f1ac2c7	0.60453457
6	0x3f2d753f	0.6775703
7	0x3f2af8ad	0.667857

residual_tower.blocks.0.bn1.bias f4 [8]
0	0xbc1939f2	-0.009352194
1	0x3b3caf3a	0.0028790967
2	0x3d9f10fe	0.07766913
3	0xbd911ae1	-0.07085205
4	0x3d7b5c44	0.06136729
5	0xbdd2a6a7	-0.10285693
6	0x3cd6806e	0.026184287
7	0x3da3b09c	0.0799267

residual_tower.blocks.0.bn1.running_mean f4 [8]
0	0x3e219bb4	0.15782052
1	0xbdf5d838	-0.12004131
2	0x3dd363fc	0.10321805
3	0x3e2cebd0	0.1688683
4	0x3bb897f0	0.0056333467
5	0xbe2de6c2	-0.16982558
6	0x3c570936	0.013124755
7	0x3e710b5f	0.23539494

residual_tower.blocks.0.bn1.running_var f4 [8]
0	0x3dcca588	0.0999251
1	0x3d6b9637	0.057516303
2	0x3ddde6ed	0.10835061
3	0x3d3280c0	0.043579817
4	0x3da20a26	0.07912092
5	0x3db2383a	0.087021306
6	0x3d3211b7	0.043473925
7	0x3dcbf3db	0.09958621

residual_tower.blocks.0.conv2.weight f4 [8, 8, 3, 3]
0	0x3db3758c	0.08762655
1	0x3d0cd37d	0.03438138
2	0x3bf57c6c	0.007491639
3	0x3d61b211	0.055101458
4	0x3e079e90	0.1324408
5	0x3c5ada0d	0.013357651
6	0x3d85af53	0.06527581
7	0x3d2434f6	0.04008957
8	0xbb2ad97d	-0.0026069575
9	0xbc38901c	-0.011264827
10	0xbb957fc4	-0.00456235
11	0xbd22dc3a	-0.039760806
12	0x3cd0260d	0.025408769
13	0x3a63c9e7	0.00086894486
14	0xbd999b06	-0.075002715
15	0xbd872e55	-0.06600634
16	0xbce89527	-0.028391434
17	0xbd195615	-0.03743561
18	0x3d55c615	0.05219086
19	0xbd48cfa2	-0.04902614
20	0x3d1a0b8f	0.03760868
21	0x3dcd36e5	0.10020236
22	0xbdc0d3b2	-0.09415378
23	0x3c7303c8	0.0148324445
24	0xbd32bb47	-0.043635633
25	0x3d583ee3	0.05279435
26	0x3de488cc	0.111589044
27	0x3c16a6af	0.009195014
28	0xbd3ec609	-0.04657558
29	0xbdaee536	-0.08539812
30	0xbc90a7dd	-0.017658168
31	0xbc005f57	-0.007835231
32	0xbd143617	-0.036184397
33	0x3d08a54e	0.03336077
34	0xbd340a22	-0.043954976
35	0xbd3a8b22	-0.045542844
36	0x3d12b419	0.035816286
37	0xbded1a9a	-0.115773395
38	0xbd6372c8	-0.055529386
39	0x3e2df15f	0.16986607
40	0xbdba29f4	-0.09090033
41	0xbdd8d5a9	-0.105876274
42	0x3d9d6b61	0.076864965
43	0x3db14a7d	0.08656786
44	0x3dbd6b0f	0.092489354
45	0xbd8eb338	-0.06967777
46	0x3d0f7661	0.035025004
47	0x3d8776ee	0.06614481
48	0xbd99169d	-0.07475016
49	0xbd4ec731	-0.050482932
50	0x3cff628a	0.031174917
51	0xbcfa3955	-0.030544916
52	0xbd2db130	-0.042405307
53	0xbce50f8a	-0.027961511
54	0xbd4442de	-0.047915332
55	0xbd43669f	-0.04770529
56	0x3dd51f4c	0.1040636
57	0x3cc35620	0.023844779
58	0xbd53f16e	-0.051743917
59	0xbcf0c723	-0.02939183
60	0xbcc4dfee	-0.02403256
61	0x3de620ae	0.11236702
62	0x3d051cf2	0.032498308
63	0xbcdb3f90	-0.026763707
64	0xbc63adf5	-0.013896455
65	0xbb91e5ae	-0.004452429
66	0xbdf4e12b	-0.1195701
67	0xbda81678	-0.082074106
68	0xbc813c7d	-0.015775913
69	0x3d160287	0.036623504
70	0x3cf301e0	0.02966398
71	0x3c2e6c76	0.010645976
72	0xbd0d0653	-0.03442986
73	0xbd0cb0d5	-0.034348328
74	0x3d3a1c26	0.045437
75	0x3d9a50c0	0.07534933
76	0x3d9d9d49	0.076960154
77	0x3c30d5a5	0.010793124
78	0x3daf8549	0.08570344
79	0x3d68f11f	0.056870576
80	0x3cc0b4a1	0.02352363
81	0x3d8d5106	0.069002196
82	0x3d4591a3	0.048234593
83	0x3cfdb70e	0.030971076
84	0xbcc2c3e0	-0.023775041
85	0xbce9db72	-0.028547022
86	0xbcf2da43	-0.02964509
87	0xbd5f4c04	-0.054515854
88	0xbc3e44eb	-0.011613111
89	0xbd792e7d	-0.06083535
90	0xbcd19e1b	-0.025588086
91	0x3b5dd0d7	0.0033846402
92	0xbda00430	-0.07813299
93	0x3dfb678d	0.1227561
94	0x3d1f193a	0.038842417
95	0x3da16d01	0.07882119
96	0x3d1ed1ae	0.038774185
97	0xbd63e708	-0.05564025
98	0xbd8504fa	-0.0649509
99	0x3e0043e4	0.12525898
100	0x3c74568d	0.014913213
101	0x3ba9b0b9	0.0051785377
102	0xbca6e355	-0.020372072
103	0x3d11dcf8	0.035611123
104	0x3cc012df	0.023446498
105	0x3d6236b6	0.055227958
106	0x3defb5b9	0.11704583
107	0x39baa710	0.00035601156
108	0x3d18c676	0.037298642
109	0xbc9b1343	-0.018930083
110	0x3dbf8431	0.093513854
111	0xbd3831a3	-0.044969212
112	0x3cab78ea	0.02093168
113	0x3cfc2206	0.030777942
114	0xbdce2595	-0.10065762
115	0x3d50b1e9	0.05095092
116	0xbca9e1d5	-0.020737568
117	0x3cb24fad	0.021766508
118	0x3d359b46	0.044337533
119	0x3d2d07df	0.042243835
120	0xbd81ba0f	-0.06334316
121	0xbbffbfd0	-0.0078048483
122	0xbbf219af	-0.0073883156
123	0xbd6a03de	-0.057132594
124	0x3d6a6720	0.057227254
125	0x3cccef5f	0.025016485
126	0xbdd44862	-0.103653684
127	0xbd5ee0a1	-0.05441344
128	0xbdbb5aa3	-0.09148147
129	0xbce09e5b	-0.02741926
130	0xbcc01a51	-0.023450049
131	0xbc867bbf	-0.016416429
132	0x3de0a133	0.10968246
133	0xbdc96eb8	-0.09835571
134	0x398d8da7	0.00026999155
135	0x3da0caff	0.078512184
136	0x3cbd3301	0.02309561
137	0xbcc959b0	-0.0245789
138	0x3e1c4ecc	0.15264434
139	0x3c967734	0.018367387
140	0x3da10dc9	0.078639574
141	0x3d885f17	0.06658762
142	0xbda405b8	-0.08008903
143	0x3b8c30cd	0.0042782784
144	0xbc933360	-0.017968833
145	0xbcd8d65b	-0.0264694
146	0xbc97f1f9	-0.018547999
147	0xbbb61634	-0.005556846
148	0xbd41cd9a	-0.047315218
149	0xbdcbfce6	-0.09960346
150	0x39cdfdba	0.00039289688
151	0xbc823f9d	-0.015899474
152	0xbdbab756	-0.09117
153	0x3cca2cea	0.02467962
154	0x3d360196	0.044435106
155	0x3c9f2076	0.019424658
156	0x3ddcbc64	0.1077812
157	0x3d104b57	0.0352281
158	0x3dac2f18	0.0840742
159	0x3d805781	0.0626669
160	0x3d271eaf	0.040800747
161	0xbd0c83c4	-0.03430535
162	0x3d182a8d	0.037149955
163	0xbc940667	-0.01806946
164	0x3d571897	0.052513685
165	0xbca6cad8	-0.020360395
166	0xbbc0d456	-0.0058846874
167	0xbbba65d0	-0.0056884065
168	0x3cad494b	0.021153113
169	0xbbcf5b14	-0.006327996
170	0x3e0cd603	0.13753514
171	0x3ca60f4e	0.02027097
172	0x3d1b86e9	0.037970457
173	0x3c87bef0	0.016570538
174	0x3d2e3898	0.04253444
175	0x3d42538c	0.047442958
176	0x3c7030a8	0.014660038
177	0xbdd2484d	-0.102676965
178	0x3d02a3ef	0.03189462
179	0x3c51755a	0.012784326
180	0x3a8aa08c	0.0010576411
181	0xbd0c673e	-0.034278147
182	0xbd0fbf95	-0.035094816
183	0xbd72c980	-0.059274197
184	0xbd1bbec7	-0.038023736
185	0xbd546602	-0.051855095
186	0xbd7e4278	-0.06207511
187	0xbdca3830	-0.09873998
188	0xbda7232e	-0.08161007
189	0xbd8a2092	-0.067444935
190	0xbca778ee	-0.020443406
191	0x3d03ba8a	0.03216032
192	0x3cf14b9f	0.029455004
193	0x3c357b5c	0.011076774
194	0x3b0f16c1	0.002183363
195	0xbd17dd8b	-0.037076514
196	0xbd0c6d28	-0.034283787
197	0xbc42163e	-0.011846123
198	0xbdc4001e	-0.09570335
199	0xbd393632	-0.0452177
200	0xbbe44554	-0.0069662724
201	0xbd068f9a	-0.032851793
202	0xbd7bc200	-0.06146431
203	0xbd3ed88c	-0.046593234
204	0xbe043403	-0.12910466
205	0xbda82e97	-0.08212011
206	0xbdc925bf	-0.098216526
207	0x3d56815e	0.052369468
208	0xbd064ff5	-0.032791097
209	0xbc8511ec	-0.016243897
210	0x3d886cf0	0.06661403
211	0xbc0bb4e8	-0.008527018
212	0xbcabb466	-0.020960044
213	0x3b1fd9fc	0.0024391403
214	0x3ca97e87	0.020690216
215	0x3daec981	0.085345276
216	0xbd6a98bd	-0.05727457
217	0x3d8977e2	0.06712319
218	0x3cbc2050	0.022964627
219	0xbd16804a	-0.03674344
220	0xbba31dbb	-0.0049779094
221	0x3e096c93	0.13420324
222	0x3d18686c	0.03720896
223	0x3d3f26ec	0.04666798
224	0x3d823e47	0.06359535
225	0x3bbac5c2	0.005699844
226	0xbd68f9b5	-0.056878764
227	0x3cfdda8f	0.030988006
228	0x3a48286d	0.00076354184
229	0xbda8d14f	-0.082430474
230	0x39758aa8	0.00023416674
231	0x3cc1865e	0.023623642
232	0xbd4c0590	-0.049809992
233	0xbcd5d87d	-0.026104206
234	0x3ddedb38	0.108816564
235	0x3c9954e7	0.018717242
236	0xbc952504	-0.018206127
237	0x3ce09ffc	0.027420036
238	0xbd94e7d7	-0.072707824
239	0xbda126c7	-0.07868724
240	0x3cc98b63	0.024602598
241	0xbd90ae78	-0.07064527
242	0xbd3b369d	-0.04570638
243	0x3da5450d	0.08069811
244	0x3debe924	0.115190774
245	0x3e02a63e	0.12758729
246	0x3b7437c1	0.0037264677
247	0x3d7e5c9d	0.06210004
248	0xbb06b6e6	-0.0020555793
249	0x3cf667eb	0.030078849
250	0xba1ab49a	-0.00059015455
251	0xbc1d6ce8	-0.009608485
252	0xbbfbc93b	-0.0076839007
253	0xbd983ba2	-0.07433249
254	0x3d81a4d3	0.06330266
255	0x3d647d9a	0.055783845

residual_tower.blocks.0.conv2.bias f4 [8]
0	0xbb7b4fe3	-0.0038347177
1	0x3a107a3b	0.0005511378
2	0xb8f21aa0	-0.000115444185
3	0xbb910635	-0.0044257888
4	0xbba3fa34	-0.005004192
5	0xbba1a659	-0.0049331603
6	0xbad062d4	-0.0015898594
7	0xbb336e55	-0.0027378995

residual_tower.blocks.0.bn2.weight f4 [8]
0	0x3f19e971	0.6012183
1	0x3f1e0ffe	0.6174315
2	0x3f2c7b57	0.673757
3	0x3f1d4366	0.61430967
4	0x3f31b264	0.6941283
5	0x3f20a3c3	0.6274988
6	0x3f229286	0.6350483
7	0x3f32184c	0.69568324

residual_tower.blocks.0.bn2.bias f4 [8]
0	0x3da7bbd6	0.08190124
1	0x3d86bf5e	0.06579469
2	0x3d6b2fc9	0.05741862
3	0x3d55fa81	0.052240852
4	0x3d43c8cc	0.047798917
5	0xbc514541	-0.012772859
6	0x3cb3376a	0.02187701
7	0x3e20ebc6	0.1571494

residual_tower.blocks.0.bn2.running_mean f4 [8]
0	0x3c2a2d4f	0.010386779
1	0x3e538444	0.20655924
2	0xbe2a3de0	-0.16625166
3	0x3d6b5c3f	0.05746102
4	0x3e85f79b	0.2616547
5	0x3de72382	0.112860695
6	0x3d21a35f	0.039462443
7	0x3d0c1467	0.034199145

residual_tower.blocks.0.bn2.running_var f4 [8]
0	0x3d2e298f	0.042520102
1	0x3d9bf380	0.07614803
2	0x3d7f2ba2	0.06229747
3	0x3d5d0ff2	0.053970285
4	0x3da42044	0.08013967
5	0x3d60e260	0.054903388
6	0x3d4b6165	0.04965343
7	0x3dc4a9e4	0.096027166

residual_tower.blocks.1.conv1.weight f4 [8, 8, 3, 3]
0	0xbd770eb1	-0.060316745
1	0xbc93c9e8	-0.018040612
2	0xbd30b66d	-0.043142725
3	0x3c7af77b	0.015317793
4	0x3e34bd0d	0.17650242
5	0xbd1d5515	-0.03841122
6	0x3d8469fc	0.064655274
7	0x3d3f501f	0.04670727
8	0x3cd0b08d	0.025474811
9	0x3d0b2aa8	0.033976227
10	0x3cd1b8f5	0.02560089
11	0xbda364aa	-0.079781845
12	0x3bafef03	0.0053690686
13	0xbd54d672	-0.051962323
14	0xbd280e15	-0.041029055
15	0x3b08081d	0.002075679
16	0xbdd3a56a	-0.103342846
17	0x3be112b6	0.0068686856
18	0x3d97150c	0.07377061
19	0x3da3de2d	0.08001361
20	0xbd49e9a7	-0.049295094
21	0x3d8adde9	0.06780607
22	0x3c97b655	0.01851956
23	0x3d2af207	0.04173472
24	0xbc9a94fa	-0.018869866
25	0xbca77831	-0.020443054
26	0xbd9b21d1	-0.07574809
27	0x3b9794cf	0.0046258937
28	0x3cb3f459	0.0219671
29	0x3d02d6d7	0.03194317
30	0x3d92de14	0.07171264
31	0x3ccda3dc	0.025102548
32	0xbd86f7db	-0.065902434
33	0xbd2eded5	-0.042692978
34	0xbd25b7b1	-0.040458385
35	0xbd17c8ea	-0.03705684
36	0xbc5a125c	-0.013310041
37	0xbdf4d6d6	-0.11955039
38	0xbce49bd5	-0.027906338
39	0xbd092fba	-0.03349278
40	0xbbfc21b8	-0.0076944493
41	0xbc96922b	-0.018380245
42	0x3c1c2bc8	0.009531923
43	0x3d476955	0.048684437
44	0xbd1cfc94	-0.038326815
45	0xbcc9cbe8	-0.024633363
46	0xbd50b022	-0.050949223
47	0xbbfd29ab	-0.0077259145
48	0x3da8279a	0.082106784
49	0xbdaba89b	-0.08381768
50	0x3c75bb71	0.014998303
51	0x3d233792	0.039847918
52	0xb9d43e5a	-0.00040482247
53	0xbdb997d4	-0.09062162
54	0xbe0efcc5	-0.13963611
55	0xbdd563cd	-0.10419426
56	0xbca60827	-0.02026756
57	0xbda51bc4	-0.080619365
58	0xbd806e9c	-0.06271097
59	0x3d78f4a0	0.060780168
60	0x3d10da80	0.035364628
61	0xbdc1ff09	-0.09472472
62	0x3d988b8d	0.07448492
63	0xbb361275	-0.0027781997
64	0x3bc80be0	0.0061049312
65	0xbb0c949e	-0.0021450887
66	0xbafd888e	-0.0019343065
67	0x3d6b73b7	0.0574834
68	0x3ce72c66	0.028219413
69	0xbc79cf23	-0.015247139
70	0x3c2237c0	0.009900987
71	0xbd53edff	-0.051740643
72	0xbdaf4851	-0.08558715
73	0xbda019d9	-0.0781743
74	0xbd3a4ada	-0.04548154
75	0x3dc2860a	0.09498222
76	0xbd603dc5	-0.054746408
77	0xbd1444e0	-0.036198497
78	0xbc540ad1	-0.012942032
79	0x3d2648a7	0.04059663
80	0x3dab48f9	0.08363528
81	0x3cc1ca19	0.023655938
82	0xbdd12050	-0.10211241
83	0xbae8d096	-0.0017762359
84	0xbd1acbfc	-0.03779219
85	0xbd081535	-0.03322335
86	0xbb109b28	-0.0022065137
87	0xbd12cbfd	-0.03583907
88	0x3d9cc94e	0.07655583
89	0xbd754453	-0.059879612
90	0x3da39fb2	0.07989444
91	0x3c932529	0.017962055
92	0xbb14aed3	-0.0022687211
93	0xbc9ad66b	-0.01890107
94	0x3d459dc3	0.048246156
95	0x3d9fedb1	0.07809008
96	0xbd88e916	-0.066850826
97	0x3c03313a	0.008007342
98	0x3b8c0d0d	0.0042740167
99	0x3de42951	0.11140693
100	0xbd805856	-0.06266849
101	0x3c3b043a	0.011414582
102	0xbd8055a6	-0.06266336
103	0x3ca53df6	0.020171147
104	0x3ab61cd2	0.0013894087
105	0x3c421074	0.011844743
106	0x3d0927dd	0.033485282
107	0x3dc471f6	0.09592049
108	0xbdceaed0	-0.100919366
109	0x3c9cde7a	0.019149054
110	0xbd27b070	-0.04093975
111	0xbd9d845a	-0.0769126
112	0x3b7db079	0.0038709922
113	0x3cb53e0f	0.022124318
114	0x3decf477	0.115700655
115	0x3d9a84d5	0.07544867
116	0x3d30baf9	0.04314706
117	0xbcf98c35	-0.030462364
118	0x3d8abc32	0.06774177
119	0x3d215d41	0.039395574
120	0xbd69b49f	-0.05705702
121	0x39a35857	0.000311556
122	0xbb50eff9	-0.0031881316
123	0xbbbd2dd6	-0.0057732863
124	0x3d0519e6	0.0324954
125	0xbce16c39	-0.027517425
126	0xbd8374e3	-0.06418779
127	0xbb257bae	-0.002525072
128	0xbd07a8fe	-0.033120148
129	0xbcb1f84a	-0.021724839
130	0x3d419b3c	0.047267184
131	0xbdadc0c6	-0.08484034
132	0xbe03d45f	-0.12873982
133	0x3d848060	0.06469798
134	0x3bb2fb8e	0.0054621166
135	0x3cfc2a89	0.030782001
136	0x3db13617	0.08652895
137	0xbd18c3b0	-0.037295997
138	0x3daed503	0.085367225
139	0x3b08d8b2	0.0020881114
140	0xbd1b8d4a	-0.03797654
141	0x3d1ab312	0.03776843
142	0xbd9ab3a8	-0.07553798
143	0x3cce0dc4	0.025153048
144	0xbd3d083e	-0.04615044
145	0xbd7f207c	-0.06228684
146	0x3e00f0c2	0.12591842
147	0x3d89a747	0.06721359
148	0x3d14240e	0.036167197
149	0x3da562e1	0.080755
150	0x3d54e5d4	0.051976994
151	0x3e035d67	0.12828599
152	0x3d04eb57	0.032451
153	0xbc8e8c0d	-0.017400766
154	0xbc95f687	-0.01830603
155	0xbd034139	-0.032044623
156	0xbd6810fc	-0.056656823
157	0x3ca95f5d	0.020675356
158	0xbb8ea1cf	-0.004352785
159	0xbd8431c0	-0.064548016
160	0x3ddd86d7	0.10816734
161	0x3cd27c8f	0.02569416
162	0x3cf5a79c	0.029987149
163	0x3bcb8346	0.0062107174
164	0x3d8489fe	0.064716324
165	0x3bb3526d	0.0054724724
166	0x3c95eabc	0.018300407
167	0x3b86c480	0.00411278
168	0x3c9addb3	0.018904543
169	0xbd04e5c9	-0.032445703
170	0x3d14cfd9	0.03633103
171	0x3d0acc52	0.03388626
172	0x3dae7dcf	0.0852009
173	0x3d7d7e28	0.06188789
174	0xbd88cc72	-0.0667962
175	0x3de7a8f1	0.1131152
176	0xbb8b28df	-0.0042468156
177	0x3d4bc25a	0.049745895
178	0x3cb8371d	0.022487218
179	0x3db7e974	0.089800745
180	0xbcc2afc3	-0.02376545
181	0x3cac1f04	0.021010883
182	0xbd2b93e3	-0.041889083
183	0xbcfec2b2	-0.031098697
184	0x3d1772de	0.03697478
185	0xbcbc99a7	-0.023022486
186	0xbd4ad895	-0.049522955
187	0x3c30d788	0.010793574
188	0xbd4b4327	-0.04962459
189	0xbd345739	-0.044028495
190	0xbd491365	-0.04909076
191	0xbddfd5a7	-0.10929423
192	0x3d192b25	0.03739466
193	0x3d43b12a	0.04777638
194	0x3cd9562c	0.026530348
195	0x3dcb8dbf	0.09939145
196	0xbd0857cc	-0.033286855
197	0x3b87d610	0.0041453913
198	0xbd6bfbd0	-0.057613194
199	0xbc99be4c	-0.018767498
200	0xbdd69de5	-0.10479335
201	0x3d05dad0	0.03267938
202	0xbce85f4c	-0.028365754
203	0xbe111e8a	-0.14171806
204	0xbb374fdb	-0.0027971182
205	0x3d2b03ea	0.04175178
206	0x3c4a11c7	0.01233334
207	0x3ce54f32	0.027991865
208	0x3d8e1a90	0.0693866
209	0x3d9784fe	0.07398413
210	0x3cdd917a	0.027046908
211	0xbcaf560c	-0.021403335
212	0x3d10ae16	0.03532227
213	0x3bd13b1f	0.0063852216
214	0x3ab7f827	0.0014035747
215	0x3d30acd6	0.04313358
216	0xbd91fe2f	-0.0712856
217	0xbd915fc1	-0.07098342
218	0xbcf71c77	-0.03016494
219	0xbd557c26	-0.05212035
220	0xbd09de45	-0.03365924
221	0xbd9f1e69	-0.07769472
222	0x3d49ab8c	0.049235865
223	0xbc687050	-0.014186934
224	0x3b50c024	0.0031852806
225	0x3d12e379	0.035861466
226	0xbd36e1e7	-0.04464903
227	0xbd1ca9ee	-0.038247995
228	0xbc18bdca	-0.009322593
229	0x3ce28584	0.027651556
230	0x3dbc8645	0.092052974
231	0x3dc2ae72	0.09505929
232	0x3cbbd1ca	0.022927184
233	0x3e23a0aa	0.15979257
234	0x3e0ad5e4	0.13558155
235	0x3d28e453	0.041233372
236	0x3db1ecfa	0.08687778
237	0x3dd4f460	0.10398173
238	0x3daa9ec5	0.08331064
239	0x3d47ab3a	0.04874728
240	0x3d978ed5	0.0740029
241	0x3baf6d79	0.0053536263
242	0x3d591c0b	0.05300526
243	0x3b9e97f4	0.0048398916
244	0xbd9ce51e	-0.07660888
245	0xbd6a2401	-0.057163242
246	0xbd1d68ee	-0.038430147
247	0x3c7eed9e	0.015559582
248	0xbd7a141f	-0.061054345
249	0x3caf22f5	0.021378973
250	0xbd30a37f	-0.043124672
251	0x3d4a8246	0.049440645
252	0xbd99d011	-0.07510389
253	0xbd5669b0	-0.052346885
254	0xbe01b754	-0.1266759
255	0xbcf98f72	-0.030463908

residual_tower.blocks.1.conv1.bias f4 [8]
0	0xbb77812d	-0.0037766204
1	0xba264d67	-0.00063439313
2	0x3bf170ed	0.007368198
3	0x3af683ba	0.0018807568
4	0x3b96712d	0.0045911283
5	0x3b06087c	0.0020451834
6	0x3b9b242a	0.0047345357
7	0xbb3526be	-0.00276415

residual_tower.blocks.1.bn1.weight f4 [8]
0	0x3f1b0718	0.605577
1	0x3f18d2f5	0.59696895
2	0x3f233f9c	0.63768935
3	0x3f2d28fd	0.6764067
4	0x3f129ca0	0.5727024
5	0x3f172844	0.59045815
6	0x3f1b5f47	0.60692257
7	0x3f19e617	0.60116714

residual_tower.blocks.1.bn1.bias f4 [8]
0	0xbc0fa005	-0.008766179
1	0x3d889d63	0.06670644
2	0xbc2d77c4	-0.010587636
3	0x3df791a7	0.12088328
4	0x3d11e603	0.035619747
5	0xbccc812c	-0.024963938
6	0xbc4f831e	-0.012665538
7	0xbc51f3d4	-0.012814481

residual_tower.blocks.1.bn1.running_mean f4 [8]
0	0xbe7b5aee	-0.24546406
1	0x3d0f0175	0.0349135
2	0x3eaccd9b	0.33750615
3	0xbe2cfae7	-0.16892587
4	0x3d360dd3	0.044446778
5	0xbf637ed5	-0.88865405
6	0x3dec6b1a	0.115438655
7	0x3f4e2dae	0.8053845

residual_tower.blocks.1.bn1.running_var f4 [8]
0	0x3de216d3	0.110395096
1	0x3e318ca1	0.17338802
2	0x3e4a53eb	0.19758575
3	0x3ec8b044	0.3919698
4	0x3df1af09	0.118009634
5	0x3e8e5f85	0.2780725
6	0x3dba20fa	0.09088321
7	0x3ea8d95c	0.32978332

residual_tower.blocks.1.conv2.weight f4 [8, 8, 3, 3]
0	0xbda368f0	-0.079789996
1	0x3dc862aa	0.09784444
2	0xbd75641e	-0.059909932
3	0xbdc37f32	-0.09545745
4	0x3d5b47a5	0.053535122
5	0x3d0d3736	0.03447648
6	0x3d65a558	0.056065887
7	0xbc82aadc	-0.015950613
8	0x3c8bb675	0.017054776
9	0x3e160376	0.14649758
10	0xbd9be62a	-0.0761226
11	0xbb9106fa	-0.0044258805
12	0xbd0b3d4d	-0.033994008
13	0x3c743539	0.014905267
14	0x3aad35ba	0.0013214864
15	0x3b9344cf	0.0044942866
16	0xbd796536	-0.060887538
17	0x3c863272	0.016381476
18	0x3dff0d10	0.12453663
19	0x3c783739	0.015149885
20	0x3c8bb6e3	0.01705498
21	0x3d1e4b8a	0.03864626
22	0xbda632a7	-0.0811513
23	0xbd483b11	-0.048884455
24	0xbd56ab24	-0.052409306
25	0xbcf278b0	-0.029598564
26	0xbcdacbcf	-0.026708512
27	0xbd2b0aa9	-0.041758213
28	0x3d04359d	0.032277692
29	0xbd3d0802	-0.046150215
30	0xbd5719d5	-0.05251487
31	0xbb942e04	-0.004522087
32	0xbcecf634	-0.028925993
33	0xbaed13df	-0.0018087587
34	0x3cb695f9	0.02228831
35	0x3d41738f	0.047229346
36	0xbbe24742	-0.0069054672
37	0xbd13e794	-0.036109522
38	0x3d1402ad	0.036135364
39	0xbd80a09a	-0.06280632
40	0x3d21c794	0.039496973
41	0x3beaf4df	0.007170304
42	0x3d261418	0.040546507
43	0x3d2bba69	0.04192582
44	0x3dd910a6	0.105988786
45	0xbd6d8919	-0.057992075
46	0xbc4295d1	-0.011876539
47	0xbd108c0b	-0.035289805
48	0x3d659de7	0.05605879
49	0x3d705ab0	0.058680236
50	0xbcd98d7e	-0.026556727
51	0xbba32647	-0.0049789282
52	0x3ce9ea59	0.028554128
53	0x3de0b9da	0.10972948
54	0xbc7a19cb	-0.015264939
55	0xbcadcbd3	-0.021215355
56	0xbce9e5f9	-0.028552042
57	0xbd373f5c	-0.04473816
58	0x3ccf2a74	0.025288798
59	0x3e299947	0.16562377
60	0x3a73bf2c	0.0009298201
61	0x3c9b5d42	0.018965367
62	0xbc6fa0cf	-0.014625742
63	0xbe2671d2	-0.16254357
64	0xbcb9fd08	-0.022703663
65	0x3de30c1b	0.11086293
66	0x3d5bfc4d	0.05370741
67	0x3ca95f54	0.020675339
68	0xbcd393d4	-0.025827326
69	0x3d3ede86	0.046598934
70	0x3d0432f8	0.03227517
71	0xbd062114	-0.03274639
72	0x3cd3e559	0.025866197
73	0xbd155d24	-0.03646578
74	0xbd9e4bd1	-0.077293046
75	0x3c8f2403	0.017473226
76	0x3c8f042c	0.017458044
77	0x3d432ba7	0.047649052
78	0x3ca91a45	0.02064241
79	0xbcaf2091	-0.021377834
80	0xbd90ff95	-0.070799984
81	0x3d11c1fc	0.03558539
82	0xbd0a8fd0	-0.033828557
83	0xbd577729	-0.052603874
84	0x3e0188b3	0.12649803
85	0x3e124183	0.14282803
86	0xbc3ba096	-0.011451861
87	0x3dc02527	0.09382086
88	0x3a7a0f8f	0.00095390616
89	0xbd5cf397	-0.053943243
90	0x3db96e96	0.09054296
91	0xbd204f3f	-0.039138075
92	0xbd9ff13b	-0.07809683
93	0xbd45b89c	-0.04827176
94	0x3c7957b1	0.015218661
95	0xbd2357b5	-0.039878566
96	0x3ce63e63	0.02810592
97	0x3cb58e0e	0.022162464
98	0xbd8263a2	-0.0636666
99	0x3dabb83c	0.08384749
100	0x3d28e47a	0.041233517
101	0x3cadf72f	0.02123603
102	0x3d831246	0.0639997
103	0xbd7c5901	-0.06160832
104	0xbd3d2042	-0.04617334
105	0xbde7c4f4	-0.11316863
106	0xbbf4ee02	-0.007474662
107	0xbd00c6fb	-0.031439763
108	0xbd7cdff5	-0.06173702
109	0xbd1caf6a	-0.038253225
110	0xbd843002	-0.06454469
111	0xbcb0727f	-0.021538971
112	0xbd9595dc	-0.07303974
113	0x3d32bb5c	0.04363571
114	0xbc325791	-0.010885135
115	0xbd14dfd6	-0.03634628
116	0x3d73545b	0.05940662
117	0x3bd7e37a	0.0065883966
118	0xbc83b00b	-0.016075155
119	0xbc17df25	-0.00926951
120	0xbd0815d7	-0.033223953
121	0x3bb541ae	0.0055315113
122	0xbcd48b2d	-0.02594527
123	0xbcbca3e9	-0.023027377
124	0xbd391fa8	-0.045196205
125	0xbd42a9ac	-0.047525093
126	0x3c26901d	0.010166195
127	0x3d4bc8a9	0.04975191
128	0x3cdaf815	0.026729623
129	0xbcc2046c	-0.02368375
130	0x3bccd120	0.0062505156
131	0xbd980c67	-0.074242406
132	0x3e085f4b	0.13317601
133	0x3d3d29a3	0.046182286
134	0xbcce09d3	-0.025151169
135	0x3c9248c8	0.01785697
136	0xbcd03b94	-0.025419034
137	0xbcc0e649	-0.023547309
138	0xb9cf1859	-0.00039500257
139	0xbc91679c	-0.0177496
140	0x3d662a12	0.056192465
141	0x3ca71b2d	0.0203987
142	0x3d6f1ba9	0.05837599
143	0x3cfb879e	0.030704316
144	0x3cf69b36	0.030103307
145	0x3d9b3365	0.07578162
146	0xbd2638ae	-0.040581398
147	0xbb0f3e10	-0.002185706
148	0x3cfd8e6f	0.030951707
149	0x3c573c56	0.013136944
150	0x3da02389	0.07819278
151	0x3cd6b5b7	0.026209695
152	0xbc1d1adc	-0.009588923
153	0x3c89277a	0.016742457
154	0x3cbba0fb	0.02290391
155	0x3dc643b6	0.096808836
156	0xbd519854	-0.051170662
157	0xbccc03ec	-0.024904214
158	0x3c1451ca	0.009052703
159	0xbd26ff3b	-0.04077075
160	0xbd35517e	-0.04426717
161	0x3b1bb585	0.0023759317
162	0x3d768b68	0.060191542
163	0xbc7b6f42	-0.01534635
164	0x3d6a13d2	0.05714781
165	0xbc15cb7c	-0.009142753
166	0x3ccacc4a	0.024755616
167	0x3d0f6185	0.03500511
168	0xbcedae77	-0.029013855
169	0x3d42837d	0.04748868
170	0x3d1c3c48	0.038143426
171	0x3d6f5b41	0.058436636
172	0x3db8f897	0.0903179
173	0x3dadd3fd	0.08487699
174	0xbc938cd6	-0.018011492
175	0x3c3f2d05	0.011668448
176	0x3d8f1b29	0.06987602
177	0xbd7874cf	-0.060658272
178	0xbcd69a87	-0.026196731
179	0x3dec67aa	0.1154321
180	0xbc6bbcc3	-0.014388266
181	0x3d7b4eac	0.061354324
182	0x3c91a042	0.017776612
183	0xbd886059	-0.06659002
184	0x3d79be31	0.060972396
185	0xbbee48c9	-0.0072718603
186	0x3c81fea0	0.015868485
187	0xbd231a80	-0.039820194
188	0x3d277c88	0.040890247
189	0x3c828ed1	0.01593724
190	0x3d2bdba2	0.041957505
191	0xbd1a8814	-0.03772743
192	0x3ce94a9e	0.028477963
193	0x3b3632f6	0.0027801371
194	0x3cc0f596	0.023554605
195	0x3da0a261	0.07843471
196	0xbccf5af2	-0.02531192
197	0x3dae2ef5	0.0850505
198	0xbd46876e	-0.048469
199	0x3db1f7a2	0.0868981
200	0xbd1f5cf8	-0.03890702
201	0xbd825993	-0.06364741
202	0xbdb64b5b	-0.08901092
203	0x3cbf8e35	0.02338324
204	0xbd900c9c	-0.07033655
205	0x3d9bc9be	0.07606839
206	0xbce1c45d	-0.027559454
207	0xbd7262d0	-0.059176266
208	0x3d9ecdee	0.07754122
209	0xbae87f58	-0.0017738147
210	0xbbff0a3d	-0.007783203
211	0xbb90df78	-0.004421171
212	0x3c60bd5f	0.013717025
213	0xbcafc8fd	-0.021458143
214	0xbc87965d	-0.016551191
215	0xbc48a92c	-0.012247365
216	0xbd3f1ce8	-0.046658427
217	0x3da6d160	0.08145404
218	0x3c558192	0.01303138
219	0x3c2701c5	0.010193293
220	0x3cce3fea	0.025176961
221	0x3d89f8e1	0.06736923
222	0xbc29a693	-0.010354656
223	0xbcdbe620	-0.02684313
224	0x3d9d1f7b	0.0767202
225	0x3d9295ac	0.07157454
226	0x3dbae7b2	0.091262236
227	0x3c7b6c75	0.015345682
228	0xbda0f272	-0.07858743
229	0xbcb11704	-0.02161742
230	0xbc922c3e	-0.017843362
231	0x3dc9e138	0.0985741
232	0xba340d57	-0.0006868443
233	0xbda390fd	-0.07986639
234	0xbc934fb7	-0.017982347
235	0x3d9eab11	0.07747472
236	0x3c8d7d1a	0.017271567
237	0xbda1c7f0	-0.07899463
238	0x3ce7af3c	0.0282818
239	0x3d080899	0.033211324
240	0x3ddce299	0.107854076
241	0x3dd93d58	0.106074035
242	0x3c89c853	0.016819155
243	0x3c4cc77c	0.012498733
244	0xbcc5f564	-0.024164863
245	0x3ccac8f9	0.024754034
246	0x3d03e03c	0.03219627
247	0xbde6e5f4	-0.11274329
248	0xbcabcd81	-0.020972015
249	0xbd9ded25	-0.07711247
250	0xbddb38fc	-0.10704228
251	0x3cdab7ee	0.026699033
252	0xbce05d44	-0.027388223
253	0xbc9f4de2	-0.019446317
254	0x3d1df172	0.03856034
255	0x3c026db2	0.007960724

residual_tower.blocks.1.conv2.bias f4 [8]
0	0x3ba3c677	0.004998024
1	0x3a52311e	0.0008018183
2	0xbb2cf4e2	-0.0026391079
3	0x3a1f0833	0.00060665904
4	0xbb92e970	-0.0044833943
5	0xbb96cee0	-0.004602298
6	0x38da9081	0.00010421966
7	0xbba4a3c6	-0.005024406

residual_tower.blocks.1.bn2.weight f4 [8]
0	0x3f164125	0.5869315
1	0x3f1c0786	0.6094898
2	0x3f1accc0	0.60468674
3	0x3f134379	0.5752483
4	0x3f14d979	0.58144337
5	0x3f1cb2ce	0.61210334
6	0x3f1cd8a7	0.61268085
7	0x3f1c6a4a	0.61099684

residual_tower.blocks.1.bn2.bias f4 [8]
0	0x3d2f8261	0.04284895
1	0x3c97b6b2	0.018519733
2	0x3bc75664	0.0060832966
3	0x3d6f2409	0.058383975
4	0x3d6e7562	0.058217414
5	0xbcf61709	-0.03004028
6	0x3c4231ca	0.011852691
7	0x3dfaa543	0.122385524

residual_tower.blocks.1.bn2.running_mean f4 [8]
0	0x3d9348fb	0.07191654
1	0x3cf1bc7a	0.029508818
2	0x3e2f19df	0.17099713
3	0x3d9a4b5e	0.075339064
4	0x3dd82fa1	0.105559595
5	0xbd99ca4b	-0.075092874
6	0xbe845b21	-0.25850776
7	0x3d2f8d9a	0.04285965

residual_tower.blocks.1.bn2.running_var f4 [8]
0	0x3d04a37e	0.03238248
1	0x3d24c580	0.040227413
2	0x3d51d224	0.051225796
3	0x3d31a1e7	0.043367293
4	0x3dab2326	0.083563134
5	0x3cc7f8ef	0.024410693
6	0x3da3837e	0.079840645
7	0x3de95d80	0.11394787

residual_tower.blocks.2.conv1.weight f4 [8, 8, 3, 3]
0	0x3d3c9ee0	0.046049953
1	0xbc564c08	-0.013079651
2	0x3ccb941f	0.024850903
3	0x3c767fab	0.015045087
4	0xbcd5ab24	-0.026082583
5	0xbc252499	-0.010079526
6	0x3db8555c	0.09000656
7	0x3bea0b36	0.0071424497
8	0x3c42f954	0.011900265
9	0x3d3bd589	0.04585794
10	0x3dbbd22f	0.09170949
11	0x3d2b3d67	0.041806605
12	0x3e11c5cb	0.14235608
13	0x3d36acd6	0.044598423
14	0xbb40187a	-0.0029311464
15	0x3d3ec6e3	0.046576392
16	0x3d5772eb	0.05259983
17	0x3d74312d	0.05961721
18	0x3c83856a	0.016054828
19	0xbcb08a44	-0.021550305
20	0x3d6bd4ac	0.057575867
21	0x3d8225ad	0.06354842
22	0xbc0d8045	-0.008636539
23	0x3d4d6695	0.050146658
24	0x3cd5d4d2	0.026102457
25	0x3d0b0430	0.03393954
26	0x3d891af6	0.066945955
27	0x3cee4a91	0.02908829
28	0x3daafe6e	0.0834931
29	0x3b9685e3	0.0045935973
30	0xbc44b81e	-0.012006788
31	0xbd8b7fb6	-0.06811468
32	0x3a02d3c3	0.00049906614
33	0x3c3cd68f	0.011525764
34	0x3cc5c9d0	0.024144083
35	0x3c3a681d	0.011377362
36	0x3e108e59	0.14116801
37	0x3d0f9aa3	0.035059582
38	0xbd04247c	-0.032261357
39	0x3bb9cffe	0.0056705466
40	0x3d79a7c3	0.060951006
41	0xbb5245d2	-0.0032085073
42	0x3dc89434	0.097938925
43	0xbc6e76cc	-0.014554691
44	0x3d1ce3ec	0.0383033
45	0x3d31bd8f	0.043393668
46	0xbdb519a4	-0.08842781
47	0x3cc5d3e1	0.024148883
48	0xbcc70bce	-0.024297621
49	0xbd86c9c1	-0.0658145
50	0xbceab6b0	-0.028651565
51	0xbd5d899b	-0.05408631
52	0xbcf32825	-0.029682228
53	0x3c12c27a	0.0089575
54	0xbce1d048	-0.027565137
55	0x3d52759a	0.051381685
56	0xbc909dee	-0.017653432
57	0xbd91909b	-0.071076594
58	0xbd8c0f34	-0.06838837
59	0x3a7dc57c	0.00096806115
60	0x3d0439a8	0.032281548
61	0x3c96b50d	0.018396879
62	0xbcd9ee5d	-0.026602918
63	0x3d7f20e0	0.06228721
64	0x3d70c041	0.058777098
65	0x3d1aa546	0.037755273
66	0x3da6e8bc	0.08149859
67	0x3c8f8736	0.017520528
68	0xbd0567e2	-0.032569773
69	0x3c837898	0.016048715
70	0x3d3ddd93	0.046353888
71	0x3ce3d635	0.027812103
72	0xbcfc1e30	-0.030776113
73	0xbca1a929	-0.019733982
74	0x3b9ccc87	0.0047851237
75	0x3bb48850	0.005509414
76	0xbd595f76	-0.053069554
77	0x3d1c593d	0.03817104
78	0x3cee56f1	0.029094191
79	0xbcb81bc4	-0.022474177
80	0xbe03828b	-0.12842767
81	0xbce86f4f	-0.028373389
82	0x3d296456	0.041355453
83	0xbcda92ed	-0.026681388
84	0x3afff83b	0.0019528934
85	0xbd48353e	-0.0488789
86	0xbab1b153	-0.0013556875
87	0x3d21f24d	0.039537717
88	0x3c2cf234	0.010555793
89	0xbd0f66cc	-0.035010144
90	0x3cccd2fd	0.02500295
91	0x3cd6abad	0.026204908
92	0x3debfe0a	0.115230635
93	0x3c65d339	0.01402741
94	0x3a7bf7dd	0.00096118246
95	0xbcc8ce4f	-0.024512438
96	0x3c11d1cd	0.008900118
97	0xbca89e72	-0.020583365
98	0x3d6b96ef	0.05751699
99	0x3d7ec525	0.06219973
100	0x3d52f531	0.051503364
101	0xbc8a790f	-0.016903428
102	0x37bc597f	2.2453021e-05
103	0x3d9d8c27	0.076927476
104	0x3d974bc9	0.07387502
105	0xbc793ccc	-0.015212249
106	0x3b24b022	0.0025129397
107	0xbd22eba8	-0.03977552
108	0x3d4f9f4a	0.05068902
109	0xbcec7686	-0.02886511
110	0xbc11aad3	-0.008890825
111	0x3c8eb425	0.017419884
112	0x3ddad836	0.1068577
113	0x3e12478f	0.1428511
114	0xbd1fb03c	-0.03898643
115	0x3d3ff333	0.046862792
116	0xbad9e03f	-0.0016622617
117	0x3bde3294	0.0067809317
118	0xbc9c8414	-0.019105949
119	0xbd477017	-0.04869088
120	0xbdacf20a	-0.08444603
121	0xbd251895	-0.040306646
122	0xbd0bcb05	-0.03412916
123	0x3c847807	0.016170515
124	0x3a9babed	0.0011876799
125	0x3ce39077	0.027778847
126	0xbd04c8d4	-0.032418087
127	0xbc07af18	-0.008281492
128	0xbdd376b0	-0.10325372
129	0xbd6cf9db	-0.05785547
130	0x3c94b858	0.018154308
131	0xbd2807d0	-0.041023076
132	0xbd0fbdb4	-0.035093024
133	0x3d0384ae	0.032108955
134	0xbd312467	-0.043247607
135	0x3d13a8b7	0.03604957
136	0xbbed78eb	-0.0072470806
137	0x3dd5deb7	0.1044287
138	0x3b84ed34	0.004056597
139	0x3da453f9	0.08023829
140	0x3d16ece5	0.036847014
141	0x3ce56ddf	0.028006492
142	0xbb8831d6	-0.0041563315
143	0xbd15b42a	-0.03654877
144	0x3c176879	0.009241217
145	0xbd774efa	-0.060378052
146	0xbd976eaf	-0.07394158
147	0xba72ccc0	-0.00092620775
148	0xbd8dd7dd	-0.06925938
149	0x3ae90c03	0.0017780069
150	0xbd6bbe24	-0.05755438
151	0xbd83b9cb	-0.064319216
152	0x3981896a	0.0002470718
153	0x3ce68897	0.028141303
154	0x3d26bbaa	0.040706314
155	0xbd15d913	-0.03658397
156	0x3cb10d46	0.021612775
157	0x3d9bf63e	0.07615326
158	0x3d68a917	0.05680188
159	0x3cee6677	0.029101593
160	0x3dcea72f	0.100904815
161	0x3d8c3f96	0.068480656
162	0x3cb3fcfa	0.021971215
163	0xbb1b8b4f	-0.0023734157
164	0x3cda7e32	0.026671503
165	0x3b8e0aaf	0.0043347697
166	0x3ccd288a	0.025043745
167	0xbb9aff40	-0.004730135
168	0xbccecd43	-0.02524436
169	0x3bee3273	0.0072691976
170	0xb93e112e	-0.00018126212
171	0xbd81591b	-0.06315824
172	0xbcc9f9f3	-0.024655318
173	0xbd74e017	-0.05978402
174	0xba485912	-0.0007642667
175	0x3ca5d198	0.020241544
176	0xbd32e5db	-0.04367624
177	0x3d83dd94	0.06438747
178	0x3d60b626	0.05486121
179	0x3cd22370	0.025651664
180	0xbd50121b	-0.050798517
181	0x3cbf5d5f	0.023359952
182	0xbd785105	-0.06062414
183	0x3ce9bb8a	0.028531808
184	0xbb8d77b7	-0.0043172496
185	0x3bc18122	0.0059052864
186	0x3de03ffd	0.10949705
187	0x3c34a34b	0.01102526
188	0x3d31d5e2	0.043416865
189	0x3d32d6f6	0.043662034
190	0x3d90ab9f	0.07063984
191	0xbcd30626	-0.025759768
192	0xbc58412a	-0.01319913
193	0x3d3046ed	0.04303639
194	0xbca5f57a	-0.020258654
195	0x3d83f591	0.064433224
196	0xbc2010e6	-0.009769654
197	0x3c245e3f	0.010032236
198	0xbcb57be3	-0.0221538
199	0xbceb6761	-0.028735818
200	0xbd3f65f7	-0.0467281
201	0xbd436c85	-0.047710914
202	0x3c8d4f70	0.017249793
203	0xbd883aa8	-0.06651813
204	0xbd0f38ca	-0.034966268
205	0x3cbefd82	0.023314241
206	0xbce899d3	-0.028393662
207	0x3dad8619	0.08472843
208	0x3c34a5d6	0.0110258665
209	0x3d31a479	0.043369744
210	0x3c462f17	0.012096188
211	0xbcb2ca2e	-0.021824922
212	0x3cd3cc2a	0.025854189
213	0x3b11da62	0.002225541
214	0xbd524343	-0.051333677
215	0xbcdf088b	-0.027225753
216	0x3d10c774	0.035346463
217	0xbb90fde5	-0.004424798
218	0xbd8a1dc5	-0.06743959
219	0x3d8a7d73	0.06762209
220	0x3d27fd39	0.041012976
221	0xbc0d2034	-0.008613635
222	0x3a7abd83	0.00095649826
223	0xbdb1c6c7	-0.08680492
224	0x3afc2be9	0.001923916
225	0xbd469c07	-0.048488643
226	0x3cce2bd8	0.02516739
227	0x3cdf0f68	0.027229026
228	0xbd2cb071	-0.042160455
229	0xbca75524	-0.02042634
230	0xbccd1b8e	-0.025037553
231	0xbd1b372a	-0.037894405
232	0xbc08a8f4	-0.008341063
233	0x3b130050	0.0022430606
234	0xbcdfb5c5	-0.027308354
235	0xbc28fa98	-0.010313652
236	0x3cffff09	0.03124954
237	0x3c3f0a70	0.011660203
238	0xbd185e99	-0.03719959
239	0xbbcade5f	-0.0061910595
240	0x3c62734f	0.013821437
241	0xbd6ca932	-0.057778545
242	0xbca03bf4	-0.019559838
243	0x3bc9597b	0.0061447
244	0x3d5097e6	0.05092611
245	0x3d40aa03	0.047037136
246	0xbd8c67f2	-0.068557635
247	0x3d652001	0.055938724
248	0xbd737297	-0.059435453
249	0xbd9d7c20	-0.076896906
250	0xbc5d67ea	-0.013513545
251	0xbd168ff6	-0.036758386
252	0x3cc1c4e2	0.023653451
253	0x3c2345d8	0.0099653825
254	0x3d5ca967	0.053872492
255	0x3d1b1923	0.03786577

residual_tower.blocks.2.conv1.bias f4 [8]
0	0xbab961c7	-0.001414352
1	0xbb0238fc	-0.001987039
2	0x3a1493ab	0.0005667756
3	0xbba9ecc1	-0.005185694
4	0xbb492d6a	-0.0030697235
5	0x3bfcbbaf	0.0077128033
6	0xbb9dc11b	-0.0048142797
7	0xbb8d9fff	-0.0043220515

residual_tower.blocks.2.bn1.weight f4 [8]
0	0x3f1d6339	0.61479527
1	0x3f1477b5	0.5799516
2	0x3f16235a	0.5864769
3	0x3f1f6acf	0.6227235
4	0x3f19259c	0.5982301
5	0x3f162f9b	0.5866639
6	0x3f141b4b	0.57854146
7	0x3f1d5649	0.61459786

residual_tower.blocks.2.bn1.bias f4 [8]
0	0x3d102e75	0.035200555
1	0xbaddc26b	-0.0016918903
2	0x3c30e40c	0.010796558
3	0x3be60ac7	0.0070203277
4	0xbc76588d	-0.015035761
5	0x3bc2c8f7	0.005944367
6	0x3baa0b7c	0.0051893573
7	0x3d12fb45	0.03588416

residual_tower.blocks.2.bn1.running_mean f4 [8]
0	0x3f68a1bc	0.9087179
1	0x3e3edad9	0.18638171
2	0x3e275bcd	0.16343613
3	0xbd8e13cb	-0.06937369
4	0x3d460af8	0.048350304
5	0x3f17e52c	0.59334064
6	0xbed49bd8	-0.4152515
7	0x3ea638bd	0.32465163

residual_tower.blocks.2.bn1.running_var f4 [8]
0	0x3f137eb7	0.57615227
1	0x3e6f7aa8	0.23386633
2	0x3f00c572	0.5030128
3	0x3e4c6e0b	0.19963853
4	0x3e4f7205	0.20258339
5	0x3f0c9adc	0.54923797
6	0x3ef8072b	0.4844297
7	0x3ea57e30	0.32322836
