model_confused_dragon_34.pth (torch, 153384 bytes, 83 tensors)

input_conv.conv.weight f4 [8, 2, 3, 3]
000000 fb 20 5c 3e bf fb 6f bd 67 8a e2 bd d6 bb 99 3e
       0.21496956 -0.058589693 -0.110615544 0.3002612
000010 c9 02 b2 bc 66 32 ca 3c 55 a9 0d 3d 6c 56 31 3d
       -0.021729844 0.024682235 0.034585316 0.04329531
000020 24 78 52 bd 72 8b b6 be 24 9e 78 bd d6 5c 0b bd
       -0.051384106 -0.35653263 -0.06069769 -0.034024082
000030 bd f9 b7 be de ac fb bc a7 44 5b bd 0e 12 cf 3d
       -0.35932723 -0.030722078 -0.05353227 0.101108655
000040 09 0e 5a bd 21 08 2a bd f5 c0 e8 3d d3 58 c1 bc
       -0.05323604 -0.04151166 0.11364929 -0.023601925
000050 67 d3 18 3a a1 46 81 be 18 76 1d be b8 c3 ee bd
       0.0005829841 -0.25249198 -0.1537708 -0.11658424
000060 52 b2 10 be c8 44 b6 bd 8d f9 83 3c af 5a 18 3d
       -0.14130524 -0.08899838 0.016110206 0.037195858
000070 d3 f7 5f 3c 7b 29 9f 3d 57 0f 9a 3e af a5 c7 3d
       0.013669926 0.07771584 0.30089828 0.097483985
000080 48 d2 c7 3d fe 3c 40 3e be 6e 61 bc 24 aa 05 be
       0.09756905 0.18773267 -0.013759313 -0.13053185
000090 12 ed 34 bd 6f 99 83 bd 2a 55 c1 3d 25 f3 86 bd
       -0.0441714 -0.064257495 0.09440072 -0.06589345
0000a0 7e 5f b1 bd bd 7a 0a 3e 96 f4 e1 3d 0c 26 36 3e
       -0.08660792 0.13523383 0.11032979 0.17787951
0000b0 9a 96 36 3e cc 21 ac 3d 92 02 6c bc 75 0e c8 bd
       0.17830887 0.08404884 -0.01440491 -0.097683825
0000c0 6f b5 9b 3d fa 4b ea bd 38 e5 97 bd 22 79 85 be
       0.07602965 -0.11440273 -0.07416767 -0.2606898
0000d0 9a ef 22 be 54 7b ad be 27 ee 99 3d 8a e4 0c bd
       -0.15911713 -0.33883154 0.07516127 -0.03439764
0000e0 5d 49 23 bd 79 bb 12 be 96 1c bb be 37 fc 66 3d
       -0.039864887 -0.14329328 -0.36545247 0.056392875
0000f0 de db dd 3d 7a 2f 11 be 0a b4 12 bb 0d de a7 bd
       0.10832952 -0.14178267 -0.0022385144 -0.0819665
000100 4d ee 54 3e fd 11 18 3d d3 f7 b6 3d 9e aa 7b 3e
       0.2079403 0.03712653 0.089339875 0.24576804
000110 59 bc 44 bd 42 23 81 bd e3 4a be bc 59 69 02 3e
       -0.048031185 -0.06305553 -0.023229068 0.127355
000120 0d 77 41 3b 3f 09 2d bd bb 32 ce 3c bc 74 a4 3c
       0.0029520423 -0.042245146 0.025170675 0.020075195
000130 6a 5a 81 be fc 67 b6 3d f3 22 84 be 9f ce b2 3b
       -0.25264293 0.08906552 -0.25807914 0.00545676
000140 01 fe 1b be 85 e8 1d bd b4 b8 82 bd 96 55 b7 3c
       -0.15233614 -0.038551826 -0.063828856 0.022379678
000150 5e 2c 9b 3d 74 84 67 be 36 94 bd 3d 6c f7 05 3e
       0.07576822 -0.2260912 0.092567846 0.13082665
000160 37 af eb 3c 9d 16 dd 3b 7a 89 7f bd ed 17 3b bd
       0.028770072 0.0067470805 -0.062386967 -0.045677114
000170 a8 06 80 3d ae 5e 7b be d0 fb bd bd dd 2d 23 be
       0.062512696 -0.24547836 -0.09276545 -0.15935464
000180 a2 5f 07 3d ba 79 8c 3c 50 1b 35 be 6b a3 f6 3d
       0.033050187 0.017147887 -0.176862 0.12042888
000190 55 0b 26 3d 1a 08 6b 3b 87 48 04 3e 34 01 81 3d
       0.04053815 0.0035862983 0.12918292 0.062990576
0001a0 3c d2 4b 3e a0 55 30 bc 62 4d 2e be 34 b8 94 3e
       0.19904417 -0.010762602 -0.17021707 0.29046786
0001b0 d2 a4 b3 be f5 74 58 bc ce a3 97 bc 26 40 94 3e
       -0.35086685 -0.0132114785 -0.018510725 0.2895519
0001c0 b8 a0 4d 3d bb c8 31 3c ab a3 41 3d cb 26 3e bc
       0.0502021 0.0108510805 0.047275227 -0.011605929
0001d0 60 be 05 bd 59 43 77 be 97 b4 a3 bc 12 d7 e5 bb
       -0.03265226 -0.24146785 -0.019983573 -0.007014164
0001e0 80 9b 9e 3e e5 19 29 3d da dc d5 3c cd 8c 55 3d
       0.30978012 0.04128446 0.026106287 0.05213623
0001f0 ec 14 bd 3c 8e 32 85 bc 7e 08 bf bd a1 9e 15 3b
       0.023081265 -0.016259458 -0.09327792 0.0022830146
000200 1c 49 8e bc 75 6e 9b 3d 9b 05 14 3d c6 02 26 3e
       -0.017368846 0.075894274 0.03613816 0.16211995
000210 b5 33 fd 3c b6 06 a4 3e 12 51 04 be ca 66 36 3d
       0.030908445 0.3203637 -0.12921551 0.04453162
000220 94 b1 ad 3d 13 f9 18 3d fd 64 3b be d7 5c 81 bd
       0.08481136 0.03734691 -0.18300243 -0.06316536
000230 82 25 cd bd ba f3 83 3d e7 02 0f be 06 dc aa 3d
       -0.1001692 0.064429715 -0.13965951 0.083427474

input_conv.conv.bias f4 [8]
000000 a1 8e b2 b6 85 76 3c b7 ca 8d a4 36 6f ff 26 37
       -5.3214176e-06 -1.1233268e-05 4.9040873e-06 9.953844e-06
000010 4b 85 0f b7 69 fb 3f 37 ba c0 aa 36 d6 a2 2f b7
       -8.554499e-06 1.1443023e-05 5.088831e-06 -1.0468726e-05

input_conv.bn.weight f4 [8]
000000 d2 aa b6 3e 46 3d a6 3e ae 4e c5 3e 5c 20 c7 3e
       0.356772 0.32468623 0.3853659 0.38891876
000010 88 19 8d 3e d1 97 95 3e d4 d7 58 3e ef ef 90 3e
       0.2755854 0.2921739 0.21176082 0.28308055

input_conv.bn.bias f4 [8]
000000 75 fa 90 3d 82 57 ec bd 82 d4 85 bd 65 5a c1 3d
       0.07079021 -0.11540128 -0.06534673 0.094410695
000010 3d c5 40 3e 06 8d 67 bd 64 ad 0c bd 1c 4f a1 3d
       0.1882524 -0.056530975 -0.034345046 0.07876417

input_conv.bn.running_mean f4 [8]
000000 0b bc 87 bd b6 ed 76 3b 30 6f 88 bd b5 cf 23 bb
       -0.06627663 0.0037678308 -0.06661832 -0.002499563
000010 79 45 9e bd 10 d4 ad bb 3a 3c 45 3d 7a 01 9a 3c
       -0.077280946 -0.005304821 0.04815314 0.018799532

input_conv.bn.running_var f4 [8]
000000 3b 15 20 3d a1 f3 e9 3c 85 a1 14 3d f8 65 1e 3d
       0.039082747 0.028558554 0.03628685 0.038671464
000010 86 b2 c6 3c ad 0e 08 3d 34 00 24 3c a4 b7 12 3d
       0.024255048 0.03321712 0.010009814 0.035819665

residual_tower.blocks.0.conv1.weight f4 [8, 8, 3, 3]
000000 e7 00 f8 bc f2 85 d1 bd 8b 5f 38 bd 11 64 be bd
       -0.030273868 -0.10230626 -0.045012992 -0.0929643
000010 fa 90 03 bd 2c 77 8c bd 57 f4 32 3d 24 4b 04 bd
       -0.032120682 -0.06858668 0.043690052 -0.032298222
000020 e6 1c 83 3c 71 17 b7 bc 0f 7e 3b bd 62 9c 06 bd
       0.01600499 -0.022350045 -0.045774516 -0.032863982
000030 cb 9d df bc 8e 3a c3 bd f5 d0 12 3d 8f 28 79 bc
       -0.027296921 -0.09532653 0.03584381 -0.015207424
000040 34 4e d6 3c f2 5a 22 bd 7c be 2a bd bd 8a e7 3b
       0.026160337 -0.039637513 -0.041685566 0.0070660994
000050 81 d4 95 3c 44 bb 42 bd a3 3f 2a be 91 d1 9f bd
       0.018289806 -0.04754187 -0.16625838 -0.078036435
000060 43 0f b7 3d 24 cf b7 bc 9f 5f 72 bd 72 0f 1e 3e
       0.08938458 -0.02243764 -0.059173223 0.1543558
000070 11 5a 0e bd c1 f7 7f bc a6 7b 63 bd ec e7 88 bc
       -0.034753863 -0.015623034 -0.055537842 -0.016712151
000080 b4 ea 27 3e f8 f0 87 bc c8 7b 58 3c 51 f8 ad 3d
       0.16398126 -0.016594395 0.0132131055 0.08494628
000090 a4 e8 83 3d f6 64 9f 3a d7 1d 6c bd ff 17 5f 3c
       0.06440857 0.0012160826 -0.057645645 0.013616561
0000a0 61 3a 11 3a 48 08 ef bc de 82 74 3d ff 3a 08 3d
       0.000554001 -0.029178753 0.059695117 0.033259388
0000b0 b6 48 7b bd 9f 0e e6 3c c6 08 46 bd b9 b5 1d bd
       -0.06134864 0.028083144 -0.04834821 -0.038503382
0000c0 a2 4f dc 3c e3 85 14 3d 0e 21 1e bd d3 46 19 bd
       0.02689344 0.036260497 -0.038605742 -0.03742106
0000d0 25 13 c3 3c fb aa 44 bd 34 21 1f bb 52 93 81 3d
       0.02381284 -0.048014622 -0.0024281265 0.06326927
0000e0 03 8c 3e bc 29 03 f1 bc a8 23 a8 bb f4 c3 4e 3e
       -0.011630061 -0.029420452 -0.0051312037 0.20191938
0000f0 bc 7f b3 bc a6 0c fc bd a8 44 14 bc d1 25 cd 3d
       -0.021911494 -0.123071 -0.009049572 0.100169785
000100 76 d6 db bc 02 16 12 bd b9 64 aa bd ed a6 c6 3d
       -0.026835661 -0.03566552 -0.083199926 0.09699807
000110 a8 2d b1 bd 70 2e 5b bd db bc 5a bb 97 73 83 3b
       -0.08651286 -0.053511083 -0.0033376727 0.004011582
000120 cc 6a eb bd 28 b0 91 bd 97 ea 0b 3e 41 f3 f1 bc
       -0.11494979 -0.07113677 0.13663708 -0.029534938
000130 32 c5 01 bd 50 36 a1 bd 0e 3d f3 bc af ff 45 3d
       -0.0316822 -0.078716874 -0.0296922 0.048339542
000140 61 f5 cc 3d 65 3d ef 3d ce d3 65 3d 3b 2c 46 bd
       0.1000774 0.11681632 0.056110196 -0.048382025
000150 39 4e b8 3d a8 57 ab bd ba dc 23 3d 10 ce 85 3c
       0.08999295 -0.083663285 0.040005423 0.01633361
000160 05 06 c2 3c 4b e4 07 bb 81 e1 ce bd 95 11 50 bd
       0.023684511 -0.0020735438 -0.10101605 -0.050798018
000170 33 33 55 3d d6 1e 77 3d b2 96 8b bd b4 5e ad bc
       0.05205078 0.06033214 -0.06815852 -0.021163322
000180 d7 76 4a 3c c8 a5 06 bd 5a 2e 25 3c b2 e9 41 3e
       0.012357435 -0.032872945 0.010081852 0.18936804
000190 53 51 36 be 54 cd 61 3d 1d 37 2a bd 1c b8 a2 bc
       -0.1780446 0.055127457 -0.041556466 -0.01986318
0001a0 4e b3 8a bc f8 63 1c 3e a9 55 cb 3c 7e 4c 40 3c
       -0.016931202 0.1527251 0.02482112 0.011736987
0001b0 39 ed 10 3e 5a b0 d9 bc 40 62 4d bc d5 29 13 3d
       0.14152993 -0.026573349 -0.012535632 0.035928566
0001c0 a3 4f 67 3d 6a f3 95 3b c9 81 7b 3d c9 4b 09 3d
       0.056472432 0.0045761364 0.06140307 0.03351954
0001d0 e6 e0 ee ba 45 4e 9a bc f4 c7 5a 3d d9 69 1f bd
       -0.0018224984 -0.01883615 0.053413346 -0.038919304
0001e0 bb 0a 09 3e cb 32 d0 3d b0 af 94 bd de 09 a8 bc
       0.13383 0.10165938 -0.07260072 -0.020512518
0001f0 62 ff e9 3c af ba 17 bd ed c0 b4 3c c7 6c 75 3d
       0.028564159 -0.03704327 0.02206465 0.05991819
000200 dd 36 13 be 52 9b f7 bb 69 02 68 3d 5b 3e 07 bd
       -0.14376397 -0.0075563574 0.056642924 -0.03301845
000210 1b b7 28 3d d0 a9 f8 bc 17 37 d2 bb f5 69 5d bd
       0.041190248 -0.03035441 -0.0064152586 -0.054056127
000220 c4 7e 8b 3d bd c2 54 3e 81 7c 5e bd bd 9e 38 3e
       0.06811288 0.20777412 -0.054317955 0.18029304
000230 82 38 32 bd 49 02 f8 bd c6 73 c8 3d 73 dd dc bb
       -0.04351092 -0.12109811 0.09787707 -0.006740266
000240 6c 32 21 bd 23 ed a9 bc ab 73 b6 3d 65 15 b6 3d
       -0.039354727 -0.020742958 0.08908781 0.088907994
000250 95 aa 3c bd 48 6f a9 bd 19 0f a8 bc 62 d6 01 be
       -0.046061117 -0.08273178 -0.020515012 -0.12679437
000260 94 b7 1e be 09 98 8e 3c ce 4b c8 ba d6 39 37 be
       -0.15499717 0.01740648 -0.0015281381 -0.17893156
000270 29 fc d7 bc 55 b3 64 bd 6d 75 bb 3d 0f d2 c7 3d
       -0.026365357 -0.055835087 0.091532566 0.09756862
000280 2c 87 f5 bd cc 60 27 bd dd 22 a8 3d 71 33 1a 3d
       -0.119886726 -0.040863797 0.08209775 0.037646715
000290 92 d6 a5 3e 70 10 05 bc 46 02 35 bc 0d fb 26 3d
       0.32390267 -0.008121595 -0.011047905 0.040766764
0002a0 e3 1e 42 bb 10 98 0f 3c 9f 9c d7 bc a9 eb fe bc
       -0.002962046 0.008764282 -0.0263198 -0.03111823
0002b0 7c 31 86 3d 91 93 ab bd c4 94 3b bc 59 fc f8 bd
       0.06552407 -0.083777554 -0.011449043 -0.121575065
0002c0 37 f6 97 bd 90 74 2d bd cc 34 37 bd ec 18 1b bc
       -0.07420009 -0.04234749 -0.044728085 -0.009466391
0002d0 06 80 a5 3d 3e 4b 98 3d 40 db 0f 3d 32 35 2b 3e
       0.08081059 0.07436226 0.035121202 0.16719511
0002e0 b5 49 c4 3d 89 78 1c be 38 fa ae 3b d3 02 87 bd
       0.09584371 -0.15280356 0.005339887 -0.065923356
0002f0 7f b1 e5 bc dd 62 3b bd 4e db 24 bd f7 e1 04 3d
       -0.028038738 -0.04574858 -0.040248208 0.03244206
000300 9c 4e 5d 3c 16 9a 2c bc 51 6a 2c 3e 5f c6 72 3d
       0.0135075115 -0.010534784 0.16837431 0.059271213
000310 3b e8 de 3c 68 de 54 bd b9 4b 8f 3c 28 23 be bd
       0.027210345 -0.051969916 0.017492162 -0.09284049
000320 0e 88 bc 3d 18 aa 81 bd ef cb 91 bd 28 5d 1a 3e
       0.09205638 -0.06331271 -0.07118975 0.15074599
000330 12 db 96 bc ae 26 b0 bd b6 d4 9d 3d 94 37 c6 bd
       -0.018415008 -0.086011276 0.07706587 -0.096785694
000340 19 e0 50 bd 54 e9 e9 bd fc a9 38 bd 0f 55 a1 bd
       -0.050994966 -0.11421457 -0.045083985 -0.07877552
000350 b9 9a aa bb f7 51 af bd 7a ae 23 bd 21 36 51 bd
       -0.0052064327 -0.085605554 -0.039961316 -0.051077012
000360 fb 2b 1e 3c a5 29 30 3d 57 12 de bc f1 5c 19 bd
       0.00965404 0.043008465 -0.027108354 -0.03744215
000370 c6 3c 70 3d 6d 49 a4 bc c5 c8 77 3c 6c 57 7b 3b
       0.058651708 -0.020054543 0.015123551 0.0038351668
000380 cc b1 4b 3c 8e b5 2a bd 9f e6 e2 bc 35 02 8e bd
       0.012432527 -0.04167705 -0.02769786 -0.06934015
000390 7c 21 86 3e 5c 22 8e 3e 07 fa 15 3e 59 fd 8c 3d
       0.26197422 0.2776059 0.14646159 0.0688426
0003a0 68 b3 33 be 89 39 63 3d 69 93 73 bc e9 a4 2c 3d
       -0.17548907 0.05547479 -0.014866688 0.042149458
0003b0 22 34 ff bc c5 0f 5d be 69 05 ca 3b f6 52 af bc
       -0.031152789 -0.21588047 0.0061651957 -0.021401864
0003c0 b9 62 6a bd 1d 49 cc 3c fc 18 45 bd aa c8 92 bd
       -0.057223056 0.024937207 -0.04811953 -0.0716718
0003d0 92 3d e4 3c 2f 08 03 3d f1 35 b9 3d 40 3d ae 3d
       0.02786139 0.031990226 0.09043492 0.08507776
0003e0 09 ce e2 3d 54 3a 14 3c c9 26 ca 3b 72 5c c0 bd
       0.11074454 0.00904711 0.0061691743 -0.093926325
0003f0 7a e8 ca 3d bd 8f 0f 3e c3 d0 f0 3d aa 4d f1 bc
       0.09907623 0.14019676 0.11758568 -0.029455978

residual_tower.blocks.0.conv1.bias f4 [8]
000000 d2 4d 04 b5 e4 65 5e 36 f4 be 12 38 d3 63 6a b8
       -4.9287075e-07 3.3139886e-06 3.498695e-05 -5.5882916e-05
000010 37 39 dd b6 b9 c1 d9 35 68 93 dc 38 10 7a 16 37
       -6.592974e-06 1.6224141e-06 0.00010517874 8.969117e-06

residual_tower.blocks.0.bn1.weight f4 [8]
000000 1c 72 37 3e 40 b8 46 3e ae 85 20 3e 82 e9 3c 3e
       0.17914623 0.19406223 0.15675995 0.18448451
000010 96 9b 3e 3e 9f ff 3e 3e 9a 61 23 3e fe 39 30 3e
       0.18614039 0.18652199 0.15955201 0.17209622

residual_tower.blocks.0.bn1.bias f4 [8]
000000 cc 2f 1a be 91 6a 49 be 7b 88 bb bd b3 6b b8 bd
       -0.15057296 -0.19669558 -0.09156891 -0.09004917
000010 19 33 ad bd ac 17 36 be 02 ed 36 bc 7d aa ed bd
       -0.08457012 -0.17782468 -0.0111649055 -0.11604784

residual_tower.blocks.0.bn1.running_mean f4 [8]
000000 cb e2 31 bd 99 26 e1 3d 85 9d 8e bd e6 a0 d7 3d
       -0.043429177 0.1099369 -0.06963638 0.10528736
000010 fa ec 3c bd dd 52 58 3c f9 7c ad 3d 00 b3 84 bd
       -0.046124436 0.01320335 0.08471102 -0.06479454

residual_tower.blocks.0.bn1.running_var f4 [8]
000000 81 f4 88 3c a3 9a a6 3c 16 71 8a 3c 0a 46 db 3c
       0.016718151 0.020337408 0.016899627 0.026766796
000010 07 bd da 3c 6c d2 cd 3c d9 87 cd 3c 25 1a 82 3c
       0.026701463 0.025124751 0.025089191 0.015881607

residual_tower.blocks.0.conv2.weight f4 [8, 8, 3, 3]
000000 c9 5d 90 bd 8f 61 25 3e cf 0b 9d bd 4b b6 e3 bd
       -0.07049138 0.16150497 -0.07668268 -0.11118754
000010 06 0e 1b 3d 06 2c 54 bd 01 b4 48 3d a7 e1 3f bd
       0.03785517 -0.051799797 0.04899979 -0.04684606
000020 d4 8c 3e bd c4 b1 ad 3d da b6 f2 3d 66 0e 09 3b
       -0.046521023 0.08481172 0.118512824 0.0020913123
000030 54 d5 91 3d 3b 80 6c bd 7e 54 5c bd fa f1 8f 3c
       0.07120767 -0.057739478 -0.053791516 0.017571438
000040 49 31 c3 bd f3 00 f6 bd 38 e1 84 3c a1 fd f2 bc
       -0.09530885 -0.120119 0.016220674 -0.029661955
000050 7a 0f 80 bd 71 bc d1 bc 32 ca 0e bd 84 e9 37 3d
       -0.06252952 -0.025602551 -0.034860797 0.044900432
000060 a9 08 27 3c 43 d7 bf bc a1 47 16 3d 4d 53 2a bd
       0.010194936 -0.023418074 0.036689404 -0.041583348
000070 d5 f2 e2 bd 17 dc 52 3d f9 2a 37 be 8a 2b 6e bd
       -0.11081473 0.051479425 -0.17887487 -0.05814699
000080 89 b7 09 be db e7 78 3c 23 58 4e 3d 13 21 4d 3d
       -0.1344892 0.015191997 0.050377022 0.05008037
000090 6c 8f 0f bd 80 98 b6 bc 45 9e 3d bd 52 fa fa b9
       -0.035048887 -0.022289515 -0.046293516 -0.0004787022
0000a0 a8 76 7c bc ae 72 86 bd 87 74 01 3e 06 a6 12 bd
       -0.015409149 -0.06564842 0.12642108 -0.035802864
0000b0 f4 31 db 3b fd 65 b8 bc 33 04 8b bd ba 09 09 3c
       0.0066893045 -0.02250957 -0.0678791 0.008364135
0000c0 9a 7f d5 bd aa a9 c3 3c 47 3a bc bc f2 0b fa bd
       -0.10424729 0.023884613 -0.022977008 -0.1220931
0000d0 b4 08 c1 3c 16 31 0a 3d ba 72 80 bd dd 34 9b 3c
       0.02356372 0.03373822 -0.06271882 0.018946106
0000e0 38 c7 94 3d 15 d3 2a be 38 17 76 3b b8 5c ac 3b
       0.072645605 -0.16682084 0.003755046 0.0052600764
0000f0 0a 2b 69 3d c2 3e 0b bd df e1 83 bd 44 c9 3a ba
       0.05692581 -0.033995397 -0.06439566 -0.0007125328
000100 4c 3e c3 bc d4 04 96 3d a9 16 1e 3d cb a3 d3 bc
       -0.023833416 0.0732514 0.03859583 -0.025834939
000110 cf e7 25 bd 4c e3 51 bb 08 60 8e b9 fc 93 ce bb
       -0.040504273 -0.0032026349 -0.000271559 -0.006304262
000120 4e 58 dc 3c 39 d7 cf 3d d0 32 c4 39 b7 ae 65 3b
       0.026897576 0.10148472 0.00037421891 0.0035046765
000130 72 a3 37 bd 3f 68 e4 3c 68 a8 0d be fb 38 ed bd
       -0.044833608 0.02788174 -0.13833773 -0.11583134
000140 50 c2 5d 3a a6 8e 4c bd 37 a7 f8 3c c4 69 90 bc
       0.0008459436 -0.049940728 0.030353172 -0.017628558
000150 31 32 2c bc fd dd 1d 3e b7 8d 9a 3d 78 43 77 3d
       -0.010510013 0.15416713 0.07546561 0.060367078
000160 00 89 c0 bd a8 4b fb 3d db de be bd e5 ad 10 3d
       -0.09401131 0.1227029 -0.0931985 0.03532209
000170 b0 bb b8 bd ea 5f ae bd 63 d1 ec bc e0 13 d7 3c
       -0.090201735 -0.08514388 -0.028908437 0.026254594
000180 d3 2c 9e 3c 91 cb ae bd 17 1d 98 bd 61 e2 09 3e
       0.019308483 -0.08534921 -0.074274234 0.13465263
000190 26 67 0c be 74 6c 8e bd ad 75 e1 3c 84 44 16 bd
       -0.13711223 -0.069542795 0.027521932 -0.036686435
0001a0 50 cb f7 3c 83 42 75 3d c3 76 55 bd 31 d5 8d bd
       0.030248314 0.059877884 -0.052115213 -0.06925429
0001b0 0f cd cb bd 36 ad 0c 3d f1 67 07 3d 77 a8 15 3d
       -0.09951221 0.034344874 0.03305811 0.036537614
0001c0 93 5b f2 bc ed d1 2f bc 73 22 51 bc fb 55 21 bd
       -0.029584682 -0.010731203 -0.012764561 -0.039388638
0001d0 1c af 0e be 21 9d 93 bd 7d 8c 54 bb 32 f8 8f 3d
       -0.13933986 -0.07207704 -0.003243237 0.070297614
0001e0 38 45 ad bb 15 21 ef 3d 07 f1 15 be 89 61 14 3e
       -0.0052877925 0.11676232 -0.14642726 0.14490332
0001f0 d1 0e e1 bd ed 4b 5e 3d 5f 27 1c be 24 ff f8 3c
       -0.10989154 0.054271627 -0.15249394 0.030395098
000200 de 6c be bd 80 7d 13 3e dc 26 0b 3e 45 0e a0 bd
       -0.092981085 0.14403343 0.13589042 -0.07815222
000210 a5 91 ea bc 3c 16 af bd 39 58 7d 3e e8 0f 4c bd
       -0.028633902 -0.08549163 0.24740686 -0.049819857
000220 b7 06 b3 3d 21 ba 91 3d de 2c e9 3c 23 37 92 3b
       0.08741515 0.071155794 0.028463777 0.004462139
000230 66 3b c7 3d 8f 79 d9 bd 38 5b 96 3d 18 40 51 3e
       0.09728126 -0.106188886 0.07341617 0.20434606
000240 dc 70 0e bd d5 28 bd 3d aa 08 9d 3b a8 70 ae 3d
       -0.0347756 0.09236304 0.0047922926 0.08517581
000250 23 6f f9 3a a6 66 7c bc 34 87 31 3c 5d eb f4 bb
       0.0019030314 -0.015405333 0.010835458 -0.0074743466
000260 6e 78 9c 3d bd 8f b2 3c b6 f2 08 3e c9 3e ae 3d
       0.07640158 0.021797055 0.13373837 0.08508069
000270 55 ee e1 bc cf 8a e2 ba a6 59 9c bc ee 9f dd 3c
       -0.027579466 -0.00172838 -0.019085716 0.0270538
000280 d5 6f 2a 3b 0f 0d 2c 3d 12 ce 83 3d 0a d9 13 3e
       0.0026006598 0.04200464 0.06435789 0.14438263
000290 d2 95 f1 bd 99 8f 0b bd e8 5a ef bc 15 a1 87 3d
       -0.11796154 -0.034072492 -0.029218152 0.06622521
0002a0 05 57 39 bd 74 2b 03 bd df 3f 0d bc d5 09 42 3d
       -0.045249004 -0.032023862 -0.008621185 0.047372658
0002b0 d9 41 97 3d 0d e2 15 3e 47 1f 43 3e 65 e6 a2 bd
       0.07385606 0.14637013 0.190549 -0.079541005
0002c0 a7 eb a7 bd 1c 2b 34 bd 59 14 29 be 6b d6 b6 3c
       -0.08199244 -0.043986425 -0.16511668 0.02231904
0002d0 7b d7 b5 bd a0 4e 59 3d 21 88 3f bd 3b a8 29 3d
       -0.0887899 0.0530535 -0.046760682 0.041420203
0002e0 a1 c1 7c bd 58 ca ab bd 1e 60 ee bd 05 9d 99 bd
       -0.061708096 -0.083882034 -0.11639427 -0.07500652
0002f0 2a cd a0 3b 2a 46 0f be a8 53 6f bd 33 d6 94 bd
       0.00490727 -0.13991609 -0.05842939 -0.07267418
000300 fd 22 f3 bd 9a 49 7b 3d 37 c1 16 3d d5 1a d1 3d
       -0.11871908 0.06134949 0.036805358 0.10210196
000310 56 04 a5 bd 0c 00 cf ba ac 87 9e 3d f3 7c 4b 3d
       -0.08057468 -0.0015792861 0.07740721 0.049679708
000320 bc 5d 98 bd ed eb a0 bc d3 9f e2 3d 0b 61 08 bd
       -0.074397534 -0.019643748 0.1106564 -0.033295672
000330 03 b4 ec bd dc 0f f8 bc 71 20 05 be 99 3b 1d bd
       -0.11557772 -0.030281 -0.13000657 -0.038386915
000340 94 4f 2d 3d b5 9a 12 be 40 10 3a bd a8 38 ea 3d
       0.04231222 -0.14316829 -0.045425653 0.114365876
000350 cd 7e 6d bd 9e 9b 07 bd e1 f1 a1 bb b1 6a d9 bc
       -0.057982255 -0.033107392 -0.0049421643 -0.026540132
000360 7a 32 73 bd a1 35 d8 bc df 06 f7 bc 32 e0 c9 bd
       -0.05937431 -0.02639276 -0.030154644 -0.09857215
000370 f9 77 81 3d 57 89 84 bc cc 02 13 bd c0 a4 bc bd
       0.06321711 -0.01617877 -0.03589134 -0.09211111
000380 ab 38 ae bd d3 3d c9 bc 14 99 83 bd b8 68 fd bd
       -0.08506902 -0.024565613 -0.06425682 -0.12373489
000390 42 c1 63 bd 96 9f ab 3d 66 ad a6 3d b9 a5 a7 bd
       -0.055604227 0.08380048 0.08138542 -0.08185906
0003a0 3a 7c 10 3d fe 4b c7 bd df 79 c5 bd 51 10 2a bd
       0.03527472 -0.09731291 -0.09642386 -0.041519467
0003b0 dc 2f fa 3c 36 5c 9e bd 0f 98 be bd 87 c7 56 3d
       0.0305404 -0.077324316 -0.093063466 0.052436378
0003c0 e0 80 b5 3d 40 b4 b6 3d e4 00 4a bd 7c e4 63 bd
       0.088624716 0.08921099 -0.049317256 -0.05563782
0003d0 39 df f9 bc 30 cc 47 3a 50 37 4c bd 41 f7 bc bd
       -0.030501949 0.0007621674 -0.049857438 -0.092268474
0003e0 d7 d6 6e be 32 da bc 3c cd ad 38 3d c6 59 e5 3c
       -0.23324142 0.023053262 0.045087624 0.027996909
0003f0 03 78 42 3b 55 90 54 bd 9a 60 d5 3a d6 9a ce bc
       0.0029673583 -0.05189546 0.00162794 -0.025220316

residual_tower.blocks.0.conv2.bias f4 [8]
000000 37 2d 54 b9 10 66 c6 36 9a bf 20 37 d6 b2 8f b7
       -0.0002023474 5.9127415e-06 9.581354e-06 -1.7130205e-05
000010 82 30 a1 39 13 b6 3d 37 d8 1b 1f b9 dc 46 3d b8
       0.00030744454 1.130767e-05 -0.00015173794 -4.5127104e-05

residual_tower.blocks.0.bn2.weight f4 [8]
000000 53 70 45 3d c5 e6 58 3e cb a1 03 3e 50 31 24 3e
       0.048202824 0.21181782 0.12854688 0.16034436
000010 0f 3a 42 3e 87 86 2e 3e 65 e7 97 3d 63 cd 58 3e
       0.1896746 0.17043506 0.07417182 0.21172099

residual_tower.blocks.0.bn2.bias f4 [8]
000000 f0 b3 60 3d 26 d7 ca bd 7b cc 5f bd f8 51 7d bd
       0.0548591 -0.099043176 -0.054638367 -0.06184575
000010 3c f5 09 be 2b 23 e7 bd a9 6e 83 bd d2 e9 4a be
       -0.13472456 -0.11286005 -0.06417591 -0.19815758

residual_tower.blocks.0.bn2.running_mean f4 [8]
000000 c4 69 b8 bc 25 62 e5 bb 74 e2 59 bc aa bf c9 bc
       -0.02251137 -0.007000225 -0.01329862 -0.024627525
000010 e4 71 c9 bb 63 01 ac bc bb fb f8 bc 38 89 ef ba
       -0.00614761 -0.020996755 -0.030393472 -0.0018275147

residual_tower.blocks.0.bn2.running_var f4 [8]
000000 51 a0 08 3b 0a 9d 67 3b 8f 72 5a 3b 52 e6 7c 3b
       0.002084751 0.0035341405 0.0033332442 0.003858943
000010 55 f0 2f 3b 5a e1 6f 3b bf 2b e9 3a 4d 25 49 3b
       0.002684613 0.0036602826 0.0017789527 0.00306924

residual_tower.blocks.1.conv1.weight f4 [8, 8, 3, 3]
000000 1d bd 41 3c 8c 86 c7 bd ed 1e 8a bc 99 82 1e 3e
       0.011824873 -0.0974246 -0.01686045 0.15479507
000010 f6 50 f3 3d 0d fa eb 3d d0 5b 78 3e 78 8c 0a be
       0.118806764 0.11522303 0.24253774 -0.13530147
000020 60 3f b6 bd 00 01 ed 3c 42 cb 41 bd a8 ad 10 be
       -0.088988066 0.02893114 -0.047312982 -0.14128745
000030 65 a9 3f bd 61 89 af 3d 1c cf 10 be 56 af 52 bd
       -0.046792407 0.08571125 -0.14141506 -0.051436745
000040 e5 66 b7 3d b7 40 dc 3d a6 ff ec 3c 9a b3 44 3d
       0.089551724 0.10754531 0.028930496 0.048022844
000050 da 88 21 3d 91 da 9c bd fb 3b 8b 3c 58 76 fe bc
       0.039437152 -0.07658876 0.016996374 -0.03106229
000060 c9 94 9a bb 0e 9c 65 3c 8b 48 95 3c bc c4 db bd
       -0.0047174436 0.014014257 0.018223068 -0.107308835
000070 71 8f d0 bd 16 5b 64 3c 1e e2 55 3d fa 9a f8 3b
       -0.10183609 0.013937732 0.052217595 0.007586834
000080 dd b2 f6 bd 0b 1c bc 3c 70 7f d6 3d c5 d1 3a bd
       -0.12045834 0.02296259 0.104735255 -0.045610208
000090 7e a1 19 bd 6f 89 20 bd 13 8b 35 bd 5b a2 21 be
       -0.037507527 -0.039193567 -0.044322085 -0.1578459
0000a0 21 28 2a 3d d7 b3 1b 3c 8b cd 49 bd cc 1c f0 3b
       0.041542176 0.009503326 -0.049268287 0.0073276516
0000b0 28 84 e2 bd e0 a3 80 bd a8 b7 c3 bd 79 fd 30 bd
       -0.11060363 -0.06281257 -0.09556514 -0.04321048
0000c0 5c e8 2f 3d 7f c1 3b bd 70 3c f6 bc dd 86 e3 bd
       0.042946205 -0.04583883 -0.030058116 -0.111097075
0000d0 c5 40 88 3b 71 0d 66 3d e5 2a 07 3e f3 1d c1 bd
       0.0041581118 0.056165162 0.13199957 -0.094295405
0000e0 37 46 88 bd a5 13 15 3e f7 7d 3e 3d 89 9b 59 3d
       -0.066540174 0.14558275 0.04650685 0.053126846
0000f0 dc 8a 69 3d c7 6b 90 3c fd e7 03 bd 35 f0 00 3e
       0.057017192 0.017629517 -0.032203663 0.12591632
000100 68 a5 14 3d 51 e8 9c 3d 2e 8d c5 bd 6b 26 e1 bc
       0.036290556 0.07661498 -0.096460685 -0.02748414
000110 83 98 18 3d 23 57 a2 bc 9e a9 3f bd fe ba 98 bd
       0.03725482 -0.01981694 -0.04679262 -0.07457541
000120 6c c8 1f 3e 1a 1e 9e bd b5 0f 97 3d bb ee 9d 3d
       0.15603799 -0.07720585 0.07376043 0.0771155
000130 2e 0d 0f bd 2d 57 c0 3c fb eb 05 3d 3f 7a bc bc
       -0.03492468 0.023479069 0.03269575 -0.02300751
000140 6d ef e5 3d f7 36 64 bd 18 2e 64 bd 56 24 ea 3c
       0.112273075 -0.05571648 -0.05570802 0.02858178
000150 1a a7 c1 3a 47 e4 53 3d ab b8 ad bd 83 16 76 bd
       0.0014774532 0.051731374 -0.08482488 -0.060080063
000160 c1 ea 80 3c 79 99 ae bd ff e4 25 bd bf 47 79 3d
       0.01573694 -0.08525366 -0.04050159 0.060859438
000170 57 13 01 be 77 f2 a6 bc 25 e9 2d 3e e7 ed c7 bc
       -0.12605034 -0.020379288 0.16983469 -0.024405433
000180 ad 88 b5 3c c1 3c ca bd 4a 12 19 be 53 1a cf bd
       0.022159899 -0.09874869 -0.14948383 -0.10112443
000190 35 77 4d bd db 4b 3f 3d c3 8c c8 bd dc 21 18 3b
       -0.050162513 0.0467032 -0.09792473 0.002321354
0001a0 e2 5b 67 bb 43 a7 36 bd 81 2e b6 3d 85 81 33 bc
       -0.003530257 -0.044593107 0.08895589 -0.010956173
0001b0 ae 88 ce bb ee c6 25 3d 8f 86 45 bc 62 84 37 bc
       -0.0063029146 0.040472917 -0.012056007 -0.011200996
0001c0 ec a6 42 bd 7e 2b 0a be e4 14 e2 bd d5 34 a3 3d
       -0.04752247 -0.13493153 -0.11039141 0.07969061
0001d0 97 8f e4 bd 51 4d 0d bd 19 4e 85 3c 6b 5c f8 3d
       -0.111602 -0.034497563 0.016272591 0.12127002
0001e0 11 2f c6 bc 14 0d 15 bd ba e4 62 bd de 1b 9c 3d
       -0.024192365 -0.036389425 -0.055393912 0.07622503
0001f0 c5 6f 26 bc fc 72 83 bc 7b a6 73 bd c7 48 51 be
       -0.010158484 -0.01604604 -0.05948494 -0.20437919
000200 4f eb a7 bc 45 86 16 bc 97 ad 80 3b 47 e2 7e bd
       -0.020497946 -0.009187286 0.0039269435 -0.062227514
000210 27 d8 07 be df 46 b7 bc f5 bf 5b 3d 3c 8e 10 bd
       -0.1326605 -0.022372661 0.05364986 -0.035291895
000220 1a 09 81 3d de 8a ab bd 6e b8 d1 bd 77 4b 3c 3d
       0.06300564 -0.08376096 -0.10240255 0.045970406
000230 82 ba 2c 3e 68 42 4c bc be 1d 54 3e 18 2f 48 be
       0.16868022 -0.012467004 0.2071447 -0.19549215
000240 fa 13 09 3b 9c ac 61 bd 82 6a dc 3b f6 ae e6 bd
       0.0020916448 -0.055096254 0.006726564 -0.1126384
000250 49 ad a7 3c 2b 31 48 3e a5 92 03 bd 5f cc 5c bd
       0.020468371 0.19550006 -0.032122273 -0.05390584
000260 91 7b 4d 3e 39 0c 80 3c fd 9f ce 3c 4b e9 a8 bc
       0.20066668 0.015630828 0.025222773 -0.020619055
000270 fd 7e bc bd 2d 7a 1c 3d 23 76 a1 bc d4 ed 7b bd
       -0.092039086 0.038202453 -0.019709652 -0.061506107
000280 10 9d b5 3c 36 11 00 3d d3 93 77 3c 1e ef c7 ba
       0.02216962 0.031266414 0.015110928 -0.0015253758
000290 70 91 22 bd 55 39 a6 bd e5 38 2b be a4 d5 c5 3d
       -0.03968948 -0.08116404 -0.16720922 0.09659889
0002a0 c3 a5 a5 bd fd 0d 80 bd 55 18 cd bd 44 b8 01 bd
       -0.08088257 -0.06252668 -0.100144066 -0.03166987
0002b0 5a 4d 32 3c 0d cc 9e bd a0 05 50 bd 36 7a 88 bc
       0.0108827 -0.07753763 -0.050786614 -0.016659837
0002c0 34 72 43 3e 2f 3b da 3d bb b5 90 bc df b5 a0 bd
       0.19086534 0.106558196 -0.01766478 -0.07847189
0002d0 c4 ba 48 3d 49 d6 0d 3e f7 27 ff 3c 38 00 0c 3e
       0.04900624 0.13851275 0.031146986 0.13671958
0002e0 a1 7a 48 3d e1 bf ec bd b2 6d 61 bd ce 23 48 3d
       0.048945073 -0.115600355 -0.055036254 0.04886227
0002f0 33 69 d2 bd 3f 8e 3a bd 07 28 ba 3c c9 d1 9f 39
       -0.102739714 -0.045545813 0.022724165 0.00030483145
000300 f7 af 44 bd 87 77 19 be 44 56 de bc d7 cb 7c 3d
       -0.048019376 -0.14987002 -0.027140744 0.061717834
000310 8a 5b 34 3e 00 ef 3b bc 8f 0b b5 bd 1d ea b4 3c
       0.17613044 -0.011470556 -0.08840095 0.02208429
000320 ee 58 43 bd 1f 78 25 bd e8 ef a3 bd df 50 b7 3b
       -0.04769223 -0.04039776 -0.08004743 0.0055943574
000330 b0 c6 1a bd 5a f6 ca bd df df 3d bc a5 fb 09 3e
       -0.03778714 -0.09910269 -0.01158902 0.13474901
000340 c0 f0 25 3e d5 69 7c 3d 3c 3d 86 3b e3 09 b7 bd
       0.1620512 0.061624367 0.004096655 -0.089374326
000350 d0 2a 7a bc e8 d1 57 be 3b 9e 82 3d 55 6b 52 be
       -0.015268996 -0.21076167 0.06377836 -0.20548756
000360 36 f7 ab 3d fb fb 86 bd af 57 8d bd 4a 7f 26 be
       0.08396761 -0.0659103 -0.0690149 -0.16259494
000370 91 4f e8 3c 11 54 62 bd 35 da 34 3d 70 61 19 bd
       0.028358253 -0.055255953 0.04415341 -0.03744644
000380 fc d0 68 3d f8 29 0c bd f9 5b 18 be 7a e2 1f 3e
       0.056839928 -0.034219712 -0.14878835 0.15613738
000390 8d bf 1a be 65 80 97 bd 48 62 25 3e 47 6e f9 bd
       -0.15112133 -0.07397536 0.16150773 -0.12179237
0003a0 15 5b 50 3d dc e6 31 3d cf 89 18 bc 5d f9 04 be
       0.050868113 0.043433055 -0.0093102 -0.1298575
0003b0 ac 2a 23 bd e5 73 84 bd 82 59 fd 3c 61 53 18 be
       -0.039835617 -0.06467418 0.03092647 -0.14875557
0003c0 83 5f 70 3b db 0c 73 bd 5e 29 d9 3d e8 72 1f bd
       0.0036678023 -0.05933843 0.10603593 -0.038927943
0003d0 e2 cc 05 bd 75 e6 ac 3d 3a 85 dd bc 50 1f fa 3d
       -0.032666095 0.08442394 -0.027041066 0.12213004
0003e0 0d 50 fd 3d 8d 9f ed 3a d4 8b 80 3e 1c 9a 02 3e
       0.12368784 0.0018129215 0.2510668 0.127541
0003f0 ff 52 94 3d a9 4b 43 3d f8 68 8c bc 02 8b a9 3d
       0.07242393 0.047679577 -0.017139897 0.08278467

residual_tower.blocks.1.conv1.bias f4 [8]
000000 d5 4c a6 b6 aa 4f ba b6 6a 0b 95 37 e7 c2 f5 35
       -4.95613e-06 -5.552506e-06 1.77675e-05 1.8310647e-06
000010 da cb 9e 38 f0 37 ee 34 89 d5 60 38 0e 1b af b5
       7.5719974e-05 4.4371654e-07 5.3604632e-05 -1.304639e-06

residual_tower.blocks.1.bn1.weight f4 [8]
000000 23 2c 10 3e 11 1d 42 3e 82 14 58 3e b9 68 50 3e
       0.14079337 0.189564 0.21101573 0.20352449
000010 56 ab 41 3e 5a 48 12 3e c9 fb 2d 3e e4 03 3f 3e
       0.18913016 0.14285412 0.1699058 0.18653828

residual_tower.blocks.1.bn1.bias f4 [8]
000000 2b 41 19 be fb 4f 1d be b3 c2 f2 bd 38 75 ea bd
       -0.14966266 -0.15362541 -0.11853542 -0.11448139
000010 77 05 46 bd 51 51 dc bd 0b 7f fe bd a2 bb 9f bd
       -0.048345055 -0.107576974 -0.12426575 -0.0779946

residual_tower.blocks.1.bn1.running_mean f4 [8]
000000 01 dc ba bb 95 ae 20 bd 7f ab 85 bc e4 a9 96 bc
       -0.005702496 -0.039228994 -0.016317127 -0.018391557
000010 2e d6 bf 3d d1 4a 40 bd a5 b0 08 3d e5 5b 9f bd
       0.093670234 -0.04694635 0.033371586 -0.07781199

residual_tower.blocks.1.bn1.running_var f4 [8]
000000 52 73 a9 3c a9 2d 7b 3c 2d 49 99 3c 34 fc c7 3c
       0.020684872 0.01533071 0.01871165 0.024412252
000010 fa 3b 97 3c 75 98 81 3c 1f 48 83 3c d8 1c a1 3c
       0.018461216 0.015819767 0.016025601 0.019667074

residual_tower.blocks.1.conv2.weight f4 [8, 8, 3, 3]
000000 18 03 b1 bd 9e 37 a5 bd 8e 52 8e 3d 8c 1e cc bd
       -0.08643168 -0.08067249 0.0694934 -0.09966764
000010 3f 27 17 bc 30 44 41 bc 81 a2 7d bd 71 0c 6e bd
       -0.009225666 -0.011796042 -0.061922554 -0.058117334
000020 a6 a2 ae bc 8a 73 d3 bc d1 6a 18 bd 46 9f 8e 3c
       -0.021317791 -0.02581193 -0.037211243 0.017409932
000030 83 31 87 3d 2a d2 92 bd 4b 58 c4 bd 35 bb dc bd
       0.066012405 -0.07168992 -0.09587153 -0.107778944
000040 6e 0d 33 3c 80 fd 96 bc 41 88 a5 3b 81 c6 26 bd
       0.010928495 -0.018431425 0.005051643 -0.04071665
000050 47 42 15 be 5f 66 bd 3c 66 b8 d4 bd 07 54 e9 bc
       -0.14576064 0.023120103 -0.10386734 -0.02848245
000060 f0 df 6d bd a8 d8 cc 3c 47 6d 63 3c c6 7b 7b bd
       -0.05807489 0.025005654 0.013881034 -0.061397336
000070 95 bd 17 3c 93 49 ff bc da 60 a3 bd dd 23 d1 3c
       0.0092615085 -0.031163013 -0.07977457 0.025529796
000080 1b a7 03 3d 36 a9 32 bd ee f0 71 3b dc af 51 3d
       0.032141786 -0.043618403 0.0036917287 0.051193103
000090 d8 90 d4 3c 79 6c a4 bd ec 87 54 bc 3d 9a c9 3b
       0.025947973 -0.08028502 -0.012971859 0.00615242
0000a0 8d f1 29 bd e8 da 39 3d 1e e8 9d b9 03 d0 e1 bc
       -0.041490126 0.04537478 -0.00030118314 -0.027565008
0000b0 95 b7 d9 3b fd dc 56 bb 16 ad 01 bd 72 7f 88 bd
       0.006644199 -0.0032785528 -0.03165921 -0.06664933
0000c0 0b 13 ae bc 7a d7 db bc 70 ab 1a bd 6a ab 1d ba
       -0.021249315 -0.026836146 -0.03776115 -0.00060146174
0000d0 95 30 05 bd 12 14 04 ba f8 15 60 bd 85 d7 ae bc
       -0.032517035 -0.0005038391 -0.05470845 -0.021343002
0000e0 58 21 f0 bb 5e 2e 08 bd 8e b4 77 3d e4 a5 4a 3d
       -0.0073281936 -0.033247344 0.060474925 0.049474612
0000f0 1f 1f b3 3c e8 4c 9c 3d e6 69 db bc 5b 62 a7 3c
       0.021865426 0.07631856 -0.026783895 0.020432642
000100 52 b7 29 bd 3f 9f 5b bc 81 f6 96 bc d4 d6 02 be
       -0.041434593 -0.013404666 -0.01842809 -0.12777263
000110 10 20 f6 bc 41 89 58 bd c3 60 2e bd 9a 63 a2 bd
       -0.030044585 -0.05286527 -0.042572748 -0.07929154
000120 20 b8 ce 3d e0 a2 d5 3d 6d a1 a2 bd 53 64 ad bd
       0.10093713 0.104314566 -0.07940946 -0.08466401
000130 a8 6d d5 3d 6e 9a d8 bb 57 bc bb 3b c8 25 4f 3e
       0.10421306 -0.0066102063 0.005729239 0.20229256
000140 0a 11 13 3e 39 22 3b bd c2 6b 7f bd e5 d8 3a 3c
       0.14361969 -0.045686934 -0.062358625 0.011404251
000150 31 51 93 3d 72 f4 c6 3d f6 d0 23 be 6f e4 7d 3d
       0.071932204 0.09714593 -0.15997681 0.06198543
000160 c6 54 78 bd 57 38 51 3d 97 d0 4d 3d 62 34 aa 3d
       -0.06062772 0.05107912 0.050247755 0.083107725
000170 38 3e 6b bd 7b 4e 13 be 35 d3 1f 3e cf a6 ab 3d
       -0.057432383 -0.14385407 0.15607913 0.083814256
000180 ac c5 57 3c bb f3 2a bd 3f 8f de bd 5e 95 a3 3c
       0.013169687 -0.041736346 -0.10867166 0.019968685
000190 9e 56 e1 bd a3 84 27 bd 52 90 df bd 36 39 c2 bd
       -0.11002849 -0.040897977 -0.10916199 -0.09483568
0001a0 22 12 5e 3e 71 a9 88 bd 90 6b 8c 3d 90 b4 06 3e
       0.21686605 -0.066729434 0.068564534 0.13154817
0001b0 d7 60 be 3c 6b bd 17 3e f9 0a ea 3c a9 60 f4 3d
       0.023239536 0.14818351 0.028569685 0.11932499
0001c0 16 6e b2 3c db 25 52 3e 5b f7 c3 3c 65 10 9b 3d
       0.021781009 0.20522253 0.02392166 0.075714864
0001d0 5a c7 5a 3e 4d 8b 3d bd 37 02 f7 bb 92 88 c2 bb
       0.21365109 -0.046275426 -0.007538106 -0.0059366906
0001e0 94 56 77 3e 8c 30 0b 3d 32 2e 58 bd 5a 40 05 3c
       0.2415412 0.033981845 -0.05277843 0.008133018
0001f0 52 0a 3d bd 3d 8b 6a bd be c3 de bc a2 a8 d7 bd
       -0.04615242 -0.057261694 -0.027192947 -0.10530211
000200 f8 32 97 3b 2c 4f ff 3d bd 6e a1 3d 41 d8 0c bc
       0.0046142302 0.12466273 0.0788245 -0.008596481
000210 ce 50 07 3e 47 46 c5 3c 6d 87 f3 bd aa 73 ec bd
       0.13214418 0.024081362 -0.11891065 -0.11545499
000220 12 6e 4c bd 78 61 fb 3d b4 5c a6 3d 7d 12 f1 bd
       -0.04990966 0.1227445 0.081231505 -0.117711045
000230 f7 da 44 3d 11 87 79 bd f6 f7 95 bb d5 13 4c be
       0.048060384 -0.060919825 -0.0045766784 -0.1992944
000240 19 9b 73 bc 8c 6c 10 3d b9 b3 4a bb c7 73 8b 3d
       -0.014868521 0.03525977 -0.0030929877 0.06809192
000250 b9 a1 c9 bd 8b f5 28 3e 95 6d 5d bd 8e a7 15 3d
       -0.09845299 0.16499917 -0.054059584 0.036536746
000260 94 0c 8d bd 52 ae 92 bd 84 ed 82 bd 8b f4 4f bc
       -0.06887165 -0.07162155 -0.06392959 -0.012692581
000270 f9 2c 23 bb cc 3f 10 be ef 06 59 3d 34 5b 16 bd
       -0.0024898632 -0.14086837 0.052985128 -0.03670807
000280 44 8f 27 bd 50 75 4b bd ce 72 db 3c d6 11 4a 3d
       -0.040908113 -0.049672425 0.026788142 0.049333416
000290 47 eb b5 3d ba 05 22 3e b7 97 ba bc d3 00 17 bd
       0.08882766 0.15822497 -0.022777421 -0.03686602
0002a0 e4 4f ab 3d c3 cb 0c bd 7b ea b9 3d 9d 17 df bc
       0.08364847 -0.03437401 0.09077927 -0.02723294
0002b0 c2 86 8b bd c3 fc 5d bd 03 50 9b 3d 7f 8e 8b bd
       -0.068128124 -0.05419613 0.075836204 -0.06814288
0002c0 37 be 8b bd 46 ef e9 bc 86 64 f0 bc 3d a3 d7 39
       -0.0682339 -0.028556477 -0.029344808 0.00041129618
0002d0 e7 bb 9b 3c aa a4 1f bd 4a 53 c1 3a 72 70 81 bd
       0.019010497 -0.038975395 0.0014749554 -0.06320275
0002e0 fe db 5e bd fc 09 92 bd 0d b2 df bb b1 a1 8a bd
       -0.05440902 -0.071308106 -0.006826645 -0.067691214
0002f0 0f 0a 8f bd 5d aa fc bc 7e 57 39 bd 76 96 9f bd
       -0.069843404 -0.030842954 -0.045249455 -0.0779237
000300 54 1f c1 bd 04 56 9c bd 65 81 16 be 44 03 1a be
       -0.094298035 -0.07633594 -0.14697798 -0.15040308
000310 43 5b f7 bb 6a a7 f1 3d 94 d6 4e bd 2a b6 ab 3c
       -0.007548721 0.1179951 -0.050497606 0.020960886
000320 a2 32 45 3d 78 ad 04 3d e0 7b 40 3d 69 3a 49 bd
       0.04814399 0.032391995 0.046993136 -0.04912797
000330 af 3e a8 3c 0b 90 81 bd 81 58 ae 3d ed 9f 61 3e
       0.020537702 -0.06326302 0.085129745 0.22033663
000340 45 c9 ff bd 4a 62 4b bb 70 7d 62 3d 15 5b ca 3c
       -0.12489561 -0.0031033927 0.055295408 0.024701634
000350 a5 9b 55 bd e7 11 5d 3d 46 2d bf bd 66 74 00 be
       -0.052150387 0.05397215 -0.09334807 -0.12544402
000360 32 35 25 3c 02 2c dd 3d 7c 59 b6 3d 75 62 87 bc
       0.0100834835 0.107994094 0.089037865 -0.01652644
000370 3f a6 54 bd 2e a5 11 3e a4 78 e5 3d ce b5 b2 bd
       -0.051916357 0.14223167 0.11204651 -0.08726083
000380 0f be a8 3d 4a 2f 68 3b 7e b3 23 bd ed 9c 16 3e
       0.08239376 0.0035428577 -0.0399661 0.147083
000390 2c ee a5 3d 9e c8 13 3d bb 4f 17 bd 01 92 bc 3d
       0.08102068 0.036079995 -0.03694127 0.092075355
0003a0 9e ea 19 bc 36 6f 6b 3c 10 00 40 3d 24 f6 5f bd
       -0.009394316 0.0143697765 0.04687506 -0.054678097
0003b0 be da 04 3e 5c 2f 09 bd 11 cb 01 bd f2 37 2d bd
       0.12974069 -0.03349243 -0.0316878 -0.04228968
0003c0 59 c8 4f bd 67 2a 97 3d c6 dc 93 3c 8c d7 ba bd
       -0.050728176 0.073811345 0.018049609 -0.091231436
0003d0 75 cb 1e be b2 53 88 3d 60 83 63 bd f1 eb 96 bd
       -0.155073 0.066565886 -0.05554521 -0.07369221
0003e0 25 12 20 bd b7 e8 df bd 10 36 79 bd 75 8d d8 3d
       -0.039079804 -0.10933059 -0.060842574 0.10573856
0003f0 1d 58 14 3e 3e 39 6a bc 3a 90 5b bd 29 52 bd 3d
       0.14486738 -0.014295874 -0.053604342 0.092441864

residual_tower.blocks.1.conv2.bias f4 [8]
000000 4c 8d 11 37 6f 92 9c b7 d1 0b 8a 37 2d 6d b9 b6
       8.675572e-06 -1.8664838e-05 1.6456384e-05 -5.5261394e-06
000010 1d 52 9e b7 78 21 1b b7 5a 22 1e 38 ea 8e 54 b8
       -1.8873305e-05 -9.2465125e-06 3.7702128e-05 -5.0677838e-05

residual_tower.blocks.1.bn2.weight f4 [8]
000000 f8 86 2e 3d 97 79 5b 3e 3f 96 f1 3d 8f a9 64 3e
       0.042609185 0.21433102 0.11796235 0.22330306
000010 29 89 bb 3d 7b 8d c5 3d 1d 45 36 3d 48 5f 80 3e
       0.091570206 0.09646126 0.044499505 0.25072694

residual_tower.blocks.1.bn2.bias f4 [8]
000000 2d db 66 3d 26 c0 ec bd e4 7b 54 bd 27 5e d8 bd
       0.056361366 -0.11560087 -0.051875964 -0.10564833
000010 b9 76 ca bd fb a5 58 3c b9 44 ae bc 75 cf 03 be
       -0.09885926 0.013223167 -0.021273004 -0.12872107

residual_tower.blocks.1.bn2.running_mean f4 [8]
000000 91 b2 05 bd 14 96 05 3d 22 37 00 bd 72 26 f2 bc
       -0.032640997 0.03261383 -0.03130258 -0.029559348
000010 b0 c0 b2 bc 3a 81 1d bd 0e 00 07 bb 4d c9 df bc
       -0.021820396 -0.03845332 -0.0020599398 -0.027317667

residual_tower.blocks.1.bn2.running_var f4 [8]
000000 08 a6 c4 3a 32 b5 9a 3b ca 0a 2d 3b fb df 79 3b
       0.0015003094 0.004721307 0.0026404136 0.0038127888
000010 1f e3 cb 3a a4 e9 e4 3a 7e 12 b8 3a df 92 72 3b
       0.0015555358 0.001746465 0.0014043597 0.0037013812

residual_tower.blocks.2.conv1.weight f4 [8, 8, 3, 3]
000000 64 01 00 80 61 01 00 80 62 01 00 00 5f 01 00 00
       -4.99e-43 -4.95e-43 4.96e-43 4.92e-43
000010 5f 01 00 00 60 01 00 00 60 01 00 00 5f 01 00 00
       4.92e-43 4.93e-43 4.93e-43 4.92e-43
000020 60 01 00 00 64 01 00 00 61 01 00 80 63 01 00 00
       4.93e-43 4.99e-43 -4.95e-43 4.97e-43
000030 63 01 00 80 5f 01 00 00 5f 01 00 00 64 01 00 80
       -4.97e-43 4.92e-43 4.92e-43 -4.99e-43
000040 8b 01 00 00 61 01 00 00 63 01 00 00 5f 01 00 80
       5.54e-43 4.95e-43 4.97e-43 -4.92e-43
000050 5f 01 00 80 64 01 00 80 60 01 00 00 5f 01 00 00
       -4.92e-43 -4.99e-43 4.93e-43 4.92e-43
000060 62 01 00 00 64 01 00 00 62 01 00 00 b6 01 00 80
       4.96e-43 4.99e-43 4.96e-43 -6.14e-43
000070 64 01 00 80 63 01 00 00 60 01 00 80 8c 01 00 00
       -4.99e-43 4.97e-43 -4.93e-43 5.55e-43
000080 c2 01 00 80 61 01 00 00 a1 01 00 80 5f 01 00 00
       -6.3e-43 4.95e-43 -5.84e-43 4.92e-43
000090 62 01 00 80 60 01 00 00 5f 01 00 00 5f 01 00 00
       -4.96e-43 4.93e-43 4.92e-43 4.92e-43
0000a0 65 01 00 00 60 01 00 80 60 01 00 00 61 01 00 80
       5e-43 -4.93e-43 4.93e-43 -4.95e-43
0000b0 60 01 00 00 61 01 00 00 bd 01 00 80 5f 01 00 00
       4.93e-43 4.95e-43 -6.24e-43 4.92e-43
0000c0 5f 01 00 80 63 01 00 00 5f 01 00 80 60 01 00 80
       -4.92e-43 4.97e-43 -4.92e-43 -4.93e-43
0000d0 60 01 00 80 62 01 00 00 61 01 00 80 60 01 00 80
       -4.93e-43 4.96e-43 -4.95e-43 -4.93e-43
0000e0 65 01 00 80 7e 01 00 80 5f 01 00 00 62 01 00 00
       -5e-43 -5.35e-43 4.92e-43 4.96e-43
0000f0 62 01 00 00 64 01 00 80 60 01 00 80 62 01 00 00
       4.96e-43 -4.99e-43 -4.93e-43 4.96e-43
000100 63 01 00 80 60 01 00 80 62 01 00 80 61 01 00 00
       -4.97e-43 -4.93e-43 -4.96e-43 4.95e-43
000110 60 01 00 80 60 01 00 00 62 01 00 80 63 01 00 00
       -4.93e-43 4.93e-43 -4.96e-43 4.97e-43
000120 9e f2 33 bd cc b8 d3 bd a3 62 1b 3e c3 91 2e bd
       -0.04393255 -0.103379816 0.15174346 -0.042619478
000130 55 2b dd b9 fd 0e af 3d 24 46 bb 3d e6 1b 99 bd
       -0.0004218469 0.08547781 0.09144238 -0.07476024
000140 ca 73 0e be 93 f2 13 be e5 59 3c 3d c4 a7 cd 3d
       -0.13911358 -0.14448003 0.045984168 0.100417644
000150 6b 56 9f bd 08 a5 13 3d b4 5c 67 3e 23 58 02 3e
       -0.07780155 0.036046058 0.22593957 0.12728934
000160 90 de 9e 3c 69 23 f4 3d da cc 0a 3e ec 3a 9a 3d
       0.019393235 0.119208165 0.13554707 0.0753077
000170 2f 70 8e 3c 2e f4 27 bd c2 8a d0 3d 4c 52 09 3c
       0.017387478 -0.041004352 0.10182716 0.0083814375
000180 0d 9d 82 3d f1 0d 9e bd 95 8e 95 bc ac 85 85 3d
       0.06377611 -0.07717503 -0.018256465 0.065196365
000190 6d f7 ee 3c e2 a6 48 3e 38 63 cd bc 46 46 54 3d
       0.029170716 0.1959491 -0.025071725 0.05182483
0001a0 f6 3e 56 bd 05 fc 77 3d b4 ef 31 3e d3 5c f5 3c
       -0.052306138 0.06054308 0.17376596 0.029951489
0001b0 7b 0e 94 3d 8f 28 8f 3d 3c c8 00 3c 80 b7 1e 3c
       0.072293244 0.06990158 0.00786024 0.0096873045
0001c0 a4 cb 46 bd f7 dd eb 3a 8e 68 94 3c f6 70 46 be
       -0.04853405 0.0017995228 0.018116262 -0.19379029
0001d0 9d a2 41 be 8c 36 be bd 6b eb ae 3c f7 16 9e bc
       -0.18909688 -0.09287748 0.02135249 -0.01929806
0001e0 cf fd 1c be fe af 10 3d ff 77 57 bd c7 19 5b 3e
       -0.15331195 0.03532409 -0.05260467 0.21396552
0001f0 28 4c 00 be d1 be 12 3e b8 f7 1b 3d 98 5b 8b 3b
       -0.12529051 0.14330603 0.03807804 0.004252862
000200 e5 40 2c bd 3f 98 62 bd 77 94 c2 bc f5 cd ae 3d
       -0.042054076 -0.055320974 -0.023752434 0.08535377
000210 5b f1 2a 3d 51 19 0f be c6 2e b6 bd 9d 04 f2 bd
       0.04173408 -0.13974501 -0.0889564 -0.11817286
000220 b7 f3 26 bd 13 be 6a 3d 8f dc a1 bd 23 25 b4 3c
       -0.04075977 0.057310175 -0.07903396 0.021990364
000230 85 f2 dd bb 6e 95 84 bd b6 5b d3 3c dd 93 f5 3c
       -0.0067732953 -0.06473814 0.025800567 0.029977733
000240 67 01 00 00 67 01 00 80 25 01 00 00 64 01 00 80
       5.03e-43 -5.03e-43 4.1e-43 -4.99e-43
000250 a5 00 00 00 30 00 00 00 64 01 00 80 60 01 00 00
       2.31e-43 6.7e-44 -4.99e-43 4.93e-43
000260 4b 01 00 00 63 01 00 00 66 01 00 80 62 01 00 00
       4.64e-43 4.97e-43 -5.02e-43 4.96e-43
000270 9a 01 00 80 67 01 00 80 62 01 00 00 60 01 00 00
       -5.75e-43 -5.03e-43 4.96e-43 4.93e-43
000280 67 01 00 80 62 01 00 00 64 01 00 80 64 01 00 00
       -5.03e-43 4.96e-43 -4.99e-43 4.99e-43
000290 39 01 00 00 5f 01 00 00 67 01 00 00 28 01 00 00
       4.39e-43 4.92e-43 5.03e-43 4.15e-43
0002a0 65 01 00 80 5f 01 00 80 67 01 00 00 28 01 00 00
       -5e-43 -4.92e-43 5.03e-43 4.15e-43
0002b0 63 01 00 80 64 01 00 00 5f 01 00 00 64 01 00 00
       -4.97e-43 4.99e-43 4.92e-43 4.99e-43
0002c0 63 01 00 00 62 01 00 00 64 01 00 00 61 01 00 00
       4.97e-43 4.96e-43 4.99e-43 4.95e-43
0002d0 67 01 00 00 64 01 00 00 67 01 00 80 62 01 00 00
       5.03e-43 4.99e-43 -5.03e-43 4.96e-43
0002e0 62 01 00 00 64 01 00 80 60 01 00 80 65 01 00 80
       4.96e-43 -4.99e-43 -4.93e-43 -5e-43
0002f0 60 01 00 00 65 01 00 00 61 01 00 00 91 00 00 00
       4.93e-43 5e-43 4.95e-43 2.03e-43
000300 61 01 00 80 5f 01 00 00 63 01 00 00 60 01 00 00
       -4.95e-43 4.92e-43 4.97e-43 4.93e-43
000310 65 01 00 00 65 01 00 00 5f 01 00 00 61 01 00 80
       5e-43 5e-43 4.92e-43 -4.95e-43
000320 67 01 00 00 63 01 00 80 3f 01 00 00 60 01 00 00
       5.03e-43 -4.97e-43 4.47e-43 4.93e-43
000330 65 01 00 00 49 01 00 00 7f 00 00 00 60 01 00 00
       5e-43 4.61e-43 1.78e-43 4.93e-43
000340 1a 01 00 80 d1 00 00 00 4d 01 00 00 61 01 00 00
       -3.95e-43 2.93e-43 4.67e-43 4.95e-43
000350 3e 00 00 80 65 01 00 00 64 01 00 00 b7 00 00 00
       -8.7e-44 5e-43 4.99e-43 2.56e-43
000360 d6 a5 33 bd 67 35 e4 bd 1f c5 27 be 74 57 01 3d
       -0.043859325 -0.11142998 -0.1638379 0.031577542
000370 8d 25 1c bd 4d 7e a5 bb 8b 90 4c 3b d3 05 00 be
       -0.03812175 -0.0050504566 0.0031214084 -0.12502222
000380 bf 08 c9 3d 45 38 31 3a b5 80 86 bd 90 23 68 3d
       0.09816121 0.0006760399 -0.06567518 0.05667454
000390 53 36 fd bd 1a c2 f9 bd e1 a0 a7 3c 0e ea ef 3c
       -0.12363877 -0.12195225 0.020462455 0.02928641
0003a0 67 75 78 3d ce a4 66 bd 41 93 80 3d b5 59 16 bd
       0.06065884 -0.056309514 0.062780865 -0.036706645
0003b0 21 61 ab bd e2 77 84 bc 92 09 bd bd b7 f2 21 bc
       -0.08368135 -0.016170446 -0.09230341 -0.009884528
0003c0 77 43 38 bd 81 ea 54 3c 3d 01 77 bd b3 7c 80 bd
       -0.044986214 0.012995363 -0.060303915 -0.062737845
0003d0 79 5d bc 3b 5b a5 7d bc c6 2b a5 3c e1 d6 4a 3d
       0.0057484475 -0.015481318 0.020162474 0.04952133
0003e0 8b fd bb bd c5 ff 0e 3e e0 84 ac bc fa a7 90 3d
       -0.09179219 0.13964756 -0.021059453 0.07063289
0003f0 93 48 6c bd 8e 0f 14 be 0f 4d bc 3d dc 12 0f bd
       -0.0576864 -0.14459059 0.09194385 -0.034930095

residual_tower.blocks.2.conv1.bias f4 [8]
000000 32 05 00 80 df e8 02 37 8f 41 8d 2f 23 70 3f 37
       -1.864e-42 7.802823e-06 2.5694333e-10 1.1410596e-05
000010 71 27 04 38 3d 45 88 b1 f2 43 92 34 84 c2 41 10
       3.1507985e-05 -3.9659924e-09 2.7244056e-07 3.8212388e-29

residual_tower.blocks.2.bn1.weight f4 [8]
000000 8e 51 65 26 2e 48 d3 3d 59 22 d5 1e 0d 7d fe 3d
       7.956086e-16 0.103165016 2.2566458e-20 0.12426195
000010 3a a1 05 3e 9b d4 e5 a2 b4 40 ef 3d 74 d3 84 39
       0.13049784 -6.229568e-18 0.11682263 0.00025334547

residual_tower.blocks.2.bn1.bias f4 [8]
000000 cf db d4 a0 ca 1a 1c be 35 6f c8 90 06 83 14 bd
       -3.6059654e-19 -0.15244594 -7.905743e-29 -0.036257766
000010 5f 37 30 be d8 03 12 95 ef 42 fc bd 60 a8 3d ba
       -0.17208622 -2.9487497e-26 -0.12317454 -0.00072348677

residual_tower.blocks.2.bn1.running_mean f4 [8]
000000 87 01 00 00 15 0a 84 3c 70 6e ef ad 01 b8 05 be
       5.48e-43 0.016118089 -2.7220198e-11 -0.13058473
000010 84 be 04 3d 2d ce f6 2e 22 fa 1a bd c8 e1 94 31
       0.032408252 1.1223409e-10 -0.0378362 4.3330353e-09

residual_tower.blocks.2.bn1.running_var f4 [8]
000000 04 00 00 00 b2 4a a7 3c b2 6a 6b 08 f7 1c 2a 3c
       6e-45 0.02042136 7.084316e-34 0.010382882
000010 4d e2 fd 3b f9 d0 34 0c ac 35 ae 3b d6 03 25 23
       0.0077479244 1.3929581e-31 0.005316457 8.94548e-18
