model_valiant_disco_44.pth (torch, 153182 bytes, 83 tensors)

input_conv.conv.weight f4 [8, 2, 3, 3]
000000 27 15 81 3d bc b5 5e be be 15 d0 3d 1f 0c 40 3d
       0.063028626 -0.21749014 0.10160397 0.04688656
000010 86 51 6e be 65 f3 1c 3e cb 63 17 3e f7 b4 11 be
       -0.23273286 0.15327223 0.14784162 -0.14229189
000020 d9 ce a8 bd d4 db 8b 3d a3 1a 3d 3c e4 69 1a be
       -0.08242578 0.06829038 0.011541995 -0.15079457
000030 2e 18 37 3e dd 1a 85 be 79 55 2b be 13 6d 57 bd
       0.17880318 -0.25997058 -0.16731824 -0.052594256
000040 94 31 0c be 4b b2 c5 3d 60 f9 3e 3d ba 07 2b 3c
       -0.13690788 0.09653147 0.04662454 0.010438854
000050 0a d8 3d be 5a bf ed 3d 61 2a d8 3d 93 8b 02 bd
       -0.18539444 0.11608763 0.10554958 -0.03187139
000060 50 7f 14 be a6 45 f8 bc 89 4f 29 3e 09 f1 47 bd
       -0.14501691 -0.030306648 0.16534247 -0.048813853
000070 4e be 92 3e a7 ec 51 3e 35 b7 c9 bb ef e4 c6 bb
       0.28660816 0.20500432 -0.006155873 -0.0060697715
000080 62 57 3f 3e ed 9d 09 bc ab 0b 52 bd b6 1f 91 bc
       0.18685678 -0.008399469 -0.05128066 -0.017715316
000090 c3 1c 40 bd 94 85 04 3e 76 32 b9 3c b1 fe 95 3c
       -0.04690243 0.12941581 0.02260707 0.018309923
0000a0 cc e6 05 be 09 ff 8f be d5 bd 75 3e 0c 77 bf 3d
       -0.13076323 -0.28124264 0.23998196 0.09348878
0000b0 76 31 16 be 8f 4e 59 bd 66 ee c7 3d c1 1b d1 3d
       -0.14667305 -0.053053435 0.09762268 0.10210372
0000c0 98 da 6e be 61 72 10 3e 31 73 48 3d 70 da 33 be
       -0.23325574 0.14106132 0.04893798 -0.17563796
0000d0 d3 6b 00 be 17 68 77 3d 2f e2 e2 bc 33 b7 1c be
       -0.12541132 0.060402002 -0.027695743 -0.1530426
0000e0 53 c1 d5 3c e5 0e 04 bd 54 79 14 be db 09 00 3e
       0.02609316 -0.032240767 -0.14499408 0.1250376
0000f0 d7 47 fd bd 13 02 85 3e 9a 8c 37 be bc df 5c 3e
       -0.12367218 0.25978145 -0.17924729 0.21569723
000100 5d 77 d8 3d 48 2e 0c bb f4 a6 88 be 7d 9b 58 3e
       0.10569642 -0.002138989 -0.26689875 0.21153064
000110 80 b7 bf bd db d3 16 3e d2 36 ef 3b 6a 1a d9 bb
       -0.09361172 0.14729254 0.0073002363 -0.0066254633
000120 a7 ac b5 3d 29 85 af bd e0 97 48 3e 65 0a 92 3d
       0.088708214 -0.0857032 0.19589186 0.07130889
000130 f9 c0 09 bd 41 96 80 bd 50 dd 19 3e 10 84 52 3d
       -0.0336313 -0.06278659 0.1502583 0.051395476
000140 2e 84 4c 3e d9 e2 aa be 60 f8 01 3d e3 e8 f3 3d
       0.19972298 -0.33376196 0.03173101 0.11909654
000150 fb c7 99 bd e3 69 82 3c 2d 8f 7a 3e 50 c0 60 be
       -0.07508846 0.015919631 0.2446868 -0.21948361
000160 fa ed 01 3e e0 db 77 3c 5e 72 8e bb 27 04 8e 3d
       0.12688437 0.015128106 -0.0043471297 0.06934386
000170 df 3a 49 bb 4e 85 57 3e c2 19 43 be ce 86 11 bd
       -0.0030705256 0.21046945 -0.19052795 -0.03552895
000180 e0 e0 22 3e 02 eb 3c 3e 3d 40 9d 3d 94 ef d1 bd
       0.15906096 0.18449023 0.07678268 -0.10250774
000190 f6 70 2a 3e 8b d2 6c be e8 ee 3f 3e de 0f 09 be
       0.16644654 -0.23127191 0.18743479 -0.13384959
0001a0 84 39 17 be e0 d8 8b be c5 0d 41 3e 87 27 01 be
       -0.14768034 -0.273139 0.18852909 -0.12612735
0001b0 3f f3 da 3c 9b ec 91 bd 89 8f f9 3d 2f 90 07 be
       0.026727317 -0.07125207 0.1218558 -0.13238595
0001c0 d5 50 0f be 03 46 07 3d 5d f2 8e be 7f d1 27 be
       -0.13995679 0.033025753 -0.27919284 -0.1638851
0001d0 1c 38 12 3e e5 1c 1d 3e a6 2e 30 be c8 e4 fe bc
       0.14279217 0.15343054 -0.17205295 -0.03111495
0001e0 85 64 44 3e c4 bf 6d 3d 60 d0 95 3e 14 f2 22 3e
       0.1917897 0.05804421 0.2926054 0.15912658
0001f0 99 4a 81 bd 39 cb 21 3e aa ab 00 be 76 70 0f be
       -0.063130565 0.1580018 -0.12565485 -0.14007744
000200 81 70 2d be 3d bf ad bd f0 97 89 bd 28 b2 bb 3d
       -0.16937448 -0.084837414 -0.06718433 0.0916484
000210 9d 5c 4d 3d 0d df ae bc 5d 2b 8b 3e ea 11 cb ba
       0.05013715 -0.021346593 0.2718152 -0.001549301
000220 36 aa 54 bd 25 ce 98 3d 0d dd 35 be 5d 8b 97 bd
       -0.05192014 0.07461194 -0.17760105 -0.07399628
000230 97 04 95 bc ec 9d 0f 3e 9e f5 64 3e 1f 35 81 be
       -0.018190665 0.14025086 0.2235932 -0.2523584

input_conv.conv.bias f4 [8]
000000 73 8a 16 39 af 4e 1b b9 09 b9 58 39 78 4a 8e 39
       0.00014356691 -0.00014811264 0.00020668296 0.00027139834
000010 37 06 45 b7 0e 4d a9 39 bd d6 3f b9 92 12 56 b9
       -1.1743562e-05 0.00032291602 -0.00018295176 -0.00020415548

input_conv.bn.weight f4 [8]
000000 0c 4c 18 3f d0 10 2f 3f e4 a8 35 3f 47 03 4a 3f
       0.5949104 0.6838503 0.7096083 0.7891125
000010 32 66 4b 3f 3d 66 64 3f 60 b8 44 3f a3 85 45 3f
       0.7945281 0.89218503 0.76843834 0.7715704

input_conv.bn.bias f4 [8]
000000 af 05 ac 3d 27 5f 9d 3d 37 e1 d6 bd 0f e6 d0 bd
       0.083995216 0.076841645 -0.10492175 -0.1020013
000010 94 c0 0e 3d 5c da a7 3d aa 42 fb bd 29 db 92 bd
       0.034851626 0.081959456 -0.122685745 -0.07170708

input_conv.bn.running_mean f4 [8]
000000 4b 59 cb bd 92 85 a6 3d 19 6c 27 bd bc aa 7e 3c
       -0.09929141 0.08130945 -0.040874574 0.015543636
000010 75 e3 a4 3d 17 c1 98 3b 1e 29 38 3d c8 b8 09 bd
       0.080511965 0.00466169 0.044961087 -0.033623487

input_conv.bn.running_var f4 [8]
000000 0e ba 57 3d fc 4c 18 3d 2e 1d 22 3d c3 35 48 3d
       0.05266767 0.037182793 0.03957861 0.048879396
000010 86 dd 44 3d d3 b3 f5 3c 25 b2 32 3d a2 21 40 3d
       0.048062824 0.029992973 0.043626923 0.046907075

residual_tower.blocks.0.conv1.weight f4 [8, 8, 3, 3]
000000 c2 23 47 3d 15 3e 9b bd 40 a4 88 bb 3a c9 88 3d
       0.048618086 -0.075802006 -0.0041699708 0.06679006
000010 7c cd 7d 3d 59 0b b6 3c ec 66 39 3e e3 31 be bb
       0.061963543 0.022222208 0.18105668 -0.005804287
000020 11 d7 48 be 28 22 27 bd 5b 3e 9e bd 0a 71 ae bc
       -0.19613291 -0.04080406 -0.07726737 -0.021294136
000030 0e fe 99 bb 41 89 b5 3c ed 11 86 3c 82 50 01 3d
       -0.004699475 0.022160174 0.01636597 0.03157092
000040 6b 5b e6 3c b4 30 7d 3d db d4 b1 3d ee 95 9a bd
       0.028119763 0.061814025 0.08683177 -0.07548128
000050 d9 1d 9f bd fc 05 2c 3d 83 08 b1 bc 90 e0 84 bd
       -0.07769365 0.041997895 -0.021610504 -0.064881444
000060 f3 eb c4 bd d4 f1 81 bd fa 20 7b 3c 9a ea c1 bc
       -0.09615316 -0.06344953 0.015327686 -0.023671437
000070 83 16 a8 bd d4 b0 35 be 4a d7 ca 3d 15 72 0d be
       -0.08207419 -0.17743236 0.099043444 -0.1381305
000080 a4 6e 1e be 9d a9 32 3d 08 ba 92 bd e8 7a 26 bd
       -0.15471894 0.043618787 -0.07164389 -0.040644556
000090 0d e3 3e 3c 73 99 53 bd 1f aa 44 3e 65 8b ff 3d
       0.011650813 -0.051660012 0.19205521 0.12477759
0000a0 85 11 4e bc 95 7b 39 be a1 e1 8b 3c 0e 93 34 3e
       -0.012577419 -0.18113549 0.017075362 0.17634222
0000b0 93 85 f0 3c 78 f7 a2 3d 30 d5 70 bd df 03 2e 3e
       0.029360568 0.07957357 -0.05879706 0.16993664
0000c0 f3 ff 03 bd aa bb 96 3d d4 94 2c be 00 ca 90 bd
       -0.032226514 0.07360013 -0.16853648 -0.070697784
0000d0 8f ca 33 be 10 fc d4 bc 04 8f c5 3d 2d 75 68 bd
       -0.17557739 -0.025999099 0.09646419 -0.056752373
0000e0 69 9a a0 bd 56 2d 2a be f2 66 49 bc 75 6e 01 be
       -0.078419514 -0.16618857 -0.0122926105 -0.12639792
0000f0 3f e5 41 3d 07 3c c5 bd 86 88 57 3d fe c3 70 bd
       0.047337767 -0.0963059 0.052620433 -0.058780663
000100 23 16 8a bd a2 5b 59 3d 31 4a a5 3c 83 23 83 bd
       -0.067425035 0.053065903 0.020176979 -0.06403258
000110 bd 2f 58 bc 5b 9d 96 bd 38 1d 26 3e d3 98 82 3c
       -0.013194975 -0.07354232 0.16222084 0.015942013
000120 fb 93 9c 3c 03 f4 1b 3d bf ad a0 bd 11 0e b5 3c
       0.019113531 0.038074505 -0.078456394 0.022101434
000130 1a 0b 16 3e 30 c1 1d be b0 0e e0 bd 0f fb f7 3d
       0.14652672 -0.15405726 -0.109403014 0.121084325
000140 c5 04 0d 3e 0e 66 87 bd b0 34 bc 3c 69 6d bc 3a
       0.1377135 -0.06611262 0.022974342 0.0014375868
000150 f5 83 98 bc 56 69 e5 bc 2b a1 a5 bc 04 b7 12 3d
       -0.01861761 -0.02800433 -0.020218452 0.03581907
000160 e5 e0 8b bd f8 ca 7d bd c4 6a 62 bc d0 29 61 3b
       -0.068300046 -0.061961144 -0.0138194 0.0034357198
000170 78 c1 d4 bd ca c8 0e bb 0d 1b b2 3d 53 92 ac bd
       -0.10388464 -0.002178716 0.08696566 -0.08426347
000180 87 92 54 3e 12 6f 0f bd a9 89 30 3d 70 a6 d1 bd
       0.20759021 -0.035018034 0.043100033 -0.102368236
000190 14 ae 29 be d3 ef 02 be 8a 43 b0 3d 3a 6a dd bc
       -0.16570312 -0.12786798 0.08606632 -0.027028192
0001a0 65 59 06 3d a3 81 2d bd db 74 6f bd fc fd 0d 3c
       0.032800097 -0.04235996 -0.05846105 0.008666512
0001b0 4b 69 df bb 5c 1b 75 3d 82 5e bc 3d 41 36 37 bd
       -0.006817972 0.059840545 0.091977134 -0.044729475
0001c0 c4 09 9b 3d ac a2 08 be 43 c0 ce 3d e1 06 11 bd
       0.07570222 -0.13343304 0.10095265 -0.03540695
0001d0 d8 3f 9f bd a5 e5 07 be fb 66 01 be e6 e8 a6 3d
       -0.07775849 -0.13271196 -0.1263694 0.081498906
0001e0 10 b0 0e 3e 2d 04 47 bc ab e2 e3 3c b3 c8 1f bd
       0.1393435 -0.012146992 0.027818045 -0.03900976
0001f0 0c 0a 89 bd d3 26 a6 bd 8e 23 1f bb 1d 7e 04 3e
       -0.066913694 -0.08112874 -0.0024282667 0.12938733
000200 af 3a ae bc 1e 5d 1a be 25 68 69 3d 44 fd e3 bc
       -0.021268217 -0.15074584 0.056984086 -0.027830727
000210 c8 ed 45 be cb de 21 bd eb 63 d7 bd 80 e2 ba bc
       -0.19328988 -0.039519113 -0.10517105 -0.022813082
000220 d3 7f 2f bd 76 5b 05 3e f5 53 0d be f8 8d 8d bc
       -0.042846512 0.13023171 -0.13801558 -0.01727961
000230 4e 46 f5 3d 6b d9 c0 bd af c2 32 3e af 7a 4b be
       0.119763 -0.09416469 0.17457078 -0.19871019
000240 07 e9 91 3d 30 8d c0 bc e3 de d7 bc 24 54 eb 3d
       0.071245246 -0.023504823 -0.026351398 0.11490658
000250 5d 3e 26 bd ba 6e c7 bd 71 47 72 3c e5 24 c6 bc
       -0.040586818 -0.09737916 0.014787541 -0.024187515
000260 b0 28 a9 bd 9a 34 06 be 77 c1 65 bd a2 da 9a 3d
       -0.08259714 -0.13106003 -0.056092706 0.07561232
000270 ef d3 ba bc 49 d5 ce bd ab 04 59 bd 66 15 00 be
       -0.022806136 -0.10099275 -0.052982967 -0.12508163
000280 69 d4 43 be c3 74 88 3d de f9 48 3e 33 8a aa bd
       -0.19123997 0.066628955 0.19626567 -0.08327141
000290 88 20 7c bb 60 50 f0 bd df fa cc bd 3c dc d3 bd
       -0.0038471539 -0.1173408 -0.10008787 -0.10344741
0002a0 92 b5 86 bd d7 d8 2c bd e5 e6 54 bd 38 0f 13 3c
       -0.065776005 -0.042198982 -0.05197801 0.008975796
0002b0 40 2d 27 bc 39 db 39 3d 42 df 25 3d 33 8f 2a 3e
       -0.01020366 0.045375083 0.04049612 0.16656189
0002c0 31 04 28 bd 32 54 4b 3d 8f 48 28 3d c9 02 07 be
       -0.041019622 0.04964084 0.041084822 -0.13184656
0002d0 b4 c0 98 bd 00 41 4a 3d 63 16 de 3b 71 e0 5f bd
       -0.0745863 0.049378395 0.006777571 -0.054657403
0002e0 5e 59 64 bc c9 7a 86 3d 9b c9 c5 bd bb a9 17 3e
       -0.013937322 0.06566388 -0.09657594 0.14810841
0002f0 66 b0 0a 3d 3f 19 77 3d fc 84 02 3e ee b9 e9 bd
       0.033859633 0.06032681 0.12746042 -0.114124164
000300 d5 94 49 3e bf 28 7f bd 3b 89 19 be 30 cb b4 3c
       0.19685681 -0.062294718 -0.14993756 0.022069544
000310 57 f3 85 bd f2 ea d5 bd 3c f4 45 bd c0 4f 39 3d
       -0.06540554 -0.10445203 -0.048328623 0.04524207
000320 cc 7a 90 3d 3d 92 eb 3d b0 13 a0 bd b9 8f 5d bc
       0.07054672 0.11502502 -0.07816255 -0.013523036
000330 76 01 1f 3e a6 d7 b7 3d 25 93 dc 3d 3a d2 d6 bd
       0.15527901 0.089766786 0.10770253 -0.10489316
000340 bb f0 f2 bd ae 76 ec bd a7 04 cf bd e4 03 6e 3d
       -0.11862322 -0.11546074 -0.10108309 0.05810918
000350 e3 43 f1 3d 87 cf fb 3d b1 6b 95 3d ed a8 4e 3d
       0.117805265 0.12295442 0.07295931 0.05045407
000360 b1 12 04 3b 0d 33 66 bd 97 c6 ea bd b1 1c 8e bd
       0.0020152743 -0.05620103 -0.11463659 -0.06939066
000370 f8 5b 72 3d a7 ff 4a 3c b2 8b 9f 3c 6c 1c 87 bd
       0.05916974 0.012390054 0.019475792 -0.06597218
000380 5b d2 f1 bd ff 50 a1 bd 60 bf 82 3d 27 3e 7b bd
       -0.118077 -0.07876777 0.06384158 -0.06133857
000390 18 23 1a 3b 04 6c 1e be 89 0e 9b 3d c5 5f 3b 3e
       0.0023519453 -0.15470892 0.07571132 0.18298252
0003a0 9a 87 f6 3d be fd dc bd 51 64 f9 bd f5 7c 70 bc
       0.12037583 -0.10790585 -0.12177337 -0.01467823
0003b0 5a 1f 2a be bf bd 0f 3e 6d 17 97 3c d9 91 6a bd
       -0.16613522 0.14037226 0.018443787 -0.057267997
0003c0 f7 f3 cb 3c 29 14 d1 bb bc 7d 7a bd 85 9c b2 3d
       0.024896605 -0.006380577 -0.061155066 0.0872126
0003d0 10 0f 01 bd d0 ba 1a 3d a4 fb 46 3d 91 25 94 bd
       -0.031508505 0.037775815 0.048579827 -0.07233728
0003e0 df 35 04 be 8f b0 9f bd a5 43 f5 3d 0e 4c ae bc
       -0.12911175 -0.07797348 0.11975793 -0.0212765
0003f0 22 49 a6 bd 6b a1 3e 3b e4 0c 68 bd 45 64 5b bd
       -0.08119418 0.0029087912 -0.05665292 -0.05356242

residual_tower.blocks.0.conv1.bias f4 [8]
000000 eb 33 04 b9 d3 74 10 b8 99 14 a1 38 16 a3 88 38
       -0.00012607842 -3.4441076e-05 7.680915e-05 6.5153625e-05
000010 02 63 49 38 e0 99 a8 36 58 f1 14 b8 8d 12 fa 36
       4.8014343e-05 5.0247036e-06 -3.551072e-05 7.45274e-06

residual_tower.blocks.0.bn1.weight f4 [8]
000000 3b 47 24 3f e9 1d 1b 3f a0 90 21 3f d0 3e 1b 3f
       0.6417119 0.60592514 0.63111305 0.6064272
000010 d0 57 15 3f 8c 16 45 3f ab 96 25 3f 6b b3 28 3f
       0.58337116 0.7698753 0.64683026 0.6589877

residual_tower.blocks.0.bn1.bias f4 [8]
000000 98 b7 2d be 8e 13 a9 bd 5e a7 20 be 82 ac 39 3d
       -0.16964567 -0.08255683 -0.15688846 0.045330532
000010 56 ef 83 bd e4 3c 9c 3d 01 ae 4c bd 8e a1 37 be
       -0.06442134 0.076288015 -0.04997063 -0.17932722

residual_tower.blocks.0.bn1.running_mean f4 [8]
000000 f0 56 60 be 5b 45 5b be 2c 3a e9 bd 8d 2e c5 be
       -0.21908164 -0.21413176 -0.113880485 -0.38512078
000010 14 59 85 3e 19 cd 0f 3e 2c a4 a1 be 9f b6 ad 3e
       0.26044524 0.14043082 -0.31570566 0.3392839

residual_tower.blocks.0.bn1.running_var f4 [8]
000000 59 29 25 3e 37 68 3d 3e be b1 2f 3e c2 b9 94 3e
       0.16129054 0.18496786 0.17157647 0.29047972
000010 61 20 41 3e c3 2c 74 3e b1 37 64 3e 7e c8 4e 3e
       0.18860008 0.238452 0.2228687 0.20193669

residual_tower.blocks.0.conv2.weight f4 [8, 8, 3, 3]
000000 06 f2 30 bc 1b d9 33 3c 2d ed 89 bd 1f cc fe bd
       -0.01079989 0.010977055 -0.06734691 -0.12441277
000010 1f 83 d8 bd fd d9 14 ba 73 6e 31 3d de b4 67 3d
       -0.10571884 -0.0005678235 0.043318223 0.056568973
000020 96 38 d3 bd 8c bf af 3c 25 93 a9 3d dd 9e 2c bd
       -0.10313527 0.021453641 0.08280019 -0.04214369
000030 cd be df bb cf c4 00 be 23 99 eb 3d 2f ca c3 bd
       -0.006828165 -0.12575077 0.11503818 -0.09560048
000040 b1 29 96 bd 81 b7 46 3c e3 d1 b9 3d bf d4 c2 3c
       -0.07332171 0.012128712 0.09073236 0.023783086
000050 79 be fd bd c1 1b 8a bc 0f 75 9a bc d4 db aa 3b
       -0.123898454 -0.016858937 -0.018854646 0.005214194
000060 c9 82 7a 3c 63 ec 34 bc 77 a3 05 be 6d ed cd bc
       0.015289971 -0.011042687 -0.13050638 -0.025137627
000070 37 23 c0 bc 62 fe 3f bd 25 3c 87 3d 84 a2 33 bd
       -0.023454292 -0.046873458 0.066032685 -0.04385616
000080 de b2 02 be e2 f8 b7 bc 9d e3 b6 3c cf 86 2f 3d
       -0.12763545 -0.022457544 0.022325331 0.042853173
000090 b4 87 8a 3d 45 3b 30 bd 30 d8 76 bd 76 28 5f be
       0.067641646 -0.043025274 -0.060264766 -0.21792778
0000a0 e8 7e a7 bd 17 2e 8e bd 1e 1d 10 be 35 5c 0b bd
       -0.08178502 -0.06942385 -0.14073607 -0.034023482
0000b0 88 26 1f bd ef 40 f4 bd 5c 0f af bc 51 80 09 be
       -0.038855106 -0.119264476 -0.021369629 -0.13427855
0000c0 c6 e5 84 3c d8 aa 54 3d 0f 60 78 3c ab 00 c5 bd
       0.016222846 0.05192074 0.015159621 -0.09619268
0000d0 e6 0b b5 3b 09 8d b3 bc 17 54 aa 3d e9 9e f7 bd
       0.0055251 -0.021917837 0.0831682 -0.120908566
0000e0 d0 0e d1 bd be b5 21 3e 0b f0 63 bd 3f 66 4c 3c
       -0.102079034 0.15791985 -0.055648845 0.012475549
0000f0 ea 05 6a 3d b4 8b 11 3c 1f 66 e3 bd 08 44 16 bd
       0.057134546 0.0088834055 -0.111034624 -0.036685973
000100 8c a2 25 3e f8 3f 61 bd 1c 10 b7 bc ab 31 96 3d
       0.16175288 -0.054992646 -0.022346549 0.07333692
000110 c2 cf 73 bd c0 5f 25 3e 6d ee fc bc cd 99 87 be
       -0.059524305 0.16149807 -0.030875409 -0.26484528
000120 2b b5 54 bd bd 18 5f 3b db f9 fc bd 14 bf 47 be
       -0.051930588 0.0034041845 -0.12352344 -0.19506484
000130 bb e9 4b 3e 85 f9 ac 3c 73 a9 d6 3c 82 10 8a bd
       0.1991338 0.021115074 0.026203847 -0.0674143
000140 20 cf 57 bd 98 f6 88 3d a7 a2 b7 bd 8f 5a ca bc
       -0.052687764 0.06687659 -0.0896657 -0.024701385
000150 5a 4b 0f 3e 12 f4 d9 bc 58 cb e3 3d 47 60 f8 bd
       0.13993588 -0.02660564 0.11122769 -0.121277384
000160 61 b7 a7 3d fd 35 9a bd 96 da 17 bd 2a cc 2a bd
       0.081892736 -0.07529829 -0.037073694 -0.041698612
000170 c2 6b 69 bd 4f 00 f3 3d 50 74 4c 3d 6b d9 84 bd
       -0.05698753 0.11865293 0.04991561 -0.06486782
000180 7f 61 a0 bd 0e f2 85 3d 51 fd 7f bd 39 26 a3 bc
       -0.07831096 0.06540309 -0.06249744 -0.019915687
000190 3e d3 55 3c ec 92 95 3c 05 e4 17 3d 2a 4a 8d bd
       0.013050852 0.018258534 0.03708269 -0.06898911
0001a0 78 06 a3 3d 2c 0d 80 bd c7 60 65 bd fa e4 a1 bd
       0.07960218 -0.06252512 -0.056000497 -0.07905002
0001b0 8d 16 ad bd 4b 32 d4 bd fa 9a d9 bd cd 87 17 3e
       -0.08451567 -0.10361155 -0.106252626 0.14797898
0001c0 a5 c7 00 bd 26 76 af bd a2 a8 8f bb b7 b1 ba bc
       -0.031440396 -0.08567457 -0.0043841163 -0.02278982
0001d0 72 12 59 3d 4c c7 c0 3d eb 6d 4d 3d 90 1e d6 bd
       0.052996106 0.09413013 0.050153654 -0.10455048
0001e0 29 33 03 bc 49 73 63 be 6b 68 fb bb 10 43 a0 b8
       -0.008007803 -0.22211947 -0.0076723597 -7.641886e-05
0001f0 49 6c 78 39 a2 c7 ab 3d cf 45 ba 3c 68 1a 40 bd
       0.00023691462 0.08387686 0.022738365 -0.046900183
000200 6c 63 61 3d 61 6c 9e bd e0 98 d2 bd 05 37 85 bc
       0.055026457 -0.077355154 -0.10283065 -0.016261587
000210 f8 c5 de bc 66 7c 7e bd 70 9c c3 bd 9c de e3 bc
       -0.027194008 -0.062130354 -0.095513225 -0.02781611
000220 ec b6 82 bd 9e cd ff bc 00 3f b1 bd db 38 1b bd
       -0.06382546 -0.031225976 -0.086545944 -0.03789602
000230 6e 42 3c be 30 e7 8c 3d d4 c7 2a 3e 1c ee 85 3c
       -0.18384716 0.06880033 0.16677791 0.016348891
000240 2c 58 ba bd 6e 0a ea bc 6e a8 a6 bc bd 6f 4f 3b
       -0.09098849 -0.028569426 -0.020343985 0.0031652295
000250 cc d9 0f b9 0e 35 05 be 2e f7 9e bd d6 b8 77 3c
       -0.00013718678 -0.1300852 -0.077619895 0.015119752
000260 ec 3c 3c bd 9b a9 55 3d 19 91 8e 3c c6 cb 05 3d
       -0.045956537 0.0521637 0.017403172 0.032665037
000270 85 47 60 bd 64 eb 46 3d 7b 35 5c 3d 09 4f 27 3d
       -0.054755706 0.04856433 0.05376194 0.04084686
000280 ca df 10 bb 0a 59 b1 3d 3c d7 e2 3c fc 15 6f 3d
       -0.0022106045 0.08659561 0.027690522 0.058370575
000290 2c 7e 20 3e ec a5 48 3d ae 82 f8 bd af 46 09 3c
       0.15673131 0.04898636 -0.121343 0.008378669
0002a0 56 cf 81 bd 7b e4 60 bc b7 80 35 be 47 fe 65 bd
       -0.06338374 -0.013726349 -0.17724882 -0.0561507
0002b0 03 5a be 3d 5f 36 a4 3d 5c 78 29 be 8a e8 f9 bd
       0.09294512 0.08018183 -0.1654982 -0.122025564
0002c0 ff dd e4 bd 5f 4f ef bd ed 37 83 3d 62 ff 11 3e
       -0.11175155 -0.11685061 0.06407151 0.14257577
0002d0 68 5b 99 bc 9f 45 b8 bd b2 32 6a bd 8b 18 7c bd
       -0.018720344 -0.08997654 -0.057177253 -0.061546843
0002e0 3a 3d f9 bb a9 4c c3 bd d6 a1 9b bd 75 80 20 3e
       -0.0076061757 -0.09536106 -0.07599227 0.15674002
0002f0 e8 61 56 be 9c f7 e1 3c 30 1d 0f 3e 55 1c 90 3d
       -0.20935786 0.02758389 0.13975978 0.07036654
000300 36 dd 20 3d f1 b4 fd bd 10 b8 a3 3d 25 1a c2 3d
       0.039273463 -0.123880275 0.079940915 0.09477643
000310 cd 10 62 3e 5b f7 13 3e 06 de 0d bc 0d a9 d4 3d
       0.22076721 0.14449827 -0.008658892 0.103838064
000320 c5 15 bd 3c fa 53 e6 3b 6f c2 2b bd 8a 3f 9d 3b
       0.02308167 0.0070290538 -0.041933473 0.004798834
000330 bd 77 84 bd 09 4b 27 3e 08 ac 8a bd 7c 5b 0e be
       -0.06468151 0.16337217 -0.067710936 -0.13902086
000340 b0 b5 16 bd 62 fa 16 3d e6 e5 e4 3d 93 64 b0 bc
       -0.036794364 0.036859877 0.11176662 -0.021532333
000350 3d f1 e1 3d c3 09 ae 3d ac a7 bb bc 35 8c 8e 3c
       0.11032341 0.08497956 -0.0229071 0.01740084
000360 21 e8 08 be 59 64 a7 3c af f1 86 3d 11 5c e9 3d
       -0.133698 0.020433592 0.06589066 0.113945134
000370 43 13 b9 bd b9 d8 83 3d 0a b5 04 3c 8b 58 c2 3d
       -0.09036877 0.06437821 0.008099804 0.094895445
000380 44 ed 2f 3d d9 8c 02 be d4 b4 40 3d 75 b2 c6 bd
       0.042950884 -0.12749042 0.04704745 -0.09702007
000390 f7 20 95 be 54 68 d8 bc 18 10 be 3c f5 8c ee 3c
       -0.29126713 -0.026416935 0.023201033 0.029119948
0003a0 6f 5f 84 bc 89 80 a0 bd 1b 8c aa bd 40 26 53 bd
       -0.016158788 -0.07837016 -0.08327504 -0.05155015
0003b0 75 8a 0d 3c 11 93 f5 bc 1f 3d 57 3e 3c 16 18 bd
       0.008638968 -0.029977353 0.2101941 -0.03713058
0003c0 24 e7 20 3d 97 32 ce 3c 20 ab 7e 3d 38 49 b5 3d
       0.039282933 0.025170607 0.062174916 0.08851856
0003d0 84 8b 61 3c c7 10 81 be 50 d0 ff bd e6 39 49 3d
       0.013766173 -0.25208113 -0.12490904 0.049127482
0003e0 b9 4c 67 3d d0 f9 13 bd 8f 89 10 bd 91 19 b4 3c
       0.056469653 -0.03612691 -0.035287436 0.021984847
0003f0 0a 2b a6 bc 4b 9b a9 3d 8e f8 a6 3d bd 42 02 3c
       -0.020284194 0.08281573 0.08152877 0.007950482

residual_tower.blocks.0.conv2.bias f4 [8]
000000 40 20 2b 36 97 68 7d b8 cf 09 90 38 fc 20 b4 b7
       2.5499758e-06 -6.0417307e-05 6.868282e-05 -2.1473032e-05
000010 38 36 c3 38 f3 a3 9d 38 7c 14 02 39 39 83 d7 b5
       9.3084236e-05 7.516881e-05 0.00012405397 -1.6056939e-06

residual_tower.blocks.0.bn2.weight f4 [8]
000000 9d c1 18 3f b6 f1 08 3f 03 0f 2e 3f e4 f5 2c 3f
       0.5967043 0.5349382 0.67991656 0.675627
000010 c3 7d 29 3f 90 09 2a 3f d8 4c 2c 3f 47 8f 1d 3f
       0.6620752 0.6642084 0.67304754 0.6154675

residual_tower.blocks.0.bn2.bias f4 [8]
000000 60 1e 94 bc fe 76 a0 3d 14 92 56 bd 84 34 7d bd
       -0.01808089 0.07835196 -0.052385405 -0.06181766
000010 27 19 e9 bc 88 13 ed bc af 79 c0 bd ca 1f 22 bd
       -0.028454376 -0.028939977 -0.09398209 -0.039581098

residual_tower.blocks.0.bn2.running_mean f4 [8]
000000 a0 38 9b be c5 63 65 be aa 32 c3 3d eb 8e 59 3e
       -0.3031664 -0.2240134 0.09531148 0.21245925
000010 da 39 af 3d 2d 1f 47 bd 86 4a e0 be 6e d0 b4 be
       0.08555956 -0.048613716 -0.43806857 -0.3531527

residual_tower.blocks.0.bn2.running_var f4 [8]
000000 21 73 a3 3d 01 24 9c 3d 23 c9 ad 3d 91 27 07 3e
       0.079809435 0.07624055 0.084856294 0.13198687
000010 1b e2 a3 3d 48 54 ac 3d 76 7b 05 3e e9 cf 81 3d
       0.080021106 0.08414513 0.13035378 0.06338484

residual_tower.blocks.1.conv1.weight f4 [8, 8, 3, 3]
000000 b9 f5 ad bd c7 ad 94 3c 8c 12 94 bd 7d 9f 98 3d
       -0.084941335 0.01814927 -0.072301 0.07452295
000010 1d 04 b6 3d 8d 92 13 3e 25 03 83 3d c6 31 99 3c
       0.08887503 0.14411373 0.06397084 0.018700492
000020 bb 15 06 be ca 52 ca 3b 1b 6b 31 3d 7a a5 8e 3d
       -0.13094227 0.00617442 0.043315034 0.06965156
000030 f4 0c 05 3e ab a0 96 3b a8 63 bf bd 33 51 c7 3d
       0.12993222 0.00459679 -0.0934518 0.097322844
000040 41 d0 88 bc f5 01 9c bd e8 3c b0 3d 8d 90 51 be
       -0.016700866 -0.07617561 0.08605367 -0.20465298
000050 9e 23 97 3d 64 6c 75 3d a9 70 fe bd 4d 11 3e 3d
       0.0737984 0.059917822 -0.12423832 0.046403218
000060 cb 1e d2 bc de c1 3b bc 85 34 e0 3d bc b8 f6 bc
       -0.025649449 -0.011459796 0.10947517 -0.030117385
000070 4c c8 8e bd 1b d8 68 bd 6a 16 24 be fa c9 c4 bd
       -0.06971797 -0.05684672 -0.16024175 -0.096088365
000080 7d 7c 56 3d d5 d9 1d 3d 5e a7 c7 3d e6 b2 fe 3d
       0.052364815 0.03853782 0.0974872 0.12436466
000090 98 18 83 bd ac b0 69 bd 51 3f fb 3c f3 72 47 bd
       -0.06401175 -0.057053253 0.03066984 -0.04869361
0000a0 94 c6 ed 3c 1f 32 e8 bd 18 ff 0a 3c e8 b5 9e 3d
       0.029025353 -0.11337685 0.008483671 0.077495396
0000b0 b2 49 ae bd 3c ad ea bb 3c 51 6b 3d e7 f0 1a 3e
       -0.0851015 -0.0071617644 0.057450518 0.1513096
0000c0 78 09 a7 bc e3 ad fb bd 7f 0b d6 bd de 56 31 3e
       -0.020390257 -0.12289026 -0.104514115 0.17318293
0000d0 60 e2 a6 bc 3c 19 5f bd 85 91 9f 3d d6 dd 3b 3d
       -0.020371616 -0.054467425 0.077914275 0.045865856
0000e0 f0 49 d8 bb b3 e6 ab bc 3f b5 59 3d 56 a8 4a 3d
       -0.006600611 -0.02098403 0.053151365 0.049476944
0000f0 d0 99 0a be 0c 65 93 3c 17 a4 45 bd f9 03 c5 3c
       -0.13535237 0.017992519 -0.04825219 0.024049746
000100 88 f3 24 3c 71 0f a4 bb 10 1e 90 bd 92 d0 b9 3c
       0.010067828 -0.0050067236 -0.07036984 0.022682462
000110 c4 4a 1e bc 96 b8 a7 3d 54 9f 34 3e 81 f9 ec 3d
       -0.00966138 0.08189504 0.17638904 0.115710266
000120 18 18 08 3a 8a 2e 1c bd ce d8 a3 3d b0 5e 56 bd
       0.00051915785 -0.03813032 0.080003366 -0.052336395
000130 74 47 6e 3d 2d f0 22 be ba b9 24 3d fa 35 36 3d
       0.05817361 -0.15911932 0.040216185 0.04448507
000140 eb ac c0 3d bf 8b 80 bd 06 8c 9b bd 92 df 6a bd
       0.094079815 -0.062766545 -0.07595067 -0.05734212
000150 06 cd 79 3d 17 95 51 3d 6f f6 df 3d ae 90 11 bd
       0.06098654 0.051167574 0.10935675 -0.035538368
000160 9b dd e6 3c 6f f3 da bc 38 3e 18 bd b2 42 df bd
       0.028181842 -0.026727406 -0.03716871 -0.10901393
000170 a3 cb 24 bd ba 8c cc 3b 12 a4 e2 3d 6e 6b 93 bd
       -0.040233266 0.006242362 0.1106645 -0.07198225
000180 a9 09 b2 bd c0 8b 8c bd 48 34 09 3c b5 1b 59 3d
       -0.08693249 -0.06862593 0.008374281 0.05300494
000190 30 d8 3b ba d3 4c c9 bd 70 57 cb 3d a9 5c 5f 3d
       -0.00071656983 -0.09829106 0.09928787 0.054531727
0001a0 a0 2c ac bd 46 d3 e5 bd 8a eb 25 bd 20 e0 19 be
       -0.08406949 -0.11221938 -0.04050783 -0.15026903
0001b0 b2 f1 0b 3e ac a0 25 be 35 6a 3e 3d 33 a5 16 3c
       0.13666418 -0.16174573 0.046488006 0.00919466
0001c0 92 37 e9 bd 45 13 9a 3c 0d 05 35 bb 2f bc 42 bd
       -0.11387552 0.018808017 -0.0027621419 -0.047542747
0001d0 f2 39 d7 bd db f5 8d bc 2b 07 ba 3c 72 be 6c bd
       -0.10509099 -0.017329147 0.022708496 -0.05779881
0001e0 71 99 e7 3d 49 81 83 bd 9d f8 98 bc e3 73 12 3b
       0.113085635 -0.064211436 -0.018673236 0.0022346906
0001f0 a9 0e 06 3d 41 d6 cc 3b 93 7e ae 3d 4a 53 bb 3d
       0.032728825 0.006251127 0.08520236 0.091467455
000200 d9 fa 18 3d 60 54 a8 3d 89 31 6d 3d 5d 30 34 3e
       0.037348602 0.08219218 0.05790857 0.17596574
000210 e9 51 99 3d 7c 17 5e bd 7e 22 6e 3d 64 6d 4a 3e
       0.07486326 -0.054221615 0.058138363 0.19768292
000220 c4 d8 91 3a 9a 69 06 be c8 ab b1 3b c7 e8 85 3d
       0.0011127223 -0.13126221 0.0054220892 0.065385394
000230 a5 c1 c3 3d 3e b6 9d bd 38 b9 a1 3d 8d 96 a1 bd
       0.09558419 -0.077007756 0.07896656 -0.078900434
000240 7e 30 b1 3d 19 01 5f 3e 8d 90 ba bd 5e 4e ac bd
       0.08651827 0.21777762 -0.09109602 -0.08413385
000250 d1 28 ef 3d 2f 81 57 bd ba 55 ea 3c 1d 08 d0 bd
       0.11677707 -0.052613433 0.02860533 -0.101577975
000260 e3 e1 91 3c bd 94 05 3c ce 3e 5d 3d 64 6e 82 bd
       0.017807906 0.008153138 0.054014973 -0.063687116
000270 1d ac 0f 3e c3 11 1a bd e5 c1 3a bd ef bd 73 3d
       0.140305 -0.037614595 -0.04559507 0.059507307
000280 23 07 2b 3e 51 09 54 3d bd 52 76 bd dc 91 72 3d
       0.16701941 0.051766697 -0.0601375 0.059221134
000290 34 e3 7c bd bb 0c 00 3e 51 d7 2e 3d 55 41 36 be
       -0.061740115 0.12504856 0.04268581 -0.1779836
0002a0 d1 c4 09 3e e0 83 05 be a4 9d c1 3d 18 9e 74 bd
       0.13453986 -0.13038588 0.09453896 -0.059721082
0002b0 19 cf 8d bc cc f2 9d bd 65 1f 57 3d 6b d0 0e 3e
       -0.017310666 -0.077123255 0.052520175 0.13946693
0002c0 50 f9 3b be fc 34 66 3c 5e e7 e7 bb 04 42 f8 b9
       -0.18356824 0.014050718 -0.0070771417 -0.00047351432
0002d0 1e a7 48 be 60 d9 8e bb 8f 1d 14 3e 09 9d 33 3d
       -0.19595 -0.004359409 0.144644 0.043850932
0002e0 04 57 49 3d 05 7d 9f bc ef 1c 32 3e 30 17 fa 3d
       0.04915525 -0.019468794 0.1739385 0.12211454
0002f0 31 65 d0 bd 67 b6 03 3e 01 57 f4 3b d0 6f 9e 3d
       -0.10175551 0.1286255 0.0074566607 0.0773617
000300 86 5a 0d bc 03 0e 99 3d f2 61 4d 3d 62 b2 b3 bc
       -0.0086275395 0.07473376 0.050142236 -0.021935645
000310 f9 0d 02 3e 1d 3c a5 bb 30 7f dd bc ca 32 c2 bd
       0.12700643 -0.0050425665 -0.027038187 -0.094823435
000320 5e 25 2a 3d b9 6e d9 3d 7b a8 03 bd 07 73 12 3e
       0.041539542 0.10616822 -0.032143097 0.14301692
000330 ae 1f 1c 3e 40 e5 d6 3c 8f b5 64 bc 80 8f 84 bd
       0.1524646 0.026232362 -0.013959303 -0.06472683
000340 87 b7 99 bd 19 bd c7 3b c7 d2 61 bc 5d dd bc 3d
       -0.07505708 0.0060955402 -0.013783163 0.09221909
000350 d6 c6 f3 3c 32 c8 e7 3c 51 da 99 3b ef 27 f6 bd
       0.029757898 0.028293703 0.004695215 -0.120193355
000360 1e 8a 8a 3d c0 36 72 bc eb e4 c3 3d 06 57 01 be
       0.06764625 -0.014783561 0.09565147 -0.12630853
000370 df 44 2d be 77 06 26 3a b3 51 bf bd f9 d6 9a 3a
       -0.16920803 0.0006333361 -0.09341755 0.0011813334
000380 33 9c 48 3d 92 a2 61 bc 32 52 5b 3c 47 77 d9 3d
       0.04897709 -0.01377167 0.013386296 0.106184535
000390 93 3f 03 3e 79 4d 15 3e 57 18 aa bc e8 e3 89 3c
       0.1281722 0.14580335 -0.02076356 0.016832307
0003a0 ec 58 73 bd 00 c1 6a 3d 0f 7e 17 3e 3c 09 12 bc
       -0.059410974 0.057312965 0.14794181 -0.008913334
0003b0 6c 97 7e bd 78 d7 f6 3d 69 4f ad bd 0b a7 82 3d
       -0.062156126 0.12052816 -0.08462412 0.06379517
0003c0 1e 95 51 3d e5 d2 0b be c5 4a 81 3c b7 a3 99 bd
       0.0511676 -0.13654669 0.015782723 -0.07501929
0003d0 a5 2c 69 bd ef 76 c7 bd c6 bc 6a bd 7f d4 7e 3d
       -0.056927342 -0.09739482 -0.057308935 0.06221437
0003e0 ea 32 01 3e 0e e8 0b bd db 27 ee 3d 4c 8b b9 bd
       0.12617078 -0.03415685 0.116286956 -0.09059772
0003f0 64 4a f8 bd 99 56 a3 bd 11 38 53 3c ac e3 d1 3b
       -0.12123564 -0.079755016 0.012891785 0.0064053144

residual_tower.blocks.1.conv1.bias f4 [8]
000000 ac 86 68 38 bf 13 75 b7 20 3d 03 37 00 b6 c7 b7
       5.5438533e-05 -1.46077355e-05 7.82244e-06 -2.3807399e-05
000010 d7 62 15 b8 54 fe 12 b9 ca e0 80 b7 f2 db c9 b8
       -3.561642e-05 -0.0001401839 -1.5363465e-05 -9.625395e-05

residual_tower.blocks.1.bn1.weight f4 [8]
000000 01 d6 09 3f bf a9 d8 3e af 30 25 3f ff 18 21 3f
       0.5384217 0.42317006 0.6452741 0.62928766
000010 aa 67 42 3f ec d4 17 3f ab 6e 1e 3f ad e9 2b 3f
       0.7593943 0.5930927 0.61887616 0.67153436

residual_tower.blocks.1.bn1.bias f4 [8]
000000 d0 86 87 bc 0d 1d c8 bc 49 53 b2 bd 2a 12 ae bd
       -0.016543776 -0.024427915 -0.08707292 -0.08499558
000010 93 32 d0 bc f8 5c 7f bd 77 f9 8e bd 30 61 5f bd
       -0.02541474 -0.06234452 -0.069811754 -0.054536045

residual_tower.blocks.1.bn1.running_mean f4 [8]
000000 ce 42 28 3e fb 92 92 bc ea 98 04 3f a7 34 bd be
       0.16431734 -0.017892351 0.5179583 -0.36954233
000010 2c 74 7c be fc ff 52 3d c7 0c c4 be 11 cd c3 bd
       -0.24653691 0.051513657 -0.38290998 -0.09560598

residual_tower.blocks.1.bn1.running_var f4 [8]
000000 92 79 2b 3e a4 e0 76 3e f9 2c 93 3e a9 61 85 3e
       0.16745594 0.24109131 0.2874525 0.2605107
000010 99 07 ab 3e f8 61 5c 3e 45 58 bd 3e 8a e7 6c 3e
       0.33404234 0.21521747 0.36981407 0.231352

residual_tower.blocks.1.conv2.weight f4 [8, 8, 3, 3]
000000 fa 70 aa bd 60 87 f9 3d af d2 a2 3d 7c aa 24 be
       -0.0832233 0.12184024 0.07950341 -0.1608066
000010 e6 f9 b7 3d c7 33 d0 bd ec 9b 17 bd 68 4d 84 bd
       0.08983211 -0.10166126 -0.037013933 -0.064600766
000020 31 97 34 bd 82 c6 96 3d c7 ea 7c bc ed 78 73 bd
       -0.0440895 0.07362081 -0.015436835 -0.059441496
000030 23 d7 41 3e 6c 2a 9e 3d 38 8c 5f bd f0 ce a2 bd
       0.18929724 0.07722935 -0.054577082 -0.079496264
000040 1b 72 33 bd e0 e0 91 3d 81 f7 e4 3d 3a a4 20 3e
       -0.04380999 0.071229696 0.1118002 0.15687647
000050 31 6a b0 3d 04 69 45 3d 37 d8 96 3d a1 fc ae 3b
       0.086140044 0.048195854 0.073654585 0.0053401743
000060 3b 6a a7 bd 25 5c 4b bd d1 ee a8 bd 14 89 f9 3c
       -0.08174559 -0.049648423 -0.082486756 0.030460872
000070 36 a7 b8 3d 48 2b 99 bd 2e 6d 9f bd 68 cf 10 bd
       0.09016268 -0.07478958 -0.07784496 -0.035354048
000080 6a 13 04 3d 87 14 4c 3a de 8a 10 be d3 f4 54 3d
       0.032245077 0.0007785041 -0.14115474 0.051991295
000090 ed c8 82 3d 0f e2 a4 bc 84 b8 98 3d ae 3d 9d bc
       0.0638598 -0.020127324 0.074570686 -0.01919445
0000a0 98 7d 5d 3d 3e 28 db 3c 85 60 67 bd fe 1f 25 3d
       0.054074854 0.026752587 -0.056488533 0.040313713
0000b0 c9 cf 99 3d b6 6e 84 3d b4 42 bb 3d 0a e6 3d 3d
       0.07510335 0.06466429 0.09143582 0.04636196
0000c0 2b 03 5f 3b 42 72 a3 bd f4 0d ac 3d 84 c7 43 3d
       0.0034028988 -0.07980777 0.08401099 0.047797695
0000d0 af 50 41 3d 97 ae 54 3b 5c 9d cf bd 3b f8 85 bd
       0.047196086 0.0032452696 -0.10137436 -0.06541487
0000e0 45 f4 51 bd b7 66 e0 3b e2 3b 62 3c 92 37 c8 bb
       -0.051258344 0.006848182 0.0138082225 -0.00611014
0000f0 e4 b6 06 be 76 6f 65 bd 8f c3 9f bd ef 69 66 3d
       -0.13155705 -0.0560145 -0.07800972 0.05625337
000100 df 04 ad bd 6e ee c1 bd 81 ce 8f 3c a0 60 83 bd
       -0.08448195 -0.09469305 0.017554523 -0.06414914
000110 be df 4f 3d fa 99 b1 bd 44 c3 c9 3d b5 b9 d6 bd
       0.050750487 -0.08671947 0.09851697 -0.104846396
000120 86 d4 26 bc fa 53 7d bd d0 7b 41 bd af 87 8e 3d
       -0.0101825055 -0.061847664 -0.047237217 0.06959473
000130 5f 6c 9f 3d 65 15 9f bd 51 cb 3c be bd ed 9e bc
       0.07784342 -0.077677526 -0.18436934 -0.019400472
000140 ff 1e 38 3d b9 53 77 bc 7b 0e 1a bc 03 c7 ae bc
       0.044951435 -0.015095645 -0.0094028665 -0.02133513
000150 79 5f 88 3d 3c 21 48 3d 69 28 a0 bc 94 08 e6 3c
       0.06658835 0.04885982 -0.019550519 0.028080262
000160 92 0b 8b 3e 3a fe cc bd c3 8e 42 bb b6 15 97 bd
       0.27157265 -0.10009427 -0.0029687143 -0.07377188
000170 95 d0 21 bd 36 4a 4c bd 3b a1 f7 bc bc 50 c0 3d
       -0.03950556 -0.04987546 -0.030228248 0.09390399
000180 df bc 42 bd 08 7a d4 bd 1c f3 12 be fc 9c 6f bd
       -0.047543403 -0.10374838 -0.14350551 -0.05849932
000190 c8 d7 ac bd 8a b5 a0 bd 22 45 02 bd be 90 a2 38
       -0.084395945 -0.07847126 -0.03180421 7.751722e-05
0001a0 81 28 6f bd 82 de 98 3d a5 99 df bd 40 dc f6 bb
       -0.058388237 0.07464315 -0.10917977 -0.00753358
0001b0 2d 46 2f be 22 d7 04 3d 11 f2 28 3e bb 78 12 be
       -0.17116614 0.03243173 0.16498591 -0.14303868
0001c0 02 5e 81 3d 22 08 d0 bd 26 e1 8d 3c f5 88 58 bd
       0.06316759 -0.10157801 0.017319273 -0.052864987
0001d0 b8 21 79 bd 22 e0 b9 3d 74 80 dd 3d 9d 26 21 bd
       -0.060823172 0.09075953 0.10815516 -0.039343465
0001e0 c8 d2 37 3d 41 8e b0 3d eb 6c 08 be 58 2f 0a be
       0.04487875 0.08620883 -0.13322799 -0.13494623
0001f0 b9 d5 c6 bd 2f ea 09 bd 4c 63 9c bc 0d 14 2b 3b
       -0.09708733 -0.0336706 -0.019090317 0.002610448
000200 8a 2d 96 3a 76 ab a0 3d a0 fc 76 bd 6b 20 03 be
       0.0011457663 0.078452036 -0.060299516 -0.12805335
000210 a2 61 46 3d 24 68 5c 3d fb 9e 6e 3d 54 0f 23 3d
       0.048432954 0.053810254 0.058257084 0.03980954
000220 3a d9 02 3d 0c b7 d7 3c 03 ce dc bc 29 0a ea bc
       0.031945445 0.0263324 -0.026953703 -0.028569298
000230 6b 96 2e bd 06 00 f9 bd d8 e9 a5 bd 65 23 ca 3c
       -0.04262392 -0.121582076 -0.08101243 0.02467508
000240 a2 dd a2 bd b2 6a 01 be 89 b7 0c 3e 9a bc 28 be
       -0.07952429 -0.12638357 0.13741888 -0.16478196
000250 d8 67 e1 bd df 6a 05 bd 33 9a c5 3d 4d 09 09 3b
       -0.11006135 -0.032572623 0.09648552 0.0020910085
000260 04 f5 07 3c bb f9 5e bc ec af 37 bd 82 16 00 be
       0.008298162 -0.013609345 -0.044845507 -0.12508586
000270 5f 04 8d bb 6b b3 b1 b9 ee 98 07 3d 60 68 21 be
       -0.0043034996 -0.00033893748 0.03310483 -0.15762472
000280 3c 12 79 3c b5 d6 01 be 3d 45 f1 3c bf 5f 6a bc
       0.015202101 -0.1267956 0.02945196 -0.014305054
000290 d6 9f 5f bd c5 a7 dc 3b 8a 73 1a be db dc 1a bc
       -0.05459579 0.006733867 -0.15083137 -0.00945207
0002a0 59 02 bf 3d ad 7f 04 bd 03 68 3f 3d 89 bc 3c bd
       0.0932662 -0.032348324 0.046730053 -0.04607824
0002b0 8c d3 57 bd 9e cc 22 3c f6 de 17 be ad 98 d9 bc
       -0.05269198 0.00993648 -0.14831147 -0.02656206
0002c0 c6 89 c8 3c 4a f0 03 be c3 d2 46 bd 00 37 2a bc
       0.024479758 -0.12884632 -0.04854084 -0.01038909
0002d0 7c 9c cd bd 46 18 18 3d 97 2a 22 bd ac 03 d6 bd
       -0.10039613 0.037132524 -0.039591398 -0.10449919
0002e0 1e a6 92 3d 1d 30 fd bc 8f ee 61 3c 9f 59 76 3d
       0.071605906 -0.030906731 0.013789787 0.060144063
0002f0 ab ae ac bd 21 aa 0c be 54 b4 0d bd 08 b5 72 3d
       -0.08431753 -0.13736774 -0.034595802 0.059254676
000300 0d ac 97 bb c2 37 58 3d 4c 13 67 bd 43 d0 04 3e
       -0.0046286643 0.05278755 -0.056414887 0.1297007
000310 cb b9 c7 bc 7c 33 73 bc 44 f3 80 bc 78 28 63 bd
       -0.024380585 -0.014843818 -0.015740998 -0.055458516
000320 60 f6 fe bd ca b8 6f 3d 46 ee 08 bc 28 ef 30 3c
       -0.12449336 0.058525838 -0.00835759 0.010799207
000330 c6 74 eb bc da 93 7f 3c 4b 11 2c be 0e c8 3c bd
       -0.028742205 0.015599215 -0.16803472 -0.046089225
000340 89 9b 4a bd 4f d1 bf bc 98 b4 ef 3b 01 e7 9a 3c
       -0.049464736 -0.023415236 0.0073152296 0.01890898
000350 94 3b cb 3b d1 3f d8 bd cc 3b b2 bd dc 40 81 bd
       0.0062021706 -0.10559047 -0.087028116 -0.06311199
000360 fa b0 c8 3b 3e 24 25 3c 80 1a 6a 3d 01 3d 6a bd
       0.006124613 0.010079442 0.05715418 -0.057187084
000370 84 f6 f8 bd 88 02 30 3d f6 af ab bd cd 15 c3 3d
       -0.12156394 0.042971164 -0.08383171 0.095256425
000380 c6 d1 f5 3d 7d 1f e9 bc ab bf bc 3c 16 20 41 3d
       0.12002902 -0.028457398 0.023040613 0.04714974
000390 08 b2 75 bd 74 ba e9 3b b3 ee 97 bd c4 ed 8a bc
       -0.059984237 0.0071328226 -0.07418575 -0.016959079
0003a0 00 c5 02 3e 0f e6 fe 3c 71 d2 71 3d 48 97 00 be
       0.12770462 0.03111556 0.059038583 -0.12557709
0003b0 51 ef 71 bd a7 10 80 3d 2a b9 f5 3d 19 64 c6 3d
       -0.05906612 0.06253176 0.11998208 0.09687061
0003c0 1f 32 23 be c3 e4 3b bd 73 38 8c 3c f9 08 f0 bc
       -0.15937088 -0.04587246 0.01711676 -0.029301153
0003d0 08 ae 83 3d c2 e5 da 3d cb aa 4a bd 46 50 27 bd
       0.06429678 0.10688354 -0.049479287 -0.04084804
0003e0 51 13 81 3c dc 57 c8 bd 4a 76 89 3c 35 a9 74 bd
       0.015756281 -0.09782383 0.016780037 -0.05973168
0003f0 f7 45 23 3e 27 a9 15 be 83 1f 97 3d 67 00 52 be
       0.15944658 -0.14615308 0.07379057 -0.20507966

residual_tower.blocks.1.conv2.bias f4 [8]
000000 af 3e b5 37 cc e5 00 b9 fb 05 c8 b4 48 d9 04 37
       2.160607e-05 -0.00012292637 -3.7257254e-07 7.918403e-06
000010 10 68 4c b7 96 12 ec b8 61 aa 9d b7 a4 6a cb 37
       -1.21835765e-05 -0.00011256819 -1.8795197e-05 2.4249144e-05

residual_tower.blocks.1.bn2.weight f4 [8]
000000 5a 52 01 3f b9 21 00 3f 46 88 0d 3f d1 6e 1c 3f
       0.50516284 0.50051457 0.5528606 0.6110659
000010 49 dc 19 3f b3 0a 25 3f f4 6c 0c 3f 4a 69 0c 3f
       0.60101753 0.6446945 0.5485375 0.5484816

residual_tower.blocks.1.bn2.bias f4 [8]
000000 37 eb d7 bd 41 1f cf bc 21 33 80 bd 6a 04 ff bc
       -0.105429105 -0.025283458 -0.06259752 -0.031130034
000010 5a 3a d8 bb 3b dd 8e bb b9 c5 b3 bd 7a 80 ba bd
       -0.006598753 -0.004359869 -0.08777947 -0.09106536

residual_tower.blocks.1.bn2.running_mean f4 [8]
000000 3d a3 2d 3d 35 0b 67 be 1d 59 b8 be 28 43 51 3d
       0.042392004 -0.22562869 -0.36005488 0.051089436
000010 82 93 5d be 27 c0 8f 3d 06 7f d5 3d 7c 89 39 3b
       -0.21638301 0.07019072 0.104246184 0.0028310707

residual_tower.blocks.1.bn2.running_var f4 [8]
000000 fa 18 44 3d 13 10 42 3d c0 4c 45 3d 8b 4b 8b 3d
       0.047875382 0.04737861 0.048168898 0.06801518
000010 f1 f6 81 3d 73 ec a4 3d d3 49 57 3d 8d 90 76 3d
       0.063459285 0.080529116 0.05256064 0.060196448

residual_tower.blocks.2.conv1.weight f4 [8, 8, 3, 3]
000000 58 39 00 be d8 cd a0 bd 03 a1 44 3e d8 3b a7 3c
       -0.12521875 -0.078517616 0.19202046 0.020414278
000010 7c 55 ce bc 0e 36 2b 3d d0 84 9c 3d 18 f2 aa 3b
       -0.025187247 0.041799597 0.076425195 0.005216848
000020 1c 14 4c 3d c1 f0 a3 ba f9 52 d9 3c f5 66 f6 ba
       0.049823865 -0.0012507663 0.026528822 -0.0018798994
000030 ef 13 6a be f9 6d b8 bd 50 74 09 be 62 3a a9 3c
       -0.22859167 -0.090053506 -0.13423276 0.020657722
000040 90 2f 69 bc ac 4f 34 bd 94 b3 bc bd 56 ac bc 3d
       -0.014232531 -0.044021294 -0.09213939 0.09212558
000050 99 ca 36 3d 7c 32 e5 bd 84 d5 5d bd b9 bc ae 3c
       0.044626806 -0.1119127 -0.054158702 0.021330224
000060 8a b3 b0 bc 6c e9 00 be 8f a0 63 3c 12 22 e4 bc
       -0.021569986 -0.12589043 0.013893261 -0.027848277
000070 60 64 bc bc 81 77 e5 3b bb 82 9e bd 19 48 56 bd
       -0.022997081 0.0070027714 -0.077397786 -0.05231485
000080 25 8b 1d bd e3 6b 01 be 88 13 d4 3b b1 df a8 bd
       -0.038462777 -0.12638812 0.006472055 -0.08245791
000090 ed 29 b0 bc eb cb 46 3d d3 26 b1 3c 6b c9 49 3c
       -0.021504367 0.048534315 0.021624958 0.012316088
0000a0 c5 f2 6d ba fb 26 95 be 98 8f de 3d c9 1a 5d 3d
       -0.0009077008 -0.29131302 0.10867232 0.053980622
0000b0 ca 98 23 3e b8 bb 3c bb e5 97 5b bb 3e 0b e6 bd
       0.15976253 -0.0028798413 -0.0033507284 -0.11232613
0000c0 96 a3 a8 3d 0c 18 8e 3c f8 7c 8e bc 83 5f aa bc
       0.082343265 0.01734545 -0.017393574 -0.020797497
0000d0 06 0a 16 bc ed dd 33 3d e9 91 a3 3d 67 e0 db bd
       -0.009157663 0.043912817 0.079868145 -0.10736161
0000e0 1a 76 08 bb 2c 31 10 3e 77 8b 85 3d 18 b1 cc bd
       -0.0020822347 0.14081258 0.065207414 -0.099947155
0000f0 a8 1f b8 3d d7 2d 0a bc e1 43 03 3d 4f 26 91 3c
       0.08990413 -0.008433781 0.032047156 0.017718462
000100 f8 d5 01 bd 2b a4 2d bd 0e fd fa bd 09 7b e5 3c
       -0.031698197 -0.04239289 -0.122552976 0.02801277
000110 25 9e b9 3c b5 30 2b bd 9f af cf 3c 86 b8 45 3d
       0.022658417 -0.041794498 0.025352297 0.04827168
000120 28 a6 e9 3b 2b bd e7 3d a1 83 77 3d 97 90 a5 3d
       0.007130403 0.11315378 0.060428265 0.08084219
000130 13 0b ff 3b b8 26 60 3d a7 ab 5b 3b e5 e8 5d 3d
       0.0077833026 0.054724425 0.003351906 0.054177184
000140 f8 25 87 bd ab 40 0f be 6a 5c 9c bc 69 76 fd 3d
       -0.06599039 -0.13989513 -0.019087035 0.123761006
000150 9a 4e ac bd 82 cd a8 bb f0 72 9e 3b de ee cf 3d
       -0.084134296 -0.0051514516 0.004835479 0.10152982
000160 ec d7 e8 bd e1 63 07 3d cb ba 69 3d b0 d9 61 bc
       -0.11369309 0.033054236 0.057062905 -0.013784811
000170 b3 28 75 3d 18 9c 7b bd 2d 1c 0c be 08 e1 59 bc
       0.059853267 -0.06142816 -0.13682623 -0.013298281
000180 ae b8 98 bc 84 09 39 bc 56 8f f9 bc d9 16 52 3d
       -0.01864275 -0.011293773 -0.030463856 0.05129132
000190 9d 98 9a 3d 8e 69 ca 3c 8f dc b9 3d e8 65 0d 3e
       0.0754864 0.024708536 0.09075271 0.13808405
0001a0 24 35 05 3d 0f 29 9c bd b6 29 2b 3c 7d 3c 46 bd
       0.032521382 -0.07625019 0.010446956 -0.04839753
0001b0 52 6a c7 3c 38 32 51 bd 68 a5 8c 3d ed 96 ff bd
       0.02434269 -0.051073283 0.06867486 -0.12479959
0001c0 a3 41 91 3c e5 e2 ce bc 9f fd 9b 3d 66 f7 b8 3c
       0.017731493 -0.025254676 0.07616734 0.022578906
0001d0 f3 b9 22 3d a4 97 8e 3c d2 a4 d4 3d 10 a2 ed bc
       0.039728116 0.017406292 0.103829995 -0.029007941
0001e0 07 d0 e1 3d db 68 9e 3d 0d d6 b0 bd ce 51 ec 3a
       0.11026006 0.07734843 -0.08634577 0.0018029751
0001f0 60 8a c7 3d 81 68 bd bd 0a 99 c7 3d e2 18 a9 3c
       0.0974319 -0.09248448 0.09745987 0.020641748
000200 6f 67 a4 bc 8e 5b b4 bb 3d 3c 6e 3c 27 f3 71 bd
       -0.020068852 -0.005504078 0.014540729 -0.05906978
000210 b5 31 cb 3c e4 96 06 bc 8c c5 78 3d e5 ab eb 3d
       0.024803976 -0.008214686 0.06073527 0.11507396
000220 d9 60 02 3e c1 e0 cf 3d 04 8b 5f bc 6b c9 12 3e
       0.12732257 0.1015029 -0.013643984 0.14334647
000230 f0 7a 30 bd 0c 64 14 3d 31 f0 fe bd 13 83 6a bb
       -0.043085992 0.036228225 -0.124481566 -0.0035783693
000240 f1 30 89 3c f1 49 a3 3d d8 40 58 3d 71 82 92 bd
       0.01674697 0.079730876 0.052796215 -0.07153786
000250 09 f8 50 bd f0 1b 98 3c 24 0a aa 3d c3 e9 98 bc
       -0.051017795 0.01856801 0.083027154 -0.018666154
000260 e5 f6 54 3d 3e 5a 1c be d5 0f 6d bd be 31 10 3e
       0.05199327 -0.152688 -0.057876427 0.14081475
000270 73 7b 3e 3d f0 8b 0a bd a6 9a 6d bd 9e a4 1d bb
       0.04650445 -0.03382486 -0.058008812 -0.0024054418
000280 38 10 bb bd 78 96 4e bd 77 af 30 bd f9 1d 7e 3d
       -0.09133953 -0.050436467 -0.043136086 0.062040303
000290 3b 16 06 be a1 26 0d be f7 0d f4 bd 3f d9 90 3d
       -0.13094418 -0.13784267 -0.11916726 0.070726864
0002a0 50 96 33 bc 44 29 b9 3d 05 45 a4 bb 5b 7f 52 bd
       -0.01096113 0.09041074 -0.0050131106 -0.051390987
0002b0 48 c0 18 be c1 84 62 3c 34 ef 33 bd 6a 75 15 bc
       -0.149171 0.013825596 -0.043929294 -0.009122232
0002c0 b1 fe 9e bb db 69 cb bc 6e d1 1b bd 6a 23 e7 3c
       -0.004852139 -0.02483075 -0.038041525 0.028215129
0002d0 a0 70 47 bd 56 a1 01 be fa a7 ab 3d b4 20 48 bd
       -0.048691392 -0.12659201 0.08381648 -0.048859313
0002e0 20 a6 8a bd 02 64 98 bc 46 26 b5 3d 42 4e 03 3b
       -0.06769967 -0.018602375 0.08845191 0.002003566
0002f0 3f 0a 64 bd 91 dc 13 bd 3b 09 c3 3b 79 c6 2b bd
       -0.055673834 -0.03609902 0.005952028 -0.041937325
000300 ee 72 34 3d 41 b5 f9 bd c3 bb 08 bd 27 6f 1f bd
       0.044054918 -0.121927746 -0.03338219 -0.038924363
000310 93 59 d9 bd 1f ca 07 be 4d 69 36 bd 57 9a a9 bd
       -0.10612788 -0.13260697 -0.044534016 -0.08281391
000320 a4 45 6b bd 2e 9a 53 3d e8 26 48 3e c8 b4 71 3d
       -0.05743946 0.05166071 0.19546092 0.059010297
000330 22 ce c6 3d a7 ca 81 bc e1 49 c9 bd 01 be 60 3c
       0.097072855 -0.015843702 -0.098285444 0.013717175
000340 90 8d ac 3c c5 ff 7d 3d 2d dc e5 bd 8b 22 81 bc
       0.021063596 0.0620115 -0.11223636 -0.015763542
000350 96 76 96 3d 03 29 24 3e 8c 63 ee bc ea 80 36 3d
       0.07346837 0.1603127 -0.029100202 0.044556536
000360 a6 5b b3 3d 46 26 ac 3d 3e 5e 85 bb 11 a1 8b 3d
       0.08757715 0.084057376 -0.0040700724 0.0681783
000370 5c 4a 0b bc 09 e0 56 3d 26 2d 23 3d bd 00 80 bd
       -0.008501615 0.05245975 0.03983798 -0.06250141
000380 a5 0f 00 bd e9 cb 92 3c 5a b1 a9 3d e4 c1 0e 3e
       -0.03126492 0.017919498 0.0828578 0.13941151
000390 77 50 d1 bc ab 02 02 bd 1f 4c fd 3c ce 5a 94 bd
       -0.025551064 -0.031740826 0.030920086 -0.07243882
0003a0 d7 6c 94 3c 35 2a 77 3d 4e fa d9 3b 1d 43 95 39
       0.018118305 0.060342986 0.006652153 0.00028469498
0003b0 3a 25 42 3c 3d dc 68 3d 55 58 50 3e 4e b8 22 3e
       0.011849696 0.05685066 0.20346196 0.15890619
0003c0 d4 87 01 bd 7a 07 19 3d e0 03 40 3e df be 10 3e
       -0.031623676 0.037360646 0.18751478 0.14135312
0003d0 6f 84 c6 bd f5 42 d9 3d 20 0d b8 3d 2f b5 92 3b
       -0.096932285 0.10608474 0.089868784 0.004477165
0003e0 98 b6 8c 3d 47 6a 48 3c 5e be 88 bd c2 ad d7 bc
       0.068707645 0.01223237 -0.06676935 -0.026327971
0003f0 eb 19 a1 3d bd 63 83 bd d4 a1 06 3d 1e 32 46 3d
       0.078662716 -0.06415508 0.032869175 0.04838764

residual_tower.blocks.2.conv1.bias f4 [8]
000000 4c ca 83 b8 3e d3 a0 b8 9e 40 cb 38 b9 68 f1 38
       -6.2842475e-05 -7.6687415e-05 9.69183e-05 0.000115112816
000010 18 f8 ed 37 c4 cb f0 b8 7d c9 09 38 d1 6e 51 b7
       2.836813e-05 -0.00011482046 3.2850996e-05 -1.2483172e-05

residual_tower.blocks.2.bn1.weight f4 [8]
000000 73 9e e6 3e cd b4 e4 3e 46 cf 0d 3f 33 e2 e3 3e
       0.45042762 0.4466919 0.553944 0.44508514
000010 f9 00 f1 3e c2 05 fe 3e bf cd e9 3e b3 12 dd 3e
       0.47071055 0.49613768 0.45664784 0.4317833

residual_tower.blocks.2.bn1.bias f4 [8]
000000 36 e9 e1 bb 8c 2b a8 bc 1e ed 5e bd 9c c8 f5 bd
       -0.006894256 -0.020528577 -0.05442535 -0.12001154
000010 46 0c 20 3c 0b d3 89 bd 2e a2 ae bd 9d 48 c3 bd
       0.009768551 -0.067297064 -0.08527027 -0.09535334

residual_tower.blocks.2.bn1.running_mean f4 [8]
000000 db fc dc be 1c b4 c8 3e b0 23 18 bf b5 4d 1d 3f
       -0.43161663 0.39199913 -0.59429455 0.61446697
000010 c8 10 cd 3e c7 00 90 be f8 5a 26 bf ba be 41 3e
       0.40051866 -0.28125593 -0.6498256 0.18920413

residual_tower.blocks.2.bn1.running_var f4 [8]
000000 09 b4 7a 3e 7b a4 94 3e b6 23 92 3e fb cd 8f 3e
       0.2448274 0.2903174 0.2854287 0.28086838
000010 56 56 b6 3e 8d 27 85 3e a0 bf 9e 3e 3b 24 97 3e
       0.35612744 0.26006737 0.31005573 0.2951983
