model_mild_cosmos_43.pth (torch, 154260 bytes, 83 tensors)

input_conv.conv.weight f4 [8, 2, 3, 3]
00000000: c331 dbbb 89ab 553e 493d 2b3e 06f6 f2bd
00000010: 2512 2e3e e14c c73d ce35 213e 9f70 8f3d
00000020: 6144 5bbe 9413 0a3e b69e c4bd a19c a0bb
00000030: 32cd a3bd 67e7 83be cbd3 823c 6f0e 75bc
00000040: b4a4 3ebe 6bed e23d 9792 47be faea e63d
00000050: 575c 24bb 02f3 203e 8353 8cbd c6eb 673e
00000060: 424a 513e 2c3c 323e ce8f 573c cade 5fbe
00000070: aee7 00be f566 20be 459a 7a3d 5e33 70bb
00000080: b678 ecbd 5c30 94be 0912 bc3c 874e e03d
00000090: 8aa2 bf3d 393b 03bc 208b baba a4d3 133e
000000a0: 6c25 843d 2dab a3bd 16e1 d0bc ff52 30be
000000b0: b45c 56be 070e 573e 379b 103e 45c9 c8bc
000000c0: 36b7 5f3e 8615 c4bd e94b 883d dd4f 6cbe
000000d0: 72b5 923e eb08 2c3e c91c ce3d 07fb 343e
000000e0: 129b 013c d074 ed3b 6ef1 45be 711e 283e
000000f0: 9411 29bd bfe6 c9bd c9f9 893c 3f4d 893d
00000100: d405 c2bd 6c4b dfbd 4782 b53d 8c14 a23d
00000110: c315 bb3d cc77 ee3d c722 6d3e 5fa2 3dbe
00000120: 8869 e5bc 7b3c bcbd 9180 933d af03 bfbd
00000130: b999 b13c 75f9 94be 99e8 883d 2b62 6cbe
00000140: 8416 b6bd 1ce3 383d ee01 053d c617 6c3d
00000150: 63ca a53d 9457 003d 14d1 18be 6264 cabd
00000160: 0496 953e 2cab 123c 93c3 1c3e e375 3abe
00000170: 941b f6bd fc45 0dbe 25f5 3abe 3ea5 eb3d
00000180: 9058 853c f902 a2bd 0f37 743e 761d aebd
00000190: 166d 9ebd 781c 0c3e 0e23 133c 8fb6 f1bd
000001a0: 09c0 823e 91e6 e5bd 0702 debd 8477 583c
000001b0: 0d55 9bbd 0a7f 40bd 537d b6bd 16a4 a43d
000001c0: 30a9 84be 1500 24be f68d 60bd 64cb 823d
000001d0: 8001 59be 7852 b23d bcdb 17be b8b7 273e
000001e0: 4fb6 643d 3928 9ebd 1e3c 1abc b0f9 8a3e
000001f0: 3e92 383d 77e0 ee3d b3e4 05be 8d5a 773d
00000200: a6be 2dbd 3962 0b3e 9bcd 8d3e 4372 813d
00000210: 91a2 e1bd 579a 1cbd 2221 6b3e 9db9 40be
00000220: cbf5 c03d 5baa 8a3e 6eb1 4c3d 14cc 8fbd
00000230: 790d 01bd b245 443e 3ea7 24be 1a98 85bd
-0.0066892817 0.20866217 0.16722597 -0.118633315 0.16999109 0.0973146 0.15743181 0.07003903
-0.21412803 0.13484031 -0.09600584 -0.004901484 -0.07998122 -0.25762483 0.015970131 -0.0149570545
-0.18617517 0.1108044 -0.19489513 0.11275287 -0.0025079453 0.157177 -0.06851866 0.22648534
0.20438483 0.17405766 0.013156844 -0.21862331 -0.12588379 -0.15664275 0.06118228 -0.003665171
-0.11546461 -0.28943145 0.022957819 0.10952478 0.09357174 -0.008009725 -0.0014232136 0.14436203
0.0645245 -0.079916336 -0.025497954 -0.1721916 -0.20933801 0.21001445 0.1412171 -0.024510035
0.21847233 -0.09574418 0.06655104 -0.2307734 0.28654057 0.16800277 0.10064084 0.17673884
0.007910507 0.007246591 -0.1933038 0.16417862 -0.04127653 -0.098584644 0.01684274 0.06704187
-0.09473768 -0.109030575 0.08862739 0.07914075 0.0913501 0.11643943 0.23157798 -0.18518971
-0.028004423 -0.09191223 0.072022565 -0.093268745 0.021679746 -0.2909657 0.066849895 -0.23084323
-0.08891013 0.045138463 0.032472543 0.05763986 0.08095243 0.03133352 -0.14923507 -0.09882428
0.29216015 0.008951943 0.1530898 -0.18209033 -0.12016979 -0.13796228 -0.18257578 0.11506127
0.016277581 -0.07910723 0.23849128 -0.08501713 -0.0773565 0.13682735 0.008980526 -0.118023984
0.25537136 -0.11225618 -0.108402304 0.0132120885 -0.075845815 -0.046996154 -0.089106224 0.080391094
-0.2591033 -0.16015656 -0.054822885 0.0638645 -0.21191978 0.08707136 -0.14829916 0.16378677
0.055837926 -0.077225156 -0.009413747 0.2714362 0.045061342 0.11663907 -0.13075523 0.06038909
-0.042418145 0.13611688 0.27695927 0.06320622 -0.11017335 -0.038233127 0.22961858 -0.18820806
0.09421881 0.27083096 0.049973898 -0.07021347 -0.03150699 0.19167212 -0.16079423 -0.06523152

input_conv.conv.bias f4 [8]
00000000: ae85 1bba 433f 1fba 9c70 cb37 7ad0 253b
00000010: cf13 16bb 5810 12bb a1a5 b339 3dac 0d3b
-0.00059327006 -0.00060747954 2.4251924e-05 0.0025301264 -0.002289999 -0.0022287574 0.00034264944 0.0021617555

input_conv.bn.weight f4 [8]
00000000: d7d0 403f 37f7 4a3f 8f2e 303f 49c4 5b3f
00000010: 25b4 3c3f e1fd 513f 75f2 383f 3823 513f
0.75318664 0.7928347 0.6882104 0.8584638 0.7371238 0.82028013 0.7224496 0.81694365

input_conv.bn.bias f4 [8]
00000000: d542 0fbd ccd6 bc3d e0cd 1dbd c3ff 07bc
00000010: d46a a0bd 8f0d 443d 0539 c03c bc18 123d
-0.034975845 0.09220657 -0.038526416 -0.008300724 -0.07832876 0.047864493 0.023464689 0.03566812

input_conv.bn.running_mean f4 [8]
00000000: c820 26ba 8ccb 723c a7c3 373d 8d18 593d
00000010: 1598 58bd 6fcc 26bd fe33 0ebd 3352 9b3d
-0.0006337282 0.014819037 0.044864323 0.05300193 -0.05287941 -0.040722307 -0.034717552 0.07584038

input_conv.bn.running_var f4 [8]
00000000: 2085 0a3d 46a2 0a3d b95a 473d 326a f13c
00000010: 11c9 143d 43ce 0e3d fe59 f53c 5fd4 2d3d
0.033818364 0.033846162 0.048670504 0.029469583 0.036324564 0.034864675 0.029950138 0.04243886

residual_tower.blocks.0.conv1.weight f4 [8, 8, 3, 3]
00000000: 3d41 cdbd e0dc 153d a9eb aa3d 32da 94bd
00000010: 82c4 a0bd ea6e 8b3d f37b ccbd c4cb e53d
00000020: 0d4c 33bc 9b14 17bd 02ce d9ba 8e01 dcbc
00000030: 35e4 ac3c 9cc0 233e 13d0 173e ef67 7a3c
00000040: 095f 40bc 895a 113d 7606 3ebd a961 efbd
00000050: 3310 663e 2485 da3d f1ac 63bd 414e b3bc
00000060: 26d6 90bd 1756 e2bc 90b5 a7bd dc29 a1bd
00000070: 3dad 153e eeef a8bd 1124 1cbe 8bf9 50bd
00000080: 78e9 f63d c5bf a93d 10d7 38bd c498 303e
00000090: 562c 89bd c157 4abd 0e49 303d 75f5 00bb
000000a0: 4916 e53c 580e 023e a7a3 90bd 55da b5bd
000000b0: b350 02bd 64cb 723d b4a3 393e 2859 bb3a
000000c0: a6bf 133e 1b85 463d 0c61 aeba 2bb1 1dbd
000000d0: 2eb1 033e 6d52 d3bc ec00 92bd 97ba 48bd
000000e0: ba57 6c3d 0c7f a0bd 1d01 b6bd e743 d0bd
000000f0: a1da 1f3c d913 ccbc ba9d 75be 2c3c e6bb
00000100: 7643 b43c 1795 e23c 59f2 b53c f7ab 813d
00000110: 2ce8 f13d a796 dc3b 697f 16bd fd5e af3d
00000120: 5e9c ea3c 3795 9cbd 365f ca3d ea3b deba
00000130: c231 9b3d f442 e4bc f440 dcbd 5334 ebbc
00000140: da88 5ebd f0c0 cb3d e025 8ebc 0652 983d
00000150: b4e8 6cbd 1aa1 c13d 233f c23d 4ada 80bc
00000160: 2142 d83c ae15 fbbd 1ac8 44bd c5df a53d
00000170: b3ea aebc 2ea7 c53d 2920 b4bd 6a26 d83d
00000180: d151 2fbd aded 7cbd ba6f 033d efb9 ff3d
00000190: dab8 22be c26c ecbc e09e edbd 3adf 933c
000001a0: 8adf 063e 498f 0fbd 96a9 033e c7e3 1ebe
000001b0: 83c5 efbd 6ed1 343d ffd5 c1bd 3772 993d
000001c0: a20c 06be 32f6 00be febe ab3c bf5f c13d
000001d0: 5088 ca3d f24a b4bd 378d 12be 0b24 123d
000001e0: 8f99 17be 2a39 dd3c 008b ff3d ee58 dfbc
000001f0: c6df dbbd 5a47 66bd b9e6 153d 440e 08be
00000200: 894c 393d 2fa8 62bd 917f babd 6f2f e3bd
00000210: 70a6 433e f928 7bbc ce2a 233e 71a8 b6bc
00000220: 46cb ac3d f554 9c3d 0c86 debd dce9 513b
00000230: 8177 a83d 8420 5cbe ac23 9ebd 4853 293e
00000240: e969 4e3d 1a72 f83d 958f f6bd c669 ac3d
00000250: 610e 483a d90d 213d 1dcb 833d 05d7 7b3a
00000260: 48ba 6f3d 30d1 133e 0052 17be 7791 0cbe
00000270: b38e 9ebd b105 babc 84d7 b1bd e3ce 5a3d
00000280: 9746 14bc 8648 333e d1bb fc3c b0c3 09be
00000290: 5662 5cbd 27f6 7dbd 54a9 83bc 5cd7 b7bc
000002a0: 7930 013d 1b55 233d 6ff9 d33d a8fb f13c
000002b0: 00c3 be3d a685 8c3b b11b 4d3d 40af b9bd
000002c0: 88b2 853d 184f 5cbe 5740 463d ec2c 05be
000002d0: b481 373e c35e 23be 6979 b83d 5757 a83d
000002e0: bcda 6339 5722 24bd e4e9 17bb 9d51 b53d
000002f0: 6c43 01be d631 fcbd 729d 0b3d 6c06 20bd
00000300: d4c6 abbc 6885 b53d 5138 adbd c0bd e83d
00000310: 04b9 ef3d a4d5 6ebd 9aa5 09bd d043 053e
00000320: 6f30 9b3d 955f 093e d310 003d cc41 f93b
00000330: 4549 f0bc c9db 1fbe c71b 91bd 6da6 21be
00000340: 7a87 223d c7de 893d 1161 0bbe 87f7 5ebd
00000350: 4a14 86bd f71d e83d 2b92 a43c 8c7d 76ba
00000360: 6a11 db3a 76f7 f93d 3637 14be ad31 c7bd
00000370: 8f27 873d 8f8d d7bd 0a4b dbbb 5b48 5cbd
00000380: 57f9 88bd 76d8 403d 836e e2bc e87f 90bc
00000390: 09e8 c0bd 377a f1bc 6eff 2d3e 05a1 383d
000003a0: 0d40 6c3d 5528 28be 23e1 f03d f505 05bc
000003b0: 24d2 75bd 064c 083e 71f1 dd3d d587 813d
000003c0: 9a22 03bd 54cc a23d 36a7 263d 1b4c d63d
000003d0: 8342 b43d 1ec7 84bd 348f 493d 583d 84bb
000003e0: d427 e7ba 9a37 653a 7b39 b6bd 2ecc 42be
000003f0: 5c99 e03d eb7e 843d bbd6 a73c 788c 78bb
-0.10022209 0.036587596 0.0834573 -0.0726818 -0.07849981 0.068082646 -0.09984579 0.11220506
-0.010943425 -0.036884885 -0.0016617181 -0.02685621 0.021104911 0.15991443 0.14825468 0.015283569
-0.011741408 0.03548673 -0.04639288 -0.11688549 0.22467117 0.10669926 -0.05558485 -0.0218879
-0.070720956 -0.027628941 -0.08188927 -0.07869312 0.14616866 -0.08248888 -0.15248133 -0.051019233
0.120562494 0.0828853 -0.045126975 0.17245775 -0.066979095 -0.049400095 0.04303842 -0.0019677554
0.027964728 0.12700784 -0.07062464 -0.08879534 -0.031815242 0.059276 0.18128854 0.0014293538
0.14428577 0.048466783 -0.0013304069 -0.03849904 0.12860557 -0.02579614 -0.07129082 -0.04900607
0.05770085 -0.07836732 -0.08886931 -0.10169201 0.009756715 -0.024911808 -0.23985949 -0.007026216
0.022004824 0.027658982 0.022210287 0.06331628 0.118118614 0.0067318263 -0.0367426 0.085630395
0.028639015 -0.07645648 0.09881441 -0.0016955112 0.0757785 -0.027863957 -0.10754576 -0.028711474
-0.05432973 0.09948909 -0.017352045 0.0743752 -0.05783911 0.09454556 0.094846986 -0.015729088
0.02639872 -0.122599944 -0.048042394 0.08099321 -0.021352148 0.096510276 -0.087951966 0.10554202
-0.042802636 -0.061750103 0.032088973 0.12486636 -0.15890828 -0.028860454 -0.116025686 0.018050779
0.13171211 -0.035048757 0.1285766 -0.15516578 -0.11707594 0.04414504 -0.09464645 0.07492488
-0.13090757 -0.12593916 0.020965096 0.0944209 0.09889281 -0.08803357 -0.14311682 0.035678905
-0.14804672 0.027004797 0.12477684 -0.027264085 -0.10736041 -0.05622039 0.036596987 -0.13286692
0.045239005 -0.055336174 -0.091063626 -0.110930316 0.1910646 -0.015329593 0.15934297 -0.022297116
0.08437209 0.07633392 -0.10865411 0.003203026 0.082259186 -0.21496779 -0.077216476 0.16535676
0.050393973 0.12131138 -0.12039105 0.08418612 0.0007631537 0.039319847 0.06435225 0.00096069305
0.05852726 0.14435267 -0.14777374 -0.13727365 -0.077420615 -0.022707792 -0.086836845 0.05341996
-0.009050033 0.17508134 0.030851277 -0.13453555 -0.053804718 -0.062002327 -0.016071953 -0.022441559
0.031540368 0.039876085 0.1035031 0.029538944 0.09314537 0.004288393 0.050075237 -0.090666294
0.06528193 -0.21514547 0.048401203 -0.13005418 0.17920572 -0.15954117 0.09007532 0.08219784
0.00021729892 -0.04007181 -0.002318018 0.08853457 -0.12623376 -0.12314193 0.0340857 -0.039068624
-0.020968832 0.08863336 -0.08458007 0.11364317 0.11705211 -0.058309212 -0.033605196 0.1301415
0.07577597 0.13415368 0.031266045 0.0076067206 -0.029331813 -0.15611185 -0.07085376 -0.15786143
0.03967998 0.067319445 -0.13611247 -0.05443528 -0.065468386 0.1133384 0.02008923 -0.0009402863
0.0016713564 0.122054026 -0.14474186 -0.09726272 0.06599342 -0.10525047 -0.006692295 -0.05377994
-0.06688183 0.047081433 -0.027640587 -0.017639115 -0.09419257 -0.029477222 0.1699197 0.045075435
0.05767827 -0.16421635 0.117616914 -0.008119096 -0.06001486 0.1331025 0.10837067 0.06324736
-0.03201542 0.07949129 0.04068681 0.10463735 0.088017486 -0.06483291 0.049208835 -0.004035633
-0.0017635771 0.0008743942 -0.08897682 -0.19023201 0.10966751 0.0646952 0.020488134 -0.0037925523

residual_tower.blocks.0.conv1.bias f4 [8]
00000000: 0684 91b9 4379 b2ba ade1 6a3a b77b 2db9
00000010: 2272 c63a 90f4 513a 7851 fd39 d5d5 2fba
-0.0002775492 -0.0013616461 0.000896002 -0.00016544653 0.0015140215 0.000800916 0.0004831662 -0.00067075837

residual_tower.blocks.0.bn1.weight f4 [8]
00000000: 657b 2f3f 4a42 4f3f d773 3c3f 72ce 233f
00000010: 8757 463f 6a5c 333f 9069 2c3f d07c 423f
0.6854766 0.80960524 0.7361426 0.63986886 0.77477306 0.7006289 0.67348576 0.759717

residual_tower.blocks.0.bn1.bias f4 [8]
00000000: 7981 9bbd 0233 09be 9a55 ee3c 0dce b93c
00000010: 51bb 3abd 2870 33bd 6192 c5bd bbd0 f8bd
-0.07593054 -0.13398364 0.029093552 0.02268126 -0.045588795 -0.043808132 -0.0964706 -0.12149187

residual_tower.blocks.0.bn1.running_mean f4 [8]
00000000: 7425 273e ede1 10be 39c5 603c 6cb8 e4bd
00000010: 2676 c13d 3c83 85be d341 7e3e 0a42 d23d
0.16322881 -0.14148684 0.013718897 -0.11167988 0.09446363 -0.26076686 0.24829797 0.10266502

residual_tower.blocks.0.bn1.running_var f4 [8]
00000000: 5836 683e f1c0 403e 29a3 3e3e be43 453e
00000010: 7431 4d3e 5288 3e3e e29f 2f3e d9d4 313e
0.2267698 0.18823601 0.18616928 0.19264123 0.20038396 0.1860669 0.17150834 0.17366351

residual_tower.blocks.0.conv2.weight f4 [8, 8, 3, 3]
00000000: 8f6d dbbd 4a51 df3d 50e1 153b f542 bebd
00000010: c1bf 3b3c 82d0 bdbd e874 c6bd 405e 083d
00000020: b14d 9c3d dc07 d5bd 5b9f a93d d087 34bd
00000030: 1ed6 203e 94a6 cd3d 6203 3d3e 2c47 21bd
00000040: 1559 973d 992a bb3d e4fe 14bd 3c03 90bc
00000050: bc27 2bbd dc78 89bc 06fe ecbd 3877 a4bd
00000060: 2f97 1d3d 8cd5 813d bc53 91bd 0088 a7bd
00000070: 191f cfbc 6cfb cc3c 3a03 153e 6336 00be
00000080: bc80 d03d 4412 cebc 6059 d73c 4a6c 0c3d
00000090: 2aad c43c c750 e2bd 30a5 123c 058f f13c
000000a0: 176f 0dbe fc93 963d b2cf cbbd 1f63 a83d
000000b0: 39b8 a73c 7e93 c83d a736 92bd 4dc3 83bd
000000c0: 3d1f a4bd eefd 49bd e5d6 25bd 9f10 f53d
000000d0: b494 4dbc 70fb 5a3c 923a 5cbd be55 69bc
000000e0: 0cc0 85bc 78d8 11ba d535 093d 8594 2b3e
000000f0: 0d07 193d f8f5 c2bd 26ed 83bd 9f5e 72bd
00000100: e48c 0dbe 3f9b 00be 1588 fbbb 1195 04bd
00000110: 34fc 173e 7601 a9bb e185 95bd 0c03 f63d
00000120: 8632 e6bd 3e2c e93b 4f68 e63d 8b4d 8a3d
00000130: fa7a c73d 64d4 f9bb 7563 75bd 19dd 2dbd
00000140: 0fed 71bd 94ff 3b3d 1d37 7abb 3c11 9b3a
00000150: fbde bfbc 5b9b 38be 5edb 233e a50e 993c
00000160: 417d f9bd 8bdc 04be d7c2 9c3c f814 0e3e
00000170: ac2f 053c a40f 5c3d fbf4 afbd a4cf 2d3e
00000180: 70fb e1bb 154c 21bd 6c25 3c3e 04d6 fabb
00000190: ad70 6f3e 60ff 11be 6e21 47bc 11a2 06be
000001a0: cb40 833d 1589 9b3d 739c 61bd f34f 02be
000001b0: 5202 e43d 570c c13d 3359 503d 9ba4 d93d
000001c0: 8cfd 0dbd 19b3 813d 297b b2bd 5d5e 083e
000001d0: a68c c6bd 9099 3d3e 0db7 0b3e 44ed ce3d
000001e0: b39d a23a a218 b23d 221c 3bbd f9b4 043d
000001f0: 70ff 3b3d 8981 b5bd 6495 a8bd c973 08bd
00000200: 3dd9 a3bd 280b 35bd 01ff 98bd 1616 1abe
00000210: aa1c 783c ea0c c4bd 84c2 9dbd d7f4 eabd
00000220: 4a7d f83b 3b01 8c3c ef49 cd3c f411 b4bd
00000230: 0bfb aabd c164 98bc e158 3e3d 3d81 86bc
00000240: f85b 70bd e9fb e13c 14b6 913d 9105 243e
00000250: 24f4 c03d 1f27 49bd c65a b1bd 0ca9 6a3d
00000260: fb90 5f3d 72ad af38 1dca 5d3d 6ee9 1dbd
00000270: 70f2 88be 21f9 23be b4a3 6a3d 2032 033d
00000280: bacc 5f3b 3a77 053e 8723 35bd 2ff9 2b3d
00000290: 9c44 45be d1ae 0fbe 7675 563d b20e 2cbd
000002a0: 84b1 2a3e e9ba dcbd c459 043e 434b acbc
000002b0: 3e1f 8c3c 7289 bfbc 8e52 d5bb f54a 1d3b
000002c0: aee9 1fbe a28d d3bd aaae 3a3d 225c 0c3d
000002d0: d26b 42bd b133 f0bd 3122 153d a593 f6bd
000002e0: 6dff 30be 2e79 9cbd 9798 81bb a59b 59bd
000002f0: 8f51 0c3e c968 f0bb 0b23 183e 25c1 73bc
00000300: 933b 803d c807 94bd 1d63 fbbc 3fdd 9c3c
00000310: 707d 64bd 52dc cf3c 040a 06bc f44b 423c
00000320: a5ca e8bd 5125 a93c 17bc 263d 7f05 a1bc
00000330: ea51 21bd ac09 88bc ef46 a7bd fd84 31bd
00000340: edaf 08bd 1b5e d3bd ffcb b13d c99b b9bc
00000350: e80a f73c c674 c23c 7609 b03c ce5f b83c
00000360: 032d 12bd 7721 083e 1a0c 403d 2b97 c3bd
00000370: 5f6e 493e 4a95 f23d 0f40 d13d b78e 053e
00000380: ea42 1fbe 777d 0a3e 78fe 083c 8d81 c4bc
00000390: b214 9abd 346e 8a3c c6b8 1f3e 4468 693d
000003a0: 8c7f a63a 09c3 983d 323b 69bb ae59 14bd
000003b0: de03 7dbc e0ed 6bbd 7a4b 4e3e d326 7fbd
000003c0: 9939 2cbb 3da7 473d 3160 02be 3511 a7bb
000003d0: eeb7 2bbd d4f1 cc3d 11f1 e4bc 2259 843d
000003e0: f8dd a8bc 3e11 e3bc ba15 8bbd 99ad 583b
000003f0: 3e11 ae3a f32b 20be d36f 17bb adcf 0bbe
-0.10714256 0.109041765 0.0022869892 -0.09290115 0.011459292 -0.09268285 -0.09690267 0.03329301
0.07632006 -0.1040189 0.08282348 -0.044074833 0.15706679 0.10041538 0.18458322 -0.039374515
0.07390038 0.09138984 -0.036375895 -0.017579667 -0.04178594 -0.016781263 -0.115718886 -0.08030552
0.038474258 0.06339559 -0.07096049 -0.08180237 -0.025283383 0.025022231 0.14552012 -0.12520747
0.10180804 -0.025155194 0.026287735 0.03428296 0.024008352 -0.11050563 0.008950517 0.029487142
-0.13811909 0.073524445 -0.09951724 0.08222031 0.020473586 0.09793757 -0.0713933 -0.06433735
-0.08013771 -0.04931443 -0.040488143 0.11966061 -0.012547661 0.013365611 -0.053766795 -0.014241634
-0.016326927 -0.00055635674 0.033498604 0.16755874 0.03736024 -0.09519571 -0.06441717 -0.05917227
-0.13823277 -0.12559222 -0.0076761344 -0.032368723 0.14842302 -0.005157645 -0.07300926 0.120123
-0.11240105 0.00711587 0.11250364 0.067530714 0.09740253 -0.007624196 -0.059909303 -0.042447183
-0.059063967 0.045898035 -0.0038179823 0.0011830698 -0.023421755 -0.18028013 0.1600165 0.01868374
-0.121820934 -0.12974755 0.019135876 0.13875186 0.008129042 0.053725854 -0.08591648 0.1697374
-0.0068964288 -0.039379198 0.1837365 -0.007654907 0.23382826 -0.14257574 -0.012153966 -0.13147761
0.06408843 0.07594506 -0.055080842 -0.1272581 0.11133255 0.09426182 0.050866317 0.10627099
-0.03466563 0.06332988 -0.08714897 0.13317247 -0.09694795 0.1851561 0.13644047 0.101038486
0.0012406617 0.086961046 -0.045681126 0.03239915 0.0458979 -0.088625975 -0.08231619 -0.033313546
-0.08000419 -0.044200093 -0.07470513 -0.15047488 0.015143553 -0.09572776 -0.077031165 -0.11472481
0.007583295 0.01709043 0.025059668 -0.08792487 -0.08348664 -0.01860273 0.04647148 -0.016419047
-0.05868146 0.02758594 0.07114807 0.16017748 0.09421566 -0.049109574 -0.08659892 0.057290122
0.054581624 8.376957e-05 0.05414783 -0.038552694 -0.26747465 -0.16013004 0.057285026 0.032030225
0.0034149126 0.13033763 -0.044223335 0.041985687 -0.19264454 -0.14031531 0.052358113 -0.042006202
0.1666928 -0.10777838 0.12924868 -0.021031981 0.017104741 -0.023380969 -0.0065100854 0.0024000977
-0.15616485 -0.10329749 0.04557673 0.034267552 -0.047466107 -0.11728609 0.03640956 -0.1203988
-0.17284937 -0.07640301 -0.0039549577 -0.05312695 0.13702987 -0.00733671 0.14857118 -0.014877592
0.06261363 -0.07228047 -0.03068691 0.019148467 -0.05578369 0.025373612 -0.008181099 0.011858929
-0.113667764 0.020647677 0.04070672 -0.019655941 -0.03938476 -0.016606174 -0.081678264 -0.043339718
-0.0333709 -0.103206836 0.08681487 -0.022657292 0.030156568 0.023737323 0.021488886 0.02250662
-0.035687458 0.13294016 0.04688654 -0.095503174 0.1967101 0.11844881 0.10217296 0.13042723
-0.1555287 0.13524424 0.008361451 -0.023987556 -0.075234786 0.016898252 0.15597829 0.0569842
0.0012702807 0.07459075 -0.0035588262 -0.036218338 -0.015442817 -0.057599902 0.2014598 -0.062292885
-0.0026279448 0.048743475 -0.12732007 -0.005098487 -0.041923456 0.100070626 -0.02794698 0.06462313
-0.020613655 -0.027718183 -0.067912534 0.0033062457 0.0013280285 -0.15641765 -0.0023107424 -0.13653441

residual_tower.blocks.0.conv2.bias f4 [8]
00000000: 3533 a9b9 cff6 04b9 c286 9c39 7f94 23ba
00000010: a17e 7cb9 5036 003a 0f2c b439 b98c 9a39
-0.00032272344 -0.00012680444 0.0002985504 -0.0006240084 -0.00024079766 0.00048909057 0.00034365102 0.00029478015

residual_tower.blocks.0.bn2.weight f4 [8]
00000000: 866a 293f dcc6 323f 5160 393f e54d 333f
00000010: b59b 3a3f 1c46 353f c952 343f 1d34 453f
0.66178167 0.69834685 0.7241259 0.7004073 0.7289384 0.70810103 0.7043882 0.77032644

residual_tower.blocks.0.bn2.bias f4 [8]
00000000: 6e72 16be 833c 18bd 982c a0bd 7e1a 62bd
00000010: 9dc9 d2bd 07da cb3d 300f 3bbd bc03 8fbc
-0.14692089 -0.037167083 -0.078210056 -0.055201046 -0.10292361 0.09953695 -0.04566878 -0.017457835

residual_tower.blocks.0.bn2.running_mean f4 [8]
00000000: 44da 6ab8 6b99 593d 88ee 2bbe 2fe8 793e
00000010: c556 71be da3b 32be c264 67bd 62ae 85bd
-5.5993223e-05 0.053124826 -0.16790211 0.24404977 -0.23568256 -0.17405644 -0.056492575 -0.065274015

residual_tower.blocks.0.bn2.running_var f4 [8]
00000000: d84c ea3d 20eb e23d e519 f03d 0717 2a3e
00000010: 4ea4 df3d aef6 0b3e 2505 013e 9ff7 1a3e
0.11440438 0.11080003 0.11723689 0.16610347 0.109200105 0.1366832 0.12599619 0.15133522

residual_tower.blocks.1.conv1.weight f4 [8, 8, 3, 3]
00000000: 4dfd 283c 6e28 47bd 53b9 fa3d 0a37 1abd
00000010: 1141 3e3e ace3 6dbc 6a02 893d 2f4d cfbd
00000020: f70d 26be b66e 863d 6042 d83d 6143 5d3c
00000030: cc4b 15bd 9df9 91bb c839 01be bc50 efbc
00000040: 7fe7 c43c 51ca b4bd 3acf 49bd 2c1c 68bd
00000050: 1ebc a8bd 8cb2 893d 4bbb 8abb 48fb 41be
00000060: 6503 ba3b 0784 003c dd28 403c 3437 593d
00000070: 360b 75bd c45f 64bd f3f8 cabc bab2 4ebc
00000080: 1860 293d 9440 483d c17f d43d 1360 823e
00000090: 0821 e6bb 05f1 19bd 91c4 b2bd 0281 1cbb
000000a0: 1d29 96bd 6f6b 61bd 4300 243d e26a 2a3d
000000b0: 27ea e63d 00c7 583c 3b98 873c 7f9e 163d
000000c0: 38f9 aebb b4d7 21be ca87 87bd 3f26 08be
000000d0: f6d2 0f3d c9ac f53c 07d9 2bbd d5f5 d73d
000000e0: e74d 5a3d d464 46bd 7e8e aabd 0053 57bd
000000f0: f9f5 463e 30cf 88bd 782b d33d 69c0 f4bd
00000100: 4c70 ba3c 8b9d 48be c377 5ebb f663 24be
00000110: 9bc2 88bd 5bbc 53bd d5e6 923d 8ac4 b53d
00000120: 54f1 c03d ebcf 803d 689e 74bd 57e7 84bc
00000130: c450 9b3c 42ac 6ebd a2cc fc3a febd 17be
00000140: fb0c 13bc 8b4e b3bd 4d48 523c a3b0 18be
00000150: efc8 193e d4b1 67bb d33a e6bc 3cf4 e93d
00000160: 5277 ffbd c92a ba3d d475 d33d 32b5 743d
00000170: d6cc 1fbe 070a 083e 7237 bcbc bfe4 713b
00000180: 9e9a 08bb dd5f 46bd 302a a13d 9e71 8bbd
00000190: 3cbb 9abc 81a2 a9bd aa5a 50bd c600 d13c
000001a0: 2624 9d3c bc90 74ba b8aa 073d 60b9 983d
000001b0: 9b22 ce3d b21c 1f3c 7cb9 54bd 8ac9 323e
000001c0: b0f3 89bd 1751 4f3d 3ecc 1abd d427 b33d
000001d0: ff4e a33d 13f9 0abe 19d4 293d b571 91bd
000001e0: fd6d 283d 276e 86bd b5e0 fbbc b810 16bd
000001f0: 9a99 e1bd 9ade 243d d01c f03d 8a9b 8fbd
00000200: d8e4 e23d 5c59 e33d 9362 383e 8139 debd
00000210: 7c17 e43c c846 9d3d 9174 24bd acd1 b6bd
00000220: 59e5 9dbd bb13 fe3c 9ae1 19be f391 85bb
00000230: 9ced 93bd 34d3 83bc 07a4 06be 38bc a4bd
00000240: e21f 0c3d 4174 e53c 42e1 b33c 3ce3 3d3e
00000250: 0731 12bd 1dc9 623e 796d 3cbe 025b f9bd
00000260: a24e fabb b962 b0bc 1771 693e a136 d63c
00000270: 71e7 d13d 005a 7dbd b88c f1bd e6df fabc
00000280: 743d 1abd 9d19 5cbd 3bb0 f3bb 2e24 863d
00000290: 8cbd 6fbd 317b 083e 4be6 c93d e7c2 77bd
000002a0: 7658 4fbd 5391 963d 86ef 463d 6cbe bcbd
000002b0: eca2 c2bd d19c 48bd 5157 df3d 513a f23c
000002c0: cd97 b33d e74a 003e 5f25 c33c 80ae 4a3e
000002d0: e20a b43b 377e cabc 897a b3bc b276 173d
000002e0: 1ba6 883c f7a3 a83d 37a1 413c eabd b43b
000002f0: b3f1 ba3c ffc6 d23d 1227 a0bd 9595 9b3d
00000300: 8b22 b9bd a836 513d 2d41 c5bc 7ce2 653d
00000310: 1c32 bbbc 86dc e8bd 301a 8ebd 7d36 08bd
00000320: 9606 10bc b38b 613d 836e c33d 3792 f5bc
00000330: 1ff6 5bbd f296 1c3c f889 943d 5862 843c
00000340: 2318 0b3e 3d7a 93bc 036d 263c dd3c c03d
00000350: 1ffb 55bc fd79 90bd 73f8 02be 8576 debd
00000360: 684e 5e3d c7ea 773d dbfa 83bb 9ca6 89bd
00000370: 21c6 c83d 3829 a7bd 3ec6 24be 7827 40bc
00000380: 7f17 b33d 91c3 1c3e 0aa6 afbb 4380 9f3d
00000390: 1d2c e53d a430 2e3d c6e9 82bc 6321 78bd
000003a0: c51b 77bd 467d 33bd 9893 c13d 8600 043e
000003b0: 03d6 253e 81cc fcbd 5e5b 82bd f33c 9cbd
000003c0: 3508 07be 01a8 07bd ae42 85bd 809b 70bd
000003d0: 5b66 843c 7d01 393e 25a9 093b 8ff3 0e3d
000003e0: afc2 e53d 0c00 78be 4d4b 44be b458 2fbd
000003f0: c3f4 b13d faad 453e e30f e43d 8cd4 2d3d
0.010314298 -0.04862254 0.12242379 -0.037650146 0.18579508 -0.014519613 0.066899136 -0.101221435
-0.16216265 0.06564085 0.10559535 0.013504834 -0.03644924 -0.004454805 -0.12619698 -0.029213302
0.024036167 -0.08827651 -0.049269892 -0.05666749 -0.082390055 0.06723508 -0.004233753 -0.18943512
0.005676674 0.007843978 0.011728493 0.05303116 -0.059825145 -0.05575539 -0.024776911 -0.012615854
0.041351408 0.04888971 0.103759296 0.25463924 -0.0070229806 -0.03758337 -0.08728898 -0.0023880606
-0.073320605 -0.055034097 0.040039312 0.041605838 0.1127513 0.013231039 0.016552081 0.036772247
-0.005339768 -0.1580494 -0.066176966 -0.1329584 0.035113297 0.029989617 -0.04195502 0.105449356
0.05329695 -0.048436 -0.083279595 -0.05256939 0.19429769 -0.06680143 0.103110254 -0.11950762
0.022758625 -0.19591348 -0.0033945895 -0.16053757 -0.06677743 -0.0516933 0.07172934 0.088753775
0.0942103 0.06289657 -0.05972138 -0.016223593 0.01895941 -0.058269747 0.001928706 -0.1481857
-0.008975263 -0.08755215 0.012834621 -0.14911132 0.15018056 -0.0035353797 -0.028104221 0.11423537
-0.124739304 0.09090192 0.10325208 0.059743114 -0.15605482 0.13285075 -0.022975657 0.0036910025
-0.0020844112 -0.048431266 0.07869375 -0.0680878 -0.018888108 -0.08282948 -0.050867714 0.025513064
0.019182276 -0.00093294284 0.033121794 0.074572325 0.10065194 0.009711431 -0.051934704 0.17459694
-0.06735933 0.050614443 -0.037792437 0.08747831 0.07974052 -0.13571577 0.041462038 -0.07101766
0.041120518 -0.06563979 -0.030746797 -0.036637038 -0.11015625 0.040251352 0.117242455 -0.070120886
0.11078805 0.11101028 0.18006353 -0.10850812 0.02784323 0.07679516 -0.04015023 -0.089267105
-0.0770976 0.031015268 -0.15027466 -0.0040762364 -0.07223055 -0.01609192 -0.13148509 -0.080437124
0.034210093 0.028009536 0.021957997 0.18543714 -0.035691287 0.22147031 -0.18401136 -0.121755615
-0.0076387683 -0.02153145 0.22797047 0.026149096 0.10249222 -0.06185341 -0.11794418 -0.030624341
-0.037656263 -0.053735364 -0.00743678 0.065498695 -0.058530375 0.13328244 0.09858378 -0.060488608
-0.050621472 0.07351937 0.04856827 -0.092160076 -0.09503731 -0.048977677 0.10905326 0.029568823
0.08769188 0.12528573 0.02382153 0.19793129 0.0054944614 -0.024718387 -0.021909015 0.03697843
0.016680768 0.08234399 0.011818222 0.0055158036 0.02282033 0.10291862 -0.07819952 0.0759689
-0.09039792 0.051077515 -0.02407893 0.056124195 -0.022851042 -0.113701865 -0.069385886 -0.03325509
-0.008790633 0.05506487 0.09542563 -0.029976947 -0.053701516 0.009557473 0.07252878 0.016160175
0.13583426 -0.018002624 0.010157826 0.09386609 -0.01306036 -0.070545174 -0.12790088 -0.108624496
0.054273993 0.060526635 -0.004027707 -0.06721231 0.09803415 -0.08162159 -0.16091248 -0.01172816
0.08744716 0.15308978 -0.0053603696 0.07788136 0.111900546 0.042526856 -0.015980612 -0.060578715
-0.060329217 -0.043820642 0.094519794 0.12890825 0.1619492 -0.123436935 -0.06365083 -0.07628813
-0.13186724 -0.033119205 -0.06506859 -0.058742046 0.016162088 0.18066974 0.002100536 0.034900244
0.112187736 -0.24218768 -0.1916935 -0.042809203 0.08689263 0.19304648 0.11135843 0.04243903

residual_tower.blocks.1.conv1.bias f4 [8]
00000000: 811b dbb8 6ea0 b1b8 3452 003a 5083 96b9
00000010: d6c0 1539 475b 25b8 35e1 3e3a ba99 2739
-0.00010447857 -8.4699e-05 0.0004895062 -0.00028708065 0.00014281584 -3.9424074e-05 0.0007281483 0.00015983629

residual_tower.blocks.1.bn1.weight f4 [8]
00000000: 9921 203f 9c15 223f f24d 273f e4a5 1d3f
00000010: 4491 193f d292 2b3f 6260 2e3f 3736 2c3f
0.62551266 0.63314223 0.6535331 0.61581254 0.5998728 0.67020905 0.6811582 0.67270225

residual_tower.blocks.1.bn1.bias f4 [8]
00000000: 1dbc 5cbd 4119 d3bd c949 70bc a81f 923d
00000010: 0bbe b5bc 9ca8 de3d fe75 483d 0edd 36bd
-0.053890336 -0.10307551 -0.014666029 0.07134944 -0.022185346 0.108720034 0.04894065 -0.044644408

residual_tower.blocks.1.bn1.running_mean f4 [8]
00000000: b70c a7be 8a6b 99be fea4 a83e e7af 1b3e
00000010: a40b c5be 7fd3 a5be c400 c3be 8160 93be
-0.32626888 -0.29964858 0.3293838 0.1520382 -0.38485444 -0.3238792 -0.38086522 -0.28784564

residual_tower.blocks.1.bn1.running_var f4 [8]
00000000: e7fe 9d3e 3800 be3e c47c bd3e 3df9 e83e
00000010: 799f 933e f24a bd3e 1023 073f 44c7 b03e
0.30858538 0.37109542 0.3700925 0.45502654 0.28832605 0.3697124 0.52787876 0.34527028

residual_tower.blocks.1.conv2.weight f4 [8, 8, 3, 3]
00000000: 047b 803d 6a55 9ebd 8fc1 fc3d 1e29 cebb
00000010: c636 9f3d ecef c13d 8599 35be 0e14 33bc
00000020: 7c18 4f3e c235 8d3c 6c3b 823d 3dfe dfbc
00000030: 7e8e bdbd d724 c23d a59e 88bd dbf7 503d
00000040: 96cf 963c 5b21 b1bd 0460 cb3c c1f9 31bc
00000050: 256b c2bc 8575 db3d c60c 2f3c a4fe 3f3d
00000060: 47e9 693d 3644 a03d 450c 65bd cd22 043d
00000070: b8fa 47bd 6a49 903d 9dc4 7e3c 5d02 bbbd
00000080: 8c54 56bd 93d3 20bd 3ae5 bdbd 741f 98bc
00000090: 7b1b 863d 5600 fc3d 3469 ca3d 4cee a23d
000000a0: c810 4ebd 7763 e6bd 9c8a ce3c f675 5abc
000000b0: 8479 5c3d eabd 2e3e bea5 cb3d 37d3 ec3d
000000c0: 1c5e 81bd 4876 4cbd 1db9 8abd 4dc2 d53d
000000d0: c569 50bd 522d 053d 2302 94bb a82e 6e3b
000000e0: e039 ecbb 027e 943d d397 ce3b f002 523d
000000f0: 8b73 923d 25ea 88bc f5a8 b7bd f12f 03bb
00000100: d639 10be ab4d ec3c c627 be3d a293 c0bc
00000110: dfe3 4d3d 5a91 203e 64a9 c83d ba90 453d
00000120: 6747 45bd d5c3 6dbd f094 e03d 106f 0f3d
00000130: 6a85 553d 66b6 123d 8ec9 ebbd 55ee 1fbe
00000140: 35b0 bfbc 04eb 6b3d 6b55 acbd bc8f ccbd
00000150: 91c1 333c 2a13 c0bd b5d7 233e 6cdd 1abc
00000160: ce99 91bd d5db d53d 1082 94bd 4dd3 df3d
00000170: db1d 0cbe d950 1d3d 8178 8d3c f92d 883c
00000180: 0e52 2e3e 2a0f af3c 551f 86bc 3e4c 2cbd
00000190: eab6 a8bd 38d2 8c3d 6ea0 893d c52b 6a3c
000001a0: e69d 52bd 74d2 c1bd 523b ca3d 46dd e7bd
000001b0: d283 a4bc d9ff 863e a830 3abd 4afc 1a3d
000001c0: 4800 f03c bd91 253d a6c6 6bbd 867d fcbd
000001d0: 1304 b63d dd88 9bbd 502c e43c a121 06be
000001e0: 3210 c23d e15a 023d bc10 a6bd 8166 03be
000001f0: b042 043e be25 c0bd 5e81 0dbe a165 2bbd
00000200: 47f2 b83c 0064 89bc 9c98 edbd 64d1 2dbe
00000210: b5e8 bc3d 4b42 8bbd 05bb acbd 428b c7bb
00000220: 7183 82bc b2f0 5abd d89a 7e3d e108 0d3d
00000230: 92de 9f3d 67f9 a9bb a73a ffbd cece d53c
00000240: 9406 743d 5c0d 803d 4fc9 96bd a4f2 84bd
00000250: de30 acbb 230a b53c 3b40 f6bd c5dd 16bc
00000260: ba61 afbd 4f80 36bd dccf 17bd ed0d 233c
00000270: 5b9a 99bc 6139 a5bd 7731 123e 0e93 fabd
00000280: f27d 36bc 4678 bbbd 27cd b73d dc11 8f3d
00000290: 5e1c e23d add6 5f3d fbf9 a2bd 7ed6 cdbd
000002a0: 5ada d5bd 55df 3c3d a8b5 433c 7ef9 9bbc
000002b0: 4774 7dbd dacd aebc 43da 75bd 690f 9ebd
000002c0: 447f a4bc 6b0c 233d 4308 093e 1ccd d1bd
000002d0: 1a58 7b3b cb78 62bd d4ca 9cbd 4802 a43d
000002e0: 9a49 cdbd 5d43 e1bd a5d1 3dbd c29c 943d
000002f0: f1bf 06be 634e 02be 626b cebc 83ec d73d
00000300: 327f 073d 7836 15be cab3 48bd ba83 41bd
00000310: d56e a93d 1876 aebd 016b 2fbe 5819 b03d
00000320: 37b7 a53b ce59 a33d 8514 96bd 6ded c73d
00000330: 8563 3c3b a1ea b6bc e6aa cebd 9259 3d3e
00000340: 04ff c4bd 5c85 3c3b 1399 57bc f410 773d
00000350: 49d2 003d 619f 3abe 6fc7 debc 5628 26be
00000360: 0d49 21be 86ed 223c 6f2a dbbd 28e4 5f3d
00000370: 3635 06bd db22 c33d 69d1 013e 7615 cebd
00000380: 6044 053e 3598 9a3d fe8f 783d 9c36 1a3d
00000390: 9016 2dbd 258e bbba f9ed 07be 92ee 1ebe
000003a0: 8b52 82bc 2499 b5bd 084a b93d 627d bebc
000003b0: ed3f 00be c957 90ba afaa d2bc 02da 303d
000003c0: 9803 2d3e afb1 803c a575 183e cb80 f1bd
000003d0: f316 8dbd ee46 40bb 41c5 73bd 591e a3bd
000003e0: 5759 cabd 8aea 08be 21bd d23c bb18 03be
000003f0: f152 803d 078e b83d 6ff5 8c3d 9a8a a83a
0.06273463 -0.07731135 0.12341606 -0.0062915226 0.07774119 0.094695896 -0.17734344 -0.010930074
0.20224184 0.017237548 0.0635899 -0.02734291 -0.09255694 0.09479683 -0.06670884 0.051017623
0.018409532 -0.0864894 0.024826057 -0.010862769 -0.023732731 0.107157744 0.010684198 0.046873704
0.057107236 0.0782551 -0.055919904 0.03225975 -0.04882309 0.070452526 0.015549806 -0.0913131
-0.052326724 -0.039264273 -0.09272237 -0.018569686 0.0654821 0.123047516 0.09883347 0.07955608
-0.050308973 -0.1124944 0.025212578 -0.013333788 0.053826824 0.17064634 0.09943722 0.115637235
-0.06316778 -0.04991749 -0.06773589 0.104374506 -0.05088212 0.032513924 -0.0045168563 0.0036343727
-0.0072090477 0.072505966 0.00630472 0.051272333 0.07150944 -0.016713211 -0.08967773 -0.002001759
-0.14084563 0.028845629 0.0928493 -0.023507897 0.050266143 0.15680447 0.09797934 0.048233725
-0.048163798 -0.058048088 0.109659076 0.035018027 0.052129187 0.03581848 -0.11513053 -0.1561826
-0.023399452 0.057597175 -0.0841473 -0.09988353 0.010971443 -0.09378655 0.16000254 -0.009452205
-0.07109414 0.1044232 -0.0725137 0.10928974 -0.13683264 0.03840718 0.017269375 0.016623484
0.17023489 0.021369535 -0.016372362 -0.042064898 -0.08238013 0.068760335 0.06720053 0.014292662
-0.051420115 -0.09463969 0.09874596 -0.113215014 -0.020082388 0.2636707 -0.04545656 0.037838258
0.02929701 0.04042219 -0.057562493 -0.12328629 0.08887496 -0.07594464 0.027853161 -0.13098766
0.09475745 0.03182495 -0.081086606 -0.12832071 0.12916064 -0.09382199 -0.13818881 -0.041844968
0.022576464 -0.016771317 -0.116013736 -0.16974407 0.09224073 -0.06799754 -0.08434109 -0.006089599
-0.015931817 -0.0534522 0.06215939 0.034432296 0.07806124 -0.005187202 -0.12462359 0.026099589
0.059576586 0.06252548 -0.07362615 -0.064915925 -0.005254849 0.02209956 -0.1202397 -0.009208147
-0.08563562 -0.04455596 -0.037063465 0.009952051 -0.01875036 -0.08067585 0.14276682 -0.1223508
-0.011138426 -0.091538 0.089746766 0.06985828 0.11040567 0.05464809 -0.07957836 -0.10050677
-0.10442038 0.046111424 0.011945166 -0.019039866 -0.06187847 -0.021338392 -0.060022604 -0.07717783
-0.020080216 0.039806765 0.13382058 -0.102442 0.0038352073 -0.05529098 -0.07655874 0.080082476
-0.10023804 -0.10999177 -0.04634251 0.07256462 -0.13159157 -0.12725215 -0.025197688 0.10543158
0.033080287 -0.1457156 -0.048999585 -0.047244765 0.08273093 -0.08518618 -0.17130663 0.08598584
0.0050572413 0.07976113 -0.073281325 0.09762082 0.0028745842 -0.022328677 -0.1009119 0.184912
-0.09618953 0.0028766012 -0.013159054 0.060318902 0.031450544 -0.1822486 -0.027194707 -0.16226324
-0.15750523 0.009944325 -0.10701453 0.054660946 -0.03276559 0.095281325 0.1267754 -0.10062687
0.13014364 0.075485624 0.060684197 0.037649736 -0.042257845 -0.001430933 -0.13274373 -0.15520695
-0.0159085 -0.088671 0.090473235 -0.023253147 -0.12524386 -0.001101249 -0.025716154 0.04317666
0.16895902 0.015709726 0.14888628 -0.117921434 -0.06889143 -0.0029339152 -0.059514288 -0.07964773
-0.098803215 -0.1337072 0.02572495 -0.12802403 0.0626582 0.090114646 0.0688275 0.0012858689

residual_tower.blocks.1.conv2.bias f4 [8]
00000000: 4e7c ab3a 7adc b6b9 b896 cfb9 79fe 513a
00000010: 6e8e 02b9 a4de 6939 bfee 8238 7670 fcb6
0.001308331 -0.00034878013 -0.0003959441 0.00080106367 -0.00012450825 0.00022303552 6.243353e-05 -7.5232774e-06

residual_tower.blocks.1.bn2.weight f4 [8]
00000000: e780 163f 14fb 353f f862 1a3f 8060 213f
00000010: bd8a 3f3f 0357 2a3f 2fe4 163f d112 113f
0.5879044 0.7108624 0.60307264 0.6303787 0.7482107 0.6653902 0.5894193 0.56669337

residual_tower.blocks.1.bn2.bias f4 [8]
00000000: 3d28 2dbe de32 40bd ef1f 7abd ce32 0bbe
00000010: 782d 39bd c5c9 c23c 100b 98bd 7ac1 94bd
-0.16909881 -0.04692351 -0.06106561 -0.13593599 -0.045209378 0.023777852 -0.07423985 -0.07263465

residual_tower.blocks.1.bn2.running_mean f4 [8]
00000000: 62bf 183e 38cb 17be ed80 5abe a601 673c
00000010: 4ef2 08bd 79dc 3f3e 6daa 05bf 35d1 a23d
0.14916757 -0.14823616 -0.21338244 0.014099514 -0.033434205 0.18736447 -0.52213174 0.07950059

residual_tower.blocks.1.bn2.running_var f4 [8]
00000000: c3ae 9c3d 5286 7f3d 1f1c cd3d f343 da3d
00000010: b905 f73d 5ea7 003e 5780 163e 5fbf d33d
0.07650521 0.062383957 0.10015129 0.106574915 0.120616384 0.12563846 0.14697395 0.103392355

residual_tower.blocks.2.conv1.weight f4 [8, 8, 3, 3]
00000000: 1c93 e53d eba6 5bbd 2f03 883b d424 c63d
00000010: 507f c63d c41b c9bc ea7d 8d3d 55b8 7f3c
00000020: 51e7 8e3b 95dd d43d 859c 833d 2bd4 413d
00000030: 47c1 e4bd 1955 7ebc 9e6f 653d 973b a43a
00000040: 49bd 06bd 3c8e d0bc a549 d83d f5eb 743d
00000050: 1684 ca3d 3e74 efba 6b95 493d ec31 fe3d
00000060: d49c 9f3d 7b70 a2bc 3cca b93d b7b6 1bbe
00000070: a978 843d 8a9e 713d 5e0d 4abd 9cef 5dbc
00000080: c93a 103e e4c9 133e 797d a33d 1abe 163e
00000090: 53dc a13a 8a04 e83b a414 3ebd 92b5 283d
000000a0: 7e04 06bc 5202 67bd 3a14 bcbc 25b1 07bd
000000b0: ff41 e93d d39d d33c 1dbb 203d 79da fd3c
000000c0: fa14 843d 6ea8 8d3c f45a 423e 7fa4 b0bc
000000d0: 0439 0bbd eafb 6bbd 83ba 8c3c 07cf 093d
000000e0: 3851 69bd 5338 11bd 0f02 a33c cfae 81bc
000000f0: a36e c8bd c9e4 1abd 3ca5 a2bd ef58 1bbd
00000100: c8bb 1abb 4c93 30bd 28d7 3c3e 687e 013e
00000110: 7ab8 34bd ab07 db3d 1626 543d a96a febd
00000120: aa4a a13d a5ee c93c 4581 f1bc e581 d4bd
00000130: 03ea e9bd f514 3ebd d6e2 c6bc 89db ac3d
00000140: 5cf7 bbbd d0f1 71bd 0d23 e3bd 47dd 323d
00000150: b42a c93d 0582 9d3d 92d0 b73c 696b 503d
00000160: 8da4 c6bc 9615 15ba 5575 cbba c6d2 32bc
00000170: 7b7a e1bc 3a0f ab3c 7bf8 7cbd 67ee 163e
00000180: b1dd 983d 86a1 4c3c eb1c 04be bb3a 24bd
00000190: 5e5e 4d3d 34f4 eabd b3a7 c23b a4ca 8c3d
000001a0: bae9 a83d 2292 2fbc a94e 60be b6dd c03b
000001b0: 0cf0 b43d 6ed5 4abc 9fcc b2bb 8981 103c
000001c0: 3244 c2bd 304e eebb f30b 893d 293a c23c
000001d0: d09c 22be 47ad e73d b6ac 4cbe b7b0 313e
000001e0: ba38 04bb ad78 6abd 97d3 48bd 68aa a1bc
000001f0: d939 40bd 290f 613d c456 be3c 4124 b0bc
00000200: 23d1 c3bd 2360 b3bc 81bf 4f3d 8dd3 afbd
00000210: 9c35 7fbb 63b7 b83d 5197 f13d 37a6 ce3d
00000220: af53 ddbd e2aa 80bd 21d1 00be bdc2 3cbd
00000230: 8442 1a3e 2d17 3c3d b3f2 6dbc d176 6abe
00000240: cb53 0e3d c2dd 063c 4e80 0e3d 3ae9 aa3c
00000250: 5d08 cbbd 5d1d d3bd 1c21 463d db40 613d
00000260: 0139 cf3d 5ca9 213e ef2f 78bd fa71 b4bd
00000270: f004 9ebd c12a 9abb c0a2 e2bc 47d2 393d
00000280: 8228 463e 09d2 123e 376c df3d f6b1 0ebd
00000290: 680c f5bd 8616 4dbd 18f4 94bd bf30 27bd
000002a0: e4fb bebd d69a 483c 84dd 0d3e aa0b 503d
000002b0: a810 f8bd 220d a3bd 71ab 453d 24c1 2a3c
000002c0: f5ad 3d3d cbc7 ab3c ca7b e9bd 93cb afbd
000002d0: abd2 053e 7141 a1bc 08c1 11bd 7266 ddbc
000002e0: 6f4d 6ebd 120e 13be 8b24 20bd 1d7d 08bd
000002f0: 1863 0dbe c7fe ddbd e01b cabd d837 493d
00000300: c044 b93d 651a 06ba 1cd2 db3d cc6a ed3d
00000310: 69e8 30bd c486 433c a1eb 0b3e 5902 bf3d
00000320: 3d7b 223d a7ef 5cbd 9bd5 52bd 8969 8c3d
00000330: 2621 16bd 71a4 b3bd 589e 11bd 7c15 9fbd
00000340: ba0f 063e 3bb4 a0bc 449f 233d c24c e73c
00000350: 1b37 28bc 7dae 323e 94ce 543c fad4 323d
00000360: 8d56 dbbd cf96 ee3b 1991 be3d b48c e33c
00000370: 1794 bbbd dc33 4d3d 51db 8abd cd71 6ebd
00000380: 99ef 0c3e fe64 a6bc ddcf 4ebd 30a2 13be
00000390: b0c3 12bc ca0b 62bd 1553 4dbe 98d6 18bd
000003a0: 8269 813c 2df0 b7bb ff0b e13d fa36 2e3d
000003b0: 2ab2 82bd ebab f73c 605e 143e dc7c 06bd
000003c0: 0420 aebd fe29 323e 0bc3 f5bd 4e2b e23d
000003d0: 887b 893d b026 393b 6949 efbd 438b f0bc
000003e0: 55cb 023d 284c 9abb 98f1 993d 340d 3b3c
000003f0: 4065 b63d 38c2 1c3e d345 99bd 7859 52bc
0.112096995 -0.053625982 0.00415077 0.09674993 0.09692252 -0.024549372 0.06908782 0.015607913
0.004361071 0.10393826 0.06426338 0.04732148 -0.11169677 -0.015523219 0.05601465 0.0012529966
-0.03289536 -0.025458448 0.105609216 0.05979534 0.09888475 -0.0018268896 0.04921476 0.124118656
0.077935845 -0.019829025 0.09071776 -0.15206419 0.064683266 0.058989085 -0.049329154 -0.013545897
0.14084925 0.14432484 0.079829164 0.14720955 0.0012348987 0.007080619 -0.046406403 0.041188784
-0.008179782 -0.056398697 -0.022958864 -0.033127923 0.11389541 0.025832092 0.039240945 0.030987965
0.064493135 0.017292228 0.18980008 -0.021562813 -0.03398992 -0.05761329 0.01717878 0.033644702
-0.05696222 -0.035454106 0.019898443 -0.015830426 -0.09786727 -0.037815843 -0.07941672 -0.03792661
-0.0023610462 -0.043109223 0.1844145 0.12645876 -0.044121243 0.10694822 0.051794134 -0.124226876
0.07875569 0.024649927 -0.029480586 -0.10376338 -0.11421587 -0.046406705 -0.024278086 0.084403105
-0.091780394 -0.0590685 -0.1109067 0.043668058 0.09822598 0.07690815 0.022438321 0.050883684
-0.024248386 -0.00056871155 -0.0015522639 -0.01091451 -0.027524224 0.020881284 -0.061760407 0.14739381
0.07464159 0.012489682 -0.12901656 -0.040095072 0.050138824 -0.11472359 0.0059404015 0.06874588
0.08247705 -0.010715993 -0.21905006 0.005885805 0.08834848 -0.012379987 -0.0054565216 0.008819946
-0.094856635 -0.0072725043 0.06691732 0.023709374 -0.15880132 0.11312347 -0.19987759 0.17352568
-0.0020175413 -0.05724399 -0.049029913 -0.019734576 -0.046930168 0.0549461 0.023234732 -0.021501662
-0.09561374 -0.021896427 0.05071974 -0.08585272 -0.0038941866 0.09019353 0.117964394 0.10090297
-0.10806977 -0.06282593 -0.12579776 -0.046084154 0.15064436 0.04592054 -0.014523196 -0.22896887
0.03474788 0.008231582 0.03479033 0.020863164 -0.099137045 -0.10308335 0.04837142 0.05499349
0.101182945 0.15787262 -0.060592588 -0.08810802 -0.077157855 -0.0047048037 -0.027665496 0.04536655
0.1935139 0.14337935 0.10909312 -0.034837686 -0.11965257 -0.05007031 -0.0727312 -0.040817972
-0.09325388 0.012243947 0.13854033 0.050792374 -0.12112552 -0.07961489 0.048259202 0.010422025
0.046308476 0.020969292 -0.11400564 -0.085837506 0.13068645 -0.019684525 -0.03558448 -0.027026389
-0.058179315 -0.14360836 -0.03909735 -0.033322442 -0.13807333 -0.108396105 -0.09868598 0.049125522
0.09046316 -0.00051156274 0.107334346 0.115926355 -0.043190394 0.011933986 0.13664104 0.0932662
0.03966831 -0.053939488 -0.05147324 0.06856067 -0.036652707 -0.08771599 -0.0355514 -0.0776777
0.13091937 -0.01961719 0.03994681 0.028234843 -0.010267044 0.17449374 0.012988705 0.04366014
-0.107098676 0.0072811614 0.09305019 0.027777053 -0.09159105 0.050098285 -0.067801125 -0.058213998
0.13763274 -0.020311829 -0.050491203 -0.14417338 -0.008957788 -0.055187024 -0.20051225 -0.037314028
0.01579738 -0.005613348 0.10988616 0.0425329 -0.06381638 0.030233344 0.14489126 -0.03283392
-0.085022 0.17398831 -0.12000092 0.11043416 0.06713015 0.002825182 -0.11683924 -0.02936328
0.031932194 -0.0047087856 0.075167835 0.011416722 0.08906031 0.15308464 -0.07484021 -0.012838714

residual_tower.blocks.2.conv1.bias f4 [8]
00000000: c387 3039 19c0 c83a 8aaf 2f39 64af 1a39
00000010: 076d 44b9 b627 263a 815a c33a a27b 8b3a
0.00016835243 0.0015316039 0.00016754694 0.00014751923 -0.00018732632 0.0006338315 0.0014904292 0.0010641704

residual_tower.blocks.2.bn1.weight f4 [8]
00000000: 55f6 383f 4dac 193f 63a6 2f3f 09c4 263f
00000010: ff98 0f3f 76c7 123f 93f8 1e3f fb61 163f
0.7225087 0.60028535 0.6861326 0.65142876 0.5609283 0.57335603 0.62098044 0.58743256

residual_tower.blocks.2.bn1.bias f4 [8]
00000000: 223e 9abd f1d8 313d f0a7 c6bd 651e 99bd
00000010: 854f 67bd 9741 ca3b 26b8 29bd 7154 51bc
-0.07531382 0.043419782 -0.097 -0.074765004 -0.05647232 0.0061723697 -0.041435383 -0.01277648

residual_tower.blocks.2.bn1.running_mean f4 [8]
00000000: 1a47 543f 890e 97be c54f 903d ec58 e23e
00000010: 9583 ed3d 608c 3ebf 92be 2cbe f5c4 0e3f
0.8292099 -0.29503277 0.07046465 0.44208467 0.11597363 -0.74432945 -0.16869572 0.5576928

residual_tower.blocks.2.bn1.running_var f4 [8]
00000000: 7994 223f 9123 a53e 1de8 f73e d118 f73e
00000010: 16cc bc3e 60c6 eb3e 6428 a73e 40af de3e
0.635078 0.32253698 0.48419276 0.4826112 0.36874455 0.46049786 0.32648003 0.4349308

residual_tower.blocks.2.conv2.weight f4 [8, 8, 3, 3]
00000000: 3459 853d d2a5 a23d 5c4a c0bc f729 eb3d
00000010: f843 73bc 1dce cbbd 1d58 263e 6d19 e6bd
00000020: b8a8 09be 7d64 eb3c 3737 a03d e91a b53d
00000030: 5451 90bb 24c9 e93c 279c 05bd 4137 b53d
00000040: 3ede 25bd 1238 283d 69d5 7d3e f2fb 06bd
00000050: 363c c7bd 1ce5 e73d 4867 aa3d 2da6 3c3d
00000060: 0fc0 92bc a216 c9bc e16e aabd 69a9 083e
00000070: d62d 8e3d a84b d83b 1191 f23d 330d b33a
00000080: 588d 10be 2fd9 1abd bd64 f5bd 2766 31bd
00000090: 4815 cebc 3959 9bbd fe97 3fbd a2cc c8bb
000000a0: 29a5 d93d c5df b83d 4a65 67bc b263 b13c
000000b0: 269e b03d eb46 a83c dd94 b0bb fcb0 dc3c
000000c0: 4064 b6bd 66f2 893c bfe3 f83b ca33 99bc
000000d0: 5847 60bd ba03 c5bd 6830 a83d 7ce5 5cbd
000000e0: 0e0f a33d 1067 b3bd 871f a03c fbf1 7f3d
000000f0: 604f 8d3d 713b eb3d dc87 0b3e 2a21 ecbd
00000100: 88b6 01be 4ffd 863d 0f32 a3bd c1bc 243c
00000110: d23e 2abe d312 393b 6878 1fbe fda6 84bd
00000120: d207 78bd f0bb 8c3d ec74 7d3c 7060 01be
00000130: e7ff ee3c b509 8abd 0c5a a0bd d1b3 b4bd
00000140: 0065 5b3d 39c9 703d 6d6e e3bd 9e6d a6bd
00000150: 9b5b 82bd a932 58bd 48f1 053e 3e96 bdbd
00000160: f560 cb3d 607c 9a3c 3429 d5bc 2016 f6bd
00000170: 67a6 eebc b123 833d bb6b 2c3c 1fdb 0cbe
00000180: bf18 3dbd 2f22 b9bd 9d71 0bbd 8628 a5bc
00000190: d2c5 a63d 0a9e a03d dc49 8f3c c4c6 c13d
000001a0: 974a 3abd 9228 7e3d 2210 793d dd90 ebbd
000001b0: 39b7 a5bd f554 25bc d647 9e3c 0a9a 33bc
000001c0: 87d2 1bbd 10f6 333d 0001 163d 6226 a33d
000001d0: 1b38 77bd a4a3 e8bb 571a 3a3e 6430 923c
000001e0: 3b16 853c 68b3 623e 71cd f2bb 16f0 5c3c
000001f0: 3fc5 b0bd 9ffb d73c 626c ba3d 164c 073d
00000200: 0e15 60bc d4dc 11be 2e73 c03c db82 853c
00000210: 6aff 00be 9062 bbbd d622 95bd ab3a e63b
00000220: d9de 24be f42c b43d 31a6 6a3d 7903 dd3b
00000230: aed8 22be 192f a53b 23ca 49bd 82e5 bdbd
00000240: 498d 193d 1f06 8c3d f612 fcbd f44b c6bc
00000250: f17d 5cbd c57e 20bd 20ff 2abe e532 7f3d
00000260: 1bb6 cb3d 63e2 a5bd e016 89bd 1996 623d
00000270: 3730 53bc 4d8c ea3d 3577 42bd ec07 373d
00000280: 6e68 bc3d cd8b 59bd b594 12be d2e5 01bd
00000290: 843a dfbd 5064 eb3c 6217 8cbd b42a 0b3d
000002a0: 2da5 343d 9c68 393d 180a 97bc 12d0 32bd
000002b0: f87f 9fbd e9a8 e6bd f1a3 503d 7cfd 67bd
000002c0: 3bd8 03bd 3f9d cfbb c38d ebbd f16e 323d
000002d0: 3ce5 e33d 31ab e33c f6ca abbd 53a8 563c
000002e0: f120 6ebd febc 64bd 1cad c7bc 4489 fabc
000002f0: 5634 1fbe da61 51bd 5784 9d3d e985 353e
00000300: d13a 18bd dc55 14bc 178e 40bd 0a63 82bd
00000310: 6309 273d 5fb8 db3d 747b 48bb 104b e73d
00000320: abe8 183e 3de4 4abb 94ac 5d3d 7ff5 f1bd
00000330: a588 bfbd b8d2 79bc 76d3 8e3d d315 00bd
00000340: 90d1 a3bc 979d c0bd 1ff3 93bc f10c ee3d
00000350: 0473 873d 26d3 0b3e faf3 61bd e04f 04bd
00000360: 9730 e2bd 7f5c de38 1f20 60bd 7a03 833c
00000370: 7fb1 f8ba 25a4 d63d dcf9 10be f8df 3ebd
00000380: aa6c 353e 9431 43bd 5580 84bd f0c8 a2bd
00000390: b513 333d 3692 873b 5fd7 623d 4476 a53d
000003a0: 2ed8 403c 1c53 cc3b d799 d93d f3d8 f13c
000003b0: 8da2 72bd 3b98 853d 5ce6 bf3b 12f0 743d
000003c0: 8243 2b3e 8262 c33c d5cd 13bd ef79 c9bd
000003d0: 7ee2 99bd 0cb7 afbd efaf 1cbe e9c3 58bc
000003e0: b6e1 efbd 6376 d9bc 21a7 98bd 21a5 af3b
000003f0: c353 8dbc 838f 0cbe 310d 26bd edae 01bd
0.06511155 0.07941784 -0.023472957 0.114826135 -0.014847748 -0.09951422 0.1624455 -0.11235318
-0.13443267 0.02873444 0.078230314 0.08843023 -0.0044042263 0.028538294 -0.03261962 0.088484295
-0.04049515 0.041069098 0.24788441 -0.032955118 -0.09728281 0.11322996 0.083204806 0.046056915
-0.017913846 -0.024546925 -0.0832193 0.13345875 0.06942336 0.006600816 0.118440755 0.001366055
-0.14116418 -0.03780478 -0.11982105 -0.04331031 -0.025156632 -0.07585377 -0.04677581 -0.0061279098
0.10627205 0.09027056 -0.01412327 0.021653984 0.086239144 0.020541629 -0.0053888396 0.026939861
-0.0890584 0.016839217 0.007595509 -0.018701453 -0.05475554 -0.096198514 0.08212358 -0.05392979
0.07961856 -0.08759892 0.019546283 0.06248663 0.06899905 0.11485947 0.13626045 -0.11529763
-0.12667286 0.065912835 -0.07968532 0.010054768 -0.16625527 0.002823998 -0.15573275 -0.06477163
-0.060554333 0.06871784 0.015469771 -0.12634444 0.029174758 -0.06740133 -0.07829675 -0.0882336
0.053563118 0.05878565 -0.111050464 -0.081263766 -0.063651286 -0.05278269 0.13080323 -0.09257172
0.099306025 0.018858135 -0.026020624 -0.12015939 -0.029132081 0.06403292 0.010523732 -0.13755463
-0.046166178 -0.09039723 -0.034043897 -0.020160925 0.081432 0.078426436 0.017491274 0.0946174
-0.04548129 0.06205041 0.0608064 -0.1150224 -0.080915876 -0.010091056 0.019321363 -0.010962019
-0.03804257 0.043935835 0.036622047 0.07966305 -0.06035624 -0.0070995856 0.1817411 0.01784534
0.016245952 0.2213875 -0.0074097444 0.013484975 -0.08631372 0.0263651 0.09102704 0.033031546
-0.013676895 -0.14244395 0.023492422 0.016297748 -0.12597433 -0.09149659 -0.07282035 0.0070260367
-0.16100635 0.08797637 0.0572874 0.0067447987 -0.15902969 0.005041015 -0.04926504 -0.09272291
0.037488256 0.06837105 -0.12308304 -0.02420614 -0.053831045 -0.039183397 -0.16698885 0.062304396
0.09946843 -0.080998205 -0.06693816 0.055318926 -0.012889913 0.114525415 -0.047476966 0.04468529
0.09199606 -0.05311184 -0.1431454 -0.031713314 -0.10899833 0.028734356 -0.068403974 0.03397627
0.044102836 0.04526578 -0.01843743 -0.043655463 -0.0778808 -0.11262686 0.050937597 -0.056638226
-0.032188635 -0.006335884 -0.11501648 0.043562833 0.11127707 0.027791591 -0.08388321 0.013101655
-0.058136884 -0.0558443 -0.024374537 -0.030583031 -0.15547308 -0.05111871 0.076912574 0.17726864
-0.037165467 -0.009053674 -0.047010507 -0.063665465 0.040780436 0.10728525 -0.0030591162 0.11293614
0.14932506 -0.0030958795 0.05411966 -0.11814403 -0.09352235 -0.015247993 0.06973927 -0.031270813
-0.019997388 -0.09405058 -0.018060265 0.11623562 0.06613734 0.13654765 -0.055164315 -0.032302737
-0.11044424 0.00010603014 -0.054718133 0.015992869 -0.0018973796 0.10480527 -0.14157814 -0.046600312
0.17717233 -0.047654703 -0.0646979 -0.07948482 0.043719966 0.0041373027 0.055381175 0.08079198
0.011770291 0.0062354933 0.10625046 0.029522395 -0.05923705 0.06523176 0.0058563184 0.05979926
0.16724971 0.023850683 -0.03608497 -0.0983771 -0.07513903 -0.08579835 -0.15301488 -0.013230302
-0.11712973 -0.026545709 -0.07453752 0.005360261 -0.017251855 -0.1372662 -0.040539924 -0.031660963

residual_tower.blocks.2.conv2.bias f4 [8]
00000000: b291 0bb9 c33b 51ba f659 38b9 48a8 5fb8
00000010: 3f89 ef39 7941 3cba 6c19 a539 1537 95b9
-0.00013310349 -0.00079816225 -0.0001758112 -5.3324067e-05 0.0004568789 -0.0007181387 0.00031490193 -0.00028460534

residual_tower.blocks.2.bn2.weight f4 [8]
00000000: e255 233f b12e 2d3f 817b 113f 8e53 273f
00000010: d44f 1b3f ab5a 0d3f dd57 143f bc6d 323f
0.6380292 0.6764937 0.56829077 0.6536187 0.60668683 0.55216473 0.5794657 0.6969869

residual_tower.blocks.2.bn2.bias f4 [8]
00000000: 6582 03be 3028 8a3d 8c41 d33c d65d 7fbd
00000010: a5b5 40bb 401f 063d 5f8c 67bd 9356 15be
-0.1284271 0.067459464 0.025788091 -0.06234535 -0.0029405144 0.032744646 -0.056530353 -0.14583807

residual_tower.blocks.2.bn2.running_mean f4 [8]
00000000: 3dc5 b13b 5376 2abe 2010 b7bd 341e 7bbe
00000010: c13c afbe 911e 42be ccea a9be 7815 a8bd
0.005425124 -0.166467 -0.089386225 -0.2452324 -0.3422604 -0.18956973 -0.33186948 -0.0820722

residual_tower.blocks.2.bn2.running_var f4 [8]
00000000: 4f77 e03d 0714 bf3d 2eea a03d c6a3 fb3d
00000010: fbc0 293e 05a5 ab3d db61 223e 2f54 eb3d
0.10960256 0.09329992 0.07857166 0.12287097 0.16577522 0.08381084 0.15857641 0.11490666
