model_drawn_sunset_42.pth (torch, 154361 bytes, 83 tensors)

input_conv.conv.weight f4 [8, 2, 3, 3]
000000 ac a4 3e bd fb 3f 3d be 9c f6 10 be 72 32 29 be
       -0.046543762 -0.18481438 -0.14156574 -0.1652315
000010 7f 68 db bc 2f 61 a5 bd 39 ef c6 bd bb 30 85 bd
       -0.026783226 -0.08075177 -0.09713597 -0.06503435
000020 30 41 d5 bd 06 90 94 3d 62 cf 87 3c c4 26 0b bd
       -0.10412824 0.07254033 0.01657838 -0.033972517
000030 45 4a bd 3d 75 c0 14 3e 31 50 f5 3d 09 16 49 bd
       0.092426814 0.14526542 0.11978186 -0.04909328
000040 f2 bd 65 3e 8c 14 2f bd 8f ac 60 bd ab a2 59 bc
       0.2243574 -0.042744204 -0.054852065 -0.013283412
000050 63 c1 15 be 17 3e 0a 3d 67 4a 8d bc 4a d8 d4 bd
       -0.14624552 0.03375062 -0.017247392 -0.10392816
000060 5c d3 0e 3d c9 52 18 3d 99 87 1a be 30 b0 d8 3c
       0.034869537 0.037188325 -0.15090789 0.0264512
000070 0e e8 df bc 58 01 57 bb dd ba 9a bd 80 6c 3d bd
       -0.027332332 -0.0032807197 -0.075551726 -0.04624605
000080 05 c7 ee 3e bb 8d 44 3d a8 46 d8 3d 51 2c ec bd
       0.46636215 0.047986727 0.105603516 -0.1153189
000090 9d c8 cb 3d 71 ff 56 3c bf 58 0d bd a3 db 5f 3e
       0.09950373 0.013122425 -0.034508463 0.21861129
0000a0 be bb c5 3d ad 2f bb 3d 07 01 3b bd 13 e3 43 3e
       0.096549496 0.09139953 -0.045655277 0.1912959
0000b0 ac 3f 40 bd e6 79 0b be 76 44 42 bd 4f 44 06 be
       -0.046935722 -0.1362072 -0.04742857 -0.13111995
0000c0 d3 59 63 bd c8 c9 c2 3d 00 90 82 bd 26 34 ec bd
       -0.055505585 0.09511143 -0.06375122 -0.11533384
0000d0 bd 4a d9 bd d4 3b 0e be 6e af 4b bd e8 a6 30 bd
       -0.10609958 -0.1389001 -0.04972785 -0.043127924
0000e0 7c 0c 55 bd 0c f3 1a be f3 29 d3 bd be 2b 73 be
       -0.05201386 -0.15131778 -0.103107356 -0.23747155
0000f0 71 5b 5e 3d e0 db a1 3b 7f d8 28 3e 0b d1 90 bc
       0.054286424 0.004939541 0.16488837 -0.017677804
000100 ed 27 c0 3c ca 07 d9 bc 08 46 bb 3d 70 0d 2e 3d
       0.023456538 -0.026492972 0.09144217 0.042493284
000110 21 94 d4 3d 8d b1 b1 3c f3 70 86 be 3a dc ce 3d
       0.10379816 0.021691108 -0.26258048 0.10100599
000120 dc de 3e 3c f1 6f 6a 3d d3 73 18 be c6 db af 3c
       0.0116498135 0.057235662 -0.14887933 0.0214671
000130 ff eb 81 3d e9 5c 85 3e e1 3a 06 bd 36 79 09 3c
       0.06343841 0.26047447 -0.032770995 0.008390715
000140 4a 02 ae bd bb c5 82 bc c0 9e 13 3c da 8b 8b be
       -0.0849653 -0.015963426 0.009010017 -0.27255136
000150 50 7b 33 3d e0 ec 1d bd b0 a7 1e 3e be 56 69 bc
       0.04381877 -0.03855598 0.15493655 -0.014241872
000160 3e c2 0c 3d 78 ba 7f 3d 82 c3 07 be 7e 1f b0 bb
       0.03436493 0.06243369 -0.13258174 -0.005374848
000170 5e f4 e7 ba bb 07 c6 bb 88 60 30 3e 3e 96 58 bd
       -0.0017696728 -0.006043402 0.17224324 -0.052877657
000180 31 ef 33 bd da 48 57 be ae e8 84 bd 30 10 f4 bd
       -0.043929283 -0.21023884 -0.06489693 -0.1191715
000190 4a 1c a5 3d cc 2d 2d bd 60 41 3d be de 1a e1 bb
       0.08062036 -0.042280003 -0.1848197 -0.006869658
0001a0 96 91 34 be 32 12 45 bc 46 af c6 3d f4 ce 5b 3c
       -0.17633662 -0.012028264 0.097013995 0.013416041
0001b0 0c 62 da 3b 63 d5 a3 bc 52 7a 5d bd 9e 8e ad 3c
       0.00666452 -0.019999212 -0.054071732 0.02118617
0001c0 ce 76 eb bc fb 01 7c 3e a9 4e 2f 3d d6 fb 10 3d
       -0.028743174 0.2461013 0.042799626 0.03539642
0001d0 02 e8 69 3e 6c 6c bd bd 05 03 4b bd 32 74 a7 be
       0.2284241 -0.092491955 -0.049563427 -0.32705837
0001e0 0b 64 31 bc 3e cf a4 3c 65 14 0e bc 2f 0c cd bc
       -0.010827075 0.020118352 -0.008671855 -0.025030224
0001f0 3d e9 73 3c 76 3a 75 bd 1a df 51 3d 04 e1 cd 3c
       0.014887151 -0.059870206 0.051238157 0.02513171
000200 1e 7b b6 3c 2e ea 22 bd b3 bf 90 bd 15 16 23 3e
       0.022275504 -0.039774112 -0.07067814 0.15926392
000210 03 eb 52 bd ae 71 c4 bc 50 cc 8e bd c6 97 57 bc
       -0.051493656 -0.023979988 -0.06972563 -0.013158744
000220 93 36 10 bc 29 e5 56 3d d5 f7 f0 3d 51 51 fe 3d
       -0.008802074 0.052464638 0.1176602 0.124178536
000230 c0 d7 f8 bd 6d 5e c0 bd 80 81 dd 3b 6d f5 4c 3d
       -0.12150526 -0.0939301 0.0067598224 0.050038744

input_conv.conv.bias f4 [8]
000000 c1 5b aa 36 d3 d3 b6 35 a7 dc 83 35 73 b9 89 b6
       5.0770764e-06 1.3621706e-06 9.824479e-07 -4.1045073e-06
000010 79 ee 29 36 6e 3c 86 35 17 e4 af b5 b8 47 6d 35
       2.5321772e-06 1.0001365e-06 -1.3104899e-06 8.8393745e-07

input_conv.bn.weight f4 [8]
000000 fe 0e 25 3e 0e 98 89 3e 0b f7 2b 3e c9 aa 50 3e
       0.16119 0.2687382 0.16793458 0.2037765
000010 e2 7e e8 3d 3d 1e 45 3e c9 a1 69 3e 32 0d 13 3e
       0.11352326 0.19249816 0.22815622 0.14360502

input_conv.bn.bias f4 [8]
000000 8b 30 e8 3d 9f ab 8f 3d 69 ef ba 3d 8e d9 c9 3d
       0.11337384 0.07015156 0.09127695 0.098559484
000010 c2 00 40 bc eb 77 b7 3d c9 bd 83 bd 15 88 c7 bd
       -0.011718931 0.089584194 -0.06432683 -0.097427525

input_conv.bn.running_mean f4 [8]
000000 c4 bf 72 bc f9 5c 7a 3c c9 b7 a3 bb 26 3c b8 bc
       -0.014816228 0.0152809555 -0.004996274 -0.022489619
000010 99 8f 09 3d 57 12 7b bd 15 a7 b2 3c 97 b8 13 3c
       0.03358421 -0.061296787 0.021808187 0.009016178

input_conv.bn.running_var f4 [8]
000000 14 38 6d 3c 93 c3 c1 3c 35 fb 86 3c 19 7f a3 3c
       0.014478702 0.023652827 0.016477207 0.019958066
000010 1e 93 ff 3b e1 73 b3 3c e7 c0 61 3c 17 15 62 3c
       0.00779952 0.021905841 0.013778902 0.0137989735

residual_tower.blocks.0.conv1.weight f4 [8, 8, 3, 3]
000000 57 8a 45 3d 7d 18 6a 3c be b2 d8 bc 7b 77 f4 bc
       0.048227634 0.014288065 -0.026452418 -0.029842129
000010 ba 6b fe 3b 6f 93 82 bd cf ed 58 3d 02 c1 bf 3c
       0.007764307 -0.06375777 0.052961167 0.023407463
000020 a8 47 1e bd 20 2d f2 bb 7a 63 12 be c4 42 81 bc
       -0.038642555 -0.007390633 -0.1429576 -0.015778907
000030 e3 e0 8d bd 06 e9 d0 bc 2d 21 b2 bd a7 09 0a bd
       -0.06927659 -0.02550174 -0.08697734 -0.03370061
000040 ce a4 04 be c8 29 8e bd fd b4 92 3c 69 4e e7 bc
       -0.12953493 -0.06941563 0.017908568 -0.028235631
000050 86 d7 51 3d 51 8d 2f bd 56 3b 66 3d a6 03 de 3c
       0.05123093 -0.04285938 0.05620893 0.02710135
000060 88 ba 6a bd 41 d2 89 bd b6 8c 6f bd 90 ed 61 3c
       -0.057306796 -0.06729556 -0.0584838 0.0137895495
000070 ee d2 e4 3d 2b 4c 4a 3d e4 a5 e9 bc 65 12 45 bc
       0.11173044 0.049389046 -0.028521486 -0.012028311
000080 f8 27 2b bc cf 0b 49 3d de fa f9 bb 9b da a6 3a
       -0.010446541 0.049083527 -0.0076287827 0.0012729944
000090 66 22 66 3d a5 60 40 bd 5b 3b bb bd 01 72 67 bd
       0.05618515 -0.046967167 -0.091421805 -0.056505207
0000a0 ed b2 dd 3d e0 2f 9d bd ec 2d 0e 3c 41 c4 30 be
       0.10825143 -0.07675147 0.008677941 -0.17262365
0000b0 49 9d 1f bd ff d3 83 3d d1 19 67 3c 86 0c 99 bc
       -0.03896836 0.064369194 0.014105276 -0.01868273
0000c0 e4 5d c8 bb b7 18 a8 bb e2 dd 48 bb 4a 14 c6 3d
       -0.0061147083 -0.0051298994 -0.003064983 0.096718386
0000d0 1a ac 89 3d 2a 46 16 be bb aa 20 3d c8 e7 b2 3d
       0.06722279 -0.14675203 0.03922532 0.08735615
0000e0 6d 1c 83 bd eb 1a 81 bd f5 95 36 3e f6 6e 99 bd
       -0.06401906 -0.06303962 0.17830642 -0.07491867
0000f0 e0 10 1b 39 d1 b9 29 3e 28 c8 74 bd 90 a9 7d bc
       0.00014788238 0.1657479 -0.059761196 -0.015482321
000100 6d e9 44 bd 04 5b f6 bc 06 b3 39 bc 50 5a 53 bd
       -0.048074175 -0.030072697 -0.011334186 -0.0515998
000110 c5 6e b0 bd 51 55 13 bd a4 d3 e5 bd a9 4e a9 bd
       -0.086148776 -0.035970036 -0.11222008 -0.08266956
000120 7e bc 01 3d c6 fd 6e bc 06 5d 64 3d b8 3e a0 bd
       0.0316739 -0.0145868715 0.055752777 -0.07824463
000130 93 12 b4 bc 21 01 40 3d db 3a d1 bd 49 a6 1f be
       -0.021981513 0.046876077 -0.10216304 -0.15590777
000140 85 98 a7 bd bd 92 a2 bc 39 a9 36 3d b7 0b ae 3c
       -0.08183388 -0.01984536 0.044594977 0.02124582
000150 6d 22 5e 3d e3 f3 55 bd 6b 5a 12 3d c8 32 59 be
       0.05423205 -0.05223454 0.03573076 -0.21210778
000160 2a 34 60 be 45 40 a6 be 77 3c 0e bd 59 c1 28 3c
       -0.21894899 -0.3247091 -0.034725633 0.010300004
000170 34 9d 2b 3d 78 bc c3 3d f1 0d 20 3d 93 37 7b 3d
       0.041897967 0.09557432 0.039075796 0.061332297
000180 3c d1 1f bd c6 13 4f 3e 18 84 5f 3d b8 9b ca 3c
       -0.0390179 0.20222387 0.054569334 0.024732456
000190 3f a4 86 bc 36 58 52 bd 50 cd 61 3d 03 3e b1 3d
       -0.01643574 -0.051353656 0.055127442 0.08654406
0001a0 db f9 b3 3d fc cc 83 bd 30 1d f8 bc 06 ec 49 bd
       0.087878905 -0.06435582 -0.030287355 -0.049297355
0001b0 1e 1d 54 bb 5d d0 4b 3d b6 c7 8a 3b 42 f5 36 bd
       -0.0032365988 0.049759258 0.004235233 -0.04466749
0001c0 cb 12 3a 3c be 8d 23 bd 41 a2 eb 3c d5 c5 8f bc
       0.01135702 -0.039930098 0.028763892 -0.017550388
0001d0 31 a1 7a bd a6 20 1f bc 90 e0 7c 3b af 53 e5 bb
       -0.06118888 -0.009712374 0.0038585998 -0.0069985013
0001e0 69 18 1a be e9 b7 43 bd 6d 94 d9 bc c8 1e 38 3c
       -0.15048374 -0.047782812 -0.026560033 0.011237808
0001f0 64 84 89 3b 75 a7 0b 3e 19 b2 85 bd b9 bb 58 ba
       0.0041966904 0.13638099 -0.0652811 -0.0008267719
000200 d0 65 50 3c 88 b2 5a bb fb a0 a0 3d 48 b2 e0 3d
       0.0127195865 -0.0033370573 0.078432046 0.109715044
000210 80 e4 9c 3d 7d 5e be bc df c8 78 3d d6 c2 c9 3a
       0.076607704 -0.023238415 0.06073844 0.0015393149
000220 94 cc 99 bc 1c f2 1f 3c 59 47 2f bc 7f f5 67 3c
       -0.018774308 0.009762313 -0.010698163 0.014157652
000230 a9 5f 2f ba 4e e5 bd bd be 72 07 be 73 c1 ca bc
       -0.00066899747 -0.09272252 -0.13227364 -0.024750447
000240 3d f3 82 bd 76 07 00 3c 8b f3 0e bb 0a d1 9f 3c
       -0.0639405 0.007814279 -0.0021812643 0.019508857
000250 cc 04 70 3c db 5a 44 bd 33 12 77 bd f9 a6 a4 3d
       0.014649581 -0.04793821 -0.06032009 0.0803966
000260 3e b1 3b bd 7b 9d 47 be 9f d5 57 bd 45 97 5d bd
       -0.04582333 -0.19493668 -0.05269396 -0.05409934
000270 98 cc 66 3e b2 c2 11 3b 75 4d 38 3d ba 90 62 3c
       0.22538984 0.0022241292 0.044995744 0.013828451
000280 9f 57 c4 39 d0 e7 d7 3b ed bf 2c 3c ff 85 d5 bc
       0.00037449316 0.0065889135 0.010543806 -0.02606487
000290 6f a2 eb bd e1 62 21 3d 5e a5 ac 3d 75 6d 14 3d
       -0.11505591 0.03940094 0.08429979 0.0362372
0002a0 df f8 a0 bd 04 d2 e0 bd b6 dd f6 bc a4 00 ba bc
       -0.078599684 -0.10977557 -0.030135017 -0.022705384
0002b0 e2 85 9d bd 47 b3 ab bd 2a 3d ac 3d b3 73 b8 bc
       -0.07691552 -0.08383804 0.084101036 -0.022516107
0002c0 b4 1a ef bc 26 4b 6f 3d 7a a0 d7 bd d7 7e f0 3c
       -0.029187538 0.058421277 -0.10528655 0.029357357
0002d0 ad cd a3 bd af 7c 38 bb f5 36 c6 bc ab 5f 9a 3e
       -0.07998214 -0.002815049 -0.024196127 0.30151114
0002e0 e6 35 44 bd 4b 73 f6 3c bf 12 0b be 1a 34 4c 3c
       -0.047902964 0.030084273 -0.1358137 0.012463594
0002f0 d9 1c 83 bc 73 c9 b2 bc fd 7a f6 bd 98 a2 b1 3d
       -0.016004967 -0.021824574 -0.12035177 0.086735904
000300 75 4e 5b bd e9 b7 6e 3d fc 80 a7 bb 1b d3 4f bb
       -0.05354162 0.05828086 -0.0051118117 -0.0031711522
000310 3c a2 da 3d c7 e3 08 bc 0b b5 f5 bd 10 9e 97 3d
       0.10675475 -0.008355088 -0.11997422 0.07403195
000320 3c 96 a5 bc 80 60 b8 bb 18 50 ba 3c d3 bf 95 3c
       -0.020213239 -0.005626738 0.02274327 0.018279945
000330 ad ae 0f 3e 63 ac b5 3c b6 bd 13 3c d8 65 8b bd
       0.14031477 0.022176927 0.009017399 -0.068065345
000340 a9 33 89 bd 4f f8 21 bd 49 82 ce 3d 8d ce 76 3d
       -0.066993065 -0.039543446 0.10083444 0.060255576
000350 f5 46 43 3d 39 b2 f8 bc a0 eb b0 bc 97 5f ea 3c
       0.04767509 -0.03035842 -0.02159673 0.028610034
000360 aa 31 78 bc 4b 85 d9 3c ba b3 8b bd ec e9 60 3c
       -0.01514856 0.026552817 -0.068213895 0.013727646
000370 ec 6d a0 bd de ff 31 bd d8 8a 5a bd 79 29 ab 3d
       -0.07833466 -0.043456905 -0.053355068 0.0835752
000380 b7 fa c6 3d 01 57 2e 3c 35 d5 39 3e 6e 6a fd 3b
       0.09715789 0.010640861 0.18147738 0.0077336347
000390 c4 1c ae b9 ff a7 85 be 6f da 9a 3d 48 1e 42 bd
       -0.00033209298 -0.26104733 0.07561194 -0.04739216
0003a0 8d 3a e1 3d 34 ca 2e bd b6 ac b2 3c 0d b5 49 bc
       0.10997496 -0.042673305 0.02181087 -0.012311232
0003b0 7f c8 53 3c ff b6 2d 3b 28 12 1a bd 8e 21 be bd
       0.01292622 0.002650678 -0.03761497 -0.09283744
0003c0 3e 01 37 3c b6 b6 44 bd 84 37 8a 3c ef db 62 bd
       0.01116973 -0.04802581 0.016872175 -0.055385526
0003d0 b0 d2 96 bd 80 f4 71 3d 1b 32 82 bd 51 1d 34 bd
       -0.07364404 0.059071064 -0.06357213 -0.04397327
0003e0 8c 94 1d bd 7f b7 bd 3c cd e7 21 3e 6f 87 5e bd
       -0.038471743 0.023158787 0.15811081 -0.05432838
0003f0 7e b9 e0 bc 55 0f 38 3d e6 6e eb 3c 55 7d 9d bc
       -0.0274322 0.044936497 0.028739404 -0.019224802

residual_tower.blocks.0.conv1.bias f4 [8]
000000 34 54 6a b6 08 e1 52 38 c1 96 9d b5 75 6e 51 b6
       -3.491773e-06 5.027748e-05 -1.1741287e-06 -3.1207721e-06
000010 17 4c e3 35 e7 9f 41 b5 59 c3 7a b6 64 cc 88 91
       1.6934963e-06 -7.213079e-07 -3.736661e-06 -2.1582982e-28

residual_tower.blocks.0.bn1.weight f4 [8]
000000 66 a0 45 3e 40 9c 7d 3e 41 5c 09 3e bf 0e d9 3d
       0.19299468 0.24766636 0.13414098 0.10598516
000010 2b b7 cf 3d ac b4 07 3e 01 a4 03 3e f1 77 f3 2c
       0.101423584 0.13252515 0.12855531 6.9197916e-12

residual_tower.blocks.0.bn1.bias f4 [8]
000000 d7 1b 3f be 36 bf 50 be 90 04 c5 bd 80 eb 94 3d
       -0.18662964 -0.20385441 -0.09620011 0.072714806
000010 a5 3b 84 bd c2 6b 40 bd 42 e9 87 bd 3d db 94 a7
       -0.06456689 -0.046977766 -0.06636287 -4.131595e-15

residual_tower.blocks.0.bn1.running_mean f4 [8]
000000 5d bd 7f bd cc 7c 44 bd be 15 65 bc d2 67 56 bd
       -0.06243645 -0.047970578 -0.0139822345 -0.052345105
000010 5c 6d 68 3d 00 5c 10 bb a2 36 9e bd be f0 c1 1d
       0.05674492 -0.0022027493 -0.07725264 5.1335596e-21

residual_tower.blocks.0.bn1.running_var f4 [8]
000000 9d de 18 3c 7b 6c 87 3c e8 9e ec 3b 30 b9 70 3c
       0.009330419 0.01653122 0.0072210915 0.01469259
000010 ed 44 12 3c f1 dd 56 3c b2 51 ed 3b 13 e6 44 00
       0.008927566 0.013114438 0.007242405 6.327349e-39

residual_tower.blocks.0.conv2.weight f4 [8, 8, 3, 3]
000000 3d 78 38 bb 48 91 43 3d 46 84 74 bd a3 9e 0e 3d
       -0.002814784 0.047745973 -0.05969646 0.034819257
000010 16 e8 93 bd 6d 03 5f bc 15 4d b4 3b 38 c2 0e bd
       -0.07222001 -0.013611657 0.005502353 -0.03485319
000020 f3 b3 04 3d 6a 5c f3 bc bc 21 94 3d eb fc 2e bd
       0.032398175 -0.029707152 0.07232997 -0.04272167
000030 d2 c9 13 be 90 ae 96 bd 2a 17 3b 3b 26 b6 8b bc
       -0.14432457 -0.07357514 0.0028547742 -0.017054629
000040 af 06 88 bd c7 7f 05 bd b8 ba f8 3c 4e 44 83 3d
       -0.066419 -0.03259256 0.030362472 0.064095125
000050 8a 77 05 bb af c0 7d bd b8 15 00 bd f8 c8 96 bd
       -0.002036544 -0.061951336 -0.031270713 -0.073625505
000060 cd 65 4a 3d 32 de d7 3c cd c9 f1 3c 5a 47 c1 bc
       0.04941349 0.026351068 0.029515171 -0.023593593
000070 76 ce c4 3c ff e2 91 3d 8e f8 a0 3d d6 66 f3 3c
       0.02402423 0.07123374 0.07859908 0.029712122
000080 c1 0a 67 bc b5 3d 79 bd a9 c1 43 3d ac 66 e1 bc
       -0.014101685 -0.060849864 0.04779211 -0.027514778
000090 f0 85 cd 3d b6 67 6c bc d5 4a a3 bc e6 43 93 3d
       0.10035312 -0.0144290235 -0.019933144 0.07190685
0000a0 4d 6e 60 3d 6a 91 32 3d 87 f1 b9 3c 12 a7 b7 3d
       0.05479269 0.04359571 0.022698177 0.08967413
0000b0 2a fd 6f 3c 9f 8e dc bd b9 b0 c7 bd be c4 03 bc
       0.014647761 -0.1076939 -0.09750504 -0.008042512
0000c0 38 77 56 bd f5 fa 4d 3d 6b 28 c2 bc a8 d3 9a 3d
       -0.05235979 0.05028816 -0.023700913 0.075599015
0000d0 1f b3 20 3d 15 75 2f bd 18 26 39 bc 77 46 5b 3c
       0.039233323 -0.042836268 -0.011300586 0.013383499
0000e0 fa f1 35 bb e3 38 65 3c 38 6b 76 bd ed 8b 81 3d
       -0.0027762637 0.013990614 -0.060160846 0.06325517
0000f0 3c 81 59 bd bd a1 8a bd 98 0d a6 bd 61 bd 6b 21
       -0.053101763 -0.067691304 -0.081080616 7.987174e-19
000100 db 00 47 25 59 61 dd 24 ef 55 d5 23 c4 ba 74 9b
       1.7260788e-16 9.6008385e-17 2.31299e-17 -2.0243554e-22
000110 7b 23 93 a2 36 a1 2c 25 98 99 ff a3 c7 4a 80 a5
       -3.9881996e-18 1.4973242e-16 -2.7712205e-17 -2.2255132e-16
000120 8a 44 bf 3c ef eb 36 bb 51 d5 d9 3c 25 db 79 3d
       0.023348112 -0.0027911623 0.026590975 0.061000008
000130 a0 b8 13 bc 11 1a 10 3d fd e0 d1 3c de da 94 bc
       -0.009016186 0.03518111 0.025619978 -0.01817077
000140 83 8c 0a bd 6c 3e 71 bd 16 8f 0c bd 07 3d 78 bb
       -0.03382541 -0.05889742 -0.034316145 -0.0037878172
000150 ea 5f 13 3d 10 a5 31 3d d8 67 2b 3d 1a 72 a4 bc
       0.035980143 0.043370306 0.04184708 -0.02007394
000160 39 c8 8d 3d f6 4e c2 3d 74 e6 51 bc 63 e8 49 3c
       0.06922955 0.09487717 -0.012811292 0.012323472
000170 ac b1 fd 3c 76 96 38 3c 86 09 0b bd 62 db bb 3b
       0.03096851 0.011266341 -0.03394463 0.0057329396
000180 3f 00 c2 3c 37 fc a5 3c a6 3b a0 3c 6e e1 27 3c
       0.023681758 0.020261867 0.019559693 0.010246618
000190 ce a9 74 3c ba 31 93 bd 5a 28 88 3c a9 83 d0 3b
       0.014933063 -0.07187219 0.016620804 0.0063633514
0001a0 02 a3 62 3d ec 09 d2 bd 38 a1 84 bc 2d c1 5f bc
       0.055331238 -0.10255799 -0.016190156 -0.013656897
0001b0 da 64 7d 3c 85 95 3e 3d b7 2f 18 bd 88 11 5b bd
       0.015465939 0.04652931 -0.03715488 -0.053483516
0001c0 1f aa c9 bc 2f 44 0b bc e6 70 8a 3b 65 b7 19 bd
       -0.024617253 -0.008500143 0.0042248843 -0.037528414
0001d0 7b 73 df 3a 2a 52 79 ba a1 7e a0 bc e4 5a 37 39
       0.0017047966 -0.00095108396 -0.019591631 0.000174861
0001e0 d9 20 c4 bb 6d 26 67 3c eb 68 89 3c 25 3b 24 bd
       -0.005985361 0.0141082825 0.016773662 -0.040095467
0001f0 4a c0 19 3d 52 d1 9a 3c b4 b2 82 39 93 5e d5 bb
       0.037536897 0.01889864 0.00024928676 -0.0065115183
000200 33 4b a3 bc dd c5 04 3d 41 47 66 bc 78 11 7c 3b
       -0.019933319 0.03241526 -0.014055074 0.003846256
000210 2c 24 03 3c 59 5d 2a 3d 98 c8 f2 3b 40 84 5f a3
       0.0080042295 0.04159293 0.0074091665 -1.2116859e-17
000220 f1 c6 ef 22 01 47 f6 23 86 f9 06 a4 03 61 90 9b
       6.4991717e-18 2.6701445e-17 -2.9267973e-17 -2.3885494e-22
000230 aa bd 9f 24 44 4a 8c 25 7e 7b 88 25 3c ee b7 24
       6.927656e-17 2.4336453e-16 2.367592e-16 7.9767184e-17
000240 a4 0b 37 3d f7 5e e0 b9 55 44 a1 bc 24 42 04 3d
       0.044688836 -0.00042795364 -0.019685904 0.03228964
000250 36 cf c6 3d dc 85 48 bc 79 9c ae 3c d1 d3 9e bd
       0.09707491 -0.012238946 0.021314846 -0.077552445
000260 7a 5c 89 3c f3 8b b4 3d b4 7e 14 3e 10 10 54 3d
       0.01676773 0.08815756 0.14501458 0.05177313
000270 09 ba ea 3d be 59 18 3e 01 73 8a bd 1b 43 f5 bc
       0.11461265 0.14877984 -0.067602165 -0.029939225
000280 4b 52 c9 bc 05 d5 95 bc 2b 55 5d 3d 09 0e 65 bd
       -0.024575373 -0.018290052 0.0540363 -0.055921588
000290 58 51 f5 3d 2a 9e 6e bd ef a4 9e bc 6c 95 0d 3c
       0.11978406 -0.058256306 -0.019365756 0.008641582
0002a0 5d b1 1d 3d ab 91 98 3c b7 98 3e 3e 8c e9 6b bd
       0.038499225 0.018624147 0.18612944 -0.057595775
0002b0 72 47 44 3d 4c e4 22 3c 05 29 6f bc 69 28 59 3c
       0.047919698 0.0099421255 -0.014597182 0.013254263
0002c0 0b d1 fb bb 58 6d cf b9 ea 63 b7 3d af 48 3a 3d
       -0.007684832 -0.00039563584 0.08954604 0.045479473
0002d0 07 35 be 3c c1 58 1a bc d1 5b 26 3d 3a 79 ea bc
       0.023218645 -0.009420575 0.040614907 -0.028622258
0002e0 a3 f4 35 bd b4 ab 06 3d 47 f3 99 bd 2d dc 9b bd
       -0.044422757 0.032878593 -0.075171046 -0.076103546
0002f0 f4 01 95 3d ac 5f f2 3c 4a a6 bf 3b 3c 79 5b bd
       0.07275763 0.029586636 0.0058486806 -0.053582415
000300 b2 48 27 3d 4b b7 09 3e 25 0a 43 bc c3 e9 77 bd
       0.040840812 0.13448827 -0.011904274 -0.060525667
000310 81 7b 54 3c 52 d6 99 3d 5d 7a 32 3c 66 bc 34 bd
       0.012968899 0.075115815 0.0108934315 -0.044124983
000320 f9 0a 04 3e 35 f4 27 bd a0 8b 12 3e 37 61 3a bd
       0.1289481 -0.04100438 0.14311075 -0.045502868
000330 e9 bd 3d 3c 9a dc 9f bb f0 77 66 bd 7a a1 fa 24
       0.011580923 -0.0048785927 -0.056266725 1.0869377e-16
000340 36 0e cd 23 c3 66 1c 25 1f c9 0d a6 ee ba 1b 1e
       2.2232163e-17 1.356566e-16 -4.919177e-16 8.244288e-21
000350 22 57 5b 25 4e b5 98 a5 b8 f5 16 a4 00 fe a4 25
       1.9024744e-16 -2.6490654e-16 -3.2734197e-17 2.8621582e-16
000360 7b cb 80 bd f0 b8 47 bb 19 89 66 3c 86 f7 d5 bc
       -0.06288811 -0.0030475222 0.014070773 -0.026119005
000370 98 85 27 3c 0d d2 1c bb 75 99 cb 3c 98 07 00 bd
       0.010224722 -0.002392891 0.024853447 -0.031257242
000380 86 f8 86 bc cd 37 c2 3c de 0b 90 bc 25 80 5f bc
       -0.016475927 0.023708249 -0.017583784 -0.013641392
000390 77 fd b1 3d 0f 42 c4 3c 52 c4 c2 3d 3a 70 04 3d
       0.08690923 0.02395728 0.095101014 0.03233359
0003a0 e3 cc c4 bc f3 0e bf 3c a9 0e 65 bd 83 28 b8 bb
       -0.024023479 0.023322558 -0.055922184 -0.0056200637
0003b0 0a 9a 77 b8 dc 5b 60 bd b0 74 b6 3c 1c 05 b4 3c
       -5.903285e-05 -0.054775104 0.022272438 0.021975093
0003c0 79 68 24 bd 54 80 9f 3c 36 31 f8 bd 08 9b 3a bb
       -0.040138695 0.019470371 -0.12118761 -0.0028473753
0003d0 b6 92 ba 3d 87 56 e1 bb bd 3f 13 3e 24 ec cb bc
       0.09110014 -0.00687677 0.14379783 -0.024892874
0003e0 43 85 d2 3c 11 80 2e 3d 42 5b 6d bd c7 45 51 3d
       0.02569831 0.042602602 -0.05794836 0.051091935
0003f0 fd e3 89 bd a4 59 5f bd f0 f7 6d bd 25 d1 84 bd
       -0.067329384 -0.054528847 -0.05809778 -0.06485204

residual_tower.blocks.0.conv2.bias f4 [8]
000000 23 e6 37 35 bc 30 2b 36 28 66 07 b7 84 26 56 36
       6.8507705e-07 2.5509353e-06 -8.070412e-06 3.1910904e-06
000010 20 2a 75 b6 4a b3 f6 b6 b1 39 93 37 ab 92 97 34
       -3.6532365e-06 -7.3522433e-06 1.755063e-05 2.8232657e-07

residual_tower.blocks.0.bn2.weight f4 [8]
000000 6a c8 73 3d f2 1d 43 bd fb 2c d5 3d 9e 85 02 bd
       0.0595173 -0.04763598 0.1040897 -0.03186571
000010 c6 de cf 3d 51 d7 4f 3e ac ff 81 3e 9c 4a 2d 3d
       0.101499125 0.2029698 0.25390375 0.04230748

residual_tower.blocks.0.bn2.bias f4 [8]
000000 72 5b e5 3a 77 6a 67 bd 7a bc d9 bb 50 1f 6c bd
       0.0017498566 -0.056498017 -0.0066447826 -0.05764705
000010 cd 5d 77 bd da ca 4b be 04 ef 46 be 2c 43 23 be
       -0.06039219 -0.199016 -0.19427115 -0.15943593

residual_tower.blocks.0.bn2.running_mean f4 [8]
000000 1d 17 50 38 2e bc 17 3c 21 5f 02 3d 73 20 85 3c
       4.961259e-05 0.009261174 0.031829003 0.016250825
000010 38 66 aa 3b 50 9c 7b bc ea 82 44 bd 7b 0b 7f 3b
       0.0052001737 -0.015357092 -0.047976412 0.0038916755

residual_tower.blocks.0.bn2.running_var f4 [8]
000000 f1 63 26 3a 35 03 58 39 96 6f 6b 3a 75 1e 25 3a
       0.000634729 0.0002060056 0.0008981166 0.0006298789
000010 07 8b 92 3a b2 cf c3 3a ba 12 b8 3a db 7d ab 39
       0.0011180349 0.0014939217 0.0014043667 0.0003270943

residual_tower.blocks.1.conv1.weight f4 [8, 8, 3, 3]
000000 02 a0 8b bb 5b 0d ba 3b d7 5e dd 3b 9f cc 22 bc
       -0.004261018 0.0056778616 0.0067556906 -0.009936481
000010 3d 38 87 3b f7 9d 3b 3c e2 e4 e0 bb cb c0 06 bb
       0.004126577 0.011451236 -0.0068632225 -0.002056169
000020 08 3a df bb 9b 8b 02 3b 4b 43 77 3b 6b f7 ce 3a
       -0.006812338 0.0019919637 0.0037729319 0.0015790289
000030 8d f7 99 3c 30 75 bf 39 ab 37 a8 bb 53 af 99 bb
       0.0187948 0.0003651767 -0.0051335893 -0.0046900897
000040 b9 c7 5d 3c 22 c1 33 bc e8 de 81 bb 0d 35 9f bb
       0.013536387 -0.010971339 -0.00396334 -0.004858619
000050 10 7b 7c 39 7f b6 e7 3b 44 08 e4 bb 4e 76 80 bb
       0.00024078437 0.007071316 -0.006958993 -0.003920353
000060 13 61 b8 bb 95 44 a4 bb 1b 43 c5 3b 97 0b a8 38
       -0.0056268065 -0.0050130584 0.0060199625 8.013023e-05
000070 ea 3e 64 38 ad d9 50 3a 73 29 ac 3a 90 33 b5 38
       5.441803e-05 0.00079670065 0.0013134911 8.640357e-05
000080 d6 55 f0 b8 63 c2 54 37 15 ea a8 b8 8e 01 93 b9
       -0.0001146008 1.2681444e-05 -8.0544654e-05 -0.00028039183
000090 9c fd 91 ba 6d 4b 62 b9 9f 71 84 39 db 9a 27 39
       -0.0011138204 -0.00021581138 0.00025261656 0.00015984049
0000a0 4f 0b 8b b9 d5 72 93 ba 61 f2 ee 39 1a 41 33 39
       -0.00026520572 -0.0011249433 0.00045575484 0.00017095022
0000b0 ad 47 c0 ba cb fd 16 3a e5 13 a2 3b 23 75 d4 bb
       -0.0014669799 0.0005759864 0.0049462193 -0.0064836903
0000c0 ad 59 e7 bb 2b ae 58 bb 09 84 41 bc 46 23 da ba
       -0.0070602507 -0.0033062797 -0.011811265 -0.0016642592
0000d0 63 35 28 ba 29 79 ee 3a 0e 06 a0 3b a6 5a 6a ba
       -0.00064166466 0.0018194068 0.0048835343 -0.0008939899
0000e0 f7 86 94 bb 65 4a dd ba 6f 03 36 3a 7b 05 6a bb
       -0.0045326906 -0.0016883133 0.00069432607 -0.0035708833
0000f0 9d b0 9f bb 4d cb 97 bb 8e ba 7d 3b f6 f9 83 b9
       -0.004873349 -0.0046323896 0.0038715932 -0.00025172503
000100 ea f2 17 b9 97 9e ce 36 45 52 80 b9 f0 e2 20 3a
       -0.00014490975 6.1577407e-06 -0.00024475358 0.0006137332
000110 7e 56 3d 37 75 2f e3 b9 1f e1 fc b9 af 48 c3 b5
       1.1285416e-05 -0.00043332172 -0.00048232914 -1.4549786e-06
000120 6e 5d 1c 94 89 5c d6 93 89 6b 18 14 ac 50 cd 14
       -7.894413e-27 -5.411244e-27 7.6952465e-27 2.073153e-26
000130 cc 61 2c 16 c9 af 7d 14 9d 6f 02 95 cc b6 03 16
       1.3924909e-25 1.2807903e-26 -2.6341338e-26 1.0639776e-25
000140 d4 ff 85 18 58 65 0c 14 ce d2 08 93 dd 8e 01 95
       3.4638015e-24 7.08818e-27 -1.7269548e-27 -2.6164042e-26
000150 49 2f e1 93 d8 cb 06 96 81 8e 87 14 fe af bc 15
       -5.6844612e-27 -1.0888756e-25 1.3687724e-26 7.621026e-26
000160 96 eb f8 97 5e 8b 18 15 5b c6 42 94 0e 47 fc 93
       -1.6086095e-24 3.0806097e-26 -9.833616e-27 -6.368381e-27
000170 c3 27 79 93 d1 c2 42 14 1b cf 0c 13 35 6d 86 12
       -3.1447823e-27 9.832918e-27 1.7772595e-27 8.4835105e-28
000180 79 c4 e0 13 e5 55 de 93 40 21 8f 14 cc 59 a2 13
       5.6739287e-27 -5.6125377e-27 1.4452425e-26 4.0983096e-27
000190 83 92 f5 11 81 bf 21 94 bd 30 e8 94 0c f2 cb 92
       3.874448e-28 -8.16619e-27 -2.3445237e-26 -1.287077e-27
0001a0 53 78 f2 12 52 8d 0b 14 bc c4 6b 14 e8 58 19 94
       1.5302009e-27 7.045577e-27 1.1903267e-26 -7.74206e-27
0001b0 13 47 92 11 56 04 46 93 ec 8b 47 92 5e cf 9f 93
       2.3078541e-28 -2.4993251e-27 -6.2965795e-28 -4.0341723e-27
0001c0 b1 24 36 94 66 09 0f 14 39 c7 19 13 f9 c6 d0 13
       -9.195888e-27 7.2215085e-27 1.940954e-27 5.2702784e-27
0001d0 99 f5 8a 91 03 e9 89 14 21 c0 03 13 a4 10 66 15
       -2.1923922e-28 1.3925372e-26 1.6629251e-27 4.6461257e-26
0001e0 22 38 06 96 c9 03 0e 14 c1 c6 ae 95 b1 e0 40 94
       -1.0842146e-25 7.1699144e-27 -7.059162e-26 -9.737835e-27
0001f0 26 cc 30 16 72 75 d4 15 6a 47 de 14 1a de e7 12
       1.4281585e-25 8.5811414e-26 2.244444e-26 1.4632902e-27
000200 07 bd 8f 93 ba 4f 78 14 a3 57 af 93 b0 83 91 14
       -3.628467e-27 1.25365236e-26 -4.4262627e-27 1.46932e-26
000210 81 3a 7c 13 21 77 10 96 1a 4a b5 19 bf 70 4e 13
       3.1835716e-27 -1.1669818e-25 1.874489e-23 2.6056444e-27
000220 f4 85 a3 94 92 5f c7 93 51 63 ad 14 28 0c 52 13
       -1.6511629e-26 -5.0328902e-27 1.750771e-26 2.651172e-27
000230 04 05 c4 94 73 66 4b 9a a8 b6 fc 93 40 9f d9 14
       -1.979292e-26 -4.2062174e-23 -6.3793856e-27 2.1974214e-26
000240 f2 3c 41 3d c1 de 8b 3b d6 24 b5 3d 1e 9c c0 3d
       0.047177263 0.0042684977 0.088449165 0.09404777
000250 e9 7e 1e bd f8 0f f2 3b f8 a5 12 3d 23 25 a3 3c
       -0.03869525 0.0073871575 0.03580281 0.01991517
000260 8c c2 48 bc 2d ac 25 3b 14 59 0f bd 20 52 9b 3c
       -0.012253415 0.0025279627 -0.03499706 0.018960059
000270 ca dc 08 3c 11 75 eb 3d ea 0d a6 bd 43 08 06 be
       0.008353421 0.11496938 -0.08108123 -0.13089089
000280 1d b1 9e bc b6 1f 0f 3e c5 af 94 3b d6 ba 63 bd
       -0.019371564 0.1397694 0.004537555 -0.055598103
000290 4b 71 93 bd 57 08 83 3c 3e d9 ba bd 44 7a ab 3b
       -0.07199343 0.015995188 -0.09123467 0.005233081
0002a0 2a 6d 54 3d 87 a7 a3 bd a7 30 6d ba 57 e5 07 3c
       0.05186192 -0.07990938 -0.0009048082 0.008294425
0002b0 6e e6 72 3d 01 ce 0a bd 61 41 ca bd 94 13 ed 3d
       0.059301786 -0.033887867 -0.09875751 0.11576
0002c0 19 25 52 3d ce ee 36 3d 64 4e f0 3c 5a 6b 19 bd
       0.05130491 0.044661336 0.029334255 -0.037455894
0002d0 a8 7b 59 bd b3 92 ec bc 35 6f a9 bd 68 b4 c9 bb
       -0.053096443 -0.028878545 -0.08273164 -0.0061555393
0002e0 c7 17 73 bd d2 12 83 bd 10 3d 9b 3d b9 f5 b7 bd
       -0.059348848 -0.06400074 0.07580006 -0.08982415
0002f0 d6 9e aa 3b d7 60 25 3d ae e8 82 bd 2b e0 89 3d
       0.005206923 0.040375557 -0.063920364 0.0673221
000300 82 ac 9a bd 9b 99 94 bd 2e 4b 0b 3d 64 09 21 bd
       -0.075524345 -0.072558604 0.034007244 -0.039315596
000310 f6 c3 4a 3d 2c 65 65 bd 3a f0 a8 bb 47 20 46 3b
       0.04950329 -0.05600469 -0.0051555904 0.003023164
000320 5a f1 92 bc 83 3d c9 3b 8d a1 c2 bc 8f ab 5b bc
       -0.017937351 0.006141366 -0.023758674 -0.013407602
000330 6c 7d ff bc ed 92 09 3d 20 52 df 3c 8f bc 29 3a
       -0.031187735 0.033587385 0.02726084 0.0006474936
000340 50 b2 80 3b 3b 77 1c bd 44 a1 1f 3c d0 46 5c bc
       0.0039275065 -0.038199645 0.009743039 -0.013444617
000350 f4 bf 3e bd 62 04 ae 3c c5 38 d5 bc 56 5a 24 3c
       -0.04656978 0.021242324 -0.026028046 0.010031303
000360 76 2a 6f 3b 9a c8 1d 3d a3 7d eb bb f2 fc 61 3d
       0.0036493815 0.038521387 -0.007186608 0.055172868
000370 f2 38 f6 bd 3e ed 1f bd 3e 8a 3a bd 4f 31 1f bd
       -0.1202258 -0.03904461 -0.045541994 -0.038865384
000380 e4 27 26 3d ab ba c3 bd 14 51 06 3d d1 58 16 3c
       0.040565386 -0.095570885 0.032792166 0.009176449
000390 cc 1a 1d 3d e5 da 1b bd 6f ab a9 bd 41 d9 da bd
       0.038355634 -0.03805055 -0.082846515 -0.10685969
0003a0 24 f0 c4 bd b4 4c c1 3d 24 b6 50 bd f6 a0 83 bd
       -0.09616116 0.09438458 -0.050954953 -0.06427185
0003b0 1d c5 eb 3d c6 29 14 3c 37 2a 97 bc c6 e1 d1 bd
       0.11512206 0.009043163 -0.018452747 -0.10248141
0003c0 8e c3 a0 3b ac d1 b9 3c 4f a2 16 be da 62 a3 bd
       0.0049061244 0.022682987 -0.14710353 -0.07977839
0003d0 4a 9e 4a bc a4 1d 93 3d 86 39 a2 bc 18 e5 82 3c
       -0.012366841 0.07183388 -0.01980282 0.015978381
0003e0 07 0c f0 3c 09 33 b4 3d f4 bc c7 39 5b e8 1f 3d
       0.02930261 0.08798797 0.0003809702 0.03903995
0003f0 70 be 2a bd eb f3 2d bd dc 7d 8e 3d 5e d9 9d bd
       -0.04168552 -0.042468946 0.069575995 -0.07707475

residual_tower.blocks.1.conv1.bias f4 [8]
000000 9a 64 96 b0 9a 26 0b 8d 44 fe 16 b5 1b 80 e0 38
       -1.0942529e-09 -4.2879147e-31 -5.624936e-07 0.00010705014
000010 57 ce bb 33 6b 7d 8b b6 2f 7d 5d 93 de 03 81 36
       8.745399e-08 -4.1571234e-06 -2.7955842e-27 3.84495e-06

residual_tower.blocks.1.bn1.weight f4 [8]
000000 17 21 a8 3b 15 0e dd 1e c0 7b b9 3d 4a 42 1c 3e
       0.0051308977 2.340511e-20 0.090568066 0.15259662
000010 ff f6 e4 3d 4c 2f ed 3d 0d ca cf 2c b9 d3 04 3e
       0.11179923 0.11581287 5.905726e-12 0.12971391

residual_tower.blocks.1.bn1.bias f4 [8]
000000 6f 14 84 bd 56 0e f5 a5 b0 fc c6 bd f2 bd e0 bd
       -0.0644921 -4.251044e-16 -0.09716165 -0.10973729
000010 bb 49 86 be 2c 26 64 be bf e1 8c 25 21 9e 0f be
       -0.26228127 -0.22280186 2.44391e-16 -0.14025165

residual_tower.blocks.1.bn1.running_mean f4 [8]
000000 e7 df 42 bb 20 77 5d 17 f5 72 70 bb 7d 9a 85 bd
       -0.0029735507 7.155931e-25 -0.0036689613 -0.06523607
000010 da ba d7 3c e0 a8 13 bb 78 91 0b 98 77 71 d0 3b
       0.026334215 -0.0022531077 -1.8038772e-24 0.0063611823

residual_tower.blocks.1.bn1.running_var f4 [8]
000000 8a 0f d4 38 04 00 00 00 b6 02 d7 3b 37 cd 06 3c
       0.00010111842 6e-45 0.0065616025 0.008227638
000010 ea 3d 29 3c 94 69 14 3c 28 00 00 00 8b be 17 3c
       0.010329703 0.009058375 5.6e-44 0.009261738

residual_tower.blocks.1.conv2.weight f4 [8, 8, 3, 3]
000000 75 5d 19 bc 9f 6e 4a bb 84 9b 29 bb 76 d6 b3 bc
       -0.009360661 -0.003088869 -0.0025880048 -0.021952849
000010 24 20 97 ba 91 4f 3a ba cb f4 64 3b f7 cb fc b8
       -0.0011529964 -0.0007107193 0.0034935947 -0.00012054288
000020 9b 6e d3 bb c7 95 db 23 7e 9e f0 23 49 7b 36 23
       -0.006452394 2.380746e-17 2.6087976e-17 9.8923464e-18
000030 00 9b 5a 22 dc 7a a1 19 0a 1e 94 a4 85 34 d5 a4
       2.9626566e-18 1.6696632e-23 -6.423566e-17 -9.2462997e-17
000040 7e 28 1c a5 1b 67 44 a5 10 f9 cb 3c 38 e8 a8 bc
       -1.3544562e-16 -1.7035224e-16 0.024899036 -0.020618543
000050 42 c5 9f 3c 30 e5 26 3d e1 ac fb 3c 1c 90 bf 3c
       0.01950324 0.040745914 0.030722084 0.023384146
000060 08 3d f6 bc be 8f 0f 3c 9b 4f 6f 3d 58 5a fc bc
       -0.030058399 0.008762298 0.058425527 -0.030804798
000070 9f 33 ec 3c cb 99 1e 3c cb 1f e7 bb a0 1b 00 bd
       0.028833209 0.009680222 -0.0070533506 -0.031276345
000080 ec 31 e6 bc e5 ad 66 3d 39 1d b3 bc 3d 7b 1f 3d
       -0.028099976 0.056318182 -0.02186452 0.03893589
000090 28 bf e3 bb 47 8a 66 bd e5 45 5e bd 88 34 f7 bc
       -0.006950278 -0.056284215 -0.054265875 -0.030176416
0000a0 22 6b a5 bd 45 49 4f bd 5f e3 30 3d 6f d5 c2 bd
       -0.080770746 -0.050606985 0.043185588 -0.095133655
0000b0 15 33 9d 3d 6b 3d 9f bd 84 18 49 bd e3 02 92 bd
       0.07675759 -0.077753864 -0.049095646 -0.07129457
0000c0 6d 73 c0 bd 35 2c 0a bd e7 7e 04 bc f0 8b e1 bd
       -0.09397016 -0.033733565 -0.0080868965 -0.11013019
0000d0 80 83 ba 3d 21 22 c4 bd bf 57 91 a3 46 6f 1f 24
       0.09107113 -0.09576822 -1.5758093e-17 3.457188e-17
0000e0 03 fd a6 24 8e 1a 53 a4 85 1a c5 9a 2f b8 e2 a1
       7.241964e-17 -4.5775824e-17 -8.1520135e-23 -1.5363109e-18
0000f0 f0 8f 9b a4 52 5f 84 a4 87 16 a4 a4 54 b0 4f 3d
       -6.7464374e-17 -5.7407354e-17 -7.1161825e-17 0.05070527
000100 f1 39 fe 3c 25 8c f4 3b cc 17 45 bc 5d f7 00 3d
       0.031033488 0.0074629956 -0.012029599 0.031485904
000110 a8 eb 78 3d 90 28 b0 3d 6b 5b 5c 3c 9f 47 b8 3d
       0.060771614 0.08601487 0.01344953 0.08998036
000120 fc 1a ec 36 df 30 e7 37 63 cf 0a b9 9c c0 4d b7
       7.0364895e-06 2.7560103e-05 -0.00013237963 -1.22637975e-05
000130 be a4 5c 39 c5 fa db b5 96 87 1a b8 dd 3e 81 36
       0.00021042206 -1.6389755e-06 -3.6842735e-05 3.851818e-06
000140 ce a5 83 b8 ee 87 91 21 68 1e a4 22 cf df 50 22
       -6.27745e-05 9.861562e-19 4.4484483e-18 2.830774e-18
000150 b5 23 c6 a1 06 f8 01 19 8d 2b ca a2 84 2d ae 21
       -1.3426453e-18 6.719232e-24 -5.479832e-18 1.1802747e-18
000160 5c 7f 1a 23 4c 1c 60 23 a8 06 55 bc de 70 0b 3c
       8.375326e-18 1.21490564e-17 -0.013002075 0.008510796
000170 d8 7d 6f bc c3 f8 0b bc e6 80 ea bd ab 75 42 bd
       -0.014617406 -0.008543196 -0.11450367 -0.0474755
000180 f4 dd 48 ba 75 23 9a bd ff 9b 69 bc 5a 12 76 bc
       -0.0007662468 -0.07526294 -0.014258384 -0.015019024
000190 9e 4e de bb 56 96 b4 bc 80 0a 17 3c 0b b4 b0 3c
       -0.0067842742 -0.022044342 0.009218812 0.021570226
0001a0 a6 59 a1 3b 85 b3 84 bd c1 63 81 bc 88 4f 76 bd
       0.004924017 -0.06479553 -0.015794637 -0.06013444
0001b0 de 89 b3 bc 9b b8 13 3c b0 3d e4 3c e1 5a a7 3c
       -0.021916326 0.009016181 0.027861446 0.020429077
0001c0 72 99 f8 3b 62 bb 0a 3d a3 ce 4d bd 1c 4c 56 3d
       0.0075866515 0.03387011 -0.050245892 0.052318677
0001d0 35 88 f1 3c 81 57 da 3c f3 5d 06 3e ad 89 12 3e
       0.029483894 0.026653053 0.13121776 0.14310332
0001e0 a7 12 78 3d 21 6d 84 3d a1 24 05 3e dd 3b aa bb
       0.060564663 0.06466127 0.13002254 -0.0051951245
0001f0 8c 02 ee bc 58 ce 9b 3d 46 9c 4e 24 35 3b f0 a3
       -0.029053949 0.07607716 4.4801498e-17 -2.6045927e-17
000200 c2 eb f2 a3 16 d9 a1 24 33 f8 98 19 00 a9 92 22
       -2.633754e-17 7.019038e-17 1.5816679e-23 3.9752315e-18
000210 cc e3 c4 a2 bc 82 d1 a3 15 6c d2 a3 d7 c3 0c 3d
       -5.3367096e-18 -2.2715194e-17 -2.281402e-17 0.034366455
000220 30 45 e1 3c 26 3e e4 bc ab 62 bf bc e7 33 95 bc
       0.027498811 -0.027861666 -0.023362478 -0.018213226
000230 a8 8e 84 bd 58 34 33 bd 71 3b 34 3d 30 df cb 3a
       -0.06472522 -0.04375109 0.044002 0.0015554186
000240 fc fc 25 bb 25 99 54 ba a1 62 49 3b 65 98 35 ba
       -0.0025327792 -0.00081099785 0.0030728953 -0.00069273106
000250 6e 4e 2a b9 16 88 c7 bb 38 c9 8a b9 40 3e ab b9
       -0.0001624168 -0.0060892208 -0.0002647133 -0.00032662041
000260 66 20 b8 ba c4 d2 65 a3 f3 59 5a a3 c1 7a 29 a3
       -0.0014047741 -1.2458746e-17 -1.1836851e-17 -9.1875025e-18
000270 b0 7b 30 23 cc 3d 66 9a c3 79 e4 a2 ba 80 ac 23
       9.567171e-18 -4.7612804e-23 -6.1928444e-18 1.8702795e-17
000280 e6 1a 57 22 84 30 bd 22 8f 57 0f bd 8f 4d 1a bd
       2.9152173e-18 5.127992e-18 -0.03499561 -0.037671622
000290 ef a3 98 3c f7 d9 69 bc 9d 6d 29 bc d1 88 a9 bc
       0.018632857 -0.014273158 -0.010341075 -0.020695122
0002a0 ef e9 c3 3b f8 58 85 3c f1 39 a5 bc fd 83 80 3c
       0.005978815 0.016277775 -0.02016923 0.015687937
0002b0 4a fa 25 bc 8f 63 6e 3c 84 c4 a3 3b c6 7c 71 3d
       -0.010130474 0.014550104 0.0049977917 0.058956884
0002c0 a0 5a ad 3c f8 da a7 bd 61 c6 18 bc c3 61 a6 bc
       0.021161377 -0.08196062 -0.009324641 -0.020310288
0002d0 7d 34 2b bd 5c 7e 0e 3d 2b 12 64 bb 5c fa 82 bc
       -0.041798104 0.034788474 -0.0034800868 -0.015988521
0002e0 ac 3b 81 bc ae c5 26 bd 66 fa 8a 3d 4e f0 16 3e
       -0.015775524 -0.040715866 0.06786041 0.14740106
0002f0 ce 7f bd 3c 2d 6e ae 3c 14 d4 ec 3c d0 74 d5 3b
       0.023132231 0.02129277 0.02890972 0.0065141693
000300 9d 95 fe bc c8 c7 70 3c 27 60 8e 3c ba 1b 48 bb
       -0.0310772 0.014696069 0.017379833 -0.0030534104
000310 cb 35 7f bd dc 5f d0 bc 5c 54 34 21 58 75 9f a4
       -0.06230716 -0.025436334 6.109802e-19 -6.9154046e-17
000320 63 de 88 a4 04 3e b7 a2 1c 8b 41 9b e5 91 11 22
       -5.9357336e-17 -4.966791e-18 -1.6009534e-22 1.97284e-18
000330 fa 00 b7 a2 7e 2d 2b a1 f4 0b 6e a4 57 a5 d4 bc
       -4.9603283e-18 -5.799726e-19 -5.1618148e-17 -0.025957746
000340 1c 4f fc bc e4 b3 b2 b9 06 4e 18 bc de dc 80 3c
       -0.030799441 -0.00034084835 -0.009295946 0.015730318
000350 31 29 e8 3c f6 56 0d 3d 1a 77 1d 3d b1 96 46 bd
       0.028339954 0.03450676 0.038443662 -0.048483554
000360 79 50 3b 38 43 70 49 38 7d a5 09 39 f3 4e 2e 37
       4.465922e-05 4.8026686e-05 0.00013126987 1.038959e-05
000370 1f a5 50 ba 8b 14 87 b8 83 ac cf 37 66 d3 27 39
       -0.0007959175 -6.441128e-05 2.4756655e-05 0.00016005113
000380 84 ec db 38 9a ab 99 a2 31 a3 28 a3 e0 a4 01 22
       0.00010486788 -4.1652423e-18 -9.141855e-18 1.7570044e-18
000390 b8 84 c2 23 74 15 62 1a 84 44 8d a2 35 8d dc a3
       2.108973e-17 4.6753034e-23 -3.829067e-18 -2.3912251e-17
0003a0 7f 10 51 a4 d5 48 58 a4 05 c8 8d 3d fb a5 8d 3c
       -4.5333624e-17 -4.6899225e-17 0.06922916 0.01729106
0003b0 31 b1 08 3c 98 43 98 3d 6b e5 be 3d 9c 5d 8c 3d
       0.008343027 0.074347675 0.09321102 0.06853792
0003c0 e2 de 48 bd 2e 45 ae 3d 01 7c 80 3b fa ea 04 3e
       -0.049040683 0.08509289 0.0039210324 0.12980261
0003d0 8e 31 19 3d 0b 00 3e 3d d4 1c 07 bd ef 1d d3 bc
       0.037400775 0.04638676 -0.032986477 -0.02577111
0003e0 11 ab 1e 3d 1c 5e f0 3c ee 00 e6 bc 32 2f 6e bc
       0.03873736 0.02934175 -0.028076615 -0.014537619
0003f0 e5 af aa bc 23 a6 24 bd f1 5a d6 bc 8e e8 2a bd
       -0.020835826 -0.040197503 -0.026166411 -0.041725688

residual_tower.blocks.1.conv2.bias f4 [8]
000000 cf 1b e3 35 88 37 52 b6 9e b7 d6 b6 d3 49 bb b7
       1.6920911e-06 -3.1324762e-06 -6.399073e-06 -2.2326514e-05
000010 a3 0a bd b6 36 40 fc 36 2b e5 85 b4 ed b3 8c 36
       -5.633877e-06 7.5176604e-06 -2.4939922e-07 4.1932713e-06

residual_tower.blocks.1.bn2.weight f4 [8]
000000 f5 0a 4a 3d 73 ba 87 bd d7 95 51 ba 50 f3 d9 3d
       0.049326856 -0.06627359 -0.0007995045 0.10642111
000010 be 79 2e 3e 07 1a 43 3e db 91 8e 3c 42 23 08 bd
       0.17038628 0.19052897 0.017403534 -0.03323675

residual_tower.blocks.1.bn2.bias f4 [8]
000000 96 c2 a3 bd 8d 4e 83 bd d6 35 19 3d ef 47 aa bd
       -0.07996099 -0.06411467 0.037404858 -0.083145015
000010 51 b3 43 bd 26 b3 75 be 03 f2 02 bd 50 12 45 3e
       -0.04777843 -0.23994121 -0.03196908 0.19245267

residual_tower.blocks.1.bn2.running_mean f4 [8]
000000 c9 49 8d ba f5 96 eb 3a 8e a5 4a b9 88 13 15 3b
       -0.0010779436 0.0017974066 -0.00019325895 0.0022747237
000010 62 2f 87 3b d2 22 cc b9 4e 3c 1b 3a 2b 18 4e 37
       0.0041255215 -0.00038935855 0.0005921767 1.2284184e-05

residual_tower.blocks.1.bn2.running_var f4 [8]
000000 f7 2e 85 39 84 f7 87 39 81 e7 f0 38 23 44 78 39
       0.00025402728 0.0002593362 0.00011487213 0.00023676506
000010 32 73 e5 39 89 12 9c 39 84 7e 5f 38 a2 15 d2 37
       0.0004376411 0.00029768448 5.328517e-05 2.5044024e-05

residual_tower.blocks.2.conv1.weight f4 [8, 8, 3, 3]
000000 f5 97 0e b6 70 a3 b5 b7 32 7c c5 38 80 19 c2 38
       -2.12481e-06 -2.1652988e-05 9.416825e-05 9.2553906e-05
000010 92 e8 cf b8 80 a7 83 39 ad cb 77 b7 d2 e8 e7 b7
       -9.913849e-05 0.00025111064 -1.4769769e-05 -2.7645761e-05
000020 db 3f c4 b7 26 b0 ef b8 67 d3 1c ba 6b d3 3d 39
       -2.3394756e-05 -0.00011429218 -0.0005982429 0.00018103204
000030 69 2d b7 38 b1 2b 7d 39 f8 c6 66 b9 29 c3 05 ba
       8.734578e-05 0.00024144237 -0.00022008631 -0.00051026285
000040 c2 cd 31 3a 0b 84 3f 3a 05 52 90 b8 27 fd 2d b9
       0.00067826745 0.0007305748 -6.8817324e-05 -0.00016592872
000050 d9 c9 8a b9 6f 36 ec 38 4b 82 5c b8 83 90 f9 37
       -0.000264718 0.00011263496 -5.2573432e-05 2.9750407e-05
000060 c3 79 09 38 03 fd 8e b6 77 6d 8c 37 83 ee 58 34
       3.2776745e-05 -4.261384e-06 1.6740274e-05 2.0203338e-07
000070 39 b6 d8 34 f8 07 a7 34 f3 cb 37 32 7d e9 ec 32
       4.036572e-07 3.1111972e-07 1.0698375e-08 2.7580194e-08
000080 f8 d5 09 b3 ec f1 3f 35 8d 96 94 33 de 76 91 b2
       -3.20924e-08 7.150509e-07 6.919172e-08 -1.6934276e-08
000090 f1 92 22 b8 24 c8 29 b8 cf 67 e4 b7 57 36 18 38
       -3.876066e-05 -4.0479135e-05 -2.7228058e-05 3.6290232e-05
0000a0 48 55 d5 b8 80 26 b1 b9 ac 41 96 b7 b7 dc 42 b7
       -0.00010172516 -0.00033788756 -1.7911974e-05 -1.161469e-05
0000b0 77 38 60 38 e2 9a 93 38 19 0d 02 b9 a9 9a 58 38
       5.345835e-05 7.0383554e-05 -0.00012402645 5.164245e-05
0000c0 1e f9 7c 3a fd 2a 56 ba 05 51 81 ba 95 13 cc 37
       0.00096501585 -0.0008169858 -0.0009866065 2.4327814e-05
0000d0 38 3a b6 b6 31 79 66 b7 29 b6 43 ba 75 29 c0 b7
       -5.4308002e-06 -1.3737285e-05 -0.00074658036 -2.2907489e-05
0000e0 0d 05 1c b5 b8 c4 24 39 7a 22 bd 37 b4 36 6f 37
       -5.812188e-07 0.00015713542 2.254661e-05 1.4258247e-05
0000f0 e5 ae 45 b8 40 fe 80 b7 09 ae 07 b7 53 33 68 b7
       -4.7131343e-05 -1.5377183e-05 -8.087148e-06 -1.3840227e-05
000100 ff 72 65 35 30 a2 8f 35 0a 37 b8 b6 db a2 45 b4
       8.547649e-07 1.0701533e-06 -5.4900347e-06 -1.8406301e-07
000110 70 b7 d7 b2 85 77 0c 36 30 e8 38 b5 31 b9 a3 b3
       -2.5112712e-08 2.0931195e-06 -6.888322e-07 -7.623965e-08
000120 21 36 6e 99 0e f3 0e 9a 57 a0 1e 9a 87 84 90 19
       -1.2315243e-23 -2.956125e-23 -3.2803156e-23 1.4942778e-23
000130 d5 6e bb 18 50 44 27 19 2f 02 19 18 60 b7 fd 99
       4.845028e-24 8.647493e-24 1.9775889e-24 -2.6233651e-23
000140 db 64 c1 98 8b 7b ff 18 82 dd a9 98 fa dd c9 18
       -4.999117e-24 6.60407e-24 -4.390914e-24 5.218142e-24
000150 bd a8 37 98 6a 3f 8f 98 88 f9 29 98 c4 55 2b 19
       -2.3737387e-24 -3.7028665e-24 -2.196872e-24 8.857813e-24
000160 9e 5a 93 19 fd d4 e0 18 de fe 82 19 d5 ae ca 19
       1.5236044e-23 5.8117706e-24 1.3544625e-23 2.0956925e-23
000170 d8 bb d8 98 f0 7b d1 18 e3 41 0a 1a 9a 49 1a 1a
       -5.6024365e-24 5.415038e-24 2.8590954e-23 3.190591e-23
000180 2d e4 61 19 33 fb a1 18 53 5c bd 19 1d 9e 10 99
       1.1678307e-23 4.187117e-24 1.9579431e-23 -7.476556e-24
000190 04 48 88 97 80 56 ca 18 3b 40 cd 97 99 cd 58 19
       -8.806973e-25 5.230312e-24 -1.3264029e-24 1.1208458e-23
0001a0 5c a8 06 18 18 fb dc 98 10 87 c4 18 59 53 7a 98
       1.7404094e-24 -5.7122207e-24 5.080119e-24 -3.2353822e-24
0001b0 35 ff b3 19 61 01 2c 97 f3 a3 13 1a aa bb cb 19
       1.8611244e-23 -5.557794e-25 3.0531325e-23 2.1065505e-23
0001c0 81 44 cf 19 e9 97 38 1a b8 50 6c 19 bf 00 80 99
       2.1430967e-23 3.817302e-23 1.2217215e-23 -1.3235191e-23
0001d0 df e9 af 18 e9 77 03 98 d5 07 d9 98 e8 e7 71 19
       4.547259e-24 -1.6991892e-24 -5.6101094e-24 1.2506241e-23
0001e0 15 47 0c 19 5d fb 38 99 ec ce 85 98 d2 38 e2 19
       7.252185e-24 -9.5633395e-24 -3.458863e-24 2.3390802e-23
0001f0 15 dc c9 99 23 b9 54 99 b7 c9 49 19 be 6c 76 97
       -2.0871803e-23 -1.0997531e-23 1.04321924e-23 -7.962414e-25
000200 37 7b 8a 96 89 c0 1e 9a fa f1 a7 19 4e 8f 6d 19
       -2.2372862e-25 -3.2829163e-23 1.7365129e-23 1.2281553e-23
000210 b1 ee 2a 19 fa 8c 90 18 53 61 ad 17 8d e3 70 99
       8.836997e-24 3.7365478e-24 1.1204431e-24 -1.2453663e-23
000220 e8 4c 12 1a a5 b0 bd 18 09 60 6c 19 05 52 37 19
       3.0254217e-23 4.903372e-24 1.2220308e-23 9.477442e-24
000230 f3 1a 08 99 81 85 ed 97 a6 88 17 99 b3 23 b6 98
       -7.0364776e-24 -1.5349467e-24 -7.834113e-24 -4.7081944e-24
000240 c3 27 0a bd 11 07 c8 bb e9 65 04 3d 4f cb 09 bd
       -0.033729326 -0.006104358 0.03232375 -0.033641156
000250 34 a2 68 bd 38 02 0a 3c 9d 81 a0 bc 1d 8e 16 bd
       -0.056795314 0.008423381 -0.019593054 -0.036756624
000260 6b ce 4e 3c da e1 25 bd 91 a2 34 bd 6f 47 7f bc
       0.012622456 -0.040498592 -0.044100348 -0.015580996
000270 39 33 1f bd e1 99 9e bd 47 0b a3 bd 62 8e 5a bc
       -0.03886721 -0.07744194 -0.07961135 -0.013339611
000280 37 7b 8c bd 27 a3 43 bd 3c d6 11 bd 54 a8 c8 bc
       -0.06859439 -0.047763016 -0.0356047 -0.024494328
000290 64 d5 bc bc 8d e0 bf bd 1b a9 35 bd 66 c7 58 bd
       -0.023050971 -0.093690015 -0.044350725 -0.052924536
0002a0 9f b7 82 bd 94 c3 95 bd ba e8 0e bd a1 b9 41 bc
       -0.06382679 -0.07312694 -0.034889914 -0.011824043
0002b0 14 0d bd bc 44 93 57 bd ea df de b9 f9 64 90 bc
       -0.023077525 -0.052630678 -0.0004250997 -0.017626273
0002c0 a1 94 88 bd 36 a8 19 3d fd cb 06 bd a5 f8 d3 3b
       -0.06668974 0.037513934 -0.032909382 0.0064688497
0002d0 03 39 0e bc be 42 23 bd 97 38 0e bd e9 14 33 bc
       -0.008680585 -0.039858572 -0.034721937 -0.010930278
0002e0 0d 97 5b bc d3 f3 35 bd 71 ed 74 bc 6b f0 13 bd
       -0.0134027125 -0.044421982 -0.014949189 -0.036117952
0002f0 5d 70 83 bd 8b 7f 40 bd 38 e4 34 3c 26 c5 9f bc
       -0.06417916 -0.046996634 0.01104074 -0.019503187
000300 47 77 24 bd 10 d9 e5 bb ac 74 a8 bc bf 74 6b bd
       -0.040152814 -0.0070144013 -0.020563446 -0.057484385
000310 8d 6d 45 bd 92 e1 30 bd f5 cd 85 bd b0 75 41 bd
       -0.04820018 -0.04318387 -0.06533424 -0.047231376
000320 e0 20 84 bd 07 e0 bf bc 42 9b 2c bd 3e f6 80 bd
       -0.06451583 -0.023422254 -0.042140253 -0.06296967
000330 51 28 e6 3b b9 17 3a 3c f7 1a 41 bd d3 45 8f bb
       0.007023849 0.011358195 -0.047144856 -0.0043723374
000340 3a b9 3d 3d 39 1f b4 3d 5d e5 42 bd 5f c9 eb ba
       0.046319224 0.08795018 -0.04758202 -0.001798909
000350 c0 c9 53 3c b2 ed 3f bc 57 a1 f6 bb c1 75 34 3b
       0.012926519 -0.011714386 -0.0075265574 0.0027536007
000360 7e ea ea bb fb f1 4e bd 3a 0b 21 3b ea 26 45 3d
       -0.007169067 -0.05052374 0.0024573342 0.048132814
000370 aa e3 24 bd 45 3f bc bc 94 5f 2e bd 1c 79 35 bd
       -0.04025618 -0.022979388 -0.04257162 -0.044304952
000380 8f 11 17 3c 9a 4e 1b bd 23 45 47 bd b3 f8 93 3b
       0.009220495 -0.037916757 -0.04864992 0.0045157312
000390 4e 31 4c 3d f1 96 f6 bc 16 d7 2f bd 29 08 5a be
       0.049851708 -0.030101271 -0.04292973 -0.21292175
0003a0 66 75 99 3c ed 1c 59 3d 5b 2c d8 bb 0f c0 17 bd
       0.018732738 0.0530061 -0.0065970845 -0.037048396
0003b0 1a b9 d8 3c c6 ff f1 bc 49 91 1d ba 64 c7 e7 bb
       0.02645545 -0.029540908 -0.0006010724 -0.0070733298
0003c0 93 f2 b5 bc 45 9a a9 bc 27 f0 bf bd 56 1a 80 bd
       -0.022210395 -0.020703444 -0.09371977 -0.06255023
0003d0 a4 70 35 bd ee 5a 65 3c 14 b4 ad bc 80 b6 cf 3c
       -0.044296876 0.01399873 -0.021204032 0.025355577
0003e0 be b7 e6 bb eb 01 d8 3d 1e 2b 8f bc 28 a0 0d 3c
       -0.0070409467 0.10547241 -0.017476615 0.008644141
0003f0 cb 8b 5d bd 46 3d a1 bc 01 54 37 3d 88 ff a3 3c
       -0.054088395 -0.019682538 0.044757847 0.020019308

residual_tower.blocks.2.conv1.bias f4 [8]
000000 4a 64 ba ac d2 ad 1d 11 8b 12 98 37 8c 5c 99 b3
       -5.2975723e-12 1.2438679e-28 1.8128447e-05 -7.141452e-08
000010 0e 65 19 12 f4 9f 0c 99 f2 0c a5 33 f2 45 00 32
       4.8402847e-28 -7.270133e-24 7.685766e-08 7.466484e-09

residual_tower.blocks.2.bn1.weight f4 [8]
000000 8e 77 dd ba 6a 91 89 ad 83 16 26 3e 31 f4 86 3d
       -0.0016896592 -1.5639674e-11 0.16219525 0.065895446
000010 e5 be cd ae cb 87 c1 b4 87 44 d0 3d 0e b4 d9 3c
       -9.3562304e-11 -3.6047854e-07 0.101693206 0.026575115

residual_tower.blocks.2.bn1.bias f4 [8]
000000 9f 6d 13 bd ae cc fc a4 17 8e 05 be 88 8e 17 be
       -0.035993215 -1.0963432e-16 -0.13042484 -0.14800465
000010 7a ed 8d a3 8d 37 12 a6 fd 78 4a be 86 a8 ea bd
       -1.5387826e-17 -5.072921e-16 -0.19772716 -0.114579245

residual_tower.blocks.2.bn1.running_mean f4 [8]
000000 84 63 d1 b8 48 f4 0f 1a 40 db 01 be 03 03 2e bd
       -9.984433e-05 2.9769036e-23 -0.12681293 -0.04248334
000010 f6 ef 51 9a 90 bc 49 9e b3 3f 3f bd fd 79 e6 bc
       -4.3414026e-23 -1.0679845e-20 -0.046691608 -0.02813434

residual_tower.blocks.2.bn1.running_var f4 [8]
000000 c8 7c 85 34 0f 00 00 00 b4 72 0a 3c c2 ec d4 3b
       2.486397e-07 2.1e-44 0.008450199 0.0064979503
000010 3c 02 00 00 4f 0f 1e 02 0f a1 a1 3b db 2c be 3a
       8.02e-43 1.16124e-37 0.0049325298 0.0014509218
