model_ethereal_bee_36.pth (torch, 153017 bytes, 83 tensors)

input_conv.conv.weight f4 [8, 2, 3, 3]
0.14183915 0.15081166 -0.014010401 -0.060515393 0.11970994 -0.13945061 0.0056849886 -0.07805997
-0.07573137 -0.1647526 -0.06322979 -0.20073949 0.05111313 -0.063898034 -0.2078124 0.1010189
0.15741846 -0.02233044 -0.012647125 0.11221583 -0.00461826 0.023104168 -0.01822488 -0.023948096
-0.23950496 -0.053558636 0.2508079 -0.08768356 0.067286685 0.18709321 -0.12724984 -0.10700654
0.04097771 -0.1004204 0.06620321 -0.11129885 -0.0040391083 -0.046014275 0.043449298 0.14990926
-0.11575454 -0.16049758 0.09778474 -0.07196523 0.23162703 0.015813105 -0.16700402 0.15370235
-0.038329348 0.14226489 -0.08373712 -0.06791866 -0.103205055 -0.17311116 0.05647778 -0.1743948
0.018773802 -0.116059974 0.003440464 0.07979171 0.10678806 0.19616048 0.097078405 -0.09695387
0.09763577 0.0059772427 -0.2889415 -0.13401558 -0.1273937 0.17483708 -0.04900746 -0.005318526
0.08907104 0.041025113 0.0046585356 0.0061349845 0.15156694 -0.006679965 -0.1041661 -0.07214701
0.17626938 0.038769543 -0.0952239 -0.043435514 -0.21004494 -0.006126762 -0.1253368 -0.05174258
-0.18884099 -0.08252791 -0.0314083 -0.19745152 0.055059284 -0.28382394 -0.08667555 -0.09097662
0.03508334 -0.017955296 -0.1630808 -0.08901335 0.00223206 -0.085549876 -0.084633745 0.27698493
0.14379469 0.07570116 0.2048894 -0.08657483 -0.017524712 0.09040532 -0.18360856 0.14628334
-0.017018724 -0.13935426 0.08392002 -0.05866617 0.025166791 0.057748478 -0.0146386465 -0.06812717
-0.20524254 0.1983221 -0.22061865 0.010180778 0.13888533 0.06882534 -0.08089474 -0.18224277
-0.14396922 0.099257246 0.33302107 -0.10321324 -0.032877736 -0.06759078 0.072724946 -0.097433776
-0.07870135 -0.24859188 0.0660521 0.3226677 -0.050132856 -0.048120786 -0.061791815 0.08938457
00000000: 483e 113e 5f6e 1a3e e28b 65bc fdde 77bd
00000010: 7c2a f53d 24cc 0ebe 2449 ba3b e8dd 9fbd
00000020: 0c19 9bbd e8b4 28be 9f7e 81bd a78e 4dbe
00000030: 005c 513d f9dc 82bd c6cc 54be ffe2 ce3d
00000040: 4e32 213e 54ee b6bc e335 4fbc 6ad1 e53d
00000050: c654 97bb f444 bd3c 584c 95bc cc2e c4bc
00000060: ca40 75be 4d60 5bbd e569 803e 7093 b3bd
00000070: 9acd 893d 5d95 3f3e c84d 02be 3f26 dbbd
00000080: 3ed8 273d 36a9 cdbd 8c95 873d a7f0 e3bd
00000090: 7f5a 84bb 7779 3cbd e4f7 313d d081 193e
000000a0: b710 edbd 7a59 24be 5e43 c83d 8262 93bd
000000b0: a32f 6d3e 7c8a 813c 1a03 2bbe 2664 1d3e
000000c0: 3cff 1cbd e3ad 113e 5e7e abbd f018 8bbd
000000d0: 2c5d d3bd 0d44 31be 3f55 673d 8d94 32be
000000e0: 84cb 993c dab0 edbd 6879 613b d669 a33d
000000f0: b3b3 da3d 4bde 483e 0bd1 c63d c08f c6bd
00000100: 43f5 c73d bfdc c33b 24f0 93be 613b 09be
00000110: 7e73 02be 7e08 333e 0cbc 48bd 0847 aebb
00000120: e16a b63d f309 283d a1a6 983b fb07 c93b
00000130: 5d34 1b3e 9ce3 dabb 0955 d5bd d0c1 93bd
00000140: f67f 343e d0cc 1e3d c004 c3bd 70e9 31bd
00000150: 0516 57be 01c3 c8bb 4a58 00be 07f0 53bd
00000160: 885f 41be 6504 a9bd fda5 00bd bb30 4abe
00000170: d885 613d 5f51 91be f382 b1bd f351 babd
00000180: 8cb3 0f3d fc16 93bc a7fe 26be a24c b6bd
00000190: c147 123b c634 afbd 7554 adbd f8d0 8d3e
000001a0: ea3e 133e 3609 9b3d 87ce 513e 254e b1bd
000001b0: fc8f 8fbc 6d26 b93d e203 3cbe 4dcb 153e
000001c0: da6a 8bbc e2b2 0ebe 42de ab3d f04b 70bd
000001d0: 962a ce3c ab89 6c3d efd6 6fbc 4286 8bbd
000001e0: 1a2b 52be f314 4b3e dbe9 61be 47cd 263c
000001f0: f537 0e3e 4df4 8c3d 24ac a5bd d99d 3abe
00000200: ab6c 13be 6247 cb3d bd81 aa3e 7761 d3bd
00000210: ceaa 06bd 096d 8abd d1f0 943d 5c8b c7bd
00000220: 2c2e a1bd df8e 7ebe 5346 873d b334 a53e
00000230: 1c58 4dbd 4d1a 45bd 6a19 7dbd 420f b73d

input_conv.conv.bias f4 [8]
1.3326484e-05 -1.2617618e-06 -4.0197924e-06 5.9293357e-06 -4.3027435e-06 -2.1626392e-06 1.4876512e-07 5.2449222e-06
00000000: d094 5f37 ce59 a9b5 c1e1 86b6 9bf4 c636
00000010: 4960 90b6 dc21 11b6 3fbc 1f34 8afd af36

input_conv.bn.weight f4 [8]
0.37578 0.40451562 0.37523896 0.34966075 0.361656 0.38035938 0.38597628 0.42057717
00000000: 3c66 c03e ac1c cf3e 521f c03e bc06 b33e
00000010: fa2a b93e 77be c23e af9e c53e e455 d73e

input_conv.bn.bias f4 [8]
0.019259205 -0.015998242 0.089883626 0.106269665 -0.02197031 0.13507277 0.0072228075 0.08643264
00000000: 7bc5 9d3c bf0e 83bc e814 b83d e9a3 d93d
00000010: 14fb b3bc 8450 0a3e 4dad ec3b 9903 b13d

input_conv.bn.running_mean f4 [8]
-0.05744965 -0.040691745 -0.045241132 -0.03913988 -0.09438757 -0.050495304 -0.014182448 0.008527033
00000000: 5350 6bbd 63ac 26bd c44e 39bd 2451 20bd
00000010: 454e c1bd 2ad4 4ebd 805d 68bc f8b4 0b3c

input_conv.bn.running_var f4 [8]
0.037941057 0.036935665 0.03863924 0.031208616 0.02161697 0.03302741 0.037800003 0.019437106
00000000: 1568 1b3d da49 173d 2e44 1e3d 36a9 ff3c
00000010: 1216 b13c c047 073d 2dd4 1a3d 913a 9f3c

residual_tower.blocks.0.conv1.weight f4 [8, 8, 3, 3]
0.04128776 -0.08418005 0.19537477 0.041424494 0.00018155781 -0.05750686 -0.25035146 -0.08604608
-0.10481968 -0.030722061 0.07775583 0.02091219 0.10303542 -0.13536638 -0.033468187 0.06577946
0.07018464 -0.010038614 -0.12351722 -0.022511143 0.08350506 -0.12683414 -0.07908774 0.036971603
0.02314855 0.11056932 -0.1313517 -0.02693712 0.085297175 0.13760059 0.066314146 0.022915803
0.093558006 0.07835015 0.025578877 -0.07234032 -0.0075016003 -0.008908447 0.060174763 -0.033268332
0.12898867 -0.059085216 -0.010594205 0.05643854 -0.020152709 0.045043353 0.17380846 0.014541505
0.030617129 0.21007945 0.03207604 -0.11405599 0.032441527 -0.18487643 0.12814873 -0.022349376
0.017372556 0.0011755566 -0.008508406 0.03556257 -0.0001825513 -0.04920679 0.009638595 0.008673825
-0.07983556 -0.09487484 0.07368565 -0.010823818 -0.012406461 0.07617773 0.04733573 -0.031227125
0.08323816 0.15767902 0.023081714 -0.0915669 0.06170408 -0.060287427 0.051911436 -0.04546878
-0.015166088 0.07857488 -0.10025526 -0.10582079 -0.026024897 -0.056681797 -0.053110193 0.20160434
0.044293992 -0.008995442 -0.037479937 -0.07652067 -0.0211888 0.06947008 0.055607904 0.005946199
-0.03865067 -0.0019903204 0.007034569 -0.06701933 -0.062481083 -0.08332934 0.13283606 0.0114218015
0.0043048346 -0.03928536 0.027243428 -0.040277224 0.1171601 0.077568956 0.016324488 -0.047555815
-0.06915965 -0.054213867 -0.02551366 0.02825409 0.079659894 -0.014831036 -0.0039191144 0.04958276
-0.048323847 0.017338358 0.003602539 0.13860315 0.043872263 -0.12322194 -0.1950323 0.028088002
-0.04166651 -0.09808114 0.048056796 -0.058717154 -0.02231628 0.08334909 -0.025795082 -0.037224375
-0.042672534 0.0614264 0.059578784 0.024018876 -0.04331854 0.09668352 0.15349767 -0.1365007
-0.07153072 -0.011331253 0.08976938 0.15458883 0.07636956 -0.03708085 0.03760014 0.026605092
0.0024385755 0.029374244 -0.12025423 0.019265214 0.085471325 0.044721685 0.060811564 0.04562514
0.013808281 -0.08744462 0.15481643 0.13067184 -0.051838063 -0.11612297 0.14163888 0.010942123
0.02300054 0.061226692 -0.047142953 0.04713089 0.091255374 0.112305045 -0.048327655 0.09592283
0.17664213 -0.04262809 0.0030120986 0.04641 0.16333218 -0.014787061 -0.056197744 0.09550054
0.12993489 0.02096709 -0.16096647 -0.018520232 0.15943654 0.017817458 0.027209695 -0.028130056
-0.10961145 -0.08215144 0.050894655 0.038050197 -0.10145912 -0.094775684 0.012512922 0.042855456
0.04193874 -0.16493386 0.116986915 -0.0024820655 0.022428203 0.043051846 0.102390796 0.004772473
-0.030673241 0.09435266 0.06505919 0.013628158 -0.046143077 0.044466008 0.04419811 0.10251361
-0.014694977 -0.093922205 -0.041559145 0.006485191 0.06896959 -0.0019024592 -0.06409115 0.08677416
0.117381625 0.008842033 -0.03422041 -0.0866349 0.02748844 -0.026012203 0.101827726 0.0025756902
-0.050140705 -0.15430515 -0.05029295 0.1159428 0.012725489 -0.042670753 0.022591304 0.05241101
-0.13805787 -0.10011835 0.109732166 0.037319615 0.13837568 0.05818832 -0.09032612 -0.06604877
0.038678277 0.09790728 -0.09068242 0.12866521 -0.05815934 0.03771594 -0.00584778 0.14889279
00000000: 5b1d 293d 9766 acbd 5310 483e bbac 293d
00000010: 8e60 3e39 508c 6bbd 112e 80be ed38 b0bd
00000020: b3ab d6bd d5ac fbbc 733e 9f3d 0b50 ab3c
00000030: 3c04 d33d 7c9d 0abe f015 09bd 62b7 863d
00000040: f7bc 8f3d 0079 24bc 99f6 fcbd 4a69 b8bc
00000050: b304 ab3d cfe0 01be c1f8 a1bd 896f 173d
00000060: 07a2 bd3c 2b72 e23d 0f81 06be 3cab dcbc
00000070: 49b0 ae3d 2be7 0c3e b6cf 873d ecb9 bb3c
00000080: 579b bf3d 0b76 a03d cb8a d13c 2927 94bd
00000090: fccf f5bb bcf4 11bc d079 763d 6044 08bd
000000a0: 9b15 043e 5703 72bd 5193 2dbc 192c 673d
000000b0: 4b17 a5bc 617f 383d d8fa 313e 7e3f 6e3c
000000c0: c6d0 fa3c 111f 573e 2a62 033d 3096 e9bd
000000d0: 68e1 043d 3f50 3dbe 6c39 033e 0a16 b7bc
000000e0: e450 8e3c 2215 9a3a d766 0bbc 0faa 113d
000000f0: 3e6b 3fb9 0f8d 49bd 33eb 1d3c a91c 0e3c
00000100: d380 a3bd bd4d c2bd 81e8 963d 6256 31bc
00000110: 7844 4bbc 1203 9c3d 1ce3 413d 07d0 ffbc
00000120: c578 aa3d 9c76 213e dd15 bd3c 6d87 bbbd
00000130: 6bbd 7c3d f3ef 76bd 16a1 543d 793d 3abd
00000140: 2f7b 78bc deeb a03d a152 cdbd 92b8 d8bd
00000150: 2a32 d5bc 2c2b 68bd 138a 59bd 5e71 4e3e
00000160: 9e6d 353d 9e61 13bc 9084 19bd deb6 9cbd
00000170: 2294 adbc 5446 8e3d 1dc5 633d 55d8 c23b
00000180: 2a50 1ebd 0970 02bb 3e82 e63b 6e41 89bd
00000190: 2aec 7fbd 93a8 aabd 2d06 083e 8222 3b3c
000001a0: 920f 8d3b b0e9 20bd 9c2d df3c bbf9 24bd
000001b0: a2f1 ef3d 79dc 9e3d efba 853c e3c9 42bd
000001c0: 93a3 8dbd 5c0f 5ebd 0602 d1bc 1f75 e73c
000001d0: ba24 a33d e0fd 72bc ea6b 80bb 4b17 4b3d
000001e0: 3aef 45bd 2c09 8e3c 9318 6c3b fced 0d3e
000001f0: 67b3 333d c95b fcbd 8cb6 47be cf18 e63c
00000200: 81aa 2abd c4de c8bd 34d7 443d 6681 70bd
00000210: a2d0 b6bc edb2 aa3d 3550 d3bc 9678 18bd
00000220: 65c9 2ebd 409a 7b3d e208 743d 3cc3 c43c
00000230: c86e 31bd 0202 c63d 7e2e 1d3e d7c6 0bbe
00000240: b37e 92bd b8a6 39bc 02d9 b73d 894c 1e3e
00000250: a567 9c3d 17e2 17bd 9b02 1a3d ecf2 d93c
00000260: 82d0 1f3b 41a2 f03c da47 f6bd 15d2 9d3c
00000270: 970b af3d 162e 373d 8c15 793d 6de1 3a3d
00000280: 213c 623c 2a16 b3bd 3388 1e3e d7ce 053e
00000290: 2654 54bd e1d1 edbd c809 113e 9746 333c
000002a0: a16b bc3c d7c8 7a3d f818 41bd 520c 413d
000002b0: 19e4 ba3d 3000 e63d 38f3 45bd 3073 c43d
000002c0: ade1 343e cb9a 2ebd a166 453b 6a18 3e3d
000002d0: 8d40 273e 6e45 72bc 9b2f 66bd ca95 c33d
000002e0: a70d 053e 2dc3 ab3c 65d4 24be beb7 97bc
000002f0: 5543 233e ebf5 913c dee6 de3c 0171 e6bc
00000300: f87b e0bd 043f a8bd ea76 503d 86da 1b3d
00000310: cdc9 cfbd c119 c2bd 0003 4d3c 3489 2f3d
00000320: f5c7 2b3d 6ce4 28be d696 ef3d 26aa 22bb
00000330: 5abb b73c 2257 303d 44b2 d13d 6862 9c3b
00000340: 7346 fbbc f83b c13d c13d 853d a348 5f3c
00000350: 8600 3dbd fd21 363d 1409 353d a8f2 d13d
00000360: 33c3 70bc 495a c0bd ec39 2abd ba81 d43b
00000370: ee3f 8d3d f05b f9ba 3942 83bd a7b6 b13d
00000380: c765 f03d 2dde 103c b32a 0cbd a36d b1bd
00000390: 702f e13c 8b17 d5bc 0e8b d03d e9cc 283b
000003a0: 5760 4dbd 2b02 1ebe fbff 4dbd 6b73 ed3d
000003b0: 927e 503c 87c7 2ebd 6611 b93c edac 563d
000003c0: 0b5f 0dbe d90a cdbd 42bb e03d 74dc 183d
000003d0: 5bb2 0d3e e056 6e3d e7fc b8bd 9444 87bd
000003e0: 1d6d 1e3d 9d83 c83d b4b7 b9bd d0c0 033e
000003f0: 7d38 6ebd 087c 1a3d bc9e bfbb 5a77 183e

residual_tower.blocks.0.conv1.bias f4 [8]
-2.5377376e-06 4.0763784e-06 6.3953066e-06 -7.0948868e-06 7.685019e-06 1.1581911e-05 6.043567e-06 -2.3385483e-05
00000000: 004e 2ab6 d3c7 8836 4497 d636 9d10 eeb6
00000010: e8ee 0037 ee4f 4237 d8c9 ca36 f12b c4b7

residual_tower.blocks.0.bn1.weight f4 [8]
0.246696 0.2686023 0.29243523 0.26159915 0.21995221 0.27740654 0.26896167 0.28944397
00000000: e09d 7c3e 3e86 893e 12ba 953e 53f0 853e
00000010: 273b 613e 3b08 8e3e 58b5 893e 0032 943e

residual_tower.blocks.0.bn1.bias f4 [8]
-0.0224893 -0.032041267 -0.01312589 -0.0718072 -0.0798416 -0.06065155 -0.005301478 -0.05986195
00000000: 7b3b b8bc b43d 03bd f90d 57bc a70f 93bd
00000010: fe83 a3bd c26d 78bd 05b8 adbb ce31 75bd

residual_tower.blocks.0.bn1.running_mean f4 [8]
0.08732138 0.013119792 0.22252908 0.13726039 -0.024463702 0.043318067 0.038193498 0.032984592
00000000: 8dd5 b23d 65f4 563c aade 633e fd8d 0c3e
00000010: 1a68 c8bc 496e 313d c970 1c3d da1a 073d

residual_tower.blocks.0.bn1.running_var f4 [8]
0.02378824 0.026423616 0.030369094 0.019087594 0.01368123 0.025282256 0.024436055 0.024414018
00000000: 8edf c23c 5776 d83c 9bc8 f83c 965d 9c3c
00000010: 3d27 603c bc1c cf3c 1f2e c83c e8ff c73c

residual_tower.blocks.0.conv2.weight f4 [8, 8, 3, 3]
0.026668414 0.030946465 0.033811077 -0.10847644 -0.00962995 0.024348088 -0.115406975 -0.16020992
-0.015912585 0.07404702 -0.032876633 -0.002909489 -0.024299117 0.041304264 0.040212728 0.12967767
-0.042195484 -0.01946725 0.12938096 -0.059644382 -0.06951512 0.18021719 0.01807883 -0.11921471
-0.042044688 0.024511691 0.04321019 -0.01046028 0.06209627 -0.009092366 -0.022759873 -0.17968808
0.014379274 0.03149714 0.08680298 0.07197241 -0.061945923 0.012257944 0.09988046 -0.034929093
0.005783764 0.081049845 -0.04038854 -0.00461728 0.09872475 0.00029605094 -0.014178237 -0.021236757
0.09000797 0.038495384 -0.05347814 -0.043059137 0.10170156 0.30050912 -0.07824896 0.107817955
0.07935249 -0.0794163 0.090204954 -0.004623138 -0.0076842746 -0.00036719913 -0.15061074 -0.036723364
0.10090585 -0.034047764 0.05428222 -0.032144155 0.037389707 0.18544254 0.053578425 0.04881998
0.027688876 -0.087173365 -0.00045876636 0.083298005 -0.06909864 -0.10666686 0.08061947 -0.08015722
0.018005323 -0.032017954 -0.0124143 -0.08969592 0.026017653 0.012537322 0.01413289 -0.17791934
0.059031494 -0.05705688 -9.7869975e-05 0.05846586 0.029527096 -0.14945507 0.087818414 0.13011199
-0.08602342 -0.12804124 -0.053807482 0.09178579 0.016773066 -0.0075789425 -0.033177793 0.023751954
0.09900815 0.013479766 0.05508318 0.0296725 0.0477034 -0.008550886 0.060681164 0.06640052
0.040318903 -0.08208348 -0.014040693 -0.036419824 0.050476052 0.0013370427 0.03402253 -0.03419829
-0.030148674 -0.033692185 0.033219814 -0.0042416826 0.07536789 -0.17909701 0.098062806 -0.022657076
0.14359504 -0.046979215 -0.106428646 0.21934456 -0.03530892 0.05341012 0.005671192 0.069952965
-0.098254725 -0.037847135 0.11449275 0.10563394 -0.14143297 -0.057769198 -0.050259482 0.10155065
-0.12509723 0.066251926 0.008487572 0.06699977 0.06817809 0.09143422 0.16093047 0.10421926
0.034502443 0.04981116 0.12806208 0.019005366 0.018506598 -0.054491762 0.028874742 0.10258857
0.08054198 -0.062657006 0.098410845 0.07786831 -0.087845325 0.095496446 0.07933671 -0.03964669
-0.03033407 -0.08399719 -0.1592035 0.10102554 -0.05338112 0.065084845 -0.11670044 -0.016498674
0.1582243 0.16082439 0.04233693 0.017541947 0.055976 0.04563016 0.09658894 -0.055733714
0.042726945 -0.014514856 -0.16478238 0.14130189 -0.07963079 0.010540252 -0.15914343 -0.20592451
0.06609931 -0.013699755 0.047625568 -0.016740702 -0.05506174 0.055532176 -0.10401299 0.10796185
0.0022467345 -0.12678611 -0.019446762 -0.076561525 -0.02099168 0.036571324 0.010777528 0.008933545
-0.0127372425 0.03208366 -0.03839364 -0.04213564 -0.035423495 0.063532576 -0.07384102 0.042430475
0.051262114 0.10002937 -0.07084145 0.047599528 0.0012074629 0.009204303 -0.013373635 -0.07615523
-0.054020226 0.024150293 -0.020472845 -0.021517694 -0.10269899 -0.06592934 0.09516732 -0.008961341
0.17294739 -0.013386557 -0.064766556 -0.04108306 0.052533288 -0.019356081 -0.050906703 0.11650892
0.03753124 -0.038391218 0.05612136 -0.0102088675 -0.01800529 -0.06719069 -0.05347452 0.12838052
0.04512058 0.018184014 -0.08530163 -0.039189983 -0.031176561 -0.035428416 -0.0029570148 0.082764626
00000000: b877 da3c 7183 fd3c 7c7d 0a3d e528 debd
00000010: f0c6 1dbc a475 c73c 7e5a ecbd 120e 24be
00000020: 1c5b 82bc f7a5 973d a6a9 06bd 20ad 3ebb
00000030: f10e c7bc a92e 293d 1ab6 243d 39ca 043e
00000040: 2cd5 2cbd c879 9fbc 717c 043e ab4d 74bd
00000050: f15d 8ebd db8a 383e 0e1a 943c d826 f4bd
00000060: 0d37 2cbd becc c83c 2bfd 303d 9861 2bbc
00000070: a958 7e3d 26f8 14bc ea72 babc 2700 38be
00000080: 0c97 6b3c 2503 013d c3c5 b13d 4566 933d
00000090: 02bb 7dbd 8bd5 483c 208e cc3d cf11 0fbd
000000a0: bb85 bd3b 76fd a53d 746e 25bd 8d4c 97bb
000000b0: 3430 ca3d 4937 9b39 d64b 68bc b5f8 adbc
000000c0: 1956 b83d 56ad 1d3d e50b 5bbd c75e 30bd
000000d0: e848 d03d 55dc 993e fe40 a0bd a9cf dc3d
000000e0: 8f83 a23d 03a5 a2bd 60bd b83d b17d 97bb
000000f0: 5ecc fbbb a284 c0b9 b439 1abe 3d6b 16bd
00000100: baa7 ce3d ab75 0bbd 0857 5e3d 97a9 03bd
00000110: f325 193d a6e4 3d3e 0d75 5b3d 76f7 473d
00000120: c8d3 e23c f387 b2bd 9486 f0b9 2598 aa3d
00000130: 9683 8dbd 2874 dabd d21b a53d 7829 a4bd
00000140: e67f 933c 4225 03bd 5965 4bbc 7fb2 b7bd
00000150: f922 d53c 5769 4d3c a38d 673c 7d30 36be
00000160: 02cb 713d 7ab4 69bd 8b3f cdb8 e679 6f3d
00000170: cfe2 f13c c00a 19be 24da b33d 143c 053e
00000180: 0c2d b0bd 3e1d 03be 3c65 5cbd 30fa bb3d
00000190: ab67 893c c758 f8bb 70e5 07bd 7593 c23c
000001a0: c9c4 ca3d 3dda 5c3c e79e 613d be13 f33c
000001b0: a464 433d 0419 0cbc d08c 783d fffc 873d
000001c0: 6f25 253d 621b a8bd ef0a 66bc f42c 15bd
000001d0: fabf 4e3d b53f af3a 355b 0b3d 8213 0cbd
000001e0: 5afa f6bc d100 0abd 8011 083d d0fd 8abb
000001f0: 7b5a 9a3d 3565 37be 27d5 c83d 559b b9bc
00000200: 940a 133e 476d 40bd 43f7 d9bd dc9b 603e
00000210: 16a0 10bd 92c4 5a3d 68d5 b93b 8043 8f3d
00000220: c639 c9bd 9905 1bbd 2d7b ea3d 9b56 d83d
00000230: ced3 10be 659f 6cbd e3dc 4dbd caf9 cf3d
00000240: 7d19 00be 17af 873d 750f 0b3c 2d37 893d
00000250: f4a0 8b3d dd41 bb3d f5ca 243e e870 d53d
00000260: 6f52 0d3d c906 4c3d b522 033e 24b1 9b3c
00000270: 269b 973c c132 5fbd b98a ec3c f519 d23d
00000280: 32f3 a43d 5152 80bd a08b c93d 6c79 9f3d
00000290: 40e8 b3bd a493 c33d 497b a23d 9164 22bd
000002a0: 287f f8bc b806 acbd 3e06 23be 7ae6 ce3d
000002b0: 29a6 5abd 344b 853d a400 efbd 3a28 87bc
000002c0: 8d05 223e 26af 243e 7d69 2d3d 21b4 8f3c
000002d0: 1747 653d b1e6 3a3d 6cd0 c53d 0949 64bd
000002e0: 7302 2f3d b8cf 6dbc b6bc 28be 71b1 103e
000002f0: 7815 a3bd 05b1 2c3c 7ff6 22be e0dd 52be
00000300: 135f 873d f074 60bc 0713 433d cc23 89bc
00000310: 6b88 61bd b575 633d c304 d5bd 1a1b dd3d
00000320: f33d 133b 38d4 01be d14e 9fbc 4acc 9cbd
00000330: bef6 abbc d0cb 153d 3b94 303c 015e 123c
00000340: deaf 50bc 286a 033d a642 1dbd 6c96 2cbd
00000350: 3a18 11bd 5e1d 823d f639 97bd 94cb 2d3d
00000360: 39f8 513d 33dc cc3d 5215 91bd b9f7 423d
00000370: bb43 9e3a a5cd 163c 171d 5bbc 46f7 9bbd
00000380: 5044 5dbd d6d6 c53c abb6 a7bc e045 b0bc
00000390: d953 d2bd f605 87bd 15e7 c23d 97d2 12bc
000003a0: 1f19 313e 4a53 5bbc 54a4 84bd b646 28bd
000003b0: 252d 573d a590 9ebc 8c83 50bd 3b9c ee3d
000003c0: 5cba 193d 1c40 1dbd 83df 653d 1843 27bc
000003d0: d47f 93bc 469b 89bd 1908 5bbd 2f76 033e
000003e0: 5bd0 383d a4f6 943c 9fb2 aebd ad85 20bd
000003f0: fd65 ffbc 631d 11bd 7aca 41bb 8080 a93d

residual_tower.blocks.0.conv2.bias f4 [8]
-1.1763636e-06 3.762394e-06 1.5985792e-05 -8.145775e-05 7.9771706e-07 7.890026e-06 -2.4539183e-06 -1.3285738e-06
00000000: 8ce3 9db5 707d 7c36 3a19 8637 4cd4 aab8
00000010: b322 5635 675f 0437 ffad 24b6 7351 b2b5

residual_tower.blocks.0.bn2.weight f4 [8]
0.31716156 0.30463225 0.24242362 0.18891937 0.36503428 0.16512355 0.22278455 0.20628452
00000000: 0063 a23e c2f8 9b3e e63d 783e 1474 413e
00000010: c6e5 ba3e 2616 293e a221 643e 403c 533e

residual_tower.blocks.0.bn2.bias f4 [8]
-0.083677776 -0.09330375 -0.012439097 0.010027452 -0.13272363 0.04547897 -0.056849677 -0.05926954
00000000: 415f abbd 0916 bfbd 5bcd 4bbc 2f4a 243c
00000010: b4e8 07be 2848 3a3d 35db 68bd 9ec4 72bd

residual_tower.blocks.0.bn2.running_mean f4 [8]
0.055112075 0.012188528 0.044530336 0.04083224 -0.16880383 -0.028988669 -0.06583307 -0.12989636
00000000: 33bd 613d 64b2 473c 7165 363d b53f 273d
00000010: e9da 2cbe a579 edbc 7dd3 86bd 8d03 05be

residual_tower.blocks.0.bn2.running_var f4 [8]
0.01784423 0.014350383 0.010532991 0.010121849 0.016434854 0.008089167 0.016094076 0.016305799
00000000: 102e 923c de1d 6b3c 9192 2c3c 1dd6 253c
00000010: 63a2 863c 6d88 043c b9d7 833c bd93 853c

residual_tower.blocks.1.conv1.weight f4 [8, 8, 3, 3]
-0.015631016 -0.086238906 -0.04251077 0.0308259 -0.02773557 -0.011453711 0.0060767457 0.096881665
0.13055502 -0.04352517 -0.11238506 -0.022277886 -0.08339145 0.039272252 0.05915041 -0.019630177
0.044710632 -0.11225236 0.015193387 -0.054936577 -0.050907455 -0.025184514 0.14738134 0.01622921
-0.17368098 -0.02485607 0.07770757 -0.004220181 0.061543874 -0.04154479 0.06676657 0.08878336
0.015583085 0.07049335 -0.1142515 0.07461248 0.10043926 -0.029635718 0.005752714 0.081556946
-0.056776784 0.025772491 0.051088806 -0.10152382 0.06058566 -0.070384204 0.010922558 0.014221564
-0.04607244 0.045886964 -0.0643501 -0.086750425 0.13670343 -0.061745025 0.05896761 0.03640006
-0.03200431 -0.032113325 -0.0019503729 0.03987664 -0.032168116 0.06709051 -0.066078395 0.1924799
-0.07548188 0.07670509 -0.010854096 -0.018094167 0.018539138 0.06261013 -0.022156445 0.04824955
-0.014281747 -0.02585138 0.05631408 0.08411575 0.016791487 -0.027601546 -0.032530446 0.10851925
-0.04333421 0.015694944 -0.06035483 -0.09382799 0.022797206 -0.07530778 0.1301295 0.100098714
0.055807248 0.119312786 -0.04156838 -0.07806349 0.10548388 -0.09568196 -0.064965315 -0.08460577
0.0057261395 0.004952288 0.030696474 -0.02300968 0.014837583 -0.11106167 -0.19305049 -0.092672646
-0.055990588 0.013556774 -0.019058976 0.06953388 -0.01490759 -0.028396316 -0.023030952 -0.038752064
0.01848458 0.006899934 0.011603161 -0.08820402 -0.023825472 -0.03372242 -0.05551999 -0.048029367
0.040158696 -0.06903152 -0.03576706 -0.036163107 -0.075142525 0.0189015 -0.027748555 -0.14720345
-0.05408449 -0.12717803 0.035527013 -0.072793886 0.0748349 0.050523456 -0.016011382 0.06089071
0.16082843 -0.16726449 -0.11582257 0.087086126 0.036490753 -0.052030016 0.04720457 -0.018771734
-0.07643574 0.048471846 -0.031361468 -0.020410363 0.09845636 -0.006938462 -0.18588644 0.029128894
0.0025191216 0.15759425 0.103064075 -0.00024347371 -0.046351038 -0.13490415 0.01333575 0.14244074
-0.12465247 -0.060074907 0.014977003 -0.028638966 -0.06164296 -0.03567495 -0.11025053 -0.036601864
0.074278735 0.006813435 -0.056670383 -0.24237624 0.075931236 -0.108432844 0.009619559 0.026994666
0.06018089 -0.015726918 -0.048476208 -0.03768952 0.0003770968 0.05749647 0.029146355 -0.09510354
-0.07105235 -0.12035253 0.04905449 0.081859775 0.068723395 0.030489722 0.06678702 -0.009131222
-0.07777189 -0.12514381 -0.10717032 -0.08401304 0.013376593 -0.007327213 0.121939205 -0.0010937264
0.0013583088 -0.074297704 0.048593517 0.1120653 -0.028589973 -0.050223127 0.04503798 -0.013301763
-0.001551541 -0.061782308 -0.12625028 0.0036491447 0.0060332473 -0.05025569 0.026615767 0.06870873
0.06325706 0.085381374 -0.058556706 -0.06489415 -0.00010292601 -0.016293127 -0.009292054 -0.011855438
-0.005421459 0.046952356 -0.07375543 0.03608621 0.098124236 0.06920201 -0.03764384 -0.13737984
0.05436161 -0.060567956 0.16310944 -0.079275325 0.044170428 0.023597164 -0.069575146 -0.07316631
-0.050414145 0.045880385 -0.08354177 -0.1066963 -0.035937965 -0.051217042 -0.02709756 0.028045876
0.067195274 -0.14374177 -0.011369846 0.08442362 0.06510013 0.0636035 0.053642564 -0.01337171
00000000: 9e0c 80bc 069e b0bd c61f 2ebd 9986 fc3c
00000010: b535 e3bc 59a8 3bbc 701f c73b e569 c63d
00000020: 37b0 053e 7347 32bd 232a e6bd 1d80 b6bc
00000030: 23c9 aabd f1db 203d b347 723d 77cf a0bc
00000040: 7f22 373d 91e4 e5bd afed 783c 2d05 61bd
00000050: 5684 50bd c14f cebc 22eb 163e 1ff3 843c
00000060: 6dd9 31be f59e cbbc 2525 9f3d 7249 8abb
00000070: 6e15 7c3d df2a 2abd e9bc 883d 0dd4 b53d
00000080: 3250 7f3c d15e 903d b1fc e9bd 6ece 983d
00000090: 19b3 cd3d 9bc6 f2bc 4381 bc3b 5407 a73d
000000a0: c68e 68bd d520 d33c 7f42 513d b8eb cfbd
000000b0: ab28 783d 9825 90bd 87f4 323c 9001 693c
000000c0: 74b6 3cbd f8f3 3b3d fcc9 83bd 35aa b1bd
000000d0: fcfb 0b3e 5ae8 7cbd 0588 713d 3b18 153d
000000e0: f416 03bd 4389 03bd a8a3 ffba b055 233d
000000f0: b7c2 03bd c066 893d 1c54 87bd 7319 453e
00000100: 3e96 9abd 8f17 9d3d 61d5 31bc 383a 94bc
00000110: 64df 973c bd39 803d 6f81 b5bc 52a1 453d
00000120: fdfd 69bc 46c6 d3bc 98a9 663d e144 ac3d
00000130: 4d8e 893c a31c e2bc a53e 05bd 573f de3d
00000140: 367f 31bd af92 803c a036 77bd e428 c0bd
00000150: 35c1 ba3c f73a 9abd ab40 053e 8e00 cd3d
00000160: 2496 643d 435a f43d 9b43 2abd c0df 9fbd
00000170: ef07 d83d e7f4 c3bd 890c 85bd ca45 adbd
00000180: 57a2 bb3b ce46 a23b 2c77 fb3c cc7e bcbc
00000190: 5519 733c 4d74 e3bd 07af 45be 28cb bdbd
000001a0: 6356 65bd 3b1d 5e3c 9221 9cbc c767 8e3d
000001b0: f73e 74bc 649f e8bc 68ab bcbc 7cba 1ebd
000001c0: f96c 973c d718 e23b 2f1b 3e3c 4fa4 b4bd
000001d0: a32d c3bc 8520 0abd ee68 63bd 71ba 44bd
000001e0: 727d 243d 6660 8dbd 7b80 12bd c41f 14bd
000001f0: 53e4 99bd 52d7 9a3c f050 e3bc 80bc 16be
00000200: b387 5dbd f53a 02be c684 113d f614 95bd
00000210: 0a43 993d aff1 4e3d 4d2a 83bc 8a68 793d
00000220: 35b0 243e 6247 2bbe 6234 edbd 365a b23d
00000230: 5477 153d 6d1d 55bd 9459 413d 2ec7 99bc
00000240: 578a 9cbd 6a8a 463d e274 00bd a233 a7bc
00000250: 7da3 c93d 0a5c e3bb 0459 3ebe b89f ee3c
00000260: d917 253b 6360 213e 4213 d33d fa4c 7fb9
00000270: 96da 3dbd 5024 0abe 317e 5a3c fcdb 113e
00000280: cb49 ffbd 1b11 76bd 1b62 753c 449c eabc
00000290: 547d 7cbd e51f 12bd 08cb e1bd d6eb 15bd
000002a0: 731f 983d 3c43 df3b 341f 68bd 7a31 78be
000002b0: d681 9b3d 0a12 debd 5b9b 1d3c eb23 dd3c
000002c0: 3d80 763d bdd5 80bc fd8e 46bd 5360 1abd
000002d0: 13b5 c539 6b81 6b3d 56c4 ee3c a5c5 c2bd
000002e0: e583 91bd 637b f6bd 5ced 483d 19a6 a73d
000002f0: dabe 8c3d 95c5 f93c a2c7 883d 1f9b 15bc
00000300: de46 9fbd b325 00be 1d7c dbbd 070f acbd
00000310: 7f29 5b3c 1e19 f0bb 43bb f93d 5e5b 8fba
00000320: 4809 b23a 6529 98bd ff09 473d 7e82 e53d
00000330: 8535 eabc c4b6 4dbd bf79 383d a3ef 59bc
00000340: 145d cbba 720f 7dbd c147 01be 7d26 6f3b
00000350: 8cb2 c53b e9d8 4dbd 4f09 da3c 2ab7 8c3d
00000360: eb8c 813d 6edc ae3d 28d9 6fbd 39e7 84bd
00000370: fbd9 d7b8 2a79 85bc b33d 18bc 503d 42bc
00000380: 7fa6 b1bb 1d51 403d 160d 97bd 22cf 133d
00000390: 5cf5 c83d c9b9 8d3d 6d30 1abd 4dad 0cbe
000003a0: 48aa 5e3d 1b16 78bd 2906 273e 1a5b a2bd
000003b0: 0dec 343d d74e c13c 6a7d 8ebd 38d8 95bd
000003c0: 107f 4ebd 12ed 3b3d f317 abbd 9783 dabd
000003d0: b033 13bd f6c8 51bd b4fb ddbc 77c0 e53c
000003e0: ad9d 893d 0b31 13be 9748 3abc 4ae6 ac3d
000003f0: 3853 853d 8d42 823d 4eb8 5b3d 0415 5bbc

residual_tower.blocks.1.conv1.bias f4 [8]
-6.2826103e-07 1.5955235e-05 3.9651554e-06 5.912346e-06 -4.538209e-06 -1.0438118e-05 -1.9507947e-06 -4.0990003e-06
00000000: c5a5 28b5 9bd7 8537 6d0c 8536 aa62 c636
00000010: eb46 98b6 601f 2fb7 66ea 02b6 258a 89b6

residual_tower.blocks.1.bn1.weight f4 [8]
0.16673367 0.21445176 0.23748598 0.21947858 0.20407048 0.26592076 0.25299397 0.25032797
00000000: 3bbc 2a3e 3e99 5b3e 862f 733e febe 603e
00000010: daf7 503e c426 883e 6d88 813e fd2a 803e

residual_tower.blocks.1.bn1.bias f4 [8]
-0.042647462 -0.034343455 -0.019774314 -0.08199944 -0.027950231 -0.014195193 -0.045597043 0.013823674
00000000: 1baf 2ebd b9ab 0cbd befd a1bc 53ef a7bd
00000010: e2f7 e4bc f492 68bc f7c3 3abd b17c 623c

residual_tower.blocks.1.bn1.running_mean f4 [8]
0.053065665 -0.1962002 -0.1872114 0.060814317 -0.054979444 -0.021815974 0.014703106 -0.12995096
00000000: 625b 593d b5e8 48be 58b4 3fbe 6f18 793d
00000010: 2032 61bd 6ab7 b2bc 4ce5 703c dd11 05be

residual_tower.blocks.1.bn1.running_var f4 [8]
0.019274656 0.021669202 0.032378573 0.025016801 0.03043713 0.03609797 0.024199303 0.037339054
00000000: e2e5 9d3c 9c83 b13c 659f 043d 09f0 cc3c
00000010: 4a57 f93c 77db 133d 9e3d c63c d6f0 183d

residual_tower.blocks.1.conv2.weight f4 [8, 8, 3, 3]
-0.03275666 0.03766637 0.09271561 0.10377844 -0.0071618897 -0.057452902 -0.013177484 -0.0036876062
-0.06043279 0.025686102 0.011975801 -0.0026510514 -0.08795478 -0.0019068543 -0.13910627 -0.0155189745
0.13736692 -0.0045520556 -0.16358991 -0.116797574 -0.036790393 -0.05874542 0.07333134 0.036578838
0.220549 -0.085904084 -0.081860214 0.03275341 -0.11227652 -0.10914759 0.052369412 0.021466535
0.036682755 0.0034220996 -0.07585365 -0.06613861 0.020066787 0.010266456 -0.11270208 -0.0009420511
0.07927098 -0.01578322 -0.042204566 0.020202968 -0.036696322 0.088243745 0.016180882 0.08866574
0.10358229 0.085609056 -0.06921521 -0.0035448929 -0.15007931 -0.11925815 0.06725037 -0.0071159913
0.062459 0.09098484 -0.041043844 -0.15207243 0.036190975 -0.035505895 -0.014061198 -0.0487084
0.068901315 -0.0049572513 0.03177729 -0.0825863 0.066754006 -0.12952264 -0.13469802 -0.07315565
0.017146321 -0.04046956 -0.08052293 0.07330192 0.0055903075 0.070138484 0.063100405 -0.11872044
0.05013876 -0.1350723 -0.041697443 -0.025081346 -0.016838087 0.01347181 -0.1345332 0.018745288
-0.095354475 0.026912073 0.07381475 -0.10172802 -0.016192298 -0.13147132 -0.052747924 0.05589939
-0.050547037 -0.15987952 0.0020594364 -0.113603696 0.030504623 -0.009526738 -0.04649089 -0.020222468
0.10275363 -0.069078244 0.04284001 0.017299607 0.052162267 -0.0471298 -0.017651062 -0.09068895
-0.19221613 0.018984538 -0.038761422 0.0023030043 -0.021837156 0.05494985 0.0116811395 0.053608082
0.07699519 -0.03668915 -0.05246309 -0.004811655 0.0030054508 0.1075076 -0.06861255 0.0982009
-0.048369575 -0.09235683 -0.06462015 -0.06681949 -0.15603496 0.11580766 0.12567583 -0.0149156125
-0.004759275 -0.027308565 0.028162202 -0.014657599 0.06916193 -0.21871926 0.002052588 0.014541426
-0.05375212 0.016676985 0.038082372 -0.119060315 -0.015514549 -0.03946888 -0.061618455 -0.006024878
-0.050078545 0.03739005 0.06321767 0.1140604 0.043234713 0.10334276 0.021757232 -0.09274693
-0.13528731 -0.00024919483 0.0848409 -0.17195155 0.12287874 -0.09269828 -0.008330533 -0.01742839
-0.05623711 0.008867946 0.12601236 0.10120628 -0.049862776 0.056300085 0.033693694 -0.032725282
0.022279385 0.088965565 -0.0002254651 -0.080703944 -0.03168857 0.019362416 -0.017913314 0.0064358707
0.023116006 -0.069454946 -0.1105193 0.0055977907 0.08018127 -0.056301564 0.113666885 -0.04982216
-0.039244577 0.040947672 -0.070667796 0.07909906 0.03188989 0.06989361 0.009906711 0.009504571
-0.118608244 0.011946294 -0.019905958 -0.08158461 -0.06910022 0.04780276 0.1387859 -0.056192268
-0.11038132 -0.11750003 -0.026651474 0.041908592 0.020025104 -0.06676381 0.02001855 0.058974728
-0.05125423 -0.11439231 -0.0978972 -0.011547139 0.028957179 -0.033816043 -0.04834141 -0.02616386
-0.08239862 0.0012338791 -0.02264429 -0.058326837 0.021319421 0.11744945 0.07090445 -0.16103218
-0.068344414 -0.094088025 4.506673e-05 0.008513231 -0.058019325 -0.008293392 0.07297079 0.009648783
0.049254697 -0.029692791 0.023391377 -0.012669206 0.029732717 0.027249953 -0.08639464 -0.018250976
0.09775992 -0.03859009 -0.06273038 -0.06286565 0.07828262 -0.026336556 -0.068840966 -0.059456564
00000000: d92b 06bd 0d48 1a3d afe1 bd3d ca89 d43d
00000010: 49ae eabb bc53 6bbd 60e6 57bc c4ab 71bb
00000020: 6088 77bd a96b d23c 2636 443c 43bd 2dbb
00000030: a321 b4bd 6aef f9ba e071 0ebe 4c43 7ebc
00000040: eaa9 0c3e 6929 95bb 1d84 27be 9133 efbd
00000050: 86b1 16bd 0a9f 70bd be2e 963d b1d3 153d
00000060: 99d7 613e 7bee afbd 54a6 a7bd 7128 063d
00000070: 3bf1 e5bd c688 dfbd 4f81 563d 96da af3c
00000080: a840 163d 4e45 603b 2959 9bbd ae73 87bd
00000090: 1a63 a43c a334 283c 59d0 e6bd fbf3 76ba
000000a0: d358 a23d d04b 81bc b2de 2cbd b280 a53c
000000b0: e24e 16bd 23b9 b43d c58d 843c 6296 b53d
000000c0: f422 d43d cd53 af3d b4c0 8dbd 6f51 68bb
000000d0: 64ae 19be 9e3d f4bd 90ba 893d 432d e9bb
000000e0: 02d5 7f3d 4356 ba3d 971d 28bd e0b8 1bbe
000000f0: fd3c 143d a16e 11bd f060 66bc 7682 47bd
00000100: 221c 8d3d 7070 a2bb e728 023d 0223 a9bd
00000110: 53b6 883d 95a1 04be 47ee 09be a1d2 95bd
00000120: 7176 8c3c 69c3 25bd 35e9 a4bd 511f 963d
00000130: e62e b73b c4a4 8f3d c93a 813d b423 f3bd
00000140: 4d5e 4d3d 6550 0abe f0ca 2abd 6577 cdbc
00000150: 07f0 89bc deb8 5c3c 12c3 09be b88f 993c
00000160: 3549 c3bd b576 dc3c 302c 973d c856 d0bd
00000170: b6a5 84bc 6ba0 06be 350e 58bd c2f6 643d
00000180: 690a 4fbd 75b7 23be 9cf7 063b 0ea9 e8bd
00000190: d5e4 f93c 0916 1cbc 3b6d 3ebd 97a9 a5bc
000001a0: 7f70 d23d e578 8dbd 0279 2f3d e8b7 8d3c
000001b0: 1aa8 553d 2d0b 41bd f698 90bc 21bb b9bd
000001c0: 4ed4 44be 7685 9b3c 4cc4 1ebd 00ee 163b
000001d0: d6e3 b2bc 1813 613d 4062 3f3c 2694 5b3d
000001e0: a7af 9d3d 5d47 16bd 89e3 56bd 16ab 9dbb
000001f0: 19f7 443b f22c dc3d bd84 8cbd 8e1d c93d
00000200: 2d1f 46bd 9425 bdbd 9257 84bd a8d8 88bd
00000210: a1c7 1fbe 912c ed3d 2ab1 003e 9d60 74bc
00000220: b1f3 9bbb 36b6 dfbc 6bb4 e63c 6d26 70bc
00000230: c5a4 8d3d f1f7 5fbe b684 063b 293f 6e3c
00000240: 2f2b 5cbd 2c9e 883c 43fc 1b3d e5d5 f3bd
00000250: bc30 7ebc 1faa 21bd a263 7cbd 576c c5bb
00000260: 291f 4dbd 4f26 193d 4478 813d 8098 e93d
00000270: e216 313d 5ea5 d33d 393c b23c 1af2 bdbd
00000280: c288 0abe 5da6 82b9 11c1 ad3d 1114 30be
00000290: d9a7 fb3d 99d8 bdbd ca7c 08bc fcc5 8ebc
000002a0: e258 66bd dd4a 113c 6209 013e 3d45 cf3d
000002b0: e93c 4cbd eb9a 663d 6602 0a3d f20a 06bd
000002c0: 4283 b63c 9433 b63d d46a 6cb9 1c48 a5bd
000002d0: e0cb 01bd ee9d 9e3c f1be 92bc ffe3 d23b
000002e0: c75d bd3c 653e 8ebd f157 e2bd ac6d b73b
000002f0: 1436 a43d 789c 66bd 2fca e83d 5212 4cbd
00000300: ecbe 20bd bfb8 273d 47ba 90bd b0fe a13d
00000310: f99e 023d 6224 8f3d c24f 223c 0fb9 1b3c
00000320: e1e8 f2bd 64ba 433c d211 a3bc d515 a7bd
00000330: 6b84 8dbd d4cc 433d e41d 0e3e dd29 66bd
00000340: 9a0f e2bd dba3 f0bd 3154 dabc 58a8 2b3d
00000350: b00b a43c 77bb 88bd f1fd a33c 7c8f 713d
00000360: f5ef 51bd 8446 eabd 547e c8bd 3630 3dbc
00000370: 9b37 ed3c b182 0abd a401 46bd 9755 d6bc
00000380: 9cc0 a8bd 1dba a13a 8580 b9bc 1fe8 6ebd
00000390: 11a6 ae3c 5689 f03d 5a36 913d 9fe5 24be
000003a0: 28f8 8bbd 39b1 c0bd 0806 3d38 147b 0b3c
000003b0: aca5 6dbd 02e1 07bc b671 953d ee15 1e3c
000003c0: 4bbf 493d 4c3e f3bc 469f bf3c 8092 4fbc
000003d0: 0792 f33c 4b3b df3c acef b0bd 1283 95bc
000003e0: 5a36 c83d a410 1ebd c978 80bd b5bf 80bd
000003f0: a352 a03d c3bf d7bc 7efc 8cbd ba88 73bd

residual_tower.blocks.1.conv2.bias f4 [8]
2.828952e-05 -1.2988293e-06 1.9939836e-05 -1.5786545e-05 -8.4921874e-07 9.42964e-07 -9.104892e-06 -1.4452879e-05
00000000: 484f ed37 6f53 aeb5 7944 a737 596d 84b7
00000010: def5 63b5 fe1f 7d35 37c1 18b7 a57a 72b7

residual_tower.blocks.1.bn2.weight f4 [8]
0.18201475 0.21670488 0.15988798 0.16612495 0.18633828 0.115121625 0.2557732 0.113214865
00000000: 1362 3a3e e2e7 5d3e adb9 233e a91c 2a3e
00000010: 76cf 3e3e e3c4 eb3d b4f4 823e 32dd e73d

residual_tower.blocks.1.bn2.bias f4 [8]
-0.009943044 -0.02600323 -0.06527473 -0.06755153 0.01120574 -0.021835476 -0.09437637 -0.02550481
00000000: 26e8 22bc ba04 d5bc c2ae 85bd 7558 8abd
00000010: 4898 373c 50e0 b2bc 6648 c1bd 77ef d0bc

residual_tower.blocks.1.bn2.running_mean f4 [8]
-0.049763944 -0.08252415 -0.013230729 -0.07132036 -0.03271535 -0.041503537 -0.050814826 -0.011159941
00000000: 47d5 4bbd 6c02 a9bd b3c5 58bc 6910 92bd
00000010: 8800 06bd 9dff 29bd 3523 50bd 2fd8 36bc

residual_tower.blocks.1.bn2.running_var f4 [8]
0.0068412134 0.0056375107 0.0055931173 0.0039967904 0.005046171 0.0041745724 0.006484893 0.0049013495
00000000: 422c e03b deba b83b 7846 b73b 82f7 823b
00000010: 5a5a a53b daca 883b 3a7f d43b 809b a03b

residual_tower.blocks.2.conv1.weight f4 [8, 8, 3, 3]
-0.13079502 -0.044679813 -0.15994495 -0.14837079 0.06510749 -0.09180043 0.06579252 0.057437222
-0.02633949 -0.13024686 -0.07555578 -0.06250303 0.04475163 -0.110848196 0.08006263 -0.07145812
-0.06451174 -0.016668664 0.045869242 0.10954602 -0.07257726 -0.1123982 -0.05799372 -0.006621031
-0.05081167 0.033021353 -0.0916578 0.07278382 0.008900319 0.09384267 0.035739996 -0.086316645
-0.033270575 -0.08094102 0.011596952 0.01815847 -0.020115145 -0.077578016 0.0019511556 0.0142022325
-0.02082054 0.056982487 0.033980213 0.017511012 0.04673748 -0.027039193 -0.07387264 0.015670566
-0.08855294 -0.022878898 -0.088752605 0.08605539 -0.01955764 0.106622115 -0.11902521 -0.035013687
-0.076499194 -0.05433986 0.07565078 0.019291354 -0.09203406 -0.014291544 0.1504635 -0.052080322
0.025148904 -0.035981853 0.074879505 -0.04021861 0.059386384 -0.0076548257 0.030515881 -0.041352868
0.006890434 0.06557001 -0.04923096 -0.07400322 -0.031739566 0.084306166 -0.042431664 -0.022541566
-0.06823122 -0.07658705 0.08393328 0.12635192 0.09590657 -0.06585683 0.08402708 0.1104362
-0.11696565 0.09734052 0.070562236 -0.08408069 0.01648613 0.05027302 -0.027116433 -0.010979199
0.079691306 -0.005476158 0.0077449596 0.17012362 -0.06151414 -0.079387024 -0.010072258 0.05223421
-0.0159249 -0.15431118 0.06656521 0.08276123 0.06644756 0.011426813 0.061267205 0.0147879375
0.058403414 -0.10110686 -0.12932238 0.05875952 -0.09001982 -0.13219461 0.0009847379 -0.05100491
-0.022989746 0.011101902 0.05405349 -0.018866109 -0.082350045 0.12731838 0.043302197 0.1305901
0.10449394 0.06113934 0.021321725 -0.080226034 0.11561857 0.10246271 0.019330395 -0.0868292
0.01796308 -0.119801484 -0.13380764 -0.041591283 0.15304394 -0.027204331 0.11150555 0.018181693
0.0011980131 -0.07813112 0.04884186 -0.18507686 -0.21884179 0.0081395935 -0.04310376 -0.02040888
-0.09404355 0.05013508 0.004738046 -0.07096903 -0.16320321 -0.027172692 -0.00259464 0.06122228
-0.116600536 -0.116964005 0.056673177 0.0006515993 -0.10493808 -0.04810836 -0.035675943 0.115410894
0.023408143 -2.6407715e-05 -0.028554311 0.059442405 0.046489015 0.0112719415 -0.10957191 0.04999103
0.04182786 -0.08121856 0.033553716 -0.02513491 0.027377356 0.0908066 -0.009362248 0.11762894
0.015770853 -0.02827465 -0.046386063 -0.024430864 -0.007490869 -0.02009643 -0.12809233 -0.12561473
0.035552453 0.028763559 -0.07311558 -0.06462854 0.0211554 -0.07717659 0.024471655 0.07330062
-0.036483705 0.12754177 -0.028508099 -0.06943148 0.0031794147 -0.061462108 0.031187585 0.06808305
0.072300546 -0.061121654 0.07198238 0.09441834 -0.09265291 0.09883612 -0.07056133 -0.031120373
0.014320245 -0.13497262 -0.048853252 -0.13820854 0.027601527 -0.09831015 -0.11834015 0.112750255
-0.005627634 -0.03826949 -0.1949977 0.077567674 0.07495228 0.07391026 0.00525265 0.046928033
-0.019337784 0.016298544 0.01054626 0.03531154 -0.020661527 -0.0015918144 0.042676143 0.053616166
-0.04131882 0.09102014 -0.005735454 -0.08391751 0.12077735 0.13683996 0.15113759 -0.05147355
0.13682422 -0.0050367434 0.057942756 -0.041921545 0.10022821 -0.02731185 -0.067803636 -0.11939606
00000000: 21ef 05be 2e02 37bd 9cc8 23be 83ee 17be
00000010: 1357 853d dd01 bcbd 3bbe 863d 4b43 6b3d
00000020: eac5 d7bc 6f5f 05be fdbc 9abd 9701 80bd
00000030: 7c4d 373d 6104 e3bd e0f7 a33d a358 92bd
00000040: bb1e 84bd b98c 88bc 63e1 3b3d aa59 e03d
00000050: 63a3 94bd 0731 e6bd d38a 6dbd 3cf5 d8bb
00000060: e61f 50bd 6641 073d 16b7 bbbd af0f 953d
00000070: a5d2 113c 9630 c03d 1a64 123d c8c6 b0bd
00000080: ba46 08bd 68c4 a5bd 2401 3e3c 12c1 943c
00000090: 84c8 a4bc 39e1 9ebd ebbd ff3a 7bb0 683c
000000a0: d68f aabc 7866 693d d62e 0b3d 4173 8f3c
000000b0: cd6f 3f3d 4c81 ddbc 8a4a 97bd 8f5f 803c
000000c0: 3e5b b5bd 876c bbbc edc3 b5bd cf3d b03d
000000d0: 5837 a0bc b25c da3d 7dc3 f3bd 836a 0fbd
000000e0: 9cab 9cbd 7993 5ebd ccee 9a3d e708 9e3c
000000f0: 5a7c bcbd 1527 6abc 1b13 1a3e 2d52 55bd
00000100: 1305 ce3c b561 13bd 6d5a 993d 45bc 24bd
00000110: 233f 733d 55d5 fabb 71fc f93c a061 29bd
00000120: 26c9 e13b 9249 863d 67a6 49bd 008f 97bd
00000130: 5901 02bd b6a8 ac3d d3cc 2dbd 17a9 b8bc
00000140: cfbc 8bbd acd9 9cbd 36e5 ab3d 6662 013e
00000150: aa6a c43d f2df 86bd 6416 ac3d 602c e23d
00000160: b08b efbd 775a c73d ef82 903d 7f32 acbd
00000170: ec0d 873c 15eb 4d3d 4823 debc 19e2 33bc
00000180: 3235 a33d 5871 b3bb 6ec9 fd3b e334 2e3e
00000190: 40f6 7bbd aa95 a2bd 1d06 25bc 8af3 553d
000001a0: f074 82bc c003 1ebe 5753 883d b87e a93d
000001b0: a915 883d 8737 3b3c 52f3 7a3d 1b49 723c
000001c0: 6b38 6f3d 1d11 cfbd 166d 04be d3ad 703d
000001d0: 505c b8bd 065e 07be 5212 813a 86ea 50bd
000001e0: fe54 bcbc c1e4 353c 3167 5d3d 198d 9abc
000001f0: 24a7 a8bd c05f 023e a55d 313d 69b9 053e
00000200: eb00 d63d 3f6d 7a3d e6aa ae3c 8c4d a4bd
00000210: 6ec9 ec3d f8d7 d13d c75a 9e3c 82d3 b1bd
00000220: 4f27 933c 7b5a f5bd df04 09be 9f5b 2abd
00000230: 8db7 1c3e 9edb debc 065d e43d c6f1 943c
00000240: a606 9d3a 3503 a0bd 670e 483d ca84 3dbe
00000250: 1018 60be ee5b 053c 918d 30bd 8630 a7bc
00000260: e899 c0bd 715a 4d3d 9c41 9b3b 3658 91bd
00000270: be1e 27be 4499 debc d60a 2abb 37c4 7a3d
00000280: 43cc eebd d38a efbd 2222 683d 17d0 2a3a
00000290: c7e9 d6bd 460d 45bd f020 12bd 8c5c ec3d
000002a0: 6fc2 bf3c 2386 ddb7 bbea e9bc e179 733d
000002b0: 446b 3e3d f3ad 383c 3d67 e0bd 65c3 4c3d
000002c0: b153 2b3d eb55 a6bd 9f6f 093d bae7 cdbc
000002d0: 7a46 e03c d0f8 b93d 1d64 19bc 71e7 f03d
000002e0: e031 813c 3da0 e7bc 50ff 3dbd 3c23 c8bc
000002f0: f775 f5bb 45a1 a4bc a32a 03be 26a1 00be
00000300: 739f 113d 8ea1 eb3c 9fbd 95bd f85b 84bd
00000310: 174e ad3c c30e 9ebd c878 c83c a31e 963d
00000320: f06f 15bd 4f9a 023e d189 e9bc 1732 8ebd
00000330: ba5d 503b b1bf 7bbd 1b7d ff3c 206f 8b3d
00000340: 4f12 943d b35a 7abd 7f6b 933d 675e c13d
00000350: cfc0 bdbd 976a ca3d 7582 90bd 27f0 febc
00000360: 769f 6a3c 4336 0abe 591a 48bd 8a86 0dbe
00000370: 991c e23c d556 c9bd 525c f2bd 9be9 e63d
00000380: 0468 b8bb 78c0 1cbd 7aad 47be cddb 9e3d
00000390: 9580 993d 435e 973d 6c1e ac3b 9c37 403d
000003a0: 466a 9ebc 8684 853c 38ca 2c3c d5a2 103d
000003b0: 5d42 a9bc 6ea4 d0ba 2ecd 2e3d a09c 5b3d
000003c0: ec3d 29bd c468 ba3d 7af0 bbbb f2dc abbd
000003d0: 1e5a f73d c61f 0c3e d0c3 1a3e eed5 52bd
000003e0: a61b 0c3e 440b a5bb 6255 6d3d edb5 2bbd
000003f0: 7344 cd3d 1abd dfbc a2dc 8abd ec85 f4bd

residual_tower.blocks.2.conv1.bias f4 [8]
-2.6137561e-08 -1.7968886e-06 -8.287559e-06 2.6374482e-06 -8.0309366e-07 -6.8966892e-06 1.9497404e-06 5.1647667e-06
00000000: 1b85 e0b2 9f2c f1b5 cb0a 0bb7 04ff 3036
00000010: 2d94 57b5 1c6a e7b6 49d8 0236 024d ad36

residual_tower.blocks.2.bn1.weight f4 [8]
0.23963568 0.18875647 0.26376906 0.21621718 0.18744373 0.09942131 0.19263153 0.17994855
00000000: 0e63 753e 6049 413e bd0c 873e 0968 5d3e
00000010: 40f1 3f3e 669d cb3d 3341 453e 6f44 383e

residual_tower.blocks.2.bn1.bias f4 [8]
-0.10065765 -0.055572405 -0.15158351 -0.096568905 -0.093325295 0.052607607 -0.06798253 -0.01827903
00000000: 9925 cebd e49f 63bd b538 1bbe ebc5 c5bd
00000010: 5521 bfbd 137b 573d 6d3a 8bbd e8bd 95bc

residual_tower.blocks.2.bn1.running_mean f4 [8]
-0.19724335 0.073859714 -0.15865982 0.084304795 -0.03792157 -0.16416393 0.060403675 0.0016333885
00000000: 29fa 49be c343 973d b877 22be fea7 ac3d
00000010: a653 1bbd 971a 28be d869 773d 6c17 d63a

residual_tower.blocks.2.bn1.running_var f4 [8]
0.025517926 0.02412896 0.03031149 0.02325571 0.021594947 0.027552484 0.025939533 0.026549244
00000000: f80a d13c 19aa c53c cd4f f83c c282 be3c
00000010: e3e7 b03c bfb5 e13c 257f d43c cd7d d93c

residual_tower.blocks.2.conv2.weight f4 [8, 8, 3, 3]
-0.027995974 -0.01899541 -0.036482684 0.14527145 0.041050404 0.058799226 0.03678177 -0.0037792197
0.053591266 0.031860165 0.049093895 0.06462119 -0.03143515 0.13363802 0.0077435663 -0.013820787
-0.04586987 -0.0032546192 -0.12499366 -0.1320979 0.050615154 0.040018156 0.1823329 0.023174925
-0.15955141 -0.01850993 -0.11729733 -0.018356733 0.069206744 -0.004056008 0.14010352 -0.10433088
0.09600555 -0.058889356 -0.12004046 0.10492606 -0.048361834 -0.078175455 0.03194085 0.013816752
-0.047846187 -0.0059480486 -0.059299447 0.014205596 0.030059176 0.018307544 -0.090647265 -0.07629812
-0.043108683 -0.02691124 0.04931791 0.0071712174 0.043604713 -0.015339894 0.042922262 0.081672534
0.08863827 0.040337328 -0.06264271 0.08835651 -0.09103054 0.025980536 -0.15553178 -0.11637948
0.055368453 -0.10772157 0.06664839 -0.00082761585 0.057269424 0.10677252 -0.1905832 0.011959357
-0.0068568024 -0.008025557 0.04767182 0.09351226 0.013371859 -0.0043784385 0.06109217 0.06651196
-0.046687137 -0.033873696 -0.060754083 -0.027705908 -0.11594854 0.080706514 0.019782627 -0.084944054
-0.08854242 0.097888455 0.055501785 0.011658131 0.06120975 0.044139054 -0.01141108 -0.027779015
-0.043364093 -0.038929723 -0.0959128 -0.1614301 -0.08311498 -0.019553125 -0.062041413 0.030756338
0.011758914 0.07785246 0.010004258 0.031567425 -0.07622242 0.027587567 0.10919732 -0.04447572
0.067749195 -0.022916075 0.06721009 0.04567132 0.116012454 -0.023746513 -0.011351573 -0.027211256
0.06296677 -0.0042253276 -0.052888386 -0.09114344 0.12009174 -0.0036693176 0.007671583 0.02186752
-0.0181277 -0.065701924 0.12127489 -0.023263419 -0.09205616 0.097210445 0.097119235 0.02345407
0.11310097 -0.042676512 -0.0055872635 0.05169016 -0.025898885 -0.002277271 -0.05935066 -0.055573735
-0.055679314 -0.06885369 -0.032193333 0.1283156 -0.031890564 0.063444376 -0.0063007576 0.010141945
0.018718239 -0.11970561 0.08507405 -0.015081707 0.057328332 -0.08216543 -0.019069372 -0.056749016
-0.060322087 -0.0761321 -0.00760994 0.016786298 -0.0038514328 0.005651804 -0.052247863 -0.069024324
0.01850103 0.061602 -0.1071916 -0.012143806 0.035136674 -0.06491424 -0.06390805 -0.018437857
0.040740248 -0.010860381 0.06791025 -0.031194422 -0.08854932 -0.058052883 0.038997114 -0.0886686
-0.0052840663 0.18419349 -0.033807658 -0.015416629 0.04695683 0.08291985 0.017738363 -0.07711793
-0.061338495 0.08997841 0.020805161 0.09272025 0.048013926 -0.06369324 0.034778688 -0.098562464
-0.0035023438 -0.0032960328 -0.10187415 -0.1111989 0.04848674 -0.0750129 0.012052874 0.03124212
-0.13767003 -0.11462852 0.069662675 0.028381525 -0.078763895 0.06439999 -0.11570144 -0.016896741
-0.03691722 0.119173884 -0.019004505 -0.049343918 -0.09442595 -0.049625672 -0.049695358 0.11448055
-0.039472032 -0.06736028 -0.047121305 0.07055561 -0.0029083055 -0.14321913 -0.12376384 0.051058844
-0.0056387014 -0.070249446 0.017645089 -0.12580323 0.017537732 -0.040739242 -0.010515538 -0.07374832
-0.11327464 -0.012356083 0.024142949 -0.054832846 0.03311252 -0.08496624 -0.17256042 -0.031739086
-0.05019592 -0.045320496 -0.040393446 -0.0018776881 -0.024863137 0.07640988 0.0066113723 0.045259904
00000000: d057 e5bc 439c 9bbc de6e 15bd 0ac2 143e
00000010: 7824 283d 75d7 703d 7ba8 163d c9ac 77bb
00000020: 8482 5b3d ce7f 023d ae16 493d 1d58 843d
00000030: 25c2 00bd 68d8 083e bebd fd3b 9570 62bc
00000040: 0be2 3bbd 734b 55bb adfc ffbd ac44 07be
00000050: d651 4f3d 14ea 233d 7ab5 3a3e 57d9 bd3c
00000060: 7261 23be 23a2 97bc 9539 f0bd dc60 96bc
00000070: 44bc 8d3d 43e8 84bb 4c77 0f3e 6eab d5bd
00000080: 8f9e c43d f735 71bd c6d7 f5bd 79e3 d63d
00000090: 0f17 46bd 741a a0bd 69d4 023d a85f 623c
000000a0: 5dfa 43bd d9e7 c2bb fae3 72bd 97be 683c
000000b0: a93e f63c b4f9 953c 46a5 b9bd 3042 9cbd
000000c0: bb92 30bd f674 dcbc 9401 4a3d 88fc ea3b
000000d0: db9a 323d 2e54 7bbc 41cf 2f3d ee43 a73d
000000e0: fb87 b53d c138 253d d24a 80bd 42f4 b43d
000000f0: 386e babd 22d5 d43c b943 1fbe 5d58 eebd
00000100: 08ca 623d 209d dcbd f37e 883d 5cf4 58ba
00000110: 5893 6a3d 8dab da3d 3e28 43be 2ef1 433c
00000120: 07af e0bb a07d 03bc 8743 433d 5b83 bf3d
00000130: a415 5b3c 0179 8fbb c93b 7a3d 6c37 883d
00000140: 033b 3fbd 25bf 0abd 46d9 78bd 80f7 e2bc
00000150: 6e76 edbd 7549 a53d 2d0f a23c 26f7 adbd
00000160: ba55 b5bd be79 c83d d755 633d bf01 3f3c
00000170: 13b7 7a3d 27cb 343d 8af5 3abc d190 e3bc
00000180: 8c9e 31bd c674 1fbd ee6d c4bd ef4d 25be
00000190: 3038 aabd e02d a0bc 231f 7ebd b7f4 fb3c
000001a0: 76a8 403c 1c71 9f3d e6e8 233c d84c 013d
000001b0: 801a 9cbd 52ff e13c d8a2 df3d 2c2c 36bd
000001c0: 17c0 8a3d 7eba bbbc 72a5 893d da11 3b3d
000001d0: f097 ed3d 0c88 c2bc f3fb 39bc 24ea debc
000001e0: b9f4 803d 9e74 8abb 7ea1 58bd 69a9 babd
000001f0: a8f2 f53d ef78 70bb e761 fb3b 8323 b33c
00000200: 8b80 94bc bb8e 86bd f85e f83d ed92 bebc
00000210: f187 bcbd 4516 c73d 73e6 c63d c022 c03c
00000220: 7ba1 e73d 91cd 2ebd 5d15 b7bb 10b9 533d
00000230: e629 d4bc 443e 15bb ad19 73bd 49a1 63bd
00000240: fe0f 64bd 2a03 8dbd 28dd 03bd 2a65 033e
00000250: ae9f 02bd 20ef 813d 9676 cebb 672a 263c
00000260: fe56 993c 3728 f5bd 4e3b ae3d 4419 77bc
00000270: 1dd1 6a3d 5946 a8bd 5f37 9cbc a871 68bd
00000280: 4b14 77bd 25eb 9bbd ce5c f9bb 6b83 893c
00000290: 5268 7cbb c532 b93b db01 56bd a05c 8dbd
000002a0: 798f 973c 6152 7c3d 4587 dbbd d0f6 46bc
000002b0: 79eb 0f3d c2f1 84bd 39e2 82bd fd0a 97bc
000002c0: 3fdf 263d bdef 31bc 8714 8b3d 728b ffbc
000002d0: 5959 b5bd dcc8 6dbd 70bb 1f3d e297 b5bd
000002e0: f625 adbb 389d 3c3e e679 0abd 0796 7cbc
000002f0: ce55 403d e2d1 a93d 0b50 913c 01f0 9dbd
00000300: 133e 7bbd 9a46 b83d 966f aa3c 1de4 bd3d
00000310: 40aa 443d 9a71 82bd 1974 0e3d 1edb c9bd
00000320: 9487 65bb 4102 58bb 65a3 d0bd 40bc e3bd
00000330: 089a 463d 5da0 99bd 6b79 453c 79ef ff3c
00000340: 5ff9 0cbe 5cc2 eabd 4eab 8e3d 5f80 e83c
00000350: f74e a1bd 24e4 833d e0f4 ecbd 096b 8abc
00000360: 8336 17bd 7011 f43d 56af 9bbc d91c 4abd
00000370: 6462 c1bd 4a44 4bbd 5c8d 4bbd c774 ea3d
00000380: 6dad 21bd 30f4 89bd 4502 41bd 767f 903d
00000390: 4599 3ebb 09a8 12be e577 fdbd 1423 513d
000003a0: dbc4 b8bb f1de 8fbd 6f8c 903c 90d2 00be
000003b0: 4aab 8f3c 31de 26bd 5d49 2cbc 5c09 97bd
000003c0: 89fc e7bd 2b71 4abc 6fc7 c53c 6898 60bd
000003d0: fea0 073d c802 aebd aeb3 30be d800 02bd
000003e0: 3d9a 4dbd fca1 39bd 9973 25bd c21c f6ba
000003f0: c7ad cbbc c87c 9c3d 36a4 d83b 7362 393d

residual_tower.blocks.2.conv2.bias f4 [8]
-5.168705e-06 -1.7215632e-05 1.22700685e-05 1.3163138e-05 -6.786595e-06 1.8814278e-06 -4.4928624e-06 -1.1579208e-05
00000000: d66e adb6 4a6a 90b7 8bdb 4d37 3fd7 5c37
00000010: 68b8 e3b6 5e85 fc35 65c1 96b6 5244 42b7

residual_tower.blocks.2.bn2.weight f4 [8]
0.20146957 0.12668404 0.14867988 0.23531906 0.20799342 0.12737855 0.16293336 0.15490498
00000000: 0a4e 4e3e 76b9 013e 8a3f 183e 7bf7 703e
00000010: 3afc 543e 866f 023e 01d8 263e 699f 1e3e

residual_tower.blocks.2.bn2.bias f4 [8]
-0.109719306 -0.08683533 -0.045515485 -0.03417103 -0.058595408 -0.07997459 -0.04006167 -0.079905026
00000000: 84b4 e0bd b9d6 b1bd 726e 3abd ecf6 0bbd
00000010: bd01 70bd b8c9 a3bd b517 24bd 3fa5 a3bd

residual_tower.blocks.2.bn2.running_mean f4 [8]
0.0054231924 -0.0011411705 -0.040504735 -0.02062721 -0.0034741103 0.004646723 0.0024485183 -0.016704684
00000000: 09b5 b13b 5493 95ba 4be8 25bd 65fa a8bc
00000010: e6ad 63bb 8a43 983b 5277 203b 43d8 88bc

residual_tower.blocks.2.bn2.running_var f4 [8]
0.0036223626 0.002054366 0.0024992786 0.0042683803 0.00343242 0.0019296644 0.002220394 0.0030369316
00000000: 2965 6d3b 8ba2 063b f0ca 233b c5dd 8b3b
00000010: 74f2 603b cbec fc3a 0884 113b 4207 473b
