model_fine_oath_35.pth (torch, 152714 bytes, 83 tensors)

input_conv.conv.weight f4 [8, 2, 3, 3]
000000 d0 39 33 be 50 42 aa 3a ed 2a 5e 3d 51 a6 04 be
       -0.17502522 0.0012989733 0.054240156 -0.1295407
000010 bb 70 39 be 6d 84 26 be 87 f2 5e 3e 12 df 36 3d
       -0.1810941 -0.16261454 0.21772204 0.04464633
000020 95 a2 03 be ca 63 13 3e 82 d6 9f 3d e0 90 88 bd
       -0.12854989 0.14393535 0.07804586 -0.06668258
000030 fb cc 2b 3d 6d 4d 2a 3d cd 89 0b 3d b3 63 66 be
       0.04194353 0.041577745 0.034066964 -0.2249897
000040 c4 48 b1 3d b7 08 89 bd 0a 1a ab bd 91 5b ce bd
       0.08656457 -0.06691115 -0.08354576 -0.10076059
000050 75 9b b0 3d b8 68 8b 3d bf 0e 2c 3e 8a 9c 41 3e
       0.08623401 0.06807083 0.168025 0.18907371
000060 2e f7 cd bd 6c 4a f4 bd 71 bd 23 be ef 37 4a bb
       -0.100569114 -0.11928257 -0.15990235 -0.0030856093
000070 37 c4 48 3d 9c 1d 0d 3d f4 6e b0 be cb 4d 08 be
       0.04901525 0.034452066 -0.3445965 -0.13310926
000080 69 f9 21 be 3b 4c b5 3c 55 44 73 bd 1b ca 00 3e
       -0.15817799 0.022131076 -0.05939134 0.12577097
000090 71 ab 24 bd 45 3d ae bb 8c c4 a5 3c b0 bc 13 3e
       -0.04020256 -0.0053173625 0.020235322 0.14427447
0000a0 0b 74 17 be a6 1c 87 3d a6 fb 15 3e e4 e4 7b be
       -0.1479036 0.06597261 0.14646778 -0.24599034
0000b0 53 32 00 3e 5b 40 8c 3c 8e a0 78 3d 13 2d be bd
       0.12519197 0.01712053 0.060699992 -0.09285941
0000c0 fc c4 82 be f2 d2 01 3e d0 b6 cb bd ae b6 60 be
       -0.25540912 0.12678126 -0.09946978 -0.21944687
0000d0 68 7c 54 3e 14 93 78 bd 05 a2 f5 bd 6f 8b 5f be
       0.20750582 -0.06068714 -0.119937934 -0.21830533
0000e0 ae 34 c1 bd ee 9d 2c be 2e 59 79 3d b5 3f 1a be
       -0.09433876 -0.1685712 0.060876064 -0.15063365
0000f0 5a 95 c0 bd 5d e4 af bc 7d 85 34 bd 1b 44 d9 3c
       -0.094034865 -0.021471197 -0.044072617 0.026521733
000100 f2 7a bb 3d 0c a4 d9 3d ea 53 15 3e d7 ac ab 3e
       0.09154309 0.106269926 0.14582792 0.33530304
000110 58 85 04 3e 5e 12 91 3c e4 7a 92 3e 36 41 d0 bd
       0.12941492 0.017708953 0.28609383 -0.10168688
000120 64 a2 55 3e 71 16 d6 3b de ca eb bd 76 6c 85 3e
       0.20862728 0.006533437 -0.11513303 0.26059312
000130 42 58 22 3e 66 cb b6 3d 2b 4d 36 3d 43 c1 05 bb
       0.1585398 0.08925514 0.044507187 -0.0020409382
000140 52 1e e2 bc 0b f9 73 3d 98 e2 69 be 3d d8 bc bd
       -0.027602348 0.059563678 -0.22840345 -0.09220932
000150 6f 29 1d 3e 01 b6 4b 3e 81 37 27 3d ba aa f9 3c
       0.15347837 0.19893648 0.040824417 0.030476917
000160 7a f1 70 bc 92 b3 56 bd b4 e4 21 3d d1 f4 c7 3a
       -0.01470601 -0.052417345 0.03952475 0.0015255456
000170 c0 02 f2 3c 7b 43 92 3e ff 56 ba bd ac d8 31 bc
       0.029542327 0.2856711 -0.090986244 -0.010854881
000180 a8 7d 2f be 16 ad ba bd db bf 1c be 55 d0 e4 bd
       -0.17137778 -0.09115045 -0.15307562 -0.11172549
000190 80 e0 8b bd cd 4e b0 3c 0e c9 7e bd 96 04 80 be
       -0.06829929 0.02152195 -0.06220346 -0.250035
0001a0 fc b0 25 bd ba 3e 5b 3c f2 9d c3 bd e6 4c d8 3d
       -0.04045199 0.013381654 -0.0955161 0.10561542
0001b0 c0 fd 9d 3c 77 46 c5 bd 0b 5d 39 bc b6 38 0c 3e
       0.019286036 -0.09632581 -0.011313687 0.13693509
0001c0 e4 34 a9 be 5f f8 c1 3d a4 f2 24 bd 34 d5 ca 3d
       -0.33048165 0.09471201 -0.040270463 0.099039465
0001d0 93 ad ef 3b b3 25 38 be 58 44 24 3d f0 e3 f1 3c
       0.007314393 -0.17983131 0.04010424 0.029527634
0001e0 0e 43 b4 3e ac ad 23 be a5 7b 99 3c 84 e4 2d bc
       0.3520741 -0.1598422 0.018735716 -0.010613564
0001f0 5a d0 84 3e fc 40 f0 3c 26 c4 40 bc 32 ee da 3d
       0.2594021 0.029327862 -0.011765515 0.106899634
000200 ce f1 66 bd 57 ca fc 3c ea e6 32 3c e7 51 66 3d
       -0.056382947 0.030858202 0.010919312 0.056230452
000210 c5 51 37 be 8e 35 ac bd 5e 07 a2 3e b2 79 7a 3d
       -0.17902286 -0.08408652 0.31646246 0.061151214
000220 cf ee 63 be f1 b5 0c 3e 12 87 93 3d b1 6b 72 bc
       -0.22259067 0.1374128 0.07203497 -0.014796183
000230 d5 43 c5 bd 4c ed 16 3d a6 c1 24 bd d9 6a f2 bd
       -0.096320786 0.036847398 -0.04022374 -0.11836786

input_conv.conv.bias f4 [8]
000000 36 16 15 b6 c7 92 54 b6 f9 9d 5b 36 f7 21 ae 37
       -2.2215659e-06 -3.1675897e-06 3.2725495e-06 2.0758232e-05
000010 27 03 81 b6 c4 da f8 b4 b7 24 94 b4 4f c8 18 34
       -3.8448666e-06 -4.6352773e-07 -2.7593862e-07 1.4228975e-07

input_conv.bn.weight f4 [8]
000000 4e 4a 89 3e 03 75 b6 3e 55 17 c5 3e 7b 8f b8 3e
       0.26814502 0.35636148 0.38494363 0.36046967
000010 a2 ea a5 3e e6 f4 a1 3e a0 a2 b0 3e d0 9a 6e 3e
       0.32405573 0.31632155 0.34499073 0.23301244

input_conv.bn.bias f4 [8]
000000 ec 8b 45 b8 38 9c 06 3d 75 22 26 bc 25 ad 61 bc
       -4.7098772e-05 0.032863826 -0.010140051 -0.013774191
000010 a9 86 44 3c 41 c4 15 3d 51 1f 20 3e 65 3d 8d 3d
       0.011994996 0.036564115 0.15636946 0.06896476

input_conv.bn.running_mean f4 [8]
000000 56 f2 86 bd b5 4e b2 bd b1 96 42 bd 0b 60 5f 3d
       -0.06589191 -0.087064184 -0.04750699 0.054534953
000010 97 e6 0e 3e ba 88 f6 bd 82 18 8a 3d ee 86 b1 3b
       0.1395515 -0.12037797 0.06742956 0.005417696

input_conv.bn.running_var f4 [8]
000000 0b d0 07 3d f0 06 64 3d 1f 51 44 3d 57 ba 15 3d
       0.03315739 0.05567068 0.047928926 0.03655466
000010 fa 0c 22 3d c6 83 1f 3d cc 7b ee 3c 5a 6a eb 3c
       0.039563157 0.03894403 0.029111765 0.028737236

residual_tower.blocks.0.conv1.weight f4 [8, 8, 3, 3]
000000 93 bc 9c 3c 59 ab 9b bc 36 9a 87 bd e5 58 b8 bc
       0.019132888 -0.019002603 -0.0662121 -0.022503326
000010 8c 95 95 bd 49 0d 67 bd 3b 35 42 bc d9 73 f7 3b
       -0.073039144 -0.056409154 -0.011853511 0.007551652
000020 76 1c b7 3d da 00 21 be 2d 24 5d 3d 55 ca db 3d
       0.08940975 -0.15722981 0.053989578 0.10731951
000030 f6 b4 93 bd 82 e8 58 3e 03 53 21 3d af 3c 03 be
       -0.0721225 0.21182445 0.039385807 -0.12816118
000040 81 84 2c 3d 12 6d b1 3d 38 d6 ef bd 00 f5 27 3e
       0.042118553 0.08663382 -0.11710781 0.16402054
000050 d7 e5 c4 bc 4f ee 3c be 7c 28 18 3d 9a 2a 5c be
       -0.024035377 -0.18450283 0.037147984 -0.21500626
000060 7b 62 61 bd 88 f0 51 3d 17 25 c2 3d 3a fc dc 3c
       -0.05502556 0.05125478 0.094797306 0.02697574
000070 ac cd fd 3d 0c fb dc bc 51 57 c5 bd ab 35 03 bd
       0.123927444 -0.026975177 -0.09635795 -0.032033604
000080 03 a6 2e 39 ef 77 cc 3c 72 92 01 be bc 63 45 bd
       0.00016655777 0.024959533 -0.1265352 -0.048190817
000090 01 80 aa 3d 9f 07 77 bd 71 18 7c 3d 17 1d 17 3c
       0.08325196 -0.060310002 0.061546747 0.009223244
0000a0 84 5c 87 3c 12 e4 53 3d 20 09 91 3d 92 74 e9 3b
       0.016523607 0.051731177 0.070818186 0.007124492
0000b0 ea 5c 0f bd 08 05 11 bc 8d 2e 36 bd b8 08 64 bd
       -0.03500072 -0.008851297 -0.044477988 -0.055672377
0000c0 66 b0 45 3d 89 6b 50 3e ec 0e 97 3b e6 56 81 bd
       0.04826393 0.20353521 0.004609933 -0.06315403
0000d0 08 75 9b 3c 2c 33 d4 bd ca ac fb 3d aa 62 48 3d
       0.018976703 -0.10361323 0.12288816 0.04892222
0000e0 5c fb a8 3d fd 77 de bd f1 3e 4e 3d 88 0f ab bd
       0.08251068 -0.1086273 0.050352994 -0.08352572
0000f0 66 f8 d6 3d 2b 6b c2 3d 1f 03 8d 3d 2c be 83 bd
       0.10496597 0.09493097 0.06885361 -0.06432757
000100 ca ee 7c 3d f2 b5 74 3d 45 d4 ac bd 6b 60 ec 3b
       0.061751164 0.05974383 -0.08438925 0.0072136424
000110 e7 c1 d2 3c 6a fa de 3d 55 87 45 3d 02 ad 98 3d
       0.025727225 0.108876064 0.048224766 0.074548736
000120 3f 69 11 3c 8d 68 d3 3d 92 bc e7 bd 49 3c cf 3c
       0.00887519 0.10322676 -0.11315264 0.0252973
000130 ce 86 a2 3c 41 27 f7 3d 72 9f 80 bb 4f 0d 3e 3d
       0.01983967 0.12068034 -0.0039252574 0.04639941
000140 d4 d6 68 bd 25 16 b5 3d d8 5c 1b bd d7 4e f1 3d
       -0.0568455 0.08842114 -0.03793034 0.11782616
000150 d9 ed 0d 3e a5 96 8a bd 29 cb f5 3c fd b9 b3 bd
       0.13860263 -0.067670144 0.0300041 -0.08775709
000160 ad 8f e7 bd 82 82 87 b9 e9 c1 aa bd 5e 2e a8 bd
       -0.11306701 -0.00025846442 -0.08337767 -0.08211969
000170 4d 6d 27 bd ba 1d a8 3d f3 5c a2 bd 3c a1 77 3c
       -0.04087572 0.08208795 -0.07927885 0.015114125
000180 e1 d8 78 3c 4c 53 28 bd 91 eb 3b be 7f 9d 9f 3c
       0.015188427 -0.041095063 -0.1835158 0.01948428
000190 ec ae 8d bd 69 eb 9a bd d7 20 86 b9 e4 9c 5a 3e
       -0.06918129 -0.07564432 -0.0002558294 0.21348912
0001a0 1c 32 52 3d 54 a9 74 bc fe e6 39 be 67 b2 da bd
       0.05131732 -0.014932949 -0.18154523 -0.10678559
0001b0 b0 b5 e9 bd 19 4a b3 3d 12 7b 45 3d 68 65 92 3c
       -0.11411607 0.087543674 0.048213072 0.01787062
0001c0 0e 20 a1 bc 2a 4e 7c bb a7 fa 33 3d 6e 60 bf 3d
       -0.019668605 -0.0038498738 0.043940213 0.093445644
0001d0 ad 1d 08 bd 2e bd 01 3d 33 18 9c bc c7 7d 8a 3d
       -0.033231426 0.031674556 -0.019054508 0.067622714
0001e0 de 61 05 bb 7b 8e 3c 3d 99 a4 ba bc b3 f8 d6 b7
       -0.0020352523 0.046034317 -0.022783564 -2.5626598e-05
0001f0 ed 10 15 3d a0 f4 b2 bc f2 ba 1f bd 6c 68 00 bc
       0.036393095 -0.021845162 -0.038996644 -0.007837396
000200 aa 55 4a 3d 86 56 75 3d de 59 9f bd e5 eb 6a 3e
       0.049398102 0.05989697 -0.07780813 0.22941549
000210 18 83 b2 bd 6c e3 a8 bd de 9b 87 bd ad 7d a3 bd
       -0.087164104 -0.08246502 -0.06621526 -0.07982955
000220 1f b8 ac bd 0c cb 08 bc fb 33 18 39 a3 3e ef bd
       -0.08433556 -0.008349191 0.00014515214 -0.11681869
000230 36 f3 11 3c cb ef 04 bc af d5 15 bd 0a c2 63 bd
       0.008908084 -0.008113812 -0.036580738 -0.055604972
000240 8f 77 63 3c 43 3b 9f bd e5 34 08 3d 0f e1 f4 bc
       0.013883485 -0.07774975 0.03325357 -0.029892473
000250 57 a5 47 3d 2a 17 9d bc 95 ac db bd 21 c4 ff 3d
       0.048741665 -0.019176085 -0.10726277 0.124885805
000260 99 c5 c6 bd b3 bf b0 bd 75 c5 00 bd 22 aa 4c bd
       -0.097056575 -0.08630314 -0.03143831 -0.04996694
000270 dd 2f c6 bd a3 95 c8 bc b4 9b 6f 3d aa 31 86 bd
       -0.09677098 -0.024485415 0.0584981 -0.065524414
000280 a1 f3 9a 3b 11 76 18 bd eb 62 0b 3d ac 5a 8e 3d
       0.00472875 -0.037221972 0.034029882 0.06950888
000290 b1 33 10 be 1f 21 c3 3a 1e 00 18 bd e8 0a 5a bc
       -0.14082219 0.001488719 -0.037109487 -0.013308264
0002a0 03 8e 18 3d 6a 7e d9 ba b1 d3 28 3c ed 36 28 3e
       0.037244808 -0.001659346 0.010304377 0.16427203
0002b0 f7 04 09 bd d2 3e 83 bd f2 a1 37 be 53 89 d6 bc
       -0.033452 -0.064084664 -0.17932871 -0.026188528
0002c0 ab 20 81 bd ac 54 14 bd 9d b6 04 3e ed 5f c2 3d
       -0.06305059 -0.036213562 0.12960286 0.09490953
0002d0 48 1a 4c 3d 79 06 eb 3d 6c 54 50 3d 98 81 07 3e
       0.04982975 0.11475844 0.05086176 0.1323303
0002e0 f7 f2 cf bd 39 c7 1b bc 51 a5 c1 bc af 10 d2 3c
       -0.10153764 -0.009507948 -0.0236384 0.025642721
0002f0 2f c0 9e 3c da 9a 9d 3d 0b 08 cb bd b5 26 e7 bd
       0.01937875 0.07695551 -0.099136434 -0.1128668
000300 79 5a f8 3c 88 64 a2 3d e3 35 42 bd e4 c4 30 be
       0.030316578 0.07929331 -0.04741467 -0.17262608
000310 d0 c6 8b bd 75 a7 ee bc e3 35 d2 3b 30 76 92 3d
       -0.0682503 -0.029132584 0.006415115 0.07151449
000320 e9 cb 3a 3d c8 27 0d 3e 5f 87 85 3e 39 a0 57 bd
       0.04560462 0.13784707 0.26079842 -0.052643035
000330 72 c3 4e 3d 4b 95 72 3e c2 86 8c 3c 74 5d 99 3d
       0.05047936 0.23689763 0.017154101 0.07488528
000340 d0 44 ca bc 57 2a 98 bb e6 db 46 3c 2a 21 e4 3c
       -0.024691015 -0.004643719 0.012137389 0.027847845
000350 ae 60 88 3d 00 1c dd bd 7f 3a b3 3d 9e 57 e8 3d
       0.06659065 -0.10796356 0.087513916 0.11344837
000360 dc a4 bf 3b 5a 4a 10 3d e8 87 86 bd 43 ad 97 3d
       0.00584851 0.035227157 -0.06568891 0.07406094
000370 cf 68 89 3c b1 92 cc bd 4a 76 8c 3c 5a 9a d0 bd
       0.01677361 -0.09988917 0.017146248 -0.1018569
000380 c1 e9 ba bd 97 40 a0 3c 5d 50 fe 3d fb f2 4e 3d
       -0.09126616 0.019562049 0.12417672 0.050524693
000390 bf 57 bc 3b 76 22 44 bd 56 8d 86 bd be c7 8d 3d
       0.005747765 -0.047884427 -0.065699264 0.069228634
0003a0 01 7a 87 bd a6 1d 13 be 6b 18 8c bd 42 a5 95 bd
       -0.06615067 -0.14366779 -0.06840595 -0.07306911
0003b0 56 c3 91 3d be a2 59 3d c9 38 ed 3d 2d 01 da bd
       0.071173355 0.05313372 0.115830965 -0.106447555
0003c0 00 25 a7 bc 62 93 2c bd 70 ed c2 bc a0 bc ae 3d
       -0.020403385 -0.042132743 -0.02379486 0.08532071
0003d0 ee d1 83 3c bb fe 86 bd 63 e1 71 bd ac 45 a7 bd
       0.016091313 -0.06591555 -0.059052836 -0.08167586
0003e0 b0 71 35 be 1b 64 16 bc 28 08 94 3d a4 71 81 bd
       -0.1771915 -0.00917914 0.07228118 -0.06320503
0003f0 c0 24 28 bd 80 2b 8e bd d9 5e 90 bd 42 1c 4b bd
       -0.041050673 -0.06941891 -0.07049341 -0.049587496

residual_tower.blocks.0.conv1.bias f4 [8]
000000 ca 4e a2 b6 90 8b 20 b2 00 c6 c2 35 33 d5 78 b3
       -4.8371485e-06 -9.344959e-09 1.4511752e-06 -5.7935903e-08
000010 60 c9 01 b7 c2 81 99 b6 2f 0d 26 b5 2a a2 42 b6
       -7.735885e-06 -4.574861e-06 -6.1859004e-07 -2.9002645e-06

residual_tower.blocks.0.bn1.weight f4 [8]
000000 23 0f 33 3e dc 9f 45 3e cc 93 4e 3e d2 61 55 3e
       0.17486243 0.19299263 0.20173568 0.20838097
000010 00 34 53 3e a5 7d 50 3e 79 ae 51 3e a9 85 4b 3e
       0.20625305 0.2036043 0.20476712 0.19875206

residual_tower.blocks.0.bn1.bias f4 [8]
000000 44 b6 a9 bd ee d2 2f be 82 f0 23 bd ea 51 04 bc
       -0.082867175 -0.17170307 -0.040024288 -0.00807617
000010 fa c1 96 3d d8 84 18 be f5 2a b7 bd 89 8d 0d be
       0.07361217 -0.14894426 -0.0894374 -0.13823523

residual_tower.blocks.0.bn1.running_mean f4 [8]
000000 93 75 a7 3d a3 3f 34 bd e9 b4 e1 3d 31 5d 2b be
       0.081767224 -0.044006 0.11020834 -0.16734768
000010 a2 57 36 bd 1b 86 df 3d 01 99 ec bd c1 1d 29 bb
       -0.044517167 0.109142505 -0.11552621 -0.0025805088

residual_tower.blocks.0.bn1.running_var f4 [8]
000000 ad 9a e2 3c 4a df 79 3c 99 bb 00 3d 8c 10 0f 3d
       0.027661646 0.01525099 0.031428907 0.03492789
000010 67 ce 0f 3d 04 62 00 3d 84 13 e1 3c 71 dd a3 3c
       0.03510895 0.031343475 0.027475126 0.020003052

residual_tower.blocks.0.conv2.weight f4 [8, 8, 3, 3]
000000 a9 e0 20 be 60 04 ec 3d 7b 92 40 bd 07 d6 13 bc
       -0.15710701 0.11524272 -0.047014695 -0.009023196
000010 af 37 a7 3d d3 5b dc bd 8b de 68 3d 1d 90 0f 3e
       0.08164918 -0.107597016 0.05685286 0.14019819
000020 16 59 06 3a dc ed ce 3d 80 e1 ad bc f7 a2 33 3c
       0.0005124969 0.10103962 -0.02122569 0.010964147
000030 94 c4 56 bc 26 f5 7b bd 2d a2 1f 3e 66 ca 0f be
       -0.013108391 -0.06151309 0.15589209 -0.14042053
000040 f0 28 88 ba 97 6d 8f 3d 15 1a 2a be 34 58 e6 bb
       -0.0010388177 0.070033245 -0.16611512 -0.0070295576
000050 af ae f1 3d d1 37 ca bd 5a 84 4d 3b 92 61 2d be
       0.118008964 -0.098739274 0.0031359405 -0.16931751
000060 aa 45 f6 3d fd bb 58 bd fe 0c bf bd de d2 2c ba
       0.12025006 -0.052913655 -0.0932865 -0.0006592701
000070 1a af 84 3d 7f 5f 22 bc 10 05 f1 bc cd 49 4e 3c
       0.064787105 -0.009910463 -0.02942136 0.012590838
000080 27 db 76 3b 72 48 1e bd 00 e3 c4 bd 86 6f be 3d
       0.0037667246 -0.038643308 -0.09613609 0.09298615
000090 c1 e9 82 bc 62 c2 84 bd 51 6c f2 3d dd 12 01 3e
       -0.015980603 -0.06482388 0.11837066 0.12604852
0000a0 87 98 e5 bd 84 d0 f1 3c 5a 82 2b be c1 31 16 3e
       -0.11210733 0.029518373 -0.16748944 0.14667417
0000b0 38 7b df 3c bd d5 39 bd e0 01 e7 3d b9 ab a2 bd
       0.027280435 -0.045369852 0.112796545 -0.0794291
0000c0 18 01 48 3d 69 1b b8 bd 9b fa 61 bd 27 8c bd bd
       0.048829168 -0.08989603 -0.055170637 -0.092552476
0000d0 46 ae 16 be 65 d7 df bb 48 4e fd bc 64 91 f0 bd
       -0.14714918 -0.006831097 -0.030921116 -0.11746481
0000e0 60 48 1d 3e 29 51 2d be 42 f8 21 bd 15 81 2e 3e
       0.1535964 -0.16925491 -0.039543398 0.17041428
0000f0 a2 ec 55 bc f2 fd 6f 3d 45 eb 17 3e 77 22 ca bb
       -0.013056906 0.05859179 0.14835842 -0.0061686593
000100 18 78 4b bd 17 39 d4 bb 90 aa 59 3d ac 60 49 3d
       -0.049675077 -0.006476532 0.053141177 0.04916446
000110 bd 56 0b be e6 fd 9a ba b2 a3 18 be f3 a0 9e bd
       -0.13607307 -0.0011824935 -0.14906195 -0.077455424
000120 c6 85 e1 bc 6a 02 4b 3c be 09 2b bd 8a 20 8e bc
       -0.027529608 0.012390712 -0.041757338 -0.0173495
000130 c2 28 13 bd 90 95 e9 3d 6a 85 bc bc aa 6a 09 be
       -0.03592754 0.1140548 -0.023012836 -0.13419595
000140 4b e8 bf bc 47 12 31 bd 1c ea 87 3d be e7 a4 bc
       -0.023426196 -0.04323032 0.0663645 -0.020130035
000150 d5 bf 53 bc 07 fd 16 3d 49 93 af bd ca db 26 3d
       -0.012924154 0.0368624 -0.08573014 0.04073695
000160 00 d4 16 3c a2 74 85 3e 62 55 a9 bd 79 c4 35 bc
       0.009205818 0.26065546 -0.082682386 -0.011094206
000170 b7 db 19 be 56 0c c0 3d 3d 7a 93 3c fd ff 4f 3d
       -0.15025221 0.09377353 0.018002624 0.05078124
000180 89 e6 62 bd 5f dc 2b bd 18 ee ea bd d1 c8 54 bd
       -0.055395637 -0.04195821 -0.11471194 -0.051949326
000190 34 02 1f 3d d8 20 f9 3c a6 84 07 be 58 95 ba bd
       0.03882046 0.030411169 -0.13234195 -0.09110516
0001a0 cc 06 12 bd 91 c0 24 bd c1 95 b4 bd a7 4c c8 3c
       -0.035651013 -0.040222708 -0.08817626 0.024450613
0001b0 ba a9 20 bd bd ac 2c 3d 02 78 14 be 61 78 21 3c
       -0.039224364 0.042156924 -0.14498904 0.009855361
0001c0 29 44 85 3d e7 db c0 3c 49 86 25 3e 74 d4 4a be
       0.06507141 0.023542358 0.16164507 -0.19807607
0001d0 6a 27 3a be eb 57 85 bd f4 f4 28 3e c0 73 76 bd
       -0.18179098 -0.0651091 0.16499692 -0.06016898
0001e0 8a 19 4b bc bf c3 a6 bd 3b c7 2b 3d fa c5 9e 3d
       -0.012396226 -0.08142804 0.041938048 0.07752605
0001f0 83 f6 31 bd 49 b6 ae bd 28 d2 a0 bc 1e 0b 55 3d
       -0.043447983 -0.08530862 -0.01963146 0.052012555
000200 23 e0 5e 3d 1b 8c 92 bd 46 f2 b1 bd ff f3 97 3b
       0.054412972 -0.07155629 -0.08688788 0.004637241
000210 6b 44 33 3d 55 b1 95 3c 28 e0 b8 bd e8 3b 37 3c
       0.04376642 0.018273035 -0.090271294 0.011183716
000220 2b dc 89 bd fa 69 55 bc 55 96 c1 3d 5a ea 1f 3e
       -0.06731447 -0.013025755 0.09452502 0.15616742
000230 75 46 32 3e 72 09 7d bd 51 09 b5 bc 38 61 c9 bd
       0.1740969 -0.061776586 -0.022099169 -0.09832996
000240 a3 a8 2f 3d 66 70 b3 bc ab 52 63 3d 31 a6 34 bd
       0.042885434 -0.021904182 0.05549876 -0.044103805
000250 92 00 b6 3c 0b 5e 5c bc 29 38 6d 3d 1d a0 17 3d
       0.022217069 -0.013450156 0.057914887 0.03701793
000260 40 d8 a6 3c 80 3b 84 bc 2e 63 81 3d 5a ae 92 bc
       0.020366788 -0.016141653 0.06317745 -0.017905403
000270 ad 7d de 3d 30 b2 9f bb 11 19 a5 3c b1 c2 80 bd
       0.108638145 -0.0048735365 0.020153554 -0.062871344
000280 92 e2 fc bc 54 6c 60 3d 90 de 11 3d 9e 51 02 3d
       -0.030869756 0.05479081 0.035612643 0.031816117
000290 ac 82 d8 3d 5c 05 51 3d 94 99 a5 bb ee f3 ec bd
       0.10571799 0.0510305 -0.0050537083 -0.115699634
0002a0 25 a0 01 3e 1e 64 02 3d 22 09 63 be eb 9b ee bc
       0.12658747 0.03183376 -0.22171453 -0.029127082
0002b0 63 e8 49 bd e2 ab 86 bd 64 a6 4a bd 05 45 64 3c
       -0.049293887 -0.06575753 -0.04947509 0.013932471
0002c0 63 d1 53 3d 9a 5a 95 3c 5c b0 49 3d 6e ba 68 bd
       0.05171336 0.018231679 0.049240455 -0.05681842
0002d0 be 5f be 3d 76 68 f8 3d db 59 80 bd 22 ff d6 bd
       0.09295605 0.12129299 -0.062671386 -0.104978815
0002e0 f7 09 3b 3d 60 70 40 bd 73 f8 12 3e c6 8f 06 be
       0.0456638 -0.04698217 0.14352588 -0.13140783
0002f0 b1 a4 50 3d f8 d2 35 3e 1a c7 3e bd 5f 77 13 bd
       0.050938312 0.1775626 -0.046576597 -0.036002513
000300 18 dd bc 3a 70 68 5d 3b 45 41 20 3d d2 52 a0 3d
       0.0014409153 0.0033784173 0.039124746 0.07828297
000310 77 01 52 3d 12 a2 2e bd 96 a6 b0 bc 8e 2c 5d 3d
       0.05127093 -0.04263503 -0.02156381 0.05399757
000320 b2 71 03 3e a0 9b 01 be 65 82 29 bd 06 1a 07 3d
       0.1283634 -0.12657022 -0.04138412 0.032983802
000330 02 45 4b bd 1e c3 08 3d 7f ab 7a 3d dc d4 6f 3d
       -0.049626358 0.033389203 0.061198708 0.058552608
000340 34 82 0a 3b 96 cb 88 3c b5 0b f7 bc 3f 84 78 3d
       0.0021134736 0.01669864 -0.03015695 0.060672995
000350 83 5e 16 3a 39 8b b1 3a b2 d9 51 bd 23 2d bd 3c
       0.0005736129 0.001354552 -0.051233 0.023092812
000360 eb 26 27 bd d0 32 e4 bd f2 41 ae 3d 4e 92 4b bd
       -0.0408086 -0.11142504 0.08508672 -0.049700074
000370 e7 34 83 bc ed 2c e9 3d 00 04 df bc e5 3f 8c bd
       -0.016016437 0.11385522 -0.027223587 -0.068481244
000380 d1 09 1d be 54 db bf bd 5c 22 df ba 98 94 5f 3d
       -0.15335776 -0.093680054 -0.001702379 0.05458507
000390 e3 ea 84 3d 41 0a 75 bc 5d 3d 04 3d 44 22 87 3d
       0.064901136 -0.014956058 0.032285083 0.065983325
0003a0 ac 04 9f 3d 3f aa 7c 3d 9c 92 0e be c7 84 d6 bb
       0.07764563 0.061685797 -0.13923115 -0.00654659
0003b0 ef 41 a3 ba c2 9c 4e 3d d5 b3 d9 3b 1e 45 87 3d
       -0.0012455563 0.050442465 0.006643752 0.0660498
0003c0 1f f9 b1 bd 32 27 a4 3d eb 93 eb 3d ab 84 8b bd
       -0.08690094 0.080152884 0.115028225 -0.06812414
0003d0 8f 65 10 3e da 3e 58 be e6 d6 90 bd b6 73 7f 3d
       0.14101242 -0.21117726 -0.070722386 0.06236621
0003e0 4c 46 b7 bd 10 b3 a8 3d eb 58 b9 3d a7 e5 ef 3d
       -0.08948955 0.082372785 0.09050163 0.117137246
0003f0 26 46 9c 3c e0 34 aa 3d eb e7 bf 3b c1 63 b4 bd
       0.019076418 0.08310866 0.005856504 -0.08808089

residual_tower.blocks.0.conv2.bias f4 [8]
000000 43 03 69 37 d0 42 77 b6 67 73 cb 35 c1 08 10 b7
       1.3888642e-05 -3.6844758e-06 1.5158265e-06 -8.585107e-06
000010 34 60 08 36 3d a7 2b 37 a7 3b 69 b6 fd 7a 5c b5
       2.0321577e-06 1.0231332e-05 -3.4754428e-06 -8.213536e-07

residual_tower.blocks.0.bn2.weight f4 [8]
000000 cc 71 83 3e 35 b3 42 3e d9 4f 2c 3e c3 97 f9 3d
       0.25672758 0.19013675 0.16827334 0.121871494
000010 82 f4 d3 3d dd 30 60 3e f2 66 3f 3e 93 57 2e 3e
       0.103493705 0.2189364 0.18691614 0.17025594

residual_tower.blocks.0.bn2.bias f4 [8]
000000 58 67 df 3c 48 a8 2a bd 1e 77 b7 3c d9 1a 3f 3d
       0.027270958 -0.04166439 0.022395667 0.046656463
000010 4e 0d 86 3d 2d c0 22 bd 5e 14 8b bd db c4 92 3d
       0.065455064 -0.039734054 -0.06790994 0.071664535

residual_tower.blocks.0.bn2.running_mean f4 [8]
000000 36 79 cc bc 06 12 87 bd 4e 1a ce 3c 9d b4 20 bc
       -0.024960142 -0.065952346 0.025159027 -0.009808687
000010 3b b9 55 bd 96 f4 60 bd 00 51 12 bd ee 96 6a bc
       -0.052178603 -0.054920755 -0.03572178 -0.014318211

residual_tower.blocks.0.bn2.running_var f4 [8]
000000 59 0e 03 3c 4c 93 9c 3b 26 67 9b 3b e9 8b a9 3b
       0.007999026 0.0047783013 0.004742521 0.0051741493
000010 78 52 ab 3b c3 72 98 3b de 12 ef 3b 77 39 94 3b
       0.005228337 0.0046523525 0.0072959503 0.004523452

residual_tower.blocks.1.conv1.weight f4 [8, 8, 3, 3]
000000 fa 77 8c 3d 40 47 2b 3c 6e 2c a5 bd 6b 2a 46 3d
       0.06858821 0.010453999 -0.08065115 0.048380297
000010 6b fe 08 be 44 ca 38 3d 5b 1a 10 bd c6 98 e7 bd
       -0.13378303 0.04511477 -0.035181385 -0.11308436
000020 d9 5e 2b ba dd 6c 14 bd f0 b9 0b bd 7e 82 01 3d
       -0.0006537266 -0.036236633 -0.03411287 0.031618588
000030 00 75 8d 3d f1 3d df 3c e1 10 86 bb 16 98 6b bd
       0.069070816 0.027251216 -0.0040913676 -0.057518087
000040 b8 0c 07 be 2d 48 5e bd 03 50 d3 3d fc a3 e8 3b
       -0.13188446 -0.05426805 0.103179954 0.0070996266
000050 58 5a 26 3e 24 54 5f 3d 14 ec 47 bc f9 42 2b 3c
       0.16245401 0.054523602 -0.0122022815 0.010452979
000060 4f b5 a2 3c 28 b8 51 3d 7f b6 5d 3d c1 2e dd 3d
       0.019861845 0.051201016 0.05412912 0.10799933
000070 98 b0 81 3d f9 4c af 3d 27 c8 cb 3d 2b c5 df 3d
       0.06332511 0.08559603 0.099502854 0.10926279
000080 c6 93 e1 bd 5c 24 1e bd 6d 89 58 bd 69 63 39 bd
       -0.11014514 -0.038608894 -0.052865434 -0.04526082
000090 58 c8 3a 3d bc c6 98 3b a0 c0 b7 3d f6 72 cb bd
       0.04560122 0.004662363 0.08972287 -0.099340364
0000a0 2a 4a be bb 01 ea a6 3d d0 20 14 3d a7 f0 76 bd
       -0.005807181 0.081501015 0.036164105 -0.060288098
0000b0 f6 10 d1 bd 63 45 6a bc 4c 48 3d 3c 37 91 d7 3b
       -0.10208313 -0.01429877 0.011552881 0.0065785903
0000c0 93 08 99 bd 1c 2b 95 bd a5 da 87 bb af 93 3b bd
       -0.074723385 -0.07283613 -0.0041459375 -0.04579514
0000d0 f8 d0 f1 bd e1 2f e6 bd 6a f6 88 3c eb a8 be 3c
       -0.11807436 -0.11239601 0.016719062 0.023273906
0000e0 88 b1 25 3b 24 91 73 bd 57 d4 0d bd 79 7a 7e 3d
       0.0025282819 -0.05946459 -0.03462633 0.062128518
0000f0 3a aa 77 3b 50 e7 14 3d 93 57 57 3c cc 6e 75 3c
       0.0037790672 0.03635341 0.013143438 0.014980029
000100 bc 70 b8 bd ab ee 64 3d 31 0b e1 bd c2 98 74 3b
       -0.090058774 0.055891674 -0.10988463 0.0037322496
000110 2a 43 e4 3c 4d a4 41 bd f1 c0 d2 3c b2 5c d9 3c
       0.027864058 -0.04727583 0.025726767 0.026533458
000120 ea 88 77 3c bb 8b 8d 3d 59 f7 0a bd 5a df d1 3b
       0.015108326 0.06911417 -0.033927295 0.0064047994
000130 87 aa 99 3c 71 b0 6f bd f8 46 ad bc e7 f7 18 bc
       0.018758072 -0.058517877 -0.021152005 -0.009336448
000140 2d e8 d3 3b 66 c7 15 bd 1e 14 dd bd ed 90 9d bd
       0.0064668865 -0.036567114 -0.10794853 -0.07693658
000150 33 90 c2 3c 4a ce cf bd 12 78 eb 3c 8e 3e 2d 3e
       0.0237504 -0.101467684 0.028743777 0.16918394
000160 54 28 44 3e 57 bd 2a 3e 78 78 05 bd 52 f1 7d bd
       0.19156009 0.1667379 -0.03258559 -0.06199772
000170 a2 f7 09 3d 70 a0 c3 3d 5a a8 80 bb 09 04 26 3d
       0.033683427 0.095520854 -0.003926319 0.040531192
000180 ed 78 fe bd 70 9f 62 bb 79 78 12 3d c4 23 2f 3d
       -0.124254085 -0.0034579895 0.035759423 0.042758718
000190 24 61 85 bc 92 4e 2b 3d 46 88 76 bd 19 d0 8b bd
       -0.016281672 0.041822977 -0.060188554 -0.06826801
0001a0 28 c4 45 3b a8 dd 2e be 0b d8 94 bd 2a d3 d2 bd
       0.0030176733 -0.17076743 -0.072677694 -0.102941826
0001b0 7e d4 ab 3c 3e e2 88 bd 5c d5 2e bd 79 c5 e8 bc
       0.020975348 -0.06683777 -0.042683944 -0.028414475
0001c0 a8 fa 6a bb 74 10 84 bd f3 21 db 3c 2e 71 e2 3d
       -0.003585497 -0.06448451 0.026749587 0.110567436
0001d0 27 79 c2 3d 4a e5 a3 3d 37 6a 00 bd 9e 41 b6 bb
       0.09495764 0.08002718 -0.031351294 -0.0055620214
0001e0 a5 77 91 bd f9 62 de bc 1e cf 04 bd ab c0 80 3d
       -0.071028985 -0.027146803 -0.032424085 0.062867485
0001f0 5a 72 ce 3c bd 31 6e 3d af 61 9d 3c 4a 7c b2 ba
       0.025201011 0.058152903 0.019211618 -0.0013617363
000200 aa a2 2f 3d 63 f1 f6 bc 11 1f 83 bd 86 81 1a be
       0.042879738 -0.030144399 -0.0640241 -0.15088472
000210 ab 3d e1 3c c5 1f 94 bc b9 ed 1e bd 59 78 6a 3d
       0.027495226 -0.018081555 -0.03880093 0.05724368
000220 49 67 c1 3d a8 dd 0c bd 3b e4 09 3e 2f 68 1c bd
       0.09443528 -0.034391075 0.1346597 -0.038185295
000230 71 7e d2 3c f8 3c b8 b9 a4 a8 f1 3d bb 82 84 bd
       0.025695058 -0.0003514064 0.11799744 -0.06470247
000240 d9 9f 43 bd ef 6b 2a bd 7d 2b 20 bd 38 dd 8d bd
       -0.047759864 -0.04160684 -0.039103974 -0.0692696
000250 f7 ae 08 3e b9 01 7c bd 35 06 8e 3d cb 75 3e 3e
       0.13347994 -0.06152508 0.06934778 0.18599622
000260 84 a1 b6 3c 17 06 c8 3c a4 3b f2 3d 95 92 8e 3d
       0.022293814 0.024416966 0.11827782 0.06961552
000270 d7 a5 87 bd 17 93 8f bd 13 5e 86 bd ac 6b f8 3c
       -0.06623428 -0.07010477 -0.06560912 0.03032478
000280 50 73 2c 3d 65 f7 58 bd 77 3a 28 be bb 03 00 bd
       0.042102158 -0.05297031 -0.16428553 -0.031253558
000290 38 25 dc bd 44 a5 58 3d 2c 9c f0 3d fe 57 b4 bd
       -0.107492864 0.052891985 0.117485374 -0.08805846
0002a0 85 16 64 3d c1 6c da bc ee f6 10 bd 42 5a ae 3d
       0.05568554 -0.026663186 -0.03539174 0.08513309
0002b0 cb ba 3d 3d 68 a7 60 3d 31 e7 bf bc 1a 73 db bd
       0.046320718 0.05484715 -0.02342567 -0.10715313
0002c0 d6 05 41 3e 39 02 89 bc 63 c0 29 3b b8 20 c5 3d
       0.18849882 -0.016724693 0.0025902025 0.09625381
0002d0 ee 15 c4 3a 7e 40 10 bb 30 a9 b5 3c a4 87 09 3d
       0.0014960149 -0.0022011097 0.022175401 0.033576623
0002e0 6a 64 38 bc 00 1e 91 bd a0 ee 06 3d ac f3 35 bd
       -0.011254409 -0.070858 0.032942414 -0.044421837
0002f0 6c a9 ca bd 08 48 88 bc aa 23 80 3d 8d 83 9d 3d
       -0.09895596 -0.01663591 0.062568024 0.07691107
000300 70 f6 1d bd c2 78 f0 bd 76 ae c2 bd a4 c7 a9 bc
       -0.0385651 -0.11741783 -0.09505932 -0.020725079
000310 13 b6 7b bd b5 a2 7c 3c 29 04 ff 3b 9f 5c c9 bd
       -0.061452936 0.015419652 0.0077824784 -0.09832119
000320 cd a2 0d 3d 6e 87 5b 3c f1 9e 01 3e ed d4 a8 bd
       0.034579087 0.013398988 0.12658288 -0.08243737
000330 63 40 dc 3d 5c e9 79 bd b6 81 04 3d 25 87 fa bc
       0.10754468 -0.061013564 0.032350264 -0.03058202
000340 6d 95 8e 3c 6f aa d6 3d de 75 ad bc d3 df 9d 3c
       0.017405236 0.104817264 -0.021174368 0.019271767
000350 e0 2a ee bd 17 4e 05 be 42 f6 5f 3c 00 ee 8e 3c
       -0.116292715 -0.1301807 0.013669552 0.017447472
000360 cf b6 52 bc 0d bd 8e bc a5 bc fc bd 62 f9 ef bd
       -0.012860968 -0.01742413 -0.123406686 -0.11717488
000370 2e cc 90 bd 30 a6 bd 3c 38 96 73 bd 59 c5 e7 3b
       -0.07070194 0.023150533 -0.05946943 0.007073086
000380 81 81 5d bd e1 6c da bd 5b 5e ae 3d f3 83 1e 3d
       -0.054078583 -0.10665298 0.085140906 0.038700055
000390 d3 c7 38 bc ee d7 95 3c 4c 42 82 bd 2c 4f 66 3d
       -0.011278111 0.01829144 -0.063603014 0.056227848
0003a0 32 b9 88 bd 48 19 8f bc 29 fb 94 bb 77 5b 94 bd
       -0.06675948 -0.01746811 -0.004546542 -0.07244008
0003b0 8e 17 8f bc a7 9c 88 3c 82 52 86 3c 19 4d 32 3d
       -0.017467286 0.01667626 0.016396765 0.043530557
0003c0 47 49 4b 3d 1f 44 4e 3d f6 04 69 bb 3e c0 60 bd
       0.04963043 0.050357934 -0.0035555935 -0.054870836
0003d0 d4 a9 a4 3d 3e b3 a6 bc 2c 51 7e bc 13 14 51 3e
       0.08040205 -0.020349141 -0.015522283 0.20417814
0003e0 de 8f 34 3d 0f 48 c2 bc 8e 09 55 3d 3a ab 1a 3c
       0.044082515 -0.023716 0.052011065 0.009440238
0003f0 9e d7 8d bd 95 42 07 3d d3 31 36 be 5d 51 06 3e
       -0.06925891 0.033022482 -0.17792444 0.13116975

residual_tower.blocks.1.conv1.bias f4 [8]
000000 c4 76 ac 35 c4 b0 2e b6 1c ea bf 35 01 5d 5a b5
       1.2849564e-06 -2.6030912e-06 1.4298744e-06 -8.1346667e-07
000010 e5 9a 3b b7 3d fa a7 b6 fe 79 5d 36 ae d3 44 b5
       -1.1182133e-05 -5.0061194e-06 3.3002575e-06 -7.3323724e-07

residual_tower.blocks.1.bn1.weight f4 [8]
000000 b4 25 f7 3d 60 f6 39 3e ef 4f 30 3e 92 fd 4d 3e
       0.12067738 0.18160391 0.17217992 0.2011626
000010 75 54 0c 3e 26 46 38 3e ee 3d 4f 3e bc 8f 6b 3e
       0.13704093 0.1799551 0.20238468 0.23004049

residual_tower.blocks.1.bn1.bias f4 [8]
000000 da 05 13 be 09 91 bd bd 33 c5 3c bd df 81 9d bd
       -0.14357701 -0.09256179 -0.0460865 -0.076907866
000010 a6 04 d2 ba 24 96 09 be f2 aa cd bd 48 e4 1b be
       -0.0016023114 -0.1343618 -0.10042371 -0.15223801

residual_tower.blocks.1.bn1.running_mean f4 [8]
000000 9d 85 1f bc 92 2e b6 bc bb 3a 5e bd ad fe 24 bd
       -0.009736446 -0.022239003 -0.05425523 -0.04028194
000010 c3 b2 f9 bd 24 3b b5 3d 8e 10 15 3d 22 4d 1d be
       -0.12192299 0.08849171 0.03639274 -0.15361455

residual_tower.blocks.1.bn1.running_var f4 [8]
000000 e5 23 ca 3c 90 56 d7 3c 9c 0b ba 3c 72 94 b9 3c
       0.024675319 0.026286393 0.022710614 0.022653792
000010 50 15 99 3c e0 44 b5 3c f2 e9 0e 3d 7d 71 bf 3c
       0.01868692 0.022127569 0.034891076 0.023369545

residual_tower.blocks.1.conv2.weight f4 [8, 8, 3, 3]
000000 b2 a5 54 3e 02 b0 78 bb fc 41 8e 3d fd 08 31 bd
       0.20766333 -0.0037946706 0.06946179 -0.043221463
000010 1e f7 39 3d 9f 9a 13 3e 5c d7 42 3d 96 1c ff bc
       0.045401685 0.14414452 0.047568664 -0.03114156
000020 c5 e8 eb 3d a9 bf 62 bb eb 2c d1 3d fa d6 1b 3e
       0.11519007 -0.0034599102 0.102136455 0.15218726
000030 e3 58 36 bd f8 15 41 bd 0c e3 0e 3d 33 e0 00 3d
       -0.044518363 -0.04714009 0.034884498 0.031463813
000040 4e c0 0b be a8 34 06 ba 47 d1 97 3d d7 98 0a 3e
       -0.13647577 -0.0005119541 0.07412963 0.13534866
000050 1c 5c 34 bc 12 bc a8 bc a6 01 e8 3b 09 b6 93 bd
       -0.011008289 -0.020597491 0.0070802746 -0.07212455
000060 78 57 82 bc ba 40 b7 3d 1b 40 4e bd aa ab c2 bb
       -0.015910849 0.089478925 -0.050354104 -0.005940874
000070 e1 b4 e6 bc a5 eb 67 bc 03 06 9c 3d 7a 35 a8 3d
       -0.028162422 -0.014155303 0.07618334 0.08213325
000080 df c6 e9 3d 5f 5a 0e bd 9d ff 0f bc 62 4b 88 3d
       0.11414885 -0.034754153 -0.00878897 0.06655003
000090 f6 05 e5 bc f6 14 9a 3b 71 8a c0 3d 85 c2 0d 3e
       -0.027956944 0.004702206 0.094014056 0.13843735
0000a0 32 75 9f bd 00 db 60 3d 0c cb 70 bd 61 12 69 bc
       -0.07786025 0.054896355 -0.05878739 -0.014225573
0000b0 7d 85 26 bd be f1 84 bc f5 6d 27 3d 49 e1 a3 3c
       -0.040654648 -0.016228553 0.040876348 0.020004885
0000c0 a9 37 f9 3d d2 2f 3a bb 35 28 c8 bd b1 63 35 3b
       0.121688195 -0.002840985 -0.09773294 0.002767783
0000d0 15 b5 bc bc 9a c3 9b bb d8 c2 d2 3c 32 a9 99 bc
       -0.023035565 -0.004753542 0.025727674 -0.018757436
0000e0 8f 8e c4 bd ad e3 0b be d0 37 1b be c3 82 93 3d
       -0.095975034 -0.1366107 -0.1515801 0.07202675
0000f0 ca 6e be 3d 0e 17 8e bd 21 75 f0 bb 3d 31 46 bd
       0.09298475 -0.06937991 -0.0073381816 -0.0483868
000100 70 34 20 3c dc 7d e6 bd 26 6d 45 bd 0b fc de bd
       0.009778127 -0.112544745 -0.048199795 -0.10887917
000110 0c 78 a5 3c 7c 86 e3 3c db b1 10 bd ca 6d 3b 3e
       0.020198844 0.027774088 -0.035325866 0.183036
000120 bc a8 37 bd 5d fe 0f bd 9c df b6 bc c2 d3 0c bc
       -0.044838652 -0.03515469 -0.022323422 -0.008595409
000130 38 ab be bc 78 58 cb bb d1 b4 28 bd 05 a0 d6 bd
       -0.023275003 -0.0062056147 -0.041188065 -0.1047974
000140 be 74 02 bd 72 ff 46 bc aa 34 9c 3d b1 3f 65 3d
       -0.031849615 -0.012145864 0.076272324 0.055968944
000150 24 7c b9 bd 0a dc 30 3d 5d 45 53 bd b3 4d 8d bc
       -0.09056881 0.043178596 -0.05157982 -0.017248964
000160 b9 4b 7c 3d d8 37 87 bd a9 3d df bc a1 84 e8 bd
       0.061595652 -0.06602448 -0.027251082 -0.11353422
000170 e3 3b cb bd d4 be 8a 3d 0f 98 1f bc bb 2c ea bc
       -0.09923532 0.06774679 -0.009740843 -0.028585782
000180 31 44 74 3d 2e e1 2d 3e a7 de 0d bd 4f 56 74 bd
       0.059635345 0.1698043 -0.034636166 -0.059652623
000190 fc 75 90 bc 11 64 66 bb 6e 99 89 3b 2f b0 db 3c
       -0.017634384 -0.003515486 0.0041991984 0.02681741
0001a0 8e 0c 83 3d 53 db 33 3d db 42 09 be aa d5 f5 3d
       0.06398879 0.043910336 -0.1340441 0.12003644
0001b0 aa 9f 61 bc 44 62 72 bd b3 06 7f bc 87 95 87 bb
       -0.013770977 -0.059175745 -0.015565562 -0.004137698
0001c0 03 bc 80 3c 11 16 a5 3b 10 70 c1 3d e6 93 17 3d
       0.015714651 0.005038031 0.09445202 0.03700628
0001d0 08 31 17 3d 7b 8c 0f 3d 8a c7 2f bd f3 ab a5 bd
       0.036911994 0.035046082 -0.042914905 -0.08089437
0001e0 b9 5a 88 3c d8 b7 b9 bc a3 4b 1a be de 88 18 3d
       0.016644822 -0.022670671 -0.15067916 0.0372399
0001f0 b0 50 f0 bd 8a f7 db 3c e8 7a 63 bd a8 5e 20 be
       -0.1173414 0.026851434 -0.055537134 -0.15661108
000200 7f 8c ab bd 64 7f f9 bd 1d a2 14 be 97 f8 6b bd
       -0.08376407 -0.12182501 -0.14514966 -0.05761012
000210 b3 7c b2 bb 0b c1 a8 bc ef 33 3f 3d 1a fe 3c 3b
       -0.005446994 -0.020599863 0.046680387 0.002883798
000220 d3 42 90 3c b7 24 cf bd 35 ce e7 3c 1b c8 70 bb
       0.01760999 -0.10114425 0.02829657 -0.0036740366
000230 73 d6 83 bd 32 ef 18 be a6 2c 55 3c ce 90 fb bd
       -0.06437387 -0.14934996 0.013011133 -0.12283479
000240 a6 0d 2c bd d6 35 64 bd cb cf 2c bd 15 3b 28 3d
       -0.042005204 -0.055715404 -0.042190354 0.04107197
000250 3a 31 e5 3a 91 35 aa bd 98 85 10 be 01 06 d2 3c
       0.0017485984 -0.08310998 -0.14113462 0.025637629
000260 08 77 8d bd 28 b4 6b bd 0e c2 af bc 2a 63 39 bc
       -0.06907469 -0.057544857 -0.021454837 -0.011315146
000270 a2 21 09 3c 6f 16 72 3c 39 e9 7c 3d a9 92 17 be
       0.008369835 0.014775856 0.061745856 -0.1480204
000280 a5 08 c8 3c 71 5a b3 3a a8 d3 40 bd a3 44 27 3b
       0.024418185 0.001368357 -0.04707685 0.0025523088
000290 3e 1f 84 bc 5a e6 f5 3d 36 52 92 3b 7d 4a 1b bd
       -0.016128179 0.12006827 0.0044653667 -0.037912834
0002a0 b7 fc 49 3d a0 62 a5 bc 97 30 8c bd 0f bd 43 bd
       0.049313273 -0.02018863 -0.06845205 -0.047787722
0002b0 4c c6 ac bd a8 fc 53 3c 1d 75 8e bc 3f 29 9a bc
       -0.084362596 0.012938656 -0.017389828 -0.018818496
0002c0 5f f4 d6 3c d0 dc 74 3d a1 b7 12 bc d2 eb 79 bc
       0.026239572 0.059780896 -0.008954913 -0.015253978
0002d0 25 aa 33 3d c3 cb 3d 3d 16 6c ef bc a0 4a a4 3d
       0.043863434 0.0463369 -0.029226344 0.08022046
0002e0 bb 3e 63 bc 38 38 06 bd 6a 2b df bc b6 d5 be bd
       -0.013869937 -0.032768458 -0.027242381 -0.09318106
0002f0 b7 3c 6e 3d df 42 e2 3a 6e d6 b3 b8 77 4c 3d 3d
       0.05816337 0.0017262361 -8.575326e-05 0.0462155
000300 06 5b 18 3e 44 d5 0c be ee c1 85 bd f6 aa 82 bd
       0.14878473 -0.1375323 -0.0653113 -0.063802645
000310 28 f1 90 3d 0d 47 37 bd f4 3a e9 3c 02 51 70 3d
       0.07077247 -0.044745494 0.028470494 0.058671005
000320 a9 25 b3 bd b2 16 8e bd a1 48 c5 b9 f7 f6 4a 3e
       -0.087474175 -0.069379225 -0.0003762888 0.19820772
000330 f0 a0 78 bd 2a 23 df bc 50 4b 0f bc ef 7b ca bc
       -0.060700357 -0.027238447 -0.008745983 -0.0247173
000340 b2 38 88 bd 2b 8b 25 bd fa b5 c6 bd f8 c3 b2 bd
       -0.06651439 -0.040415924 -0.09702678 -0.08728784
000350 a9 df c4 bd 18 01 51 bd 8a 8e 93 3d b7 01 16 3d
       -0.09612972 -0.051026434 0.072049215 0.03662273
000360 bc 8d 8b 3d ab b2 0c bd c3 6d 33 3a f9 35 07 bd
       0.06814143 -0.03435008 0.0006844664 -0.033010457
000370 31 26 18 3b 03 4c 9c 3d ba 43 d5 bc 72 1f 56 bd
       0.0023216123 0.076316856 -0.026033271 -0.052276082
000380 8e ba bd bc f4 07 12 bd 86 ea ee bd d5 15 b0 bd
       -0.023160245 -0.035652116 -0.116658255 -0.08597914
000390 8e 79 0a be 25 d8 27 bc 5b 24 03 be 41 66 bd 3d
       -0.13522932 -0.010244404 -0.12806837 0.09248019
0003a0 6b 47 00 3e 2b 64 19 3e 0a 49 9c 3c bd 72 50 bd
       0.12527244 0.14979617 0.019077796 -0.050890673
0003b0 da 6c 55 bd 30 8a b8 3c d5 d2 f3 3c 8c 2e ac 3d
       -0.052105762 0.02252683 0.029763618 0.084073156
0003c0 56 58 e9 3d 64 04 6b 3a c1 b9 df bc b8 4b e8 bc
       0.11393802 0.0008965193 -0.027310254 -0.028356418
0003d0 e1 a4 89 bd 6c c0 c0 bd 14 6b dc 3c 61 4b 20 3c
       -0.06720901 -0.094117016 0.026906528 0.009783597
0003e0 8f c5 b4 3d 62 f1 35 3d 81 9f 00 3b 3b 71 33 3c
       0.08826744 0.044419654 0.0019626322 0.010952289
0003f0 9e 59 f0 bc 46 9f 3d bd ee 7a cf bd b8 bf 6b 3c
       -0.029339608 -0.046294473 -0.10130869 0.014388971

residual_tower.blocks.1.conv2.bias f4 [8]
000000 2f 1a 3b 36 6d 26 8f 33 8b 79 14 37 3b de 1b b6
       2.7880412e-06 6.665946e-08 8.849786e-06 -2.3226155e-06
000010 52 4d 9f b7 d9 3b e9 36 c4 90 35 b6 cd 6e f7 b6
       -1.8990282e-05 6.9509083e-06 -2.7055366e-06 -7.3740725e-06

residual_tower.blocks.1.bn2.weight f4 [8]
000000 1c ff dc 3d eb a8 0b 3e 4f 6b 2a 3e fa 4e ee 3d
       0.10790846 0.13638656 0.16642497 0.11636157
000010 b8 c3 03 3e f2 6c 1e 3e 4a 3c 3c 3e e4 47 f4 3d
       0.1286763 0.15471247 0.18382373 0.119277745

residual_tower.blocks.1.bn2.bias f4 [8]
000000 26 32 03 be b3 20 f9 bd ed d4 cd bd 79 9c 2b bd
       -0.12812099 -0.1216444 -0.10050378 -0.04189727
000010 36 1a 2d bd 6e 46 12 3d 47 7e 6f bb b0 24 68 bd
       -0.042261325 0.0357117 -0.0036543773 -0.056675613

residual_tower.blocks.1.bn2.running_mean f4 [8]
000000 90 b2 88 3c f7 72 2d bd d8 63 ac bc 69 42 fc bc
       0.016686708 -0.042345967 -0.021043703 -0.030793386
000010 d2 3c a2 3b dd 0b 5b bd 45 46 7a 3c d2 92 24 bd
       0.004951098 -0.05347811 0.015275543 -0.04017908

residual_tower.blocks.1.bn2.running_var f4 [8]
000000 f5 c1 32 3b 94 f9 6c 3b fb c6 01 3b e4 7c 5f 3b
       0.0027276252 0.0036159502 0.001980244 0.003410154
000010 81 c0 4a 3b fd e7 5f 3b d9 c2 72 3b a4 7c 34 3b
       0.0030937495 0.0034165375 0.0037042408 0.0027540112

residual_tower.blocks.2.conv1.weight f4 [8, 8, 3, 3]
000000 49 b4 3f 3d 89 7f d6 3c fe 24 3e bd af 1c 53 3d
       0.046802793 0.02618386 -0.046421997 0.051541027
000010 94 8a 7e bd 0c 8f db bc ee 8f ef bd 3e 92 16 be
       -0.062143877 -0.026801609 -0.11697374 -0.14704224
000020 20 58 f5 3d 05 85 f1 3b 11 a9 78 bb 3d 6b 9c 3d
       0.11979699 0.0073705935 -0.0037942568 0.076376416
000030 0d 5b 91 bd a6 e5 46 bb dd 63 fa bd 11 1d e3 bc
       -0.07097445 -0.0030349283 -0.12226079 -0.02772382
000040 33 25 fd 3d a7 44 76 3d 30 ba 1d bb 22 0d f2 bd
       0.12360611 0.060124066 -0.0024067275 -0.11818911
000050 89 db 33 bd 5b 39 07 3d 03 ff 4f bd 3a b6 8c 3c
       -0.043910537 0.033013683 -0.050780308 0.017176736
000060 2e 57 1f bc ab b9 97 3d 13 4f 3a bc b3 37 90 bd
       -0.009725375 0.0740846 -0.011371392 -0.07041874
000070 61 18 0d 3d b4 f2 a7 3d 3f 6c 38 bd aa 7d 34 3e
       0.034447078 0.08200589 -0.045025107 0.17626062
000080 24 e1 10 bd ec 69 d4 3d 6f 5d 86 3c 87 71 19 bd
       -0.03537096 0.103717655 0.016401974 -0.037461784
000090 c3 93 18 3c 74 93 16 3d 08 1b 26 3c 2b 63 a1 bd
       0.009312573 0.036761716 0.010138281 -0.07880243
0000a0 d9 7b 2c bd 4e b4 51 bd a7 15 fc bd a6 c5 af bd
       -0.042110298 -0.051197343 -0.12308817 -0.0858262
0000b0 c7 4a 8c bd 21 61 84 bc 30 44 de bc 8c 60 ae 3d
       -0.068502 -0.016159596 -0.027132124 0.085145086
0000c0 cb b6 16 3e 17 e7 ae 3d 6c 9d 06 bd 6c a7 70 bd
       0.14718167 0.08540171 -0.032864973 -0.058753416
0000d0 80 ed c4 bd b2 13 14 bd 8d ed d8 3d d9 79 82 3d
       -0.09615612 -0.036151595 0.10592184 0.06370897
0000e0 5d d0 e8 bc 0a be a3 bd 77 d9 04 3b 4b 12 4a 3c
       -0.028419668 -0.079952314 0.002027122 0.012333463
0000f0 b1 ef 82 3d 6f 8d 7e bd 2f d9 0b 3c f4 08 46 bc
       0.06393374 -0.0621466 0.008535667 -0.0120870955
000100 ec 91 ec bd 19 7a ea bd 4d 1a ed bc 95 b1 dd 3c
       -0.1155127 -0.114490695 -0.028943205 0.027062217
000110 ac 83 a1 3c 1b f9 0c be c9 f6 b8 bd 88 e7 0c 3d
       0.019716106 -0.13766901 -0.090314455 0.034400493
000120 57 18 50 bd c2 4c b9 3c 15 ab f1 3d 7e 7a f6 3d
       -0.050804462 0.022619609 0.118002094 0.12035082
000130 96 63 52 bd 71 d2 cb bd 69 7f ae 3d 6a 4f 5c 3d
       -0.051364504 -0.09952248 0.08520395 0.053786673
000140 a7 7f 8d 3c f7 1b 0a bd fb ca 2a be 0f 2d f4 bc
       0.017272783 -0.033718076 -0.16678993 -0.029806642
000150 80 33 2e 3d 27 5d 5a 3d 8b f9 99 3d 7e 62 e6 bd
       0.042529583 0.053311493 0.075183 -0.11249255
000160 81 35 87 bd 2d 9c 46 3d 10 f2 1d 3c 2e 36 ef bb
       -0.06602002 0.048488785 0.009640232 -0.00730016
000170 c2 66 e6 bb 61 b1 02 3d 91 88 26 3d eb a7 88 3d
       -0.0070312927 0.031907443 0.040657584 0.06672653
000180 2b 2e 27 3d 6c 7d a9 bd 58 57 e4 bd cb c5 aa bd
       0.040815514 -0.082758754 -0.11149472 -0.08338507
000190 ba 85 38 bd 71 31 80 3d 43 fb 9c 3d 4d 0b c6 3d
       -0.045049407 0.0625943 0.07665112 0.09670124
0001a0 d7 28 98 bd cd 36 c0 3d 79 c1 c1 3d 7c 0f 32 be
       -0.074296646 0.093854524 0.0946073 -0.1738872
0001b0 ea a6 00 bd 9d 96 59 3d b0 38 74 bc 04 ba 58 3d
       -0.03140918 0.05312215 -0.0149060935 0.052911773
0001c0 c5 10 bd 3c 54 e4 02 bd d7 49 80 bd 24 73 c5 bc
       0.023079285 -0.031956032 -0.06264084 -0.024102755
0001d0 15 78 6e 3d e7 73 a5 3c 1f c6 06 3d ac 92 0d 3e
       0.058219988 0.020196868 0.032903787 0.13825482
0001e0 37 27 86 bd ab 52 4e bc 11 7b e6 3c 81 33 04 be
       -0.065504484 -0.012592952 0.028134855 -0.12910272
0001f0 96 d4 de bd 8b af 42 3e 20 91 b3 bd 32 84 1e bc
       -0.10880391 0.19012277 -0.08767915 -0.0096750725
000200 2b b4 80 3d eb 94 98 bd bd 8b e5 bc 95 59 c2 bd
       0.06284364 -0.07450279 -0.028020734 -0.09489743
000210 82 6c 9b bd 3e 7f 71 bc 50 60 10 bd 80 2d 6b bb
       -0.075890556 -0.01473981 -0.0352481 -0.0035885274
000220 09 aa e0 3d 15 56 d3 3c b3 12 44 3d 81 d0 f7 3c
       0.10969932 0.025797883 0.047869395 0.03025079
000230 8f 20 4a 3d cb fe ba 3c b0 47 0c be d6 84 26 bd
       0.049347457 0.022826573 -0.13699222 -0.040654026
000240 58 d2 bf bb bd 71 1f bd 6e ec 48 bd 1e 25 a5 3d
       -0.0058539324 -0.03892683 -0.049053602 0.0806372
000250 da 86 19 be 52 73 a5 bb 25 2f 33 3d fb 08 1a 3c
       -0.14992848 -0.0050491476 0.043746132 0.009401555
000260 06 89 33 bc d1 0c 21 3d ce 8d ca bd 24 e6 01 bc
       -0.010957962 0.039318863 -0.09890328 -0.007928405
000270 66 2f 16 be 20 22 31 3d 82 24 8c bd 52 e7 e0 bc
       -0.14666519 0.043245435 -0.06842901 -0.027454052
000280 ed ba 73 bb 9d 48 2b 3d 98 f5 69 3d 6d 85 df 3d
       -0.0037190274 0.041817296 0.057118982 0.10914121
000290 f1 3f 57 3d 2b 97 02 be d8 57 29 3d b4 7c 22 3d
       0.052551214 -0.12752979 0.04134354 0.039669707
0002a0 b4 b5 8a bd d5 c5 88 bc ce b1 03 3e 62 11 0a be
       -0.06772938 -0.016695896 0.12860796 -0.13483194
0002b0 b9 15 f0 bd 3a 15 b8 bd 42 33 94 3d 46 c0 b4 bd
       -0.11722893 -0.08988424 0.07236339 -0.08825736
0002c0 ef 71 b1 bd 11 92 80 bc 36 73 98 3d 06 ca b4 3b
       -0.08664309 -0.01569465 0.0744385 0.005517247
0002d0 db f1 44 3d 54 53 9f bd a4 88 07 3d 49 be 26 3e
       0.048082214 -0.077795655 0.033089295 0.16283526
0002e0 31 9b 69 3d 20 fd 6d 3d 3c 46 81 bc 91 b0 9a bc
       0.057032768 0.058102727 -0.01578056 -0.018883022
0002f0 3a 79 f9 3d 16 d1 4a 3c e6 13 a2 bd 0f 8a af 3d
       0.12181325 0.012378952 -0.079139516 0.085712545
000300 e0 86 20 3b 55 ae 7c 3d 07 40 14 bd 45 20 36 bd
       0.0024494454 0.061689693 -0.036193874 -0.04446437
000310 1d fb a2 3d c2 ea ae 3d e2 23 f5 bc 8f a2 8d 3a
       0.07958052 0.0854087 -0.029924337 0.0010805893
000320 e0 c5 46 3d 37 8a 03 bc 37 5a 06 3e ec ef a7 3c
       0.048528552 -0.008028558 0.13120352 0.020500146
000330 89 ba eb 3a 17 8b 10 be b2 b4 e7 3b fe 6b 50 bc
       0.0017984669 -0.14115559 0.007071101 -0.01272106
000340 34 d9 14 bd 0a 85 a8 bc c0 71 29 ba b4 10 ba bd
       -0.036339954 -0.02057125 -0.00064637884 -0.09085217
000350 7a 76 3b bd 0a d9 a3 3b 5a f5 aa 3c 68 e9 d7 3c
       -0.045767285 0.0050002383 0.020868946 0.026356414
000360 fb 4c 09 bd 7e ed f5 bd 38 7f 99 bd ce 80 27 bd
       -0.03352068 -0.12008189 -0.07494968 -0.040894322
000370 6e e1 4b bc c1 8a 13 3e a8 56 02 bd 11 d4 2d 3d
       -0.012443883 0.14408399 -0.031820923 0.04243857
000380 b7 11 78 3d f0 1d a4 3d bb e3 26 be 92 73 36 bd
       0.06056377 0.080135226 -0.1629781 -0.04454381
000390 5b 16 53 3c 74 41 a9 bc 89 d2 46 3d 25 29 61 3d
       0.012883748 -0.020661093 0.048540626 0.05497088
0003a0 6f e3 a3 3d fe eb 5b bd a7 60 7e 3c a0 8e 4c 3b
       0.08002364 -0.053691857 0.015525973 0.003121294
0003b0 22 9f 6b 3d 5d b4 34 bd e5 fd d9 3d e3 b1 62 3d
       0.057524808 -0.04411732 0.1064413 0.055345427
0003c0 04 70 ab bd 6c 1d e0 3c 9d 2e bd bd 2f 4a 56 bd
       -0.08370975 0.02735778 -0.092374064 -0.05231684
0003d0 37 05 a5 3d 50 54 c2 bc 7b 05 68 bc 89 25 92 3c
       0.08057635 -0.023721844 -0.014161463 0.017840164
0003e0 c5 83 c4 bd 52 d4 32 3e 9f 11 08 3d ee 6f ac 3c
       -0.095954455 0.17463806 0.03321993 0.021049466
0003f0 a3 d7 cc 3c 37 66 71 3d 58 b7 7b bc 89 5b 2c 3d
       0.025005167 0.05893537 -0.015363537 0.042079482

residual_tower.blocks.2.conv1.bias f4 [8]
000000 30 07 ea 35 b8 cf d6 b5 c5 40 19 37 80 2d dc 35
       1.743645e-06 -1.6004697e-06 9.134591e-06 1.640452e-06
000010 67 10 fa b4 d1 11 14 b6 eb e3 82 34 b0 03 cd b5
       -4.6578063e-07 -2.206409e-06 2.438022e-07 -1.5274763e-06

residual_tower.blocks.2.bn1.weight f4 [8]
000000 a9 a7 32 3e d5 52 3c 3e 7d ed 10 3e 6c ae 42 3e
       0.1744677 0.18390973 0.14153095 0.19011849
000010 db 7b 38 3e 65 5b 32 3e d2 b6 03 3e ff 21 19 3e
       0.18015997 0.17417677 0.12862709 0.14954375

residual_tower.blocks.2.bn1.bias f4 [8]
000000 b1 05 c5 bc 2b 73 b7 bd 90 a5 ce bd 0d 63 01 be
       -0.024050565 -0.089575134 -0.10090172 -0.12635441
000010 43 05 d0 bd e4 fa 05 be 87 6b b7 bd b5 34 86 bc
       -0.101572536 -0.13083988 -0.08956056 -0.016382555

residual_tower.blocks.2.bn1.running_mean f4 [8]
000000 eb e5 a3 bd 10 dc b0 bc 14 87 89 bc 00 c1 15 3d
       -0.08002838 -0.021589309 -0.016788043 0.036561012
000010 05 81 97 be 19 92 87 3d 55 74 11 3d 8d 1e 08 3e
       -0.29590622 0.06619663 0.035511333 0.13292904

residual_tower.blocks.2.bn1.running_var f4 [8]
000000 a0 70 82 3c e4 59 b7 3c bd 2f 72 3c 45 db 85 3c
       0.015922844 0.02238173 0.0147818895 0.016339907
000010 de ab d2 3c 60 45 c7 3c 22 dd 2c 3c 2d b3 99 3c
       0.025716718 0.024325073 0.010550769 0.018762195
